runs/phoenix/DroneHoverBulletEnvWithAdversary-v0/ppo/2023-08-16__13-43-42/seed_13566/torch_save/model.pt (torch, 49538 bytes, 14 tensors)

obs_oms.mean f4 [34]
0	0x00000000	0.0
1	0x00000000	0.0
2	0x00000000	0.0
3	0x00000000	0.0
4	0x00000000	0.0
5	0x00000000	0.0
6	0x00000000	0.0
7	0x00000000	0.0
8	0x00000000	0.0
9	0x00000000	0.0
10	0x00000000	0.0
11	0x00000000	0.0
12	0x00000000	0.0
13	0x00000000	0.0
14	0x00000000	0.0
15	0x00000000	0.0
16	0x00000000	0.0
17	0x00000000	0.0
18	0x00000000	0.0
19	0x00000000	0.0
20	0x00000000	0.0
21	0x00000000	0.0
22	0x00000000	0.0
23	0x00000000	0.0
24	0x00000000	0.0
25	0x00000000	0.0
26	0x00000000	0.0
27	0x00000000	0.0
28	0x00000000	0.0
29	0x00000000	0.0
30	0x00000000	0.0
31	0x00000000	0.0
32	0x00000000	0.0
33	0x00000000	0.0

obs_oms.std f4 [34]
0	0x3f800000	1.0
1	0x3f800000	1.0
2	0x3f800000	1.0
3	0x3f800000	1.0
4	0x3f800000	1.0
5	0x3f800000	1.0
6	0x3f800000	1.0
7	0x3f800000	1.0
8	0x3f800000	1.0
9	0x3f800000	1.0
10	0x3f800000	1.0
11	0x3f800000	1.0
12	0x3f800000	1.0
13	0x3f800000	1.0
14	0x3f800000	1.0
15	0x3f800000	1.0
16	0x3f800000	1.0
17	0x3f800000	1.0
18	0x3f800000	1.0
19	0x3f800000	1.0
20	0x3f800000	1.0
21	0x3f800000	1.0
22	0x3f800000	1.0
23	0x3f800000	1.0
24	0x3f800000	1.0
25	0x3f800000	1.0
26	0x3f800000	1.0
27	0x3f800000	1.0
28	0x3f800000	1.0
29	0x3f800000	1.0
30	0x3f800000	1.0
31	0x3f800000	1.0
32	0x3f800000	1.0
33	0x3f800000	1.0

pi.log_std f4 [4]
0	0xbf317218	-0.6931472
1	0xbf317218	-0.6931472
2	0xbf317218	-0.6931472
3	0xbf317218	-0.6931472

pi.net.0.weight f4 [50, 34]
0	0xbd28baaf	-0.04119366
1	0xbd971e51	-0.07378829
2	0xbd1937f5	-0.03740688
3	0xbe1c6fbd	-0.15277
4	0x3d65ed1a	0.05613432
5	0x3dc2e1e7	0.09515744
6	0xbe0c159d	-0.1368012
7	0x3d307eb2	0.043089576
8	0xbd38eae2	-0.045145877
9	0xbdd16f37	-0.10226291
10	0xbe0ed49d	-0.13948293
11	0xbe14efc7	-0.14544593
12	0x3e1aa791	0.15102984
13	0xbd694126	-0.056946896
14	0x3dba6a63	0.09102323
15	0xbd9d81bd	-0.07690761
16	0xbe174c59	-0.14775218
17	0xbd87ef09	-0.06637389
18	0xbbc39320	-0.0059684664
19	0xbc83d47a	-0.016092528
20	0xbd38d969	-0.045129213
21	0x3bc12b72	0.0058950717
22	0xbdbcf72c	-0.09226832
23	0x3e1d4e7d	0.15361972
24	0x3e11a079	0.14221372
25	0xbdb633e5	-0.08896617
26	0x3e00a67b	0.12563507
27	0x3dbe6c45	0.092979945
28	0x3d42501b	0.047439676
29	0xbc9eed8d	-0.019400382
30	0x3e2944a6	0.16530094
31	0x3e0c9ff0	0.13732886
32	0x3d0fc58c	0.035100505
33	0xbdb59a0d	-0.088672735
34	0x3cd5f284	0.026116617
35	0x3c141a64	0.009039495
36	0xbd94c8e7	-0.072648816
37	0x3c8dfc5a	0.017332245
38	0xbddcbcc8	-0.10778195
39	0xbde67501	-0.112527855
40	0x3da26f77	0.079314165
41	0x3dd51546	0.10404448
42	0x3e1b3f5f	0.15160893
43	0x3e2b294f	0.16714977
44	0xbdd53860	-0.10411143
45	0xbdb017e2	-0.08598305
46	0x3e0d06fd	0.13772197
47	0xbc20b5e9	-0.009808996
48	0xbd5f2d15	-0.054486353
49	0xbe17e7b2	-0.14834478
50	0x3e0b70f3	0.13617305
51	0x3d084719	0.03327093
52	0xbe27ecb4	-0.16398889
53	0x3e2369a1	0.15958263
54	0x3c3c3a8f	0.011488571
55	0x3d8ec147	0.069704585
56	0x3db612be	0.088902935
57	0xbd6f7a54	-0.05846627
58	0x3e21d8a9	0.15805306
59	0xbd9db267	-0.07700043
60	0xbd3541ba	-0.044252135
61	0xbe12c347	-0.14332305
62	0x3d371225	0.04469504
63	0xbdbe9d46	-0.09307341
64	0x3d0e0e25	0.034681458
65	0x3e2da752	0.16958359
66	0x3d8ee106	0.069765136
67	0xbd976223	-0.07391765
68	0x3dd4d62f	0.10392415
69	0xbdd07599	-0.1017868
70	0xbe08a81d	-0.1334538
71	0xbda359f2	-0.0797614
72	0xbe1bb038	-0.15203941
73	0x3e1a9218	0.15094793
74	0x3de8288e	0.1133586
75	0x3d8930e5	0.06698779
76	0xbe0b1878	-0.13583553
77	0xbd17c45c	-0.037052497
78	0xbcd58dfa	-0.026068676
79	0xbe0f8641	-0.14016058
80	0xbdbc8b87	-0.092063
81	0x3db47213	0.088108204
82	0x3cd0e2ac	0.02549871
83	0xbdee8c08	-0.116478026
84	0xbdb64877	-0.0890054
85	0xbdca00f7	-0.09863465
86	0xbe1bf14c	-0.15228766
87	0xbdea91c7	-0.11453586
88	0xbdb6f574	-0.08933535
89	0x3e16e28d	0.1473486
90	0x3dcd4f4a	0.10024889
91	0x3c6a103c	0.014286097
92	0x3e119e98	0.14220655
93	0xbe12d179	-0.1433772
94	0x3e13a7de	0.14419505
95	0x3da7f2d3	0.08200612
96	0x3e11b4d8	0.14229143
97	0x3c96c607	0.018404974
98	0x3c7ad13e	0.015308676
99	0x3d6f9674	0.058493093
100	0xbdeebb34	-0.116568
101	0x3dd29149	0.10281617
102	0xbc923a32	-0.017850015
103	0xbdbd4e7f	-0.092434876
104	0x3c8c5ebe	0.01713502
105	0xbd6364d6	-0.055516087
106	0xbde33cf4	-0.1109561
107	0x3e2400b6	0.16015896
108	0xbdfa7530	-0.12229383
109	0x3d3ee2ea	0.04660312
110	0xbc7faf2d	-0.01560573
111	0x3daed9a2	0.08537604
112	0x3d3d50c0	0.046219587
113	0xbe29a22a	-0.16565767
114	0xbdb3ac25	-0.08773068
115	0xbddaecd9	-0.10689706
116	0x3dfa965a	0.122357085
117	0x3d8d9ced	0.06914697
118	0xbe1b2835	-0.15152057
119	0xbe1723f7	-0.14759813
120	0x3def71fa	0.11691661
121	0xbca79846	-0.020458352
122	0x3c9e6899	0.019336985
123	0xbe2b8e0c	-0.16753405
124	0xbdfd4f0e	-0.12368594
125	0xbe1178b3	-0.142062
126	0x3dabc8af	0.08387887
127	0x3e1f3f89	0.1555158
128	0x3dc01f8b	0.09381016
129	0x3d83e447	0.06440025
130	0x3e0009e6	0.12503776
131	0xbe158cac	-0.14604443
132	0xbd84a7f5	-0.06477348
133	0x3e04425b	0.12915938
134	0xbdb3614c	-0.08758792
135	0xbe007ec7	-0.12548362
136	0x3c381ff5	0.011238088
137	0xbd5670ad	-0.05235355
138	0x3c1f3da4	0.009719286
139	0xbd82fb2b	-0.06395563
140	0xbda627f2	-0.08113088
141	0xbe275f1f	-0.1634488
142	0xbe0893fc	-0.13337702
143	0xbd8f6afc	-0.070028275
144	0x3e2cf1d8	0.16889131
145	0x3de63d9e	0.11242221
146	0xbd557fa2	-0.052123673
147	0x3d24401c	0.040100202
148	0x3b8e0c37	0.004334952
149	0x3dad2f62	0.08456303
150	0xbcb1c99f	-0.021702586
151	0xbe13a905	-0.14419945
152	0xbd28b9ce	-0.041192822
153	0x3dd9ae2c	0.10628924
154	0x3d66677c	0.056251034
155	0x3dcc5cb1	0.09978617
156	0xbdf4419e	-0.11926578
157	0xbd029e89	-0.031889472
158	0x3c541573	0.012944567
159	0xbdd53d07	-0.10412031
160	0xbdb16021	-0.08660913
161	0xbd588dc1	-0.052869562
162	0x3c420004	0.011840824
163	0x3dec6397	0.11542433
164	0x3ddb73b3	0.10715427
165	0xbcb88bbe	-0.022527572
166	0x3d6a4dc7	0.05720308
167	0xbd84646e	-0.06464468
168	0xbdd72e13	-0.10506835
169	0xbcf9dc78	-0.030500636
170	0xbe00570e	-0.12533209
171	0xbdd0a49a	-0.10187645
172	0x3e049a2f	0.12949441
173	0x3e1f2c1a	0.15544167
174	0xbde731a9	-0.11288769
175	0xbdfc46b0	-0.1231817
176	0xbe10a69d	-0.14126058
177	0x3a2dae09	0.00066253595
178	0xbe25f498	-0.16206586
179	0xbbf145e6	-0.007363069
180	0x3e28206c	0.16418618
181	0x3d34711f	0.044053193
182	0xbade3ae2	-0.0016954804
183	0x3e264e7f	0.16240881
184	0xbd239e3c	-0.039945826
185	0x3dedd510	0.11612904
186	0x3de91faa	0.113829926
187	0xbdc4d977	-0.096117906
188	0xbdee9339	-0.11649174
189	0x3c9bbcb4	0.01901088
190	0x3d095836	0.03353139
191	0xbd007a68	-0.031366736
192	0xbe06e4c2	-0.13173202
193	0x3d2b5a09	0.04183391
194	0xbe0a0055	-0.13476689
195	0x3d4ff16b	0.050767343
196	0xbc844665	-0.016146848
197	0x3dd7cd83	0.10537245
198	0xbd2d3c7c	-0.04229401
199	0x3de806f6	0.11329453
200	0xbb91fca1	-0.0044551645
201	0x3ddea57b	0.10871407
202	0x3d97d14c	0.07412967
203	0xbd85bd81	-0.065302856
204	0x3d939124	0.07205418
205	0x3e1716c3	0.14754777
206	0xbe0e5576	-0.13899788
207	0x3e0fc24f	0.14038967
208	0x3e11d4ea	0.14241377
209	0xbd9f5d7a	-0.07781501
210	0xbe281b2b	-0.16416614
211	0x3d409e3d	0.047025908
212	0x3e18562c	0.14876622
213	0x3d8935d3	0.06699719
214	0x3cbc168b	0.022959968
215	0xbd3d5e10	-0.046232283
216	0x3e09d53d	0.1346025
217	0x3db650c3	0.08902123
218	0x3d747e30	0.059690654
219	0xbd0a6fc1	-0.033797983
220	0x3d67f7f5	0.056632955
221	0x3e0b6ea5	0.13616426
222	0xbde62c68	-0.112389386
223	0xbd99ba85	-0.07506279
224	0x3d7c21b9	0.061555598
225	0xbd25cc9d	-0.040478338
226	0xbe13b910	-0.14426064
227	0x3de919f9	0.11381907
228	0x3d9495d4	0.0725514
229	0x3dfeacb2	0.12435283
230	0xbe0f5627	-0.13997708
231	0x3da1ce7b	0.07900711
232	0x3d909db8	0.070613325
233	0xbdb57b78	-0.088614404
234	0x3d6bafdc	0.05754076
235	0x3e194303	0.14966969
236	0xbd17d7a7	-0.037070896
237	0xbe07c775	-0.1325968
238	0xbe27b0c2	-0.16376022
239	0x3c6e0690	0.014527932
240	0x3d88080b	0.06642159
241	0x3db6dad4	0.08928457
242	0x3e2403c7	0.16017066
243	0xbe1cd00a	-0.15313736
244	0x3e1221bb	0.1427068
245	0x3d669a03	0.05629922
246	0xbd2d369c	-0.042288408
247	0xbdf17ded	-0.117915966
248	0x3e166f01	0.14690782
249	0xbdc36ea9	-0.09542591
250	0x3b829b05	0.003985765
251	0xbe1de1f3	-0.15418224
252	0x3d780894	0.060555056
253	0xbdea12d9	-0.11429376
254	0xbd9db442	-0.07700397
255	0x3d97d042	0.07412769

pi.net.0.bias f4 [50]
0	0x3d258e77	0.04041907
1	0xbc290f78	-0.010318629
2	0x3d9c05b8	0.07618278
3	0xbdf3dfd2	-0.11907925
4	0xbdbd1391	-0.092322476
5	0x3d61f1b6	0.055162154
6	0xbdb826be	-0.089917645
7	0xbe27a8f6	-0.16373047
8	0xbe1ef2b5	-0.15522273
9	0xbe1feea5	-0.1561838
10	0xbd2ebe24	-0.0426618
11	0xbdd4c330	-0.103887916
12	0xbc6f85f2	-0.014619337
13	0x3d0ff9e0	0.03515041
14	0xbc738782	-0.014863851
15	0xbdaf4054	-0.085571915
16	0xbd4c1b02	-0.049830444
17	0x3bc44707	0.0059899124
18	0x3d82d481	0.06388188
19	0x3e233d7d	0.15941425
20	0x3d922aec	0.07137093
21	0x3cea1efb	0.028579226
22	0x3d945efb	0.072446786
23	0x3e2b69d6	0.16739592
24	0x3cace67f	0.021106003
25	0xbdc7beac	-0.09753165
26	0xbd74f642	-0.059805162
27	0xbd040add	-0.032236923
28	0x3e02e66d	0.12783213
29	0xbb9c4de1	-0.004770026
30	0xbddeb16e	-0.10873686
31	0xbe0623c8	-0.13099587
32	0xbd083f46	-0.033263467
33	0x3c42d46b	0.011891465
34	0xbe09ce0d	-0.13457508
35	0x3d6bb2c1	0.05754352
36	0x3e292762	0.1651893
37	0x3c51708b	0.01278318
38	0xbd20b2fe	-0.0392332
39	0x3df1f260	0.118138075
40	0xbc594038	-0.01325994
41	0xbe208870	-0.15677047
42	0xbd1502dc	-0.03637968
43	0xbddd2388	-0.10797793
44	0xbde85ba7	-0.11345606
45	0x3dff1cfa	0.12456699
46	0x3c9e5b43	0.019330626
47	0xbe191951	-0.14951064
48	0xbd909554	-0.07059732
49	0x3c6cadef	0.014445766

pi.net.2.weight f4 [50, 50]
0	0xbdf03ae2	-0.11729981
1	0x3b869bb8	0.0041079186
2	0xbca9edbe	-0.020743247
3	0xbe012460	-0.12611532
4	0x3d7f00b4	0.06225653
5	0x3d9ed8b9	0.0775618
6	0x3d09deeb	0.033659857
7	0x3dd67026	0.10470609
8	0xbdcf6259	-0.1012618
9	0x3cf6f964	0.030148216
10	0x3c5c50c0	0.013446987
11	0x3deea459	0.116524406
12	0x3d444715	0.04791935
13	0xbbb284bd	-0.0054479525
14	0xbdb0101c	-0.085968226
15	0xbd69f29b	-0.057116132
16	0xbbb2e74f	-0.005459703
17	0xbd6b8447	-0.057499196
18	0xbde1a88f	-0.11018478
19	0x3db12300	0.08649254
20	0xbe0a313e	-0.13495347
21	0x3d1ef5fb	0.038808804
22	0xbdbf26a1	-0.0933354
23	0x3e0d94ca	0.1382629
24	0xbdfa9cec	-0.12236962
25	0x3d505ad1	0.05086786
26	0xbd8582e2	-0.065191045
27	0x3b9667ce	0.004590011
28	0x3d6a061f	0.057134744
29	0x3dc72bf6	0.09725182
30	0x3c22cf48	0.009937115
31	0xbdaa083b	-0.08302351
32	0xbdc371cd	-0.0954319
33	0x3d155020	0.036453366
34	0x3e078cbd	0.13237281
35	0x3ca415c0	0.020029902
36	0xbdada120	-0.08477998
37	0x3d81fce6	0.06347065
38	0x3d9384e3	0.072030805
39	0xbc206f3d	-0.009792146
40	0x3c52706b	0.012844185
41	0x3e0c4021	0.13696338
42	0xbdf02393	-0.11725535
43	0x3de69686	0.11259179
44	0xbbe46247	-0.0069697234
45	0xbd7e7535	-0.062123496
46	0x3ca8cc92	0.02060536
47	0x3da5bbf0	0.08092487
48	0xbdd099bb	-0.10185572
49	0xbd08fdc7	-0.033445146
50	0x3e0f9287	0.1402074
51	0x3e0def4d	0.13860817
52	0xbdf6b13b	-0.12045523
53	0xbe00822c	-0.12549657
54	0xbd6f336a	-0.05839864
55	0x3d098bda	0.03358064
56	0xbbb87ded	-0.005630246
57	0x3ded5de3	0.11590173
58	0xbdf29e76	-0.1184663
59	0x3c6c82ba	0.0144354645
60	0x3dd03907	0.10167127
61	0x3d460067	0.048340227
62	0xbcbceec7	-0.023063077
63	0x3d2ebaba	0.042658545
64	0xbd791439	-0.0608103
65	0xbd2ed4a5	-0.042683262
66	0x3cb20259	0.021729635
67	0x3d28f5c2	0.041249998
68	0xbbd55d50	-0.006511368
69	0xbd401639	-0.046896193
70	0x3d8eedda	0.0697896
71	0xbdea1fa1	-0.11431814
72	0x3de542dd	0.11194394
73	0xbdc70300	-0.09717369
74	0x3d85156c	0.064982265
75	0x3d4ccdf0	0.050001085
76	0xbdd0b357	-0.10190456
77	0x3d8bb4fc	0.068216294
78	0x3d4160ba	0.047211386
79	0xbd807ffd	-0.06274412
80	0x3e0141c6	0.12622747
81	0x3dc7a3de	0.09748052
82	0x3d425027	0.04743972
83	0x3d81bf00	0.063352585
84	0x3ddea553	0.10871377
85	0x3ca03021	0.0195542
86	0x3c891cc8	0.016737357
87	0x3e0b149b	0.13582079
88	0x3dce4091	0.10070909
89	0x3d9555f6	0.072917864
90	0xbdd3aa07	-0.103351645
91	0x3d1fee31	0.039045516
92	0xbd72dc3a	-0.059292056
93	0x3d9bf8cf	0.07615816
94	0xbcece96f	-0.028919904
95	0x3dd8cbbc	0.10585734
96	0x3d162016	0.036651693
97	0xbd821dac	-0.06353316
98	0xbc96ae3b	-0.018393626
99	0x3db93a09	0.090442725
100	0xbcf72787	-0.030170215
101	0xbdf0d1b1	-0.117587455
102	0x3d2598ce	0.04042893
103	0x3dc74c4d	0.0973135
104	0x3d92e170	0.07171905
105	0xbda1829f	-0.07886242
106	0xbe026ef6	-0.1273764
107	0x3d926b81	0.07149411
108	0x3dc756d4	0.09733358
109	0xbd41a81b	-0.04727946
110	0xbdacbd7b	-0.08434578
111	0x3dc35586	0.09537797
112	0xbd02e3b0	-0.03195542
113	0xbd3f807a	-0.046753384
114	0x3c5e1e11	0.013556973
115	0x3e0e3f12	0.13891247
116	0xbdb39a96	-0.08769719
117	0x3df1a719	0.117994495
118	0xbd1d89a0	-0.038461328
119	0xbb13ab10	-0.002253238
120	0xbe05b20a	-0.13056198
121	0x3cc73ef9	0.02432202
122	0x3c85d4f4	0.016336896
123	0x3cd6fa9e	0.02624255
124	0xbd8275b7	-0.063701086
125	0x3d4ed815	0.05049904
126	0xbd0f87c8	-0.0350416
127	0x3cf271d7	0.029595299
128	0x3dd4874a	0.10377367
129	0x3d7c980d	0.061668444
130	0x3d3191b9	0.043351863
131	0xbd40c42c	-0.047062084
132	0x3c9abae3	0.018887943
133	0xbdc2ac08	-0.095054686
134	0xbd750b28	-0.059825093
135	0xbd6208b5	-0.055184085
136	0xbdc07d00	-0.09398842
137	0xbd50cb32	-0.050975032
138	0x3db7531a	0.08951397
139	0x3e057551	0.13033034
140	0x3dba2991	0.090899594
141	0xbe06b2b1	-0.13154103
142	0xbdba8477	-0.09107297
143	0xbd86ee9c	-0.0658848
144	0xbcac8c8a	-0.021063108
145	0xbc3caec0	-0.011516273
146	0x3d8a4025	0.06750516
147	0x3d71ce25	0.059034485
148	0xbd962e75	-0.0733308
149	0xbd01ed94	-0.031720713
150	0xbd468000	-0.048461914
151	0xbccd5868	-0.02506657
152	0x3e0a302b	0.13494937
153	0x3e04e9b1	0.12979771
154	0x3cffa42f	0.031206219
155	0xbdff5bc5	-0.124686755
156	0xbe0bfb8b	-0.13670175
157	0x3b9be369	0.004757334
158	0x3d6b891a	0.057503797
159	0x3ca7375d	0.020412141
160	0xbdb4915e	-0.08816789
161	0xbdfb872c	-0.12281641
162	0x3daec648	0.08533913
163	0x3db76d0e	0.089563474
164	0x3d39067d	0.045172203
165	0x3d22bb80	0.039729595
166	0xbc99220a	-0.018692989
167	0xbe04be47	-0.1296321
168	0x3d1fe818	0.0390397
169	0x3b8e7da9	0.004348476
170	0x3c5ce233	0.0134816645
171	0x3d4e7845	0.050407667
172	0xbb4a1632	-0.0030835983
173	0x3d165b41	0.03670812
174	0x3dbc9a57	0.092091255
175	0xbbb426c7	-0.0054977867
176	0xbdbd2d7d	-0.09237192
177	0x3d3e6c63	0.046490084
178	0x3e0bfe23	0.13671164
179	0xbd2e1943	-0.04250456
180	0x3d0e2412	0.034702368
181	0x3d8cc6f6	0.06873886
182	0xbe0f8bed	-0.14018221
183	0xbceeebd2	-0.029165182
184	0x3df57d91	0.119868405
185	0x3c8ad656	0.016947906
186	0xbdca4e77	-0.09878247
187	0x3d7e70a6	0.06211915
188	0xbcebe334	-0.028794862
189	0x3dc5e603	0.09663012
190	0x3e0f0682	0.13967326
191	0x3c8a83b6	0.016908508
192	0x3dd77cf9	0.105218835
193	0x3daa548c	0.08316907
194	0x3e03ddd6	0.12877592
195	0xbd9dc2a0	-0.077031374
196	0xbdfe2a99	-0.124104686
197	0xbda19fc8	-0.07891804
198	0x3e02e32e	0.12781975
199	0xbcf2d734	-0.029643632
200	0x3d746bb9	0.059673045
201	0x3d1e6bdd	0.038677085
202	0x3dbc1896	0.09184377
203	0x3d8905cf	0.06690561
204	0xbd543ff6	-0.05181881
205	0xbd825f1b	-0.06365796
206	0x3e07c528	0.13258803
207	0x3d72e285	0.059298057
208	0x3d61ca4e	0.055124573
209	0xbd531eab	-0.05154292
210	0x3d5af671	0.05345768
211	0xbe083fda	-0.13305607
212	0xbd8f927a	-0.0701036
213	0xbdb57fd0	-0.08862269
214	0xbd81fb51	-0.06346763
215	0x3d7b54b6	0.061360084
216	0xbd901b7a	-0.07036491
217	0xbdffaedd	-0.124845244
218	0x3d3696c9	0.044577394
219	0x3a99639f	0.0011702663
220	0x3dd46f15	0.1037275
221	0x3ced1c59	0.028944181
222	0xbd859adb	-0.06523677
223	0x3e0ebece	0.13939974
224	0xbcb081e5	-0.021546314
225	0x3db678d0	0.08909762
226	0xbd0051fe	-0.031328194
227	0x3de1fc90	0.110345006
228	0x3dae5582	0.08512403
229	0x3c9f0dcb	0.019415757
230	0x3dcff659	0.10154409
231	0x3d095bc5	0.033534784
232	0xbdc95334	-0.09830323
233	0x3bd5e264	0.006527232
234	0x3d693a50	0.056940377
235	0x3d436031	0.047699157
236	0x3e097ea8	0.13427222
237	0x3d9c9741	0.07646037
238	0xbdcafbeb	-0.09911331
239	0x3c0e9e66	0.008704757
240	0xbe060743	-0.13088708
241	0xbb059b0a	-0.00203866
242	0xbdfb95d1	-0.122844346
243	0xbdd3ef58	-0.103483856
244	0x3d0cc969	0.034371767
245	0x3db29fff	0.08721923
246	0xbdcd8aa5	-0.1003621
247	0xbdc54d3e	-0.096338734
248	0xbdbce285	-0.09222893
249	0xbe01d15e	-0.12677523
250	0xbc1ccdd1	-0.009570555
251	0x3e0b69fb	0.13614647
252	0x3d2e7585	0.042592544
253	0xbd59eff7	-0.053207364
254	0xbdcd7fc9	-0.10034139
255	0xbd2e6aea	-0.04258243

pi.net.2.bias f4 [50]
0	0xbce708c8	-0.02820243
1	0xbd8b77a5	-0.0680993
2	0x3cf029bc	0.029316776
3	0xbd7f85d1	-0.062383477
4	0x3d3f3bd5	0.04668792
5	0x3dba1ed2	0.0908791
6	0xbe0de497	-0.13856731
7	0x3de87824	0.1135104
8	0xbd6c38cd	-0.057671357
9	0x3d9a8025	0.07543973
10	0xbcf0f793	-0.029414928
11	0x3e0dbebc	0.1384229
12	0x3da5f311	0.08103002
13	0xbe0c4a67	-0.13700257
14	0xbcda6b64	-0.026662536
15	0xbcee9a1d	-0.029126221
16	0xbd4aface	-0.049555592
17	0x3d5404ac	0.051762268
18	0xbbeaec24	-0.0071692634
19	0x3e10938b	0.14118783
20	0xbdad1343	-0.084509395
21	0xbe023ecd	-0.12719269
22	0xbc3a2a81	-0.011362673
23	0xbdeb1f48	-0.11480576
24	0x3dbe8800	0.09303284
25	0x3d6b4dab	0.057447117
26	0xbd095ddf	-0.033536788
27	0x3b979d3c	0.004626898
28	0x3cda8725	0.02667577
29	0x3d830e9e	0.063992724
30	0xbdeca575	-0.11554996
31	0xbd8711fe	-0.065952286
32	0xbd5edcf7	-0.054409947
33	0xbdbd2944	-0.092363864
34	0x3e064844	0.13113505
35	0xbe0744f0	-0.13209891
36	0xbe0344be	-0.12819192
37	0xbd9f2785	-0.077712096
38	0x3c170a04	0.0092186965
39	0x3dec4afe	0.11537741
40	0x3d5a1090	0.05323845
41	0xbda72e37	-0.08163112
42	0xbab278b8	-0.0013616299
43	0xbc6da2e0	-0.014504164
44	0x3e0b905d	0.13629289
45	0xbdc06764	-0.0939472
46	0xbd5d50dd	-0.054032195
47	0xbbfec3db	-0.0077748126
48	0xbc79631e	-0.015221385
49	0x3df0e4ea	0.11762412

pi.net.4.weight f4 [4, 50]
0	0xbbb55d0f	-0.005534775
1	0x3da33e9f	0.079709284
2	0xbdaf8b6e	-0.08571516
3	0xbd47642f	-0.048679527
4	0x3db5592d	0.088548996
5	0x3cc1f2e2	0.023675386
6	0x3d2cc3ec	0.042179033
7	0x3cb70d2c	0.022345148
8	0xbdefe066	-0.117127225
9	0xbdb3c85b	-0.08778449
10	0x3d07d4f3	0.03316207
11	0x3dc8c052	0.09802307
12	0x3c0e5af1	0.008688674
13	0x3ddf39cd	0.108996965
14	0xbbb82f94	-0.005620906
15	0x3dda7376	0.10666554
16	0x3d4709fe	0.048593514
17	0x3d6caba7	0.057780888
18	0x3dd6b268	0.10483247
19	0x3de7a530	0.11310804
20	0xbdfd3798	-0.12364119
21	0xbccb178c	-0.024791501
22	0xbe02a21d	-0.12757154
23	0x3d0c5963	0.034264933
24	0xbd8fab6d	-0.07015119
25	0x3dc2ad0e	0.09505664
26	0x3d31340c	0.043262526
27	0x3de7b7e8	0.11314374
28	0xbde8f544	-0.11374906
29	0x3d42357a	0.04741428
30	0x3dc3a311	0.09552587
31	0xbcc47bcc	-0.023984812
32	0xbd064945	-0.03278472
33	0xbe0fcc92	-0.14042881
34	0xbe04547b	-0.12922852
35	0xbdeae41b	-0.11469289
36	0x3de5e8f2	0.112260714
37	0xbd7e33b6	-0.062061034
38	0xbdcae60b	-0.099071585
39	0xbd955d60	-0.072932005
40	0x3d9acdef	0.0755881
41	0x3dc191b8	0.09451622
42	0xbde067da	-0.10957308
43	0x3d0b3b8a	0.033992328
44	0x3dfdec6b	0.12398609
45	0xbc992af2	-0.018697236
46	0x3cf6ef1a	0.03014331
47	0xbd616ba4	-0.055034295
48	0xbb8d96b8	-0.0043209456
49	0x3e07fde5	0.13280447
50	0xbdedcbc8	-0.11611134
51	0xbdb4f152	-0.08835091
52	0xbdf861ff	-0.12128066
53	0xbdc30617	-0.09522646
54	0x3b2476d6	0.0025095246
55	0x3dea1aa7	0.11430865
56	0xbe095584	-0.13411528
57	0xbc9b8570	-0.018984526
58	0x3dd751d7	0.105136566
59	0x3d9e4b81	0.07729245
60	0x3d6493c2	0.055804975
61	0x3dd61639	0.104534574
62	0xbdbb541c	-0.09146902
63	0x3d2c28e4	0.042031184
64	0x3d97a36c	0.07404217
65	0xbcabc218	-0.020966575
66	0x3cf0bc2d	0.029386604
67	0xbd894072	-0.06701745
68	0xbcdb5bea	-0.026777226
69	0xbd4599f6	-0.04824253
70	0x3e0dc29c	0.13843769
71	0x3d96dfbf	0.07366895
72	0x3dec3a76	0.11534588
73	0xbe08c10c	-0.13354892
74	0x3d977638	0.07395595
75	0x3dbe9101	0.09305001
76	0xbdacf0de	-0.08444379
77	0xbda1f946	-0.07908873
78	0x3de57dcd	0.11205635
79	0xbd612192	-0.054963656
80	0x3e0fcec8	0.14043725
81	0xbd262dbd	-0.040570963
82	0xbd225aed	-0.039637495
83	0x3c2668ec	0.010156851
84	0x3d55399b	0.05205689
85	0x3cf95582	0.030436281
86	0x3d3f8056	0.04675325
87	0x3dee1d20	0.11626649
88	0xbe09138d	-0.13386364
89	0xbc4ca543	-0.012490573
90	0x3dde927e	0.10867785
91	0x3d9a5ff2	0.07537831
92	0xbc8b0cec	-0.016973935
93	0x3e00751a	0.1254467
94	0x3d0a7eb0	0.033812225
95	0x3da5d0f9	0.08096499
96	0x3d077849	0.033073697
97	0xbc983ef3	-0.018584704
98	0xbd7bb4f2	-0.06145186
99	0x3da8693d	0.082231976
100	0xbe0e3f7f	-0.1389141
101	0xbde01cbf	-0.10942983
102	0xbc246aad	-0.010035199
103	0x3e060a7a	0.13089934
104	0x3ca79158	0.020455047
105	0x3d882d54	0.06649271
106	0x3dc3c9b6	0.09559958
107	0xbd3fdbe8	-0.04684058
108	0xbdcc63a9	-0.09979946
109	0xbddb8ccf	-0.107202165
110	0x3de5456b	0.11194881
111	0xbddf2be3	-0.108970426
112	0xbdb7d131	-0.08975447
113	0xbbd20b83	-0.0064100637
114	0xbe0696e7	-0.13143502
115	0x3daf0e78	0.085476816
116	0x3db11ef8	0.08648485
117	0xbd863b33	-0.0655426
118	0xbcf2b6db	-0.029628208
119	0xbd731807	-0.059349086
120	0xbe0f68b8	-0.14004791
121	0xbaa58146	-0.0012627027
122	0x3ddabae1	0.106801756
123	0xbc344ef1	-0.011005149
124	0x3cde8048	0.027160779
125	0xbdae9b28	-0.085256875
126	0xbdcf2b42	-0.10115673
127	0x3dbf6637	0.09345668
128	0xbd09fb46	-0.0336869
129	0x3da9b50d	0.08286486
130	0x3da4701a	0.08029194
131	0xbd99e8bc	-0.07515094
132	0xbdb147ff	-0.0865631
133	0x3d95b3f6	0.073097154
134	0xbd150d5c	-0.036389694
135	0x3ad99f88	0.001660333
136	0xbced82e1	-0.028993072
137	0x3dac7efb	0.08422657
138	0xbe0e4c94	-0.138964
139	0x3cbd8321	0.023133816
140	0xbc8721a5	-0.016495535
141	0x3ce19eb6	0.0275415
142	0x3e01e013	0.12683134
143	0x3d32a9dc	0.04361902
144	0xbd94eeb9	-0.07272095
145	0xbe0fff12	-0.14062145
146	0xbce296f1	-0.027659865
147	0x3dcbc04d	0.09948788
148	0xbcdbed39	-0.026846515
149	0xbd7ed05f	-0.062210437
150	0x3db9ac15	0.09066025
151	0xbda266e0	-0.07929778
152	0xbe0e0ed8	-0.1387285
153	0xbcc21d19	-0.023695515
154	0xbd86709f	-0.065644495
155	0xbd0a2a47	-0.033731725
156	0xbe078cae	-0.13237259
157	0xbd6cd57a	-0.057820775
158	0xbd1bb5ce	-0.03801518
159	0xbc1bc45f	-0.009507268
160	0xbdbd10a1	-0.09231687
161	0xbcf773c1	-0.030206563
162	0xbd2cbe71	-0.042173807
163	0xbbc4adf7	-0.0060021835
164	0x3d19b6e7	0.037527945
165	0xbdb082f4	-0.08618727
166	0x3e093261	0.13398124
167	0xbe0b6b3e	-0.13615128
168	0xbdfdc9de	-0.12392019
169	0x3cf701b3	0.030152177
170	0xbd23a14a	-0.03994874
171	0x3daf3e89	0.085568495
172	0xbcc3a40f	-0.02388194
173	0x3d911179	0.07083411
174	0xbe0f2ebb	-0.1398267
175	0xbb8203a9	-0.0039677215
176	0xbd43c526	-0.047795437
177	0x3dbb85b6	0.09156363
178	0x3d54bf66	0.051940344
179	0x3d0f4508	0.034977943
180	0x3de4ebc0	0.11177778
181	0xbddc7310	-0.10764134
182	0x3d918ba4	0.071067125
183	0x3c9b0c8f	0.018926887
184	0x3d5dd67d	0.05415963
185	0x3c92a937	0.017902954
186	0x3e03dbd7	0.12876831
187	0x3dab3c19	0.08361072
188	0xbd7e9fcb	-0.06216411
189	0x3db5dc10	0.08879864
190	0xbcb06a22	-0.021534983
191	0xbd7f86ce	-0.06238442
192	0x3da4b12a	0.08041604
193	0xbd787f4a	-0.060668267
194	0xbb9992db	-0.004686696
195	0x3c96ada2	0.018393341
196	0xbd10ce1c	-0.03535281
197	0xbded9e13	-0.11602416
198	0x3b53b7bd	0.0032305561
199	0xbdf1753c	-0.11789939

pi.net.4.bias f4 [4]
0	0x3d45a8e2	0.048256762
1	0x3dafd162	0.085848585
2	0x3ba407f6	0.005005832
3	0xbdb8df35	-0.09026948

v.net.0.weight f4 [64, 34]
0	0xbd25ef52	-0.040511437
1	0xbdb8357b	-0.089945756
2	0xbcab76ce	-0.020930674
3	0xbe27b1da	-0.16376439
4	0x3ddd4b36	0.10805361
5	0x3da1af50	0.07894766
6	0x3dddf7ad	0.10838256
7	0x3e1dba83	0.1540318
8	0x3d6a9c17	0.057277765
9	0x3dc804c3	0.09766533
10	0xbde1f462	-0.110329404
11	0x3dd09f6c	0.10186657
12	0x3dfe354b	0.124125086
13	0x3de3860d	0.111095525
14	0x3dc2ace0	0.095056295
15	0x3d7f359b	0.06230698
16	0x3e0a0f8a	0.1348249
17	0xbe226b15	-0.15861161
18	0xbc5bad79	-0.013408058
19	0xbdb05df6	-0.086116716
20	0xbdb6b2e9	-0.08920843
21	0xbda26dde	-0.07931112
22	0x3c8a2c5b	0.016866853
23	0xbc47d750	-0.012197331
24	0xbcd50743	-0.02600444
25	0x3d40469a	0.04694233
26	0x3dfc80ab	0.12329229
27	0x3e11c860	0.14236593
28	0xbd495eb7	-0.049162593
29	0x3dd1019e	0.102053866
30	0x3ded6617	0.11591738
31	0xbdbf5ee0	-0.09344268
32	0xbdb430b1	-0.0879835
33	0xbe0da4d7	-0.13832413
34	0xbde54949	-0.11195619
35	0x3e27ce9f	0.16387413
36	0x3cff18b0	0.031139702
37	0x3dc50577	0.09620183
38	0x3def7bc6	0.1169353
39	0xbe2bcdd6	-0.16777739
40	0x3e278fb8	0.16363418
41	0xbe1562d3	-0.1458848
42	0xbd4d51d4	-0.050126866
43	0x3d491587	0.049092796
44	0xbd8abf0d	-0.06774721
45	0xbe14f486	-0.14546403
46	0x3dd91900	0.106004715
47	0xbe1bfd03	-0.15233235
48	0xbd9fc3a0	-0.078009844
49	0x3cc047bd	0.023471707
50	0x3e161619	0.14656867
51	0xbd9550fa	-0.07290836
52	0x3d5a335c	0.053271636
53	0x3d35189d	0.044212926
54	0x3e101cc1	0.14073469
55	0x3dc69c11	0.09697736
56	0xbe092b3e	-0.13395402
57	0x3e1430c2	0.14471725
58	0xbde96399	-0.1139595
59	0x3e286629	0.16445221
60	0x3ca8ed83	0.020621067
61	0x3e1b28cf	0.15152286
62	0xbe298d09	-0.16557707
63	0x3e1214e9	0.14265789
64	0xbdea8535	-0.114511885
65	0xbd5bfd9b	-0.053708654
66	0xbe07f871	-0.13278367
67	0x3ddf1f6a	0.10894664
68	0x3e15dd01	0.14635088
69	0xbe0167cf	-0.12637256
70	0x3e1fcc97	0.15605389
71	0xbd404b46	-0.046946786
72	0xbd912339	-0.07086796
73	0x3defc4cd	0.11707459
74	0xbdc982ef	-0.09839427
75	0x3e1d0581	0.15334131
76	0x3db43f29	0.08801109
77	0x3e0c8147	0.1372119
78	0xba801c04	-0.0009773974
79	0xbdbb61bb	-0.091495
80	0x3ce0c7bc	0.02743899
81	0x3dce090e	0.10060321
82	0xbd8ea584	-0.06965163
83	0x3e18ec0c	0.14933795
84	0x3dc5760e	0.09641658
85	0xbd20143b	-0.039081793
86	0x3b369b6d	0.0027863637
87	0xbc7917ce	-0.015203429
88	0x3e113b6a	0.14182821
89	0x3cc00741	0.023440959
90	0xbdf409a5	-0.11915902
91	0x3e08ee0c	0.13372058
92	0x3e122b57	0.14274345
93	0x3d823223	0.06357219
94	0x3de53e7b	0.11193558
95	0x3d024cf8	0.031811684
96	0x3d1ca55d	0.03824364
97	0x3d9f8de7	0.077907376
98	0x3cbb3bed	0.022855723
99	0x3df488eb	0.119401775
100	0x3d6d556d	0.057942796
101	0x3e067bd5	0.13133176
102	0xbcaf095d	-0.02136677
103	0xbb467b42	-0.003028587
104	0x3e2ca832	0.16861036
105	0xbae4b180	-0.0017447919
106	0xbdf1fe4b	-0.11816081
107	0x3d080860	0.033211112
108	0x3d9aff30	0.075682044
109	0x3e042eda	0.12908497
110	0x3de22892	0.110428944
111	0x3b32909b	0.0027246836
112	0xbe1dba63	-0.15403132
113	0xbda82cfc	-0.08211705
114	0xbd0d8132	-0.03454704
115	0xbda3e949	-0.0800348
116	0xbd6704b0	-0.056400955
117	0x3caa75fc	0.020808212
118	0x3b3190ba	0.002709432
119	0xbcc92502	-0.02455378
120	0xbd252fa6	-0.040328644
121	0x3ddb38e3	0.1070421
122	0x3d91ca01	0.07118607
123	0x3da162a1	0.0788014
124	0xbda491ab	-0.080355965
125	0xbe01b373	-0.1266611
126	0xbcbe2c81	-0.02321458
127	0x3d8963dd	0.067085005
128	0x3e083f9b	0.13305514
129	0xbd810304	-0.06299403
130	0x3cc0d657	0.023539705
131	0xbdb3402d	-0.08752475
132	0x3e243702	0.16036609
133	0x3dabcb42	0.08388378
134	0x3e1e5ac9	0.1546432
135	0xbccdb4d3	-0.025110638
136	0x3e03bffa	0.12866202
137	0xbbea9fc7	-0.00716016
138	0x3cfc5f55	0.030807177
139	0xbd917a2f	-0.07103383
140	0xbc6ab88f	-0.014326229
141	0xbdc003de	-0.093757376
142	0x3e2301e4	0.1591869
143	0x3cf8c1a0	0.030365765
144	0x3ad4ee7b	0.0016245389
145	0x3d22cc9f	0.039745923
146	0x3cc1d219	0.023659753
147	0xbe0c32b4	-0.13691217
148	0xbd86ae55	-0.0657622
149	0x3cf77e23	0.030211514
150	0x3db6dc20	0.08928704
151	0x3d11ad02	0.035565384
152	0xbcf57d66	-0.029967021
153	0x3e116482	0.14198497
154	0x3d9b9abf	0.07597875
155	0xbdf93fb8	-0.121703565
156	0x3daca674	0.08430186
157	0x3deb3566	0.11484794
158	0x3dd958e5	0.106126584
159	0x3e15f050	0.14642453
160	0x3e0bee81	0.13665201
161	0x3d8fad50	0.070154786
162	0x3c1c1f3b	0.00952893
163	0x3e0c45a7	0.13698445
164	0xbe2d1835	-0.16903765
165	0xbdf3e32c	-0.11908564
166	0x3d9c4fda	0.07632418
167	0xbd00adc5	-0.03141572
168	0x3d0ab41e	0.03386318
169	0xbe02a2fb	-0.12757485
170	0x3d93816d	0.072024204
171	0xbe29bb56	-0.16575369
172	0x3ddaac3f	0.106773846
173	0xbc0c72ef	-0.008572324
174	0x3d9ba666	0.07600097
175	0xbbed7c3f	-0.0072474773
176	0x3de6fc11	0.112785466
177	0xbdf91987	-0.12163072
178	0x3dc763ab	0.09735807
179	0x3db0a53a	0.086252645
180	0xbd9495dc	-0.07255146
181	0x3e0dfe69	0.13866581
182	0x3d6ac5d4	0.05731757
183	0x3d91dee8	0.07122594
184	0xbd8c5170	-0.068514705
185	0xbdd8efc1	-0.105926044
186	0x3daac4e8	0.08338338
187	0x3d847913	0.064684056
188	0xbbac1f21	-0.0052527343
189	0xbe16ecde	-0.14738795
190	0xbdaec171	-0.0853299
191	0x3db91841	0.09037829
192	0x3c39bcc1	0.011336506
193	0xbd284b8d	-0.041087676
194	0x3db11c06	0.08647923
195	0x3d84b177	0.06479161
196	0x3e12199a	0.14267579
197	0xbd119fc8	-0.03555277
198	0xbd967b36	-0.07347719
199	0x3e121b1e	0.14268157
200	0xbdb893e9	-0.090125866
201	0xbe151e06	-0.14562234
202	0x3e2eb996	0.17062983
203	0xbe2bf1e6	-0.16791496
204	0xbcb049da	-0.02151959
205	0xbe0fe6e2	-0.14052919
206	0x3df0b7a4	0.11753777
207	0xbc4cab38	-0.012491994
208	0xbe07ba0f	-0.1325457
209	0x3db2e6e4	0.08735445
210	0xbcdb9b8d	-0.02680757
211	0xbd27de49	-0.040983472
212	0x3e2dff93	0.16992025
213	0x3de1998a	0.110156134
214	0x3d4d8d7d	0.050183762
215	0xbd0b104c	-0.03395109
216	0x3e1522e8	0.14564097
217	0x3dc7830b	0.09741791
218	0x3d01c00f	0.031677302
219	0xbe2b4d96	-0.16728815
220	0xbe2d6005	-0.1693116
221	0x3b86e186	0.00411624
222	0xbdbde484	-0.092721015
223	0x3d4b494a	0.04963044
224	0xbe1dce20	-0.15410662
225	0x3dc64142	0.09680416
226	0xbe038e39	-0.12847222
227	0x3de14acd	0.11000595
228	0xbbd59aaa	-0.0065186815
229	0xbd652940	-0.055947542
230	0xbe08f9a2	-0.13376477
231	0xbd726ccb	-0.059185784
232	0xbe05f80e	-0.13082907
233	0xbd6a54a4	-0.057209626
234	0xbe129b83	-0.14317136
235	0x3dd042c0	0.101689816
236	0x3dd3eae8	0.10347539
237	0xbe1c0544	-0.15236384
238	0xbd7a5142	-0.06111265
239	0x3d41dad3	0.047327828
240	0xbdafc71b	-0.08582898
241	0x3dca6add	0.09883664
242	0x3dc139b6	0.094348356
243	0xbe09207b	-0.13391297
244	0xbe1e5005	-0.15460213
245	0xbd0d06e5	-0.034430403
246	0xbc4aaab2	-0.0123697985
247	0xbdad38b8	-0.08458084
248	0xbdf03e5c	-0.11730644
249	0x3e1f7bf4	0.15574628
250	0x3e2b4520	0.16725588
251	0xbe1d516b	-0.1536309
252	0x3c9f4408	0.01944162
253	0x3d8dcbf8	0.069236696
254	0x3d49187d	0.04909562
255	0xbca5eac1	-0.020253541

v.net.0.bias f4 [64]
0	0xbd3c2f1c	-0.045943365
1	0x3dd632ab	0.10458883
2	0xbdc0202d	-0.09381137
3	0x3d60f0be	0.05491709
4	0xbc32397c	-0.010877963
5	0x3db6b088	0.089203894
6	0xbc1c7177	-0.0095485365
7	0xbcc771b3	-0.024346208
8	0xbdafa6b9	-0.08576722
9	0xbe074894	-0.1321128
10	0x3cf6bd75	0.030119637
11	0x3dba1ff7	0.09088128
12	0x3dd6347d	0.1045923
13	0x3c635bb4	0.013876844
14	0xbdd95d68	-0.10613519
15	0x3e1bb67f	0.15206335
16	0xbe00d15e	-0.12579867
17	0xbe21d3be	-0.1580343
18	0xbde6ae90	-0.11263764
19	0x3c17641b	0.009240176
20	0xbdbba2ff	-0.091619484
21	0x3dc535ad	0.096293785
22	0x3de8c713	0.113660954
23	0xbd145720	-0.0362159
24	0x3de65b60	0.11247897
25	0x3d8b0ae8	0.067891896
26	0xbdfdb675	-0.123883165
27	0xbd9b9420	-0.07596612
28	0x3dae065e	0.08497308
29	0x3cd69b9d	0.02619725
30	0x3e0a0f7f	0.13482474
31	0x3e1158f7	0.14194094
32	0x3d81aa89	0.06331355
33	0x3bc6803b	0.0060577667
34	0xbd303f95	-0.043029387
35	0xbd727670	-0.059194982
36	0x3df91c5c	0.12163612
37	0xbe08561a	-0.13314095
38	0xbc8aedfa	-0.01695918
39	0x3de0f11c	0.10983488
40	0x3bb6ab8c	0.005574649
41	0xbe25ed70	-0.16203856
42	0x3ddeab91	0.108725674
43	0x3d891752	0.06693901
44	0xbc13248c	-0.008980881
45	0x3e13f959	0.14450587
46	0x3e1ea2c2	0.15491775
47	0xbe2f72af	-0.17133592
48	0x3df23d54	0.11828104
49	0xbe015456	-0.12629828
50	0x3d35842f	0.044315513
51	0xbddfc85f	-0.1092689
52	0x3e21efee	0.15814182
53	0xbdaec278	-0.08533186
54	0x3e12dae5	0.14341314
55	0x3d16413f	0.036683317
56	0x3db9b7ca	0.09068258
57	0xbe0f3bf9	-0.13987722
58	0xbd69ef85	-0.05711319
59	0x3d0a8e7f	0.0338273
60	0x3daddec1	0.084897526
61	0xbda7cb48	-0.0819307
62	0x3e09796b	0.13425224
63	0xbab7ea89	-0.0014031689

v.net.2.weight f4 [64, 64]
0	0xbdf60f3e	-0.12014626
1	0x3da8db54	0.082449585
2	0x3ccc73b0	0.024957508
3	0xbc690d00	-0.014224291
4	0x3d136ac8	0.035990506
5	0xbcb05008	-0.021522537
6	0xbc9bd620	-0.019023001
7	0xbd8b8a1a	-0.0681345
8	0x3df7f2cc	0.12106857
9	0x3d236ebc	0.039900526
10	0xbdc83604	-0.09775928
11	0x3d98f3c6	0.07468371
12	0xbdfd9b0c	-0.123830885
13	0xbd49ed8c	-0.049298808
14	0x3db93908	0.09044081
15	0xbd999314	-0.07498756
16	0xbc934eb0	-0.017981857
17	0x3d8b0a1e	0.06789039
18	0xbd6f0318	-0.05835256
19	0xbddd9662	-0.10819699
20	0x3dc442f4	0.09583083
21	0x3d38b3b8	0.04509327
22	0x3dd44abe	0.103658184
23	0x3da3c1a2	0.07995917
24	0x3d42ec54	0.04758866
25	0xbdc21f6c	-0.094786495
26	0xbd3e3c60	-0.046444297
27	0x3da5681a	0.080764964
28	0x3d936728	0.0719741
29	0xbcf87a08	-0.030331627
30	0x3da073bc	0.078345746
31	0x3d9c257a	0.076243356
32	0xbd028ea0	-0.0318743
33	0xbd1e71d0	-0.03868276
34	0x3d4e8ff0	0.05043024
35	0x3dbac016	0.09118669
36	0x3d80d4a6	0.062905595
37	0x3dc3ca2e	0.09560047
38	0x3c476a40	0.012171328
39	0xbce610a0	-0.0280841
40	0xbc29b900	-0.010359049
41	0x3af0b680	0.0018364936
42	0xbd32fe64	-0.043699637
43	0x3ba77f80	0.0051116347
44	0x3df37340	0.118872166
45	0xbd8ba776	-0.0681905
46	0xbd217bd4	-0.039424732
47	0xbd978482	-0.07398321
48	0xbdcb906e	-0.09939657
49	0xbd32c144	-0.043641344
50	0xbd3b0db0	-0.04566735
51	0xbc3b1c80	-0.011420369
52	0xbdc76684	-0.0973635
53	0x3da30e04	0.07961658
54	0x3da9d5c8	0.08292729
55	0x3dd41894	0.103562504
56	0xbdf1b05e	-0.118012175
57	0xbc812040	-0.015762448
58	0x3dacfed4	0.08447042
59	0xbdefaf00	-0.117033005
60	0xbdc4a5ea	-0.09601958
61	0x3df2e004	0.11859134
62	0x3defacde	0.11702894
63	0xbdbf3292	-0.093358174
64	0x3d295b4c	0.041346833
65	0xbbd29b00	-0.006427169
66	0x3c889780	0.016673803
67	0xbda0907e	-0.0784006
68	0x3b917a20	0.0044396073
69	0xbceab070	-0.028648585
70	0x3de02138	0.10943836
71	0xbcf23818	-0.029567763
72	0xbd56eee8	-0.052473933
73	0xbd3b0ae0	-0.045664668
74	0x3ca48b60	0.02008599
75	0xbd6dbc14	-0.058040693
76	0x3d3fdbfc	0.046840653
77	0x3d9a2414	0.075264126
78	0x3dbaf17a	0.09128089
79	0x3bee9220	0.007280603
80	0xbdaaea8a	-0.08345516
81	0xbca43f50	-0.020049721
82	0xbd9e5c22	-0.07732417
83	0x3cc869c0	0.024464488
84	0x3d8ded94	0.0693008
85	0x3dcf1382	0.10111143
86	0x3d8671cc	0.06564674
87	0xbd46e110	-0.04855448
88	0x3d5f06f8	0.054450005
89	0x3d9c9b6a	0.076468304
90	0x3d3e7c70	0.04650539
91	0xbdb404a6	-0.08789949
92	0x3d0e8d18	0.034802526
93	0x3d6296b8	0.055319518
94	0x3c1c1580	0.00952661
95	0xbdea3eae	-0.114377365
96	0x3cb24818	0.021762893
97	0xbdd089a0	-0.101825
98	0x3cda3e18	0.026640937
99	0xbce672f0	-0.028130978
100	0xbdc7b3a0	-0.097510576
101	0xbd558e9c	-0.052137956
102	0xbd5173cc	-0.051135823
103	0x3d0757f8	0.033042878
104	0xbda52ae8	-0.08064824
105	0x3d0696b0	0.03285855
106	0xbda6b2cc	-0.081395715
107	0x3d664148	0.0562146
108	0xbd15ec88	-0.036602527
109	0x3d40011c	0.046876058
110	0x3d682ec8	0.05668524
111	0x3d933ea6	0.071896836
112	0x3d5af4f8	0.053456277
113	0x3ca26630	0.019824117
114	0x3da3ebd6	0.080039665
115	0x3dae431a	0.08508892
116	0x3ced7a28	0.028988913
117	0xbda53b5e	-0.08067964
118	0x3dd8d788	0.10587984
119	0xbd832a3e	-0.064045414
120	0xbd881f72	-0.06646623
121	0xbb9a5780	-0.004710138
122	0x3ded5c68	0.11589891
123	0x3d85e9f8	0.065387666
124	0x3d597658	0.053091377
125	0xbdfd37d6	-0.123641655
126	0x3c359fd0	0.011085466
127	0x3db3c638	0.087780416
128	0x3c3a5cf0	0.011374697
129	0xbda94774	-0.08265582
130	0xbdaf19ce	-0.08549844
131	0xbd3a2880	-0.04544878
132	0xbdaa9c7e	-0.0833063
133	0x3d8420e0	0.06451583
134	0xbc472090	-0.01215376
135	0xbde3ecee	-0.11129175
136	0x3d9ba5a4	0.07599953
137	0x3d1b0a50	0.03785163
138	0x3d430698	0.04761371
139	0x3d1bbf78	0.038024396
140	0x3ccb76a8	0.024836853
141	0x3dca88a8	0.09889346
142	0xbd429838	-0.04750845
143	0x3c4de8e0	0.012567729
144	0xbd67fa4c	-0.056635186
145	0xbd933bac	-0.07189116
146	0xbdeeb2e8	-0.116552174
147	0xbdf99d6a	-0.121882275
148	0xbdb29a30	-0.08720815
149	0xbd6fd77c	-0.05855511
150	0xbdd6e960	-0.104937315
151	0xbcf32c28	-0.029684141
152	0x3df707ba	0.120620206
153	0x3d95604c	0.07293758
154	0xbd1043e0	-0.03522098
155	0xbd14e3e0	-0.03635013
156	0xbde79ba0	-0.1130898
157	0x3d3eb270	0.04655689
158	0xbdb6bff2	-0.089233294
159	0xbd967e32	-0.073482886
160	0x3d31d344	0.04341437
161	0xbd6adb08	-0.05733779
162	0xbdf28ec6	-0.11843638
163	0xbda7915a	-0.081820205
164	0xbda6588a	-0.08122356
165	0x3dee13a4	0.1162484
166	0xbdcdac8a	-0.10042675
167	0x3da9674a	0.08271654
168	0xbda9b444	-0.08286336
169	0xbdc1bcca	-0.09459837
170	0xbb2b8480	-0.0026171505
171	0x3cbb59e8	0.02287002
172	0xbcb777a8	-0.022395924
173	0x3d863fa8	0.0655511
174	0x3bcdbd60	0.006278679
175	0xbdc54c40	-0.09633684
176	0x3d94ac38	0.072594106
177	0x3c415f30	0.01180248
178	0xbdfd64f6	-0.123727724
179	0xbd03f520	-0.03221619
180	0xbd3817f4	-0.04494472
181	0x3d17725c	0.036974296
182	0x3da782ee	0.0817927
183	0x3d6a04cc	0.05713348
184	0x3d8707ac	0.0659326
185	0x3de60eb6	0.11233275
186	0xbdb64432	-0.08899726
187	0xbcf77210	-0.030205756
188	0xbd19f6e4	-0.03758897
189	0xbde1523c	-0.11002013
190	0xbdaacec6	-0.0834022
191	0xbd19208c	-0.037384555
192	0x3d03ce84	0.03217937
193	0x3cc4cc48	0.02402319
194	0xbd297608	-0.04137233
195	0xbde9ba8a	-0.11412533
196	0xbdd34588	-0.103159964
197	0x3dc1c4ac	0.0946134
198	0x3d8cc206	0.068729445
199	0xbd5ccaa0	-0.053904176
200	0xbdb5c026	-0.0887454
201	0x3db64abe	0.08900975
202	0xbcdd3640	-0.027003407
203	0x3db7b05e	0.08969186
204	0xbca381a8	-0.019959286
205	0x3c0ccc10	0.008593574
206	0xbd32e12c	-0.043671772
207	0xbddcfb1e	-0.10790084
208	0xbd8fb274	-0.07016459
209	0x3d3f08f8	0.046639413
210	0x3dc4f076	0.09616177
211	0xbc8b8430	-0.017030805
212	0xbde1b12c	-0.11020121
213	0xbd8ebd20	-0.069696665
214	0x3d3297ac	0.043601677
215	0x3df99b74	0.121878535
216	0x3da5cdb4	0.080958754
217	0x3dfce3fc	0.12348172
218	0x3d8180fa	0.063234285
219	0x3d9e6936	0.07734911
220	0x3d8a3678	0.0674867
221	0x3d6805b0	0.05664605
222	0x3d91a262	0.0711105
223	0x3dda6a7a	0.1066484
224	0x3b937240	0.0044997036
225	0x3d8f6ec4	0.07003549
226	0xbdbb6b42	-0.09151317
227	0x3d61e5c8	0.055150777
228	0x3c0c5850	0.008565977
229	0x3dead1e2	0.11465813
230	0xbd3c4094	-0.045960024
231	0x3df897a0	0.12138295
232	0x3bb89da0	0.0056340247
233	0xbd342df4	-0.043989137
234	0x3b9a0fe0	0.0047015995
235	0x3dd8ddd6	0.10589187
236	0xbdc9f8b4	-0.098618895
237	0x3c2c0f00	0.010501623
238	0x3cd3b380	0.025842428
239	0x3dd8c3f4	0.1058425
240	0xbdffcbc4	-0.12490037
241	0xbd9d4a9a	-0.07680245
242	0xbd2a2024	-0.041534558
243	0x3d04faec	0.03246586
244	0xbd208ad4	-0.039194897
245	0xbc9f9e78	-0.019484743
246	0x3d602aac	0.054728195
247	0x3d8552ea	0.06509955
248	0xbdb6f0fc	-0.08932683
249	0x3d804320	0.06262803
250	0xbdd1490e	-0.10219012
251	0xbdf6428a	-0.1202441
252	0xbcb9bd58	-0.022673294
253	0xbd762430	-0.060093105
254	0xbdc218f8	-0.09477419
255	0xbd35dbe0	-0.044399142

v.net.2.bias f4 [64]
0	0xbd560f74	-0.05226083
1	0xbdff3cf8	-0.12462801
2	0x3cead4a8	0.028665856
3	0x3b583f00	0.0032996535
4	0x3da39fc0	0.07989454
5	0xbdb9d9ea	-0.09074767
6	0xbd8f7d78	-0.07006353
7	0xbdaee41e	-0.08539604
8	0xbd9197ae	-0.07109009
9	0xbd678e54	-0.05653222
10	0xbd6c87b8	-0.05774662
11	0x3d6f0d10	0.058362067
12	0xbd2050e0	-0.03913963
13	0xbdab3996	-0.08360593
14	0x3b90be20	0.004417196
15	0x3cbe0d00	0.023199558
16	0xbddbde30	-0.10735738
17	0xbdfaa7c0	-0.12239027
18	0xbcb5c528	-0.022188738
19	0x3c9b2ef8	0.018943295
20	0xbddb86aa	-0.107190445
21	0xbc14ab70	-0.009074077
22	0x3df4680c	0.11933908
23	0x3d85ed26	0.06539373
24	0x3db5df00	0.088804245
25	0x3db89c76	0.090142176
26	0x3d1722f4	0.03689857
27	0x3dc64f3c	0.096830815
28	0xbd765f4c	-0.060149476
29	0xbd9d85ee	-0.07691561
30	0x3d91c88a	0.07118328
31	0x3df37e70	0.118893504
32	0xbd9e5840	-0.07731676
33	0xbd369db8	-0.044584006
34	0x3bebc720	0.0071953684
35	0xbdadb2c0	-0.084813595
36	0x3dbecd4c	0.09316501
37	0xbd286b60	-0.041118026
38	0x3dae629c	0.08514902
39	0x3dffee72	0.12496652
40	0xbd912f70	-0.07089126
41	0x3d721650	0.05910331
42	0xbc8c0888	-0.017093912
43	0xbdf1cff0	-0.11807239
44	0x3d4dd1a0	0.050248742
45	0xbce503e8	-0.027955964
46	0x3cc40300	0.023927212
47	0x3dd919ae	0.10600601
48	0xbdaf39c6	-0.08555941
49	0x3d6a17b4	0.05715151
50	0x3d8aa608	0.06769949
51	0xbb0cf700	-0.0021509528
52	0xbd899bea	-0.06719191
53	0xbd9458cc	-0.07243499
54	0xbd9766c4	-0.07392648
55	0xbde73ac2	-0.11290504
56	0x3df62d9a	0.120204166
57	0x3bd54200	0.006508112
58	0x3d8b4cd8	0.06801766
59	0xbdaa8d36	-0.08327715
60	0x3bd4d080	0.0064945817
61	0xbdc3c29c	-0.09558603
62	0xbd9382de	-0.07202695
63	0x3dbb107c	0.091340035

v.net.4.weight f4 [1, 64]
0	0x3d6dede8	0.058088213
1	0x3d6f0a50	0.058359444
2	0x3d92ff10	0.071775556
3	0xbd84c832	-0.06483497
4	0xbdea59da	-0.11442919
5	0xbd85383a	-0.06504865
6	0xbdfa5d14	-0.122247845
7	0x3d885180	0.0665617
8	0x3d58b0b0	0.052902877
9	0x3cedb888	0.029018655
10	0xbcece278	-0.028916582
11	0xbdf6de68	-0.120541394
12	0xbdb94074	-0.090454966
13	0x3df1c096	0.11804311
14	0xbc41a620	-0.011819392
15	0x3dde8f30	0.108671546
16	0xbd822f0a	-0.06356628
17	0xbdc252de	-0.09488462
18	0xbdfd2560	-0.12360644
19	0xbb675040	-0.0035295635
20	0x3c5435e0	0.012952298
21	0xbdb42816	-0.08796708
22	0xbc832818	-0.01601033
23	0x3df4cb16	0.11952798
24	0xbd99e57e	-0.07514475
25	0x3cb9d540	0.022684693
26	0x3cb4a980	0.02205348
27	0xbca8a6b8	-0.02058731
28	0x3dbdc9f4	0.09267035
29	0x3d1bae80	0.038008213
30	0xbd4d63e4	-0.05014409
31	0xbdf4cedc	-0.11953518
32	0xbd1148d0	-0.03546983
33	0xbdb2a0c2	-0.08722068
34	0x3df3b896	0.11900441
35	0xbdd20e42	-0.10256626
36	0xbd64455c	-0.05573021
37	0x3cfb0e78	0.030646548
38	0x3d278314	0.04089649
39	0x3dff2b56	0.124594375
40	0x3d621424	0.05519499
41	0xbc472c40	-0.012156546
42	0x3d9fc522	0.07801272
43	0x3d390960	0.045174956
44	0xbde006f4	-0.10938826
45	0xbd27a748	-0.040931016
46	0x3de84958	0.11342114
47	0xbdd701c0	-0.10498381
48	0xbcd94b10	-0.02652505
49	0x3de943e6	0.11389904
50	0x3de60ffc	0.112335175
51	0x3dd0fac0	0.10204077
52	0x3d6b6aec	0.057475016
53	0x3dc4661e	0.0958979
54	0xbdcbd8a4	-0.0995343
55	0xbd415d9c	-0.047208413
56	0x3dd23964	0.10264853
57	0x3d0c1bd8	0.03420624
58	0xbc02a780	-0.007974505
59	0xbd496dc4	-0.049176946
60	0x3d8751b8	0.066073835
61	0x3d5bf548	0.053700715
62	0x3d37ff80	0.0449214
63	0x3def438e	0.11682807
