runs/phoenix/DroneHoverBulletEnvWithAdversary-v0/ppo/2023-08-16__13-52-08/seed_14072/torch_save/model.pt (torch, 49538 bytes, 14 tensors)

obs_oms.mean f4 [34]
00000000: 0000 0000 0000 0000 0000 0000 0000 0000
00000010: 0000 0000 0000 0000 0000 0000 0000 0000
00000020: 0000 0000 0000 0000 0000 0000 0000 0000
00000030: 0000 0000 0000 0000 0000 0000 0000 0000
00000040: 0000 0000 0000 0000 0000 0000 0000 0000
00000050: 0000 0000 0000 0000 0000 0000 0000 0000
00000060: 0000 0000 0000 0000 0000 0000 0000 0000
00000070: 0000 0000 0000 0000 0000 0000 0000 0000
00000080: 0000 0000 0000 0000
0.0 0.0 0.0 0.0 0.0 0.0 0.0 0.0
0.0 0.0 0.0 0.0 0.0 0.0 0.0 0.0
0.0 0.0 0.0 0.0 0.0 0.0 0.0 0.0
0.0 0.0 0.0 0.0 0.0 0.0 0.0 0.0
0.0 0.0

obs_oms.std f4 [34]
00000000: 0000 803f 0000 803f 0000 803f 0000 803f
00000010: 0000 803f 0000 803f 0000 803f 0000 803f
00000020: 0000 803f 0000 803f 0000 803f 0000 803f
00000030: 0000 803f 0000 803f 0000 803f 0000 803f
00000040: 0000 803f 0000 803f 0000 803f 0000 803f
00000050: 0000 803f 0000 803f 0000 803f 0000 803f
00000060: 0000 803f 0000 803f 0000 803f 0000 803f
00000070: 0000 803f 0000 803f 0000 803f 0000 803f
00000080: 0000 803f 0000 803f
1.0 1.0 1.0 1.0 1.0 1.0 1.0 1.0
1.0 1.0 1.0 1.0 1.0 1.0 1.0 1.0
1.0 1.0 1.0 1.0 1.0 1.0 1.0 1.0
1.0 1.0 1.0 1.0 1.0 1.0 1.0 1.0
1.0 1.0

pi.log_std f4 [4]
00000000: 1872 31bf 1872 31bf 1872 31bf 1872 31bf
-0.6931472 -0.6931472 -0.6931472 -0.6931472

pi.net.0.weight f4 [50, 34]
00000000: 504d e6bc d851 c7bd 3beb e93c 82fc 80bb
00000010: 7caa 6c3d a444 b43c 1d9a b0bc b792 a1bc
00000020: 24eb 763d 220e 573b 160c 11be c6b2 f9bd
00000030: a3ff 5f3d 523e 013e d831 01be e09d 003e
00000040: 80fc 88bc 1119 0b3e 9f83 0fbe 5668 9bbd
00000050: 6a25 e63d ca7d fbbd 9484 4a3d 3e4c 8fbd
00000060: a94b 283d 1006 0ebe 577d 8bbd 8808 183d
00000070: 9803 01be 6003 27be cfdf d2bb c127 e43d
00000080: 4487 14be d15e 873d 9c2b b6bc bb87 45bc
00000090: 1dca 88bd 3279 ebbd 5507 483d 1197 063e
000000a0: 3257 6bbd 2063 80bd fa52 1b3c 1dce 7fbd
000000b0: a132 173e 7e4f 033e 0a1e 44bd 159f 843d
000000c0: 84a5 2e3e b7a1 d9bb 197a 1b3d 06fd f0bd
000000d0: 9848 c93c 6381 01be 1397 313d 8b9d 803d
000000e0: b15d f0b9 8549 16be aeb3 c83d 98ea 7d3c
000000f0: 3265 ae3d 7017 82bd 6f43 cd3d 39a2 8ebd
00000100: e471 f43d f1d4 f13d 3952 b73d d2cf 1b3e
00000110: 8dca e23d a231 fdbd aeca f03d 1337 3abd
00000120: 5e4f 0e3e 68b7 873d 1051 95bc a319 073e
00000130: 1f6d 84bd 4423 9b3d 377c ef3c 1226 e43d
00000140: 7490 2ebe 7457 29bd aa7b 7a3b 2456 cebd
00000150: 4471 103e 90a4 d63d 3341 21be 6b2d 863d
00000160: 1ad7 b23d 04a5 4fbc 662f 123e 3d3b e6bd
00000170: 1242 f03d 8275 d83c 0746 71bd 4c45 cd3d
00000180: 9a44 a0bd cb81 f5bd 99d8 b83d cec9 973d
00000190: 6ab4 9c3d 9f42 26be 559e 1c3d a0c8 333d
000001a0: 6585 a93d c093 6fbc 874d d1bd 5058 a03d
000001b0: a849 5f3d 37a4 103d a53c 5f3c 8548 213e
000001c0: 1f53 d83c db57 a33d 4b4b e5bc a923 2d3e
000001d0: 36c0 65bc 0d61 efbd aa50 55bd defb ddbd
000001e0: 9f3d 83bd a883 d63d 2da2 c6bd deef 6f3d
000001f0: 96fa 653d abd2 3abc 93f7 03be 87c8 e5bc
00000200: d1ce db3d f844 e5bd a224 c2bc 87a8 a43d
00000210: c206 9cbd c044 3a3c 5695 a03d 4dd2 6ebd
00000220: d3e7 08be 249b 18bd a938 0fbe e0db aebc
00000230: 4ea6 63bb 3d47 8a3c 4cdf 233a c634 103e
00000240: 14f4 c63d d5e4 2abe b88c e53c eed2 ebba
00000250: 8ce6 75bd 55b2 1b3e 3ee0 063e 7972 20be
00000260: 5f22 1abe 16a9 0abe 2d9c b33d a846 80bd
00000270: f58c cebb b614 28be 9e3c 22be ad3b e8bd
00000280: 2a4c 5fbd 024d e3bd b748 bc3d 96e6 b6bd
00000290: cc25 063e a6b6 35bd aa71 fa3d 6c23 49bb
000002a0: dc32 75bd e186 d53d 869d 3fbd 686f ccbc
000002b0: 5299 73bd a89c a23d 9a11 e53d 218e 91bd
000002c0: 2eab eabd a71b 7c3d 3929 983d aba7 283d
000002d0: 537b e63d 099e dbbb 6069 be3d 8fd0 023e
000002e0: bbb1 90bd 5354 83bd cb0c 253e 0133 d93d
000002f0: 0f92 1dbe 94a9 8e3d ff67 01bd 9393 05bd
00000300: ce16 17bd 1634 debd f65f 013e c40b 423d
00000310: b5b7 e23d ab0d 203d 1442 183e 20e2 10be
00000320: 49ab 1cbe 3798 e23d 6e9f 563d 3a94 79bd
00000330: fc83 023e 2174 083e 87aa 59bd 1cff 193d
00000340: c927 dd3d 5385 fd3d b8cb 293e fa60 1fbe
00000350: 982e d63d 5cea 103d 77c8 0bbe 2ddc 1bba
00000360: 2b79 0c3e 0625 273d a124 d43d b7fa 153e
00000370: 93ce f1bd 7b88 853d 8d76 143e 1047 d8bd
00000380: 19c1 7f3d 9043 ff3c ee85 4a3d fcb4 133e
00000390: 7670 dbbd d032 f93c f126 85bd 7e90 1abe
000003a0: 8705 723d 5070 06be c6e4 2bbe 75ad 02bc
000003b0: 60bf d73d 8b60 16bd b473 4ebd 368a af3d
000003c0: 388f e3bd 96a8 1a3e a87e 013d f412 acbb
000003d0: 7045 8a3d ded3 203e d01f c83d d2b4 27be
000003e0: d633 be3d f363 4e3d e629 07bb e02e 2ebd
000003f0: 9289 6bbd 89c3 e33d 035c 21be 23f3 2fbd
-0.028113037 -0.09732407 0.02855455 -0.0039363513 0.057779774 0.022005387 -0.021557862 -0.01972328
0.06028284 0.003281482 -0.14164767 -0.121923015 0.054687154 0.1262143 -0.1261667 0.12560225
-0.016721964 0.13583781 -0.14015053 -0.0758826 0.11237605 -0.12279852 0.049442843 -0.06996964
0.04108778 -0.138695 -0.06811016 0.03711751 -0.12599027 -0.16309881 -0.0064353715 0.11140395
-0.14504725 0.06609882 -0.022237591 -0.012056286 -0.06679175 -0.114977255 0.048835117 0.13143565
-0.057456203 -0.062689066 0.009480232 -0.062452424 0.14765407 0.12823293 -0.04788021 0.06475655
0.17055327 -0.0066415924 0.03795824 -0.117670104 0.024570748 -0.12647013 0.043356966 0.06280049
-0.00045846173 -0.14676483 0.09799896 0.015497826 0.08515395 -0.063521266 0.100226276 -0.06964535
0.119357854 0.118081935 0.089512296 0.15215996 0.1107379 -0.12362982 0.11757408 -0.04546268
0.13897464 0.06626779 -0.01822713 0.13193373 -0.06466126 0.07575086 0.029234035 0.11140074
-0.17047292 -0.041343167 0.0038220682 -0.10075024 0.14105707 0.104806066 -0.15747528 0.065516315
0.087324336 -0.01267362 0.14275894 -0.112417676 0.11731352 0.02642322 -0.058904674 0.10022983
-0.07825585 -0.11987647 0.09025688 0.07411538 0.07651599 -0.16236351 0.038236935 0.043892503
0.08277396 -0.014622629 -0.10219865 0.07829344 0.054513603 0.035312857 0.013625299 0.1575032
0.026406823 0.079757415 -0.027990004 0.16908135 -0.014022877 -0.11688433 -0.05207888 -0.108390555
-0.06408238 0.1047433 -0.09698901 0.058578365 0.05614718 -0.011402766 -0.12887411 -0.02804972
0.107328065 -0.11194795 -0.023699109 0.080399565 -0.076184765 0.01136893 0.078409836 -0.058306027
-0.13369684 -0.03725733 -0.13986458 -0.021345079 -0.0034736576 0.016879672 0.00062512304 0.14082631
0.09714523 -0.16688855 0.028021201 -0.0017991939 -0.06003432 0.15204747 0.13171479 -0.15668668
-0.15052174 -0.13541064 0.087700225 -0.062634766 -0.0063034245 -0.1641415 -0.15843436 -0.11339507
-0.054515995 -0.110986724 0.09193557 -0.089306995 0.13100356 -0.04436364 0.12228711 -0.003069128
-0.059862956 0.10426117 -0.046781085 -0.024955466 -0.05947239 0.07940036 0.11184998 -0.07107187
-0.11458431 0.06154981 0.074297376 0.041175526 0.11253991 -0.006702189 0.092974424 0.12774871
-0.070651494 -0.06412568 0.16118161 0.10605431 -0.15387748 0.06965938 -0.03159332 -0.03261144
-0.036886983 -0.10849778 0.12634262 0.0473745 0.110701956 0.039075535 0.14868957 -0.1414876
-0.15299715 0.11064189 0.052398138 -0.060932375 0.1274566 0.1332555 -0.053141143 0.037596807
0.10798604 0.12378945 0.16581619 -0.15564337 0.10458106 0.035379753 -0.1365069 -0.00059455895
0.13718097 0.040806793 0.10358549 0.14646421 -0.11806979 0.06520172 0.14498349 -0.10560429
0.06244001 0.031160146 0.04944413 0.14424509 -0.107148096 0.030419737 -0.06501568 -0.15094182
0.059087303 -0.13128781 -0.16786489 -0.007975926 0.10534549 -0.036713164 -0.05040331 0.085712835
-0.11111301 0.15103373 0.03161493 -0.005251283 0.067515254 0.15705821 0.09771693 -0.16377571
0.09287231 0.050388288 -0.0020624339 -0.042525172 -0.057504244 0.1112128 -0.15757756 -0.042956483

pi.net.0.bias f4 [50]
00000000: 3e5f 5f3d 63f5 923c 5cdd 5a3d f0fd ff3c
00000010: 53a4 1b3e 8025 6abb 2fd8 293e 81e9 b7bb
00000020: 5fae 1f3e 718a 853d 6315 283e 6afa d9bd
00000030: 0feb ccbc 7464 6d3d 481c 2a3e 9725 00be
00000040: f7e8 fb3d ed67 f4bd 7baa 1bbd 869d d4bd
00000050: 072d 9abd 3318 efbd e200 a5bd 1049 acbc
00000060: fb80 6c3d 9006 0e3e 69ed 7a3d 1172 2d3e
00000070: 0f37 c03a 3b9f 503c 0e78 dabd 453e b13d
00000080: 2e38 cd3d 897f 1e3c 9719 0bbe 7e13 02be
00000090: 9506 22bd b160 2ebe a4a8 1f3e c317 1d3e
000000a0: 1dc9 0cbe 7f84 e5bd 7cf4 d43d be0b 2f3d
000000b0: 3544 e8bd c143 f5bd 1c17 053d 4881 92bd
000000c0: 4505 fb3d f3e7 da3d
0.05453419 0.017939275 0.05343376 0.031249017 0.15199403 -0.0035727918 0.16586374 -0.0056125526
0.15593861 0.06520546 0.16414408 -0.10643466 -0.025014428 0.057957128 0.16612351 -0.1251434
0.12300294 -0.11933885 -0.03800438 -0.10381608 -0.075281195 -0.116745375 -0.08056809 -0.021030933
0.057740193 0.13869691 0.06126157 0.16938044 0.0014664846 0.012733276 -0.1066743 0.08654455
0.10020481 0.009673961 -0.1358398 -0.12702748 -0.03955706 -0.17029072 0.15591675 0.15341096
-0.13748594 -0.11206912 0.10398194 0.042735808 -0.113411345 -0.11975814 0.032492742 -0.07153565
0.122568645 0.10688772

pi.net.2.weight f4 [50, 50]
00000000: 58c7 c33c f39c cebd 0707 03bc 6ef4 813d
00000010: 01a2 9d3d a651 e7ba 510f 8c3d 3965 e13d
00000020: 2270 ca3d 320d 08be 318f 0fbe a2e7 21bd
00000030: 95b4 6a3d bad2 fa3d 7bce 3cbd 4ab9 4cbd
00000040: acb1 9fbd d762 87bb 185a c53d 1a0a a33d
00000050: 9921 c1bd 08c0 79bb 0eba c83c 9236 5a3c
00000060: 6129 603d 1f98 09be 89f8 bf3d 1903 0abe
00000070: be3e 1d3b 73bc 0fbe 4bfb fcbd 939c c0bd
00000080: 7e41 0ebe 32f3 cbbd 6308 243d 9d0e bebd
00000090: e8ae c93d bc6f e13d 40ba b9bc 5bd8 793c
000000a0: cc86 a63c 462b a33d 14e5 a9bd 16d2 9ebd
000000b0: df32 95bc 5178 f7bc 1f15 f4bc 323b 823d
000000c0: 9efe 9cbd 84be 87bd ac9b 61bd b8f7 b53d
000000d0: d0db 62bd 36aa a93c 65a6 d6bd a77f cbbd
000000e0: b7aa d63c 10fb 3cbd 87cf 993c 1609 06be
000000f0: d309 9bbd 6279 ed3d 878d 80bd 5721 81bd
00000100: 621d ebbd d401 8dbd 6ed0 953d 06cb 903d
00000110: 5062 663d 002c 6ebd d066 8d3c 21a1 8f3c
00000120: b2f6 f53d 54fa 4a3d a93f c93b 245a 49bd
00000130: da7a 993d 0cce a7bc 1639 0c3e e211 d73c
00000140: 141e b8bd e0aa 1fbc 6aa5 b33c e666 a63d
00000150: b87f 7dbb 2a99 5f3d d3a0 f93d 814d b13d
00000160: 7fe2 c0bd 4b83 c43d 6b1d f4bd b340 cf3c
00000170: 44b2 df3d c154 853b 08ed 973d 7fdb 043e
00000180: 7406 0d3e 2e3d c6bd cbab 9f3d 1931 9b3d
00000190: 481f b53d 88cf 4a3c 638a afbd 1657 003e
000001a0: 09a5 e7bd d4d4 d1bd 4776 a5bd 5326 4dbd
000001b0: 9a0e 8038 1998 6ebc cc8c 363d ff7c c4bc
000001c0: 2482 08be b17d e13c 8059 f9bc 189b a43d
000001d0: edd5 8d3d 7a0c 913d 40b3 7dbd 851a cb3c
000001e0: 6405 0ebe c7ac e93c 64ac 2e3d e6b8 04be
000001f0: 80d9 c03d e453 4c3d d2c0 d6bd 49e8 4d3d
00000200: 5149 d0bd 273f c3bd f354 0d3e 87a0 9dbd
00000210: 62db 9e3d 9ac7 89bd 8045 d73d 2892 d1bd
00000220: a0c0 57bd 0352 283d faea d1bd 21bd d33d
00000230: 3091 98ba e300 163d d38b 41bc cac9 0fbc
00000240: b79a 023d 0144 dcbd fcfd 24bd 777e 0bbe
00000250: 3198 b33d a539 983c 3126 5bbd 05bd c0bd
00000260: 34b2 07be 94b6 f63d 704c fa3d 7aa3 e9bb
00000270: ad39 62bc baba fa3d f2a5 9dbc 09bd dbbc
00000280: 2cd8 6fbd f7d7 a7bd 85fb 893c 3043 aabd
00000290: 8ff5 0f3c 6896 e63c f7d4 e33d 3152 dbbc
000002a0: e971 27bd 4be1 c33d 382e e23c 572d 06bd
000002b0: e71e 54bc 81e3 643d 5fc0 ebbd 1ef3 343d
000002c0: 011e 903d 887e 153d 64ec 9dbd c993 cebd
000002d0: 58e9 063d 57bd f53d c324 9fbd 0eb5 b73d
000002e0: 606a babd b1a0 01be 4923 b8bd f980 08bd
000002f0: 3b05 fa3d 3291 033b a3f9 cb3d 66fd e7bd
00000300: c79e e7bd 0a0e 12bc 095e fabc 15e2 8bbc
00000310: 0d78 0ebe f5c0 1d3d ed7f a23d 5310 a33d
00000320: 0d4c c33d 36fe 0d3e 52ff 8abd c0b4 7d3c
00000330: 8a6f e2bd 6642 18bd e665 bd3d e3f3 ddbc
00000340: c20d 92bc eb67 36bb 583d a0bd 59cd 1dbd
00000350: 2c00 a83d 2ef3 dabd 0aaf 15bc 06a1 fb3d
00000360: a797 de3c e2d7 093d e808 913b 1c0c b93d
00000370: 644f 183d 543d 6a3d c677 bbbd 259f c1bd
00000380: 9ac8 0ebe 7a86 03be f8f2 cfbd 200d 193d
00000390: b2ca 033e 101d 773d 8460 94bd 2cf6 b7bd
000003a0: ec25 dfbd 8ffb fd3d 03db ca3d 215d 333d
000003b0: ef0f db3b 71a2 61bd a2b8 ba3d 06fd 123d
000003c0: ce10 783d 0645 083e 0a9a dd3d e55e 6ebc
000003d0: 8f43 603c 332b 133d 5b2f 8ebd 7894 eb3d
000003e0: 2b28 b13d 8aac 49bd 309a 1d3d 4d6c fbbd
000003f0: fbec 9e3d 5b58 9f3d e810 6fbd 8e46 0e3e
0.023898765 -0.100885294 -0.007997281 0.063454494 0.076969154 -0.0017648234 0.06838859 0.11005635
0.09884669 -0.13286284 -0.14019467 -0.039527543 0.057301123 0.12247224 -0.046095353 -0.049981393
-0.0779756 -0.0041316557 0.09636325 0.07960911 -0.09430236 -0.0038108844 0.02450278 0.013318675
0.054726962 -0.13436936 0.09373576 -0.13477744 0.0023993696 -0.14036731 -0.12352618 -0.09404864
-0.13892171 -0.09958495 0.04004706 -0.09280131 0.09847814 0.1100764 -0.022671819 0.015249337
0.020327948 0.07967238 -0.08295646 -0.077549145 -0.018212734 -0.030208739 -0.029795228 0.06358947
-0.07665752 -0.06628135 -0.0550801 0.08885139 -0.05538541 0.020711046 -0.10480956 -0.09936457
0.02620445 -0.04613787 0.018775715 -0.13089404 -0.07570233 0.115954176 -0.06276994 -0.06305187
-0.11480214 -0.06885114 0.073151454 0.07069974 0.0562461 -0.05814743 0.017260939 0.017532887
0.12009944 0.049555138 0.006141622 -0.04915823 0.07494135 -0.020483993 0.13693652 0.026253644
-0.08990112 -0.00974533 0.021929462 0.08125095 -0.0038680863 0.054589428 0.12188878 0.08657361
-0.09418201 0.09595355 -0.119196735 0.025299406 0.10922673 0.0040689413 0.07418257 0.12974356
0.13771993 -0.09679638 0.07796439 0.07577724 0.08843857 0.012378581 -0.08571317 0.1253322
-0.11310775 -0.10245672 -0.080792 -0.050085377 6.1062354e-05 -0.01456263 0.044567868 -0.023985384
-0.13330895 0.027525755 -0.030438185 0.08037394 0.06925569 0.07082458 -0.061938524 0.024792919
-0.13869244 0.02852477 0.042644873 -0.12961158 0.09416485 0.04988469 -0.10485996 0.050270353
-0.10170234 -0.0953353 0.13801937 -0.07696634 0.07756688 -0.06727524 0.10511303 -0.10232955
-0.052673936 0.041093837 -0.10249896 0.10338808 -0.0011639949 0.03662194 -0.011813122 -0.008776138
0.03188583 -0.10755158 -0.04028128 -0.13622461 0.087692626 0.018582175 -0.05350322 -0.094110526
-0.13251573 0.12046543 0.122216105 -0.0071300836 -0.013807696 0.122426465 -0.019244168 -0.026823537
-0.058555767 -0.08195489 0.016843567 -0.08313596 0.008786573 0.028147891 0.11124604 -0.02677259
-0.040880118 0.095644556 0.02760993 -0.032758083 -0.012946821 0.055881027 -0.11511301 0.044177167
0.07036973 0.036497623 -0.077111036 -0.100867815 0.032937378 0.11999004 -0.077706836 0.0897008
-0.09102321 -0.12658955 -0.08991105 -0.033326123 0.12208029 0.0020075557 0.09959724 -0.11327629
-0.11309581 -0.00891448 -0.030562418 -0.017075578 -0.13912983 0.038514096 0.07934556 0.07962098
0.0953599 0.13866505 -0.0678698 0.015484989 -0.11056431 -0.037172697 0.09247951 -0.027093833
-0.017828826 -0.0027832936 -0.078242004 -0.038525913 0.08203158 -0.10690914 -0.009135971 0.12286572
0.027171923 0.033653148 0.0044261105 0.09035513 0.037185088 0.057187393 -0.09153704 -0.094541825
-0.13943711 -0.12844267 -0.101537645 0.037366033 0.12870291 0.06033045 -0.072449714 -0.089825004
-0.10895905 0.124014966 0.099050544 0.043789987 0.006685249 -0.055086557 0.09117247 0.035885833
0.0605629 0.1330758 0.10820396 -0.014548992 0.013687982 0.03592987 -0.06942626 0.115029275
0.086502396 -0.04923681 0.038477123 -0.12276516 0.07760044 0.07780524 -0.058365732 0.13894102

pi.net.2.bias f4 [50]
00000000: fc3a 133d a987 95bd 2f90 d4bd 98af f5bc
00000010: 8fac 2f3d ac26 df3d 4a05 d63c 5574 c83c
00000020: 3d0e 043e b74b ec3c 6ef5 d53d 9547 dcbd
00000030: 347b 2f3c 3cf8 893d b20d 86bd 6505 cb3d
00000040: 8536 213d 2b9e fc3d dab3 e3bd 39d6 c63d
00000050: d741 e6bb 2ad9 cc3d 590c c13d 1df9 443d
00000060: 56d9 8f3d 6acd 8d3d 8550 8fbd 1f99 e63d
00000070: 1b22 bd3d c5e2 e33d 2209 f43c 9520 e23d
00000080: be88 f1bd c39a 343d cb2a d1bc 5e13 8c3b
00000090: a58c 233b 8d3c 093d 746d 94bd d148 1f3d
000000a0: fa15 3e3d 5a36 bfbd a1bf 403d 774e b5bd
000000b0: 2fea 833d f47b 04bb 7b55 953d 62c3 adbb
000000c0: 2e86 5d3c 1d35 e13d
0.035944924 -0.07301266 -0.10379063 -0.029990956 0.042889174 0.10896048 0.026125569 0.024469534
0.12896056 0.028844697 0.104472026 -0.10755841 0.010710526 0.067368 -0.06545581 0.09913138
0.039358635 0.12334856 -0.11118288 0.097088285 -0.0070268917 0.10002358 0.09426183 0.048089135
0.070238754 0.06923945 -0.0699778 0.11259674 0.09235021 0.11127237 0.029789511 0.11041371
-0.117936596 0.044092905 -0.0255331 0.0042747697 0.0024955657 0.03350501 -0.07247439 0.038887803
0.046407677 -0.093365386 0.04705775 -0.088528566 0.06441151 -0.0020215483 0.07291695 -0.0053028325
0.01352076 0.10996459

pi.net.4.weight f4 [4, 50]
00000000: cb00 72bd bbd0 cabc 85a6 f2bc 83c8 eabd
00000010: f9a9 05be e4c2 03be 74ae d5bc 8aa9 153d
00000020: 47ab 07be 02bd b9bd 4ef9 003e d37d a73c
00000030: d4e0 debd 08d6 81bd a721 763d 217d 503c
00000040: 1ef7 cebd 9a12 b03d 67fd 76bd 9f20 0cbe
00000050: c937 8bbd 7bea f5bd 4ee9 9d3d 1295 df3d
00000060: aebd 823d c9e9 053e 8f75 803c 3e26 49bd
00000070: e895 d8bc 5ffe 9a3d 5c29 f6bd 19f8 d93d
00000080: 8b54 d73d 4b16 8dbd 981e 603d 5831 e93d
00000090: e6b1 ee3d 3619 f5bd a802 9fbd bfef cd3d
000000a0: f1c6 92bd 1263 c7bb 728d 52bd 1cc3 e0bd
000000b0: bacf 3d3d 536c ca3d 437a e13c 1d22 3d3d
000000c0: d3e8 783d 8479 8d3d 989d d03d 2fe8 93bd
000000d0: 4daa b6bd 8c72 ebbd 17dc 7ebd 7686 543d
000000e0: cb43 83bd d469 6fbc c563 91bd e76a 083e
000000f0: 6af1 efbd 88cb 17bd 7127 2cbd f8e4 0d3e
00000100: 434d 293d 5575 903c fa50 08bd 0077 9e3a
00000110: fe98 c23d 618d cabc 1d34 ce3d 80ce b8bd
00000120: 28fb 8e3d 258f 07be ebbb bcbd 14bf b83d
00000130: eb84 0cbe 9ccf 0ebe ce25 003e 3d37 53bd
00000140: 5fe7 d03d 191b 1a3d c3f8 96bd 24de b5bc
00000150: 4043 a83b a9d9 9c3d fe7e fd3d 3a0b c23d
00000160: c715 a53d 70c5 e03d a115 433d 3555 e1ba
00000170: d741 073e c871 adba 547a c6bc e3bb 973d
00000180: eac1 fabd 1718 be3d c017 0c3c a727 edbd
00000190: 1683 9b3d d3b5 cd3d 7df5 e43d 9a93 043e
000001a0: 257f 0abe b042 0ebc e852 39bd 311e 99bd
000001b0: 4bc3 0cbd 07b9 0ebe 7eb1 3abd 42b0 69bd
000001c0: eebb 44bd 005d 903d 6469 0c3e 4ef0 bdbc
000001d0: 8847 f0bd 9916 1d3d c472 543d ed4d 9fbc
000001e0: eeca 853d 4c4d ccbc 6ecb 083d bc7d 133d
000001f0: 9079 dfbd e322 8dbd f9d5 b53c 7866 d6bd
00000200: 2a02 8e3d 27b7 34bd a02c 473b 9c91 04bd
00000210: 2eb8 083e 7609 c93d 3dd9 443d a5fc 06be
00000220: 9451 d4bd ad97 9f3c 036c d63d ac44 53bd
00000230: daba ef3d 84e3 493d 01eb 913c ece7 9a3d
00000240: 15c4 e13a 1673 ffbd 7cea b7bd 8e11 353d
00000250: 7aa4 49bd 0ec2 03bd ac03 083d 1df9 013e
00000260: 7cc0 6dbd 322f 883b 91ca fb3d 8080 b7bc
00000270: 692d e7bd c416 923d 8361 e03d fd2c b83d
00000280: a04f f33d c1a8 f3bd f978 85bd d3e5 5e3a
00000290: b92b 023e 10bd b93d 194f 0fbe 9943 233c
000002a0: 1dc4 f0bd 7d32 d53d f1f0 2bbd 844e 05be
000002b0: a13c 093e 45b6 673c eeb8 893d 567e 81bd
000002c0: 0879 4abd 6bc4 edbd e20f adbd e92c 80bd
000002d0: a0a5 14bd 0688 d33d 9682 cdbb 29fa a8bd
000002e0: 364c 953d 1d30 f3bd c164 41bd bd19 6e3d
000002f0: 347d e13d 4189 febd de8f 003e de35 c93c
00000300: 789b 15bd f385 10bc 9992 0f3e 649c 13bd
00000310: cb58 05be 36a4 61bd 06ae 73bd 80bf 993d
-0.059082787 -0.024757734 -0.029620418 -0.11464026 -0.1305312 -0.12867314 -0.026084162 0.03653864
-0.13248931 -0.090692535 0.12595102 0.02044574 -0.10882726 -0.06339651 0.060090687 0.012725146
-0.101057276 0.08597298 -0.060300257 -0.13684319 -0.067977495 -0.12007614 0.07710515 0.10917105
0.06383835 0.13077463 0.015681056 -0.049108736 -0.026438668 0.07568049 -0.120196074 0.10643024
0.10514172 -0.06889018 0.054716676 0.11386365 0.11655025 -0.11967699 -0.077641785 0.100554936
-0.07166851 -0.006084808 -0.051404424 -0.10974714 0.04634068 0.098839425 0.02752412 0.04617511
0.060768913 0.06907943 0.101863086 -0.0722202 -0.08919201 -0.114964575 -0.062221613 0.051886044
-0.06409415 -0.014612634 -0.07099108 0.1332203 -0.11715968 -0.037059337 -0.0420298 0.13856876
0.04133345 0.017634073 -0.03328035 0.0012089908 0.09501837 -0.024725618 0.100685336 -0.09023762
0.06981498 -0.13238199 -0.0921553 0.0902082 -0.13722579 -0.13946384 0.12514421 -0.05156635
0.102003805 0.0376235 -0.07371666 -0.022200651 0.00513497 0.07658703 0.123777375 0.094747975
0.08060794 0.10975158 0.04762805 -0.0017191531 0.1320871 -0.0013232762 -0.024228252 0.074088834
-0.122440174 0.092819385 0.008550584 -0.11579829 0.07593362 0.10044446 0.11179636 0.1294693
-0.13525064 -0.008682892 -0.04524508 -0.07476462 -0.034365933 -0.1393777 -0.045579426 -0.05705286
-0.048030786 0.07048988 0.13712078 -0.023185875 -0.117323935 0.03835163 0.05186726 -0.019446338
0.065328464 -0.024939202 0.03339713 0.03600858 -0.10911858 -0.0689142 0.022196757 -0.10468763
0.069340065 -0.04411998 0.0030391589 -0.032365426 0.13351509 0.09816258 0.048058737 -0.13182314
-0.10367122 0.019481504 0.1046982 -0.051579162 0.11705561 0.04928924 0.017812254 0.07563767
0.0017224575 -0.12473123 -0.08980271 0.044206195 -0.049229123 -0.032167487 0.033206627 0.12692685
-0.058044896 0.0041560167 0.12294496 -0.02240014 -0.11287958 0.071332484 0.10956099 0.08992956
0.11880422 -0.11897422 -0.06517214 0.00085028744 0.12711991 0.09069264 -0.13995017 0.009964847
-0.11756156 0.104100205 -0.041977827 -0.13018233 0.13402034 0.014142578 0.06724726 -0.06322925
-0.04943183 -0.116097294 -0.08450295 -0.06258566 -0.036290765 0.10328679 -0.0062716706 -0.08250839
0.07289927 -0.11874411 -0.047215227 0.058130015 0.11010209 -0.12428523 0.12554881 0.024561819
-0.03652522 -0.0088209985 0.14020766 -0.036037818 -0.13022153 -0.055088244 -0.059492134 0.07507229

pi.net.4.bias f4 [4]
00000000: de94 073d 3c42 00be 4365 09bd b68b 52bd
0.033100955 -0.12525266 -0.033543836 -0.05140277

v.net.0.weight f4 [64, 34]
00000000: 3880 0a3c 981b eabd 8618 643d 4fc0 00be
00000010: 77ac 9d3d bb21 febd d789 2b3d e503 04bd
00000020: 3994 b6ba 79c9 dc3c b1cc e63d 82ee 68bd
00000030: 835e b83c ad04 c8bb f159 88bd d705 91bc
00000040: c1c3 4a3d 8165 9fbd d621 c23d cbeb 273d
00000050: 9647 2f3e 4cd4 443d eb92 bbbd f493 2bbe
00000060: f3ea 273e b271 593a 9141 4a3d 30c3 1dbe
00000070: c70d 253e 759e f63c 883b d83d 2c48 1fbe
00000080: ab78 19be 936e 153e 091d 5dbd 0489 a63d
00000090: 6ba0 d23d 2fc5 0bbd 4522 22be ba97 d9bd
000000a0: ff19 993d 6889 3d3b 0adc 21be e754 11bc
000000b0: 76eb 0cbe fcc3 783d 9b0c 963d d54a 12bc
000000c0: 1e8e a1bd 30d9 6a3d 0cd7 12be 38e6 0f3d
000000d0: 1f41 bd3d 9a2e 9c3d 2f78 233d 5539 ab3d
000000e0: f55b 143e 101e 36bd 30de 62bd 443e 83bd
000000f0: bfc6 5bbd 751f 743c a388 1cbd 6b7a 1e3e
00000100: 5b47 4a3d a0b9 d63d a268 51bd deaf d0bc
00000110: 425c b53d 5fa2 7d3d 663e 1c3e fffb 053d
00000120: 90cb dcbd 9975 05be 9bc1 25be 93ae e4bd
00000130: b369 923c 962f debd 0efd e13d 422a cbbd
00000140: f846 ddbd 7aed 24be 8880 8dbd 764d 023d
00000150: 217f 9c3d a90a 0cbe faa7 84bb 3a15 ae3d
00000160: e5e9 673d 1e89 bd3d a2d9 d9bd 0229 2cbe
00000170: 9c39 90bd ba85 28be f8b5 87bd 31b1 eebd
00000180: 33c6 8abd b7a0 b9bd e284 20bd 5392 e3bc
00000190: f472 223e 9115 483d 3896 933d 5371 043e
000001a0: deeb 2dbe 44a5 fd3c b8bc 4ebc e67d ce3d
000001b0: fe8b 01be 4bec 8c3d acb2 463d 0b1c d73d
000001c0: 2a9b aebd 21ce 08be 4503 1e3e 4dd3 113e
000001d0: f3fc 04be 13b0 0d3e f004 fbbd b331 b4bd
000001e0: 17c4 003e 8fb6 51bd 386a ed3d 85b5 073e
000001f0: 0c68 e93d 2436 22be 5d61 3d3d 906d 1dbe
00000200: 6c9c 81bd fe11 d3bd 18f2 c8bd 766f 9fbc
00000210: 021e 213c b650 d63d 0125 c13d fa7e bd3d
00000220: 06c7 be3d 9d53 d83d 050f aebc 7f18 463d
00000230: 8e2c df3d e7d1 1fbe e4a4 003e 15a4 04be
00000240: 68dd d2bd c731 d6bd 22a0 073e 6cb4 05be
00000250: addf f7bb 4092 18be d48c 093e 2f45 1fbe
00000260: 7af4 b1bd d6d7 a03d c41b efbd b282 86bd
00000270: a3b3 0fbe 8273 003e 59ee f23d 83e5 0cbe
00000280: d504 13be a6fd e73d 9311 eabd 21f5 88bd
00000290: a756 d7bd 7499 06be 3ac9 99bd 17f1 903b
000002a0: aa63 06bd 313f 253d bbc3 07be 1831 cdbd
000002b0: afab f3bd 94d4 b6bc 824e a03d 5b6c f0bd
000002c0: 39ff 293c 55b7 bebd bbb4 bfbd 1eaa bcbc
000002d0: 1096 aebd 988f e83d f045 80bd 1a91 fa3b
000002e0: 1466 1abe 2074 b73d b0f5 12bd 28f2 f53d
000002f0: 23c3 debc 8fa1 24be 3e96 a4bc 5df4 96bd
00000300: 7a31 fcbd b88f f13d f6d0 e23d af92 dfbd
00000310: ea15 31bd fc08 14bc 76ee 08bd 8547 00be
00000320: ac32 d93d ab8e 273e 3efb 063e be2d 03be
00000330: 8c6f ce3d cba7 3a3c b958 fbbd f187 933d
00000340: b956 2e3e d832 0cbe 6258 803d c687 5d3d
00000350: e00d 61bd b8c8 fc3d 1ec1 5dbd 01de df3d
00000360: 989b 093e e192 e2bc e27e f93d bdcc 11bd
00000370: b3ca 853d 4a41 22be c55e 1d3e 2e16 093e
00000380: bb08 c73d 5596 cd3d d22d 2dbd d6d8 4c3d
00000390: 85fa 0bbe 5dd5 143e 7c56 95bd d134 76bc
000003a0: a988 d83d b513 743c 3fcb 06be 7a3d 843c
000003b0: 5eab 0e3b 8274 50bd e98f 2d3e 34f7 ca3d
000003c0: 31d4 313d 0ff7 b6bd 8d50 1e3e fdc1 023e
000003d0: fcd8 5a3d 12ad 95bd ea80 e4bd 3b7f 22bd
000003e0: 5966 a33c 7433 13be ff10 b93c 6975 eb3d
000003f0: 8772 fcbd 4ca5 63bd 886f 923b 25db 753d
0.008453421 -0.11431044 0.05568745 -0.1257336 0.07698911 -0.12408777 0.0418795 -0.032230277
-0.0013929672 0.026951538 0.112695105 -0.056868084 0.022506004 -0.006104073 -0.0665778 -0.01770298
0.04950309 -0.07783032 0.0947911 0.040996354 0.17117152 0.048054025 -0.09158882 -0.16755658
0.1639822 0.0008294835 0.049378935 -0.1540649 0.16118537 0.030104855 0.1055823 -0.15554875
-0.14987437 0.14592962 -0.05398277 0.081316024 0.102845035 -0.034123596 -0.15833385 -0.10624643
0.074756615 0.0028921012 -0.15806594 -0.00887034 -0.13761696 0.06073378 0.07326623 -0.008928974
-0.07888435 0.057336032 -0.14339846 0.035131663 0.092409365 0.07626076 0.039909538 0.083605446
0.14488204 -0.044462264 -0.055387676 -0.064083606 -0.053656336 0.014900078 -0.038216244 0.15476386
0.049384456 0.10484624 -0.051125176 -0.025474485 0.088554874 0.061922427 0.15258178 0.032711025
-0.10781014 -0.13033141 -0.16187136 -0.1116611 0.017872667 -0.1084892 0.110345945 -0.099201694
-0.10804552 -0.16106215 -0.06909281 0.031812154 0.076414354 -0.13675942 -0.0040483447 0.085001424
0.056619544 0.09254669 -0.10637213 -0.16812518 -0.07042238 -0.16457263 -0.06626505 -0.1165489
-0.06776085 -0.09063857 -0.039189227 -0.027779734 0.15864164 0.048848692 0.07206386 0.12933855
-0.16984507 0.030962594 -0.012618236 0.10082607 -0.12651059 0.06881007 0.04851024 0.10503396
-0.08525689 -0.13359882 0.15430935 0.14240761 -0.12987117 0.13836698 -0.12256801 -0.08798542
0.12574802 -0.051199492 0.11592525 0.13252838 0.113967985 -0.15840966 0.04623543 -0.15373826
-0.06328663 -0.10306166 -0.09811801 -0.019462328 0.009833815 0.10464613 0.09430886 0.092527345
0.093153045 0.10562823 -0.021247396 0.048363205 0.1089717 -0.15607415 0.12562901 -0.12953217
-0.10296136 -0.10458713 0.1324468 -0.13057107 -0.007564506 -0.1489954 0.13432628 -0.15553735
-0.08689208 0.078536674 -0.11675218 -0.06567897 -0.1403337 0.12544063 0.118618675 -0.13759427
-0.14357312 0.113276765 -0.11429133 -0.0668738 -0.105145745 -0.13144475 -0.07509084 0.0044232714
-0.03280989 0.040343467 -0.13258259 -0.100191295 -0.118979804 -0.022318162 0.07827474 -0.11739417
0.010375791 -0.093123116 -0.093606435 -0.023030337 -0.08524716 0.11355513 -0.062633395 0.007646692
-0.15078002 0.08957696 -0.035878837 0.12009078 -0.027192658 -0.16077255 -0.020091172 -0.07370827
-0.123141244 0.1179499 0.110750124 -0.109166496 -0.04323379 -0.009035345 -0.03343054 -0.12527283
0.10605368 0.16363017 0.13181779 -0.12810418 0.1007987 0.011392544 -0.12272782 0.07203663
0.1702527 -0.1369127 0.06266858 0.05408456 -0.054944873 0.123429716 -0.05413925 0.10931016
0.1343826 -0.027657928 0.12182404 -0.035595644 0.065328024 -0.15845218 0.15368183 0.13387367
0.09718462 0.10038439 -0.042280026 0.05001148 -0.13669784 0.14534517 -0.07291886 -0.015027241
0.10572941 0.014897277 -0.1316347 0.016142596 0.0021769623 -0.05089236 0.16949429 0.099104315
0.043415252 -0.089338414 0.15460415 0.12769313 0.05342959 -0.07308401 -0.11157401 -0.039672118
0.019946264 -0.14375097 0.022591112 0.114970036 -0.12326532 -0.05557756 0.004468862 0.060023446

v.net.0.bias f4 [64]
00000000: b31d abbd b2cd 14bd e58f 0a3e 6bf3 55bd
00000010: af5e 2a3d 545b 61bd feba 8dbd 6bf5 f63d
00000020: c1af e7ba 647b f7bd 74d8 8abd 6467 14be
00000030: 8c67 a5bd 041a 4fbc d8b4 d1bc 501e 353d
00000040: e932 093a 23a2 283e ff48 0a3d 0890 efbd
00000050: 1195 8d3c 0e37 d23d 9d0b f8bd 2336 9c3d
00000060: 4bb3 16bb cfba 2a3e f1cb 93bd 72be 97bc
00000070: 9c01 c1bd 976d f5bd c938 263d b925 d93c
00000080: 555b 803d aab7 58bd cf63 2f3e 148d f0bd
00000090: a171 c3bd 748b 143d dfaf 18bd e637 aebd
000000a0: f530 2b3e cf05 cf3d ca4e 49bd 1d8f d3bd
000000b0: 308b 5a3d 256b 7c3d 5d75 2f3c 1838 213e
000000c0: cb38 e13c 8482 863b eb30 4c3d 16f5 cdbd
000000d0: 650a c2bc fa28 11bd 90de 2bbc 0e97 533d
000000e0: 3d3e 0cbe d776 86bd e343 253d e9ee acbd
000000f0: 5d3b 313d 8285 e33c e9e2 1c3b 77f1 843d
-0.08355274 -0.03632898 0.13531454 -0.052234095 0.041594204 -0.055018738 -0.069204316 0.120585285
-0.001767628 -0.12084082 -0.067795664 -0.14492565 -0.080763906 -0.01264048 -0.025598928 0.04421836
0.00052337215 0.164681 0.03376102 -0.11697394 0.017282994 0.10264407 -0.1211159 0.07627513
-0.002299505 0.16672824 -0.07216633 -0.018523429 -0.09424135 -0.11983793 0.0405815 0.026507245
0.0626742 -0.05290953 0.17127918 -0.117456585 -0.09543157 0.036265805 -0.0372771 -0.085067555
0.16717894 0.1010853 -0.049147405 -0.10330031 0.053355396 0.06162562 0.010709134 0.15744054
0.027492901 0.004104914 0.04985134 -0.10056512 -0.023686597 -0.03543947 -0.010490075 0.05165773
-0.13695617 -0.06565636 0.040347945 -0.08444006 0.043269504 0.027773622 0.002393896 0.06491368

v.net.2.weight f4 [64, 64]
00000000: e2b7 b33d ec04 423d 6cd3 fa3d c00d 8bbb
00000010: f0d6 c1bc 6210 84bd c055 fcbc 2a8c ee3d
00000020: 3cd2 4d3d faa6 9ebd 2ac6 c13d 822d a3bd
00000030: 9e5e cd3d 668a aabd 145e df3d c80d b53c
00000040: fc98 8fbd 9052 3ebc 5ada a23d c8b3 a2bc
00000050: b85e e0bc d0ef c23c 34b5 e53d a461 dfbd
00000060: 669e 90bd c237 e93d 22ca eebd f013 033c
00000070: e4a7 8fbd 3a1e cb3d c0a7 423d 1204 9ebd
00000080: d050 4bbc 3084 393d 8472 21bd 38db 19bd
00000090: 9444 1d3d 1a1e babd cacb e63d ba9d e43d
000000a0: 965d d33d 0e43 9b3d b498 b33d 6609 99bd
000000b0: 4458 de3d c8f3 603d 0000 a93a 4000 0f3b
000000c0: 4859 18bd aa07 a03d c62e cc3d b8b9 8cbc
000000d0: d035 a03c f8d8 423d fa38 c33d 2417 7b3d
000000e0: 9a98 acbd e0c7 91bb 5050 953c 96fb 87bd
000000f0: b4f6 be3d b297 983d d8ed 9bbd 627d bb3d
00000100: 944b b5bd 1a7a cabd ac55 f43d 709e 57bc
00000110: 98e0 ebbd 7c54 34bd 7a48 b63d d896 d23d
00000120: 965e 8a3d 92d4 d83d e874 6abd 8852 d43c
00000130: ccd3 1a3d e0c1 29bd 8033 f13a 28cb 3abd
00000140: 206d 2c3c 888f 913d 005f e5bd 3842 ac3d
00000150: 100a 53bd 6452 fc3d 56ad eebd 60d0 bc3c
00000160: b491 783d 90d7 49bc 4208 a93d d63e cdbd
00000170: a4da 223d 480f d2bc 20b1 fbbc 208e e4bc
00000180: 3299 cb3d 9a3e ffbd 869e a8bd a22d b83d
00000190: 4e3d dfbd 809b f4bc 006f bcbd 00fd ab3c
000001a0: 1056 483c 30da c0bc 8875 f4bc a8a4 e7bc
000001b0: 1807 ad3d 90f1 243d 04d1 7a3d b809 aabc
000001c0: 7641 cebd 58b8 913d b82f bbbd 96a9 953d
000001d0: 6cf6 08bd 02fd ffbd bc29 873d 8087 2dbc
000001e0: 04f0 9c3d c08c 50bd 48f8 9c3d 9859 c8bc
000001f0: aa63 893d 5c4a 0c3d 3ec6 e2bd 4017 1a3c
00000200: cc3e 83bd d0d7 06bd 0a58 87bd 6478 543d
00000210: 5067 c43c d8f2 183d e013 a8bc 3c57 a5bd
00000220: 02ed ebbd 8a23 ed3d d270 c13d 7800 b3bc
00000230: 20eb 08bd d886 fcbd 7843 ba3d 64f2 763d
00000240: 5827 fabc 964f 91bd 18c8 9ebc e00c 40bd
00000250: 28dc 74bd 582e 9e3c ee94 ad3d 48e9 483d
00000260: 60d8 2d3d a8d0 dabd ba5d e03d 5063 063c
00000270: 54f6 923d f0e2 acbd d81a bf3c 60d6 ff3c
00000280: 007e a2b9 9065 8cbc 2891 953d f0c4 313d
00000290: a001 1e3d 808f e63a 3616 853d 84ee 7e3d
000002a0: 0089 ad3d c026 1cbc d843 c0bd 6415 313d
000002b0: b038 9abc 40e4 c8bc 28b9 9cbd 44e6 d53d
000002c0: c4a4 b23d c0dd 533c d4ce 3abd 6ac9 87bd
000002d0: ec4f 67bd 0427 dd3d 900f 54bc 5c2e 66bd
000002e0: 3631 823d ec5d 70bd 8c73 243d dec8 8bbd
000002f0: b0f3 90bc 3053 eabd 0e3e 883d a600 fe3d
00000300: 9a8e f13d 68bc 1fbd c6fb c0bd cc51 bfbd
00000310: b09b 683c 589e d83c 5043 0cbc 1ad1 85bd
00000320: 3ee5 86bd 6cd4 b6bd 1437 bd3d 400a be3c
00000330: d412 38bd e8e6 223d f4a3 003d 28cf b53c
00000340: bce6 98bd 6491 0d3d 146b 18bd b0ba 36bd
00000350: d0be 5e3c 3cff 4dbd ce16 9cbd ac2f 893d
00000360: 6a1a e73d 0002 deba caa8 aebd f6fa ac3d
00000370: 8819 8abc f247 e73d 806c cb3d fc4c 0bbd
00000380: c6ce c03d b850 2fbd 00b9 b2ba a01b 513c
00000390: 1a78 fd3d 10b3 08bd 78f4 ccbd 5085 703c
000003a0: 6255 fc3d 7ad5 eebd 7083 5d3d 7050 aebc
000003b0: ba1d d33d 8899 7abd 0000 e6bd 5662 e13d
000003c0: a0bc 3ebd cc59 f33d b20e b7bd e064 1ebd
000003d0: d47e e03d 3482 3cbd 528a 81bd c21c eebd
000003e0: 88ce 81bc d2de a23d ea30 c73d 9ae9 a73d
000003f0: 52f6 f13d 800b a93d f04e 353c f057 3ebc
0.08775307 0.047367975 0.12247357 -0.0042435825 -0.02366206 -0.06448437 -0.030802608 0.11647828
0.050249323 -0.07746692 0.09461625 -0.07967664 0.100278124 -0.08327179 0.10906616 0.022101298
-0.07011601 -0.011616364 0.079518035 -0.019861117 -0.027388915 0.023795992 0.112162024 -0.10907295
-0.07061462 0.11387588 -0.116596475 0.008000359 -0.070144445 0.09917875 0.04752326 -0.0771562
-0.012409404 0.04529208 -0.03941585 -0.03756258 0.03839548 -0.09087773 0.112693384 0.111628965
0.103205845 0.07581149 0.0876936 -0.07472496 0.10856679 0.054919988 0.0012893677 0.0021820217
-0.03719452 0.07813962 0.09969859 -0.017178401 0.01955691 0.0475702 0.09532352 0.061301365
-0.08427544 -0.004448876 0.018226773 -0.06639783 0.09324399 0.074508086 -0.076137245 0.09154774
-0.08852306 -0.0988657 0.11930403 -0.013160333 -0.11517447 -0.044025883 0.089005426 0.102826774
0.06756322 0.105874196 -0.057240397 0.02591826 0.03779964 -0.04144466 0.0018402189 -0.0456039
0.010524064 0.071074545 -0.111997604 0.08411068 -0.05152327 0.12320402 -0.11654155 0.02304858
0.06068583 -0.0123194605 0.08253528 -0.10021751 0.039759293 -0.025642052 -0.030724108 -0.027899802
0.09941329 -0.12463112 -0.08233361 0.08993079 -0.10900365 -0.029859304 -0.09200859 0.020994663
0.01222755 -0.02354154 -0.0298412 -0.028276756 0.08448619 0.040269434 0.06123449 -0.020756587
-0.100710794 0.07115239 -0.09139961 0.073077366 -0.03343813 -0.12499429 0.06599757 -0.010591388
0.07662967 -0.05091548 0.076645434 -0.024456784 0.067084625 0.034250602 -0.11072968 0.009404957
-0.06408462 -0.03292066 -0.06608589 0.051872626 0.023975044 0.03734097 -0.02051729 -0.08073279
-0.11519815 0.11579044 0.09445347 -0.02185081 -0.033427358 -0.12330407 0.090949 0.060289755
-0.030536339 -0.07095258 -0.019382522 -0.04688728 -0.05978027 0.019309208 0.08475672 0.0490506
0.04244268 -0.10684329 0.10955377 0.008202389 0.071758896 -0.084417224 0.02332823 0.031230152
-0.00030992925 -0.017138273 0.07303077 0.043400705 0.03857577 0.0017590374 0.06498377 0.062239185
0.08473396 -0.009530723 -0.0938794 0.04323329 -0.018825859 -0.0245229 -0.07652503 0.1044431
0.08722833 0.012931287 -0.045607403 -0.066302136 -0.056472704 0.10798457 -0.0129431635 -0.056196555
0.063570425 -0.05868332 0.040149257 -0.06825422 -0.017694324 -0.11441648 0.06652461 0.124024674
0.11794777 -0.038998038 -0.09423022 -0.093417734 0.014197275 0.026442692 -0.00856097 -0.065340236
-0.06586693 -0.08927235 0.09239021 0.023198247 -0.04493983 0.03977099 0.031406358 0.022193506
-0.07465884 0.034562483 -0.037211493 -0.044611633 0.013595298 -0.05029224 -0.07621537 0.06698546
0.11284335 -0.0016937852 -0.08528288 0.084463045 -0.016857877 0.11293019 0.09932804 -0.034008965
0.09414439 -0.04280159 -0.0013635457 0.012762934 0.12376423 -0.033373892 -0.10007566 0.014680222
0.12320973 -0.11661811 0.054080427 -0.02127859 0.10308404 -0.061181575 -0.11230469 0.11005084
-0.046566606 0.11882362 -0.0893835 -0.03867042 0.109616905 -0.04602261 -0.06325211 -0.11626579
-0.015845552 0.07952656 0.097261265 0.08198853 0.1181456 0.082541466 0.011066183 -0.011617646

v.net.2.bias f4 [64]
00000000: 04c9 acbd cef3 ddbd 04ae 793d 507d 4a3d
00000010: bcd6 3cbd 96ca f63d a485 acbd ea65 e53d
00000020: c0d0 22bb ec12 383d ece0 f23d c011 a9bc
00000030: 7e9b ab3d b068 82bc d0e8 f43d c0ad 6b3b
00000040: 0c27 38bd 586f b2bd 2098 85bc 5234 84bd
00000050: 86ea bcbd 4821 b8bd b690 a33d 3092 9abc
00000060: fe35 e6bd 1286 863d 72e0 a43d 4e76 d73d
00000070: b08e 103d 0a28 863d 0010 d23b c8f6 cdbc
00000080: 7c81 e8bd 687c ab3d ea73 f3bd a0ff b0bd
00000090: 5ce3 8b3d e23c c33d 1846 d6bc 442f d53d
000000a0: 607f c9bb 8437 443d a8f6 a33d 08ad 48bd
000000b0: 34fb 243d 14fc 85bd c4b0 f3bd 3c08 15bd
000000c0: 56cc c8bd 1075 7e3c 448e 65bd ccb6 d73d
000000d0: c0c6 433d 20cb e33d e895 1cbd a092 99bb
000000e0: b258 e2bd 546c 3f3d 861c bb3d 90b0 7d3d
000000f0: d02e c1bd b4ea f5bd 1cbd 16bd a81a ad3d
-0.08436778 -0.10837518 0.06095697 0.049435914 -0.046103224 0.12050359 -0.084239274 0.11201079
-0.0024843663 0.04493992 0.11859307 -0.020638347 0.08379267 -0.01591906 0.11958468 0.0035961717
-0.044959113 -0.087126434 -0.01630789 -0.06455292 -0.09224419 -0.08990723 0.07986586 -0.018868536
-0.11240767 0.06568541 0.08050622 0.10520612 0.035292327 0.065506056 0.0064105988 -0.025142089
-0.11352822 0.08373338 -0.11887343 -0.086425066 0.06830475 0.09533097 -0.02615647 0.10409406
-0.0061492175 0.047904506 0.0800603 -0.04899314 0.04027863 -0.06542221 -0.1189895 -0.036384806
-0.09804599 0.01553084 -0.05604388 0.105329126 0.047796965 0.111227274 -0.0382289 -0.0046866685
-0.110520735 0.04673417 0.091363 0.06193596 -0.09432757 -0.12007657 -0.036801443 0.0845235

v.net.4.weight f4 [1, 64]
00000000: a2df ca3d d602 b6bd d6c6 de3d a888 36bd
00000010: 3853 d93d 00b5 d9bb 6027 d8bd f6d9 babd
00000020: 88b0 56bd 3c08 64bd 829d 8e3d 88e7 423d
00000030: 86bb 98bd 9885 dbbc 68f0 7b3d b07c eb3c
00000040: e01e 57bc 0801 5fbd 0e24 d4bd fe82 f0bd
00000050: f4eb 9d3d 80e8 3fbb 38ab b53d f8df d2bd
00000060: 3678 babd 3c06 9abd 86f5 9c3d c09c 253d
00000070: 20c9 53bc d01c e2bd 44a2 233d 1842 e53d
00000080: f841 e4bd 12c6 a33d a2cb 9dbd 205a 213c
00000090: aee9 bebd 0024 3239 c860 d63c 80bf 643c
000000a0: 9cbf b43d 4827 0cbd 202a f7bd 4005 7fbc
000000b0: e20f 9d3d fcbd a43d d28f cdbd b472 f33d
000000c0: caa4 f93d 3ea9 853d 2267 9fbd 6099 12bd
000000d0: ba0b 933d e290 963d 1070 64bd 32ba f03d
000000e0: 54bf 013d 5ee1 f9bd 82cd 943d 5485 20bd
000000f0: 04d3 733d a098 f23b 0039 daba a0bb b03b
0.09905936 -0.0888726 0.10877769 -0.04456392 0.10611576 -0.0066438913 -0.10554385 -0.09123604
-0.052414447 -0.055671915 0.06963636 0.047584087 -0.07457642 -0.0267971 0.061508566 0.02874598
-0.01312992 -0.054444343 -0.103584394 -0.11743735 0.0771102 -0.0029282868 0.08870548 -0.10296625
-0.0910496 -0.0752072 0.076640174 0.04043269 -0.01292637 -0.11040652 0.03994967 0.11194247
-0.11145395 0.07996763 -0.077048555 0.009848148 -0.093219146 0.00016988814 0.026169196 0.013961673
0.08825609 -0.03421715 -0.120685816 -0.015565217 0.07669045 0.08044049 -0.10037197 0.11887112
0.12189634 0.06526421 -0.07783343 -0.0357908 0.07179971 0.07351853 -0.055770934 0.11754264
0.031676605 -0.122011885 0.0726576 -0.03918965 0.059527412 0.007403448 -0.0016649067 0.0053934604
