runs/phoenix/DroneHoverBulletEnvWithAdversary-v0/ppo/2023-08-16__13-48-34/seed_13858/torch_save/model.pt (torch, 49538 bytes, 14 tensors)

obs_oms.mean f4 [34]
0.0 0.0 0.0 0.0 0.0 0.0 0.0 0.0
0.0 0.0 0.0 0.0 0.0 0.0 0.0 0.0
0.0 0.0 0.0 0.0 0.0 0.0 0.0 0.0
0.0 0.0 0.0 0.0 0.0 0.0 0.0 0.0
0.0 0.0
00000000: 0000 0000 0000 0000 0000 0000 0000 0000
00000010: 0000 0000 0000 0000 0000 0000 0000 0000
00000020: 0000 0000 0000 0000 0000 0000 0000 0000
00000030: 0000 0000 0000 0000 0000 0000 0000 0000
00000040: 0000 0000 0000 0000 0000 0000 0000 0000
00000050: 0000 0000 0000 0000 0000 0000 0000 0000
00000060: 0000 0000 0000 0000 0000 0000 0000 0000
00000070: 0000 0000 0000 0000 0000 0000 0000 0000
00000080: 0000 0000 0000 0000

obs_oms.std f4 [34]
1.0 1.0 1.0 1.0 1.0 1.0 1.0 1.0
1.0 1.0 1.0 1.0 1.0 1.0 1.0 1.0
1.0 1.0 1.0 1.0 1.0 1.0 1.0 1.0
1.0 1.0 1.0 1.0 1.0 1.0 1.0 1.0
1.0 1.0
00000000: 0000 803f 0000 803f 0000 803f 0000 803f
00000010: 0000 803f 0000 803f 0000 803f 0000 803f
00000020: 0000 803f 0000 803f 0000 803f 0000 803f
00000030: 0000 803f 0000 803f 0000 803f 0000 803f
00000040: 0000 803f 0000 803f 0000 803f 0000 803f
00000050: 0000 803f 0000 803f 0000 803f 0000 803f
00000060: 0000 803f 0000 803f 0000 803f 0000 803f
00000070: 0000 803f 0000 803f 0000 803f 0000 803f
00000080: 0000 803f 0000 803f

pi.log_std f4 [4]
-0.6931472 -0.6931472 -0.6931472 -0.6931472
00000000: 1872 31bf 1872 31bf 1872 31bf 1872 31bf

pi.net.0.weight f4 [50, 34]
0.15192012 0.12986523 -0.07707873 0.11107549 0.0652983 -0.13210718 -0.041594222 -0.023445273
-0.014934424 0.043694664 0.047988605 0.009258596 0.15323931 0.1110234 0.07388526 -0.034353063
0.069032945 0.06284428 -0.0122231515 -0.13305984 0.05398553 -0.022807986 0.0842151 -0.13981089
0.098441556 -0.0025657092 0.047133993 -0.12611744 -0.13304606 -0.16494954 -0.0096320715 0.1701505
-0.07333789 0.07271814 0.1525947 0.03343234 -0.005449224 -0.15589225 0.087145 -0.06678768
-0.0008300764 0.024974152 0.046440404 0.081530586 0.16351856 0.082498066 0.059380434 -0.14827758
0.11161835 -0.10486626 -0.16524625 0.06713805 -0.12848794 -0.05205543 -0.015631266 -0.025641024
0.09796423 -0.11372766 0.1425799 -0.06321236 0.11225243 0.061756644 0.0982761 0.107632115
-0.14688547 0.14720537 -0.1486835 -0.04210596 0.056716222 0.0860186 -0.02612782 0.023218159
0.059093498 0.12860593 0.12711106 -0.014473059 -0.034472827 -0.057786316 0.10036368 -0.036226306
0.09484313 0.1552724 0.11999396 0.028579718 -0.015790382 0.16483745 -0.05765038 -0.11545585
-0.082927026 -0.10151614 -0.0031291726 -0.103409134 -0.1271968 0.098620445 0.019376198 0.04711854
-0.12746842 0.021700604 0.13427502 -0.028973084 -0.025047364 -0.16360538 0.14126934 -0.07955357
0.13328326 0.13092132 -0.029560957 0.013695279 -0.15522932 0.06799884 -0.03286458 0.029669495
-0.14820887 0.06948699 -0.07974697 -0.16796763 -0.057017755 0.15141794 0.11471199 0.08135194
0.011650713 -0.05530684 -0.12376948 -0.1386501 -0.06578594 0.13524213 -0.020420508 -0.15832745
-0.006826061 -0.11787674 -0.017382456 0.13613157 -0.15023282 0.1381786 -0.0691797 0.015535219
-0.11749461 -0.101849854 0.0747772 0.058139365 -0.14096251 -0.101529755 0.08605135 -0.09120315
-0.16534206 0.12578356 0.16990815 0.104037225 0.1464798 -0.15820853 0.090953164 0.09974862
0.059386544 -0.030222472 0.034358665 0.16994505 0.043316342 -0.1288966 0.10173021 0.15271248
0.10703639 0.0820962 -0.025549168 0.16179526 -0.1111033 0.10079587 -0.054782752 -0.076971255
-0.15068403 -0.078303955 0.1631339 0.15280253 -0.14487146 0.02776342 -0.065454535 0.068361826
0.04657783 -0.12766567 0.07985195 -0.16465037 0.07840002 0.07102683 0.02778233 0.042035125
-0.0754508 -0.12479802 -0.069317184 0.12923618 0.12443242 -0.0810986 -0.14894694 0.13535428
-0.031970207 -0.034882303 0.15346222 -0.046708245 -0.12124918 -0.088336855 0.15294829 0.053087845
-0.042202234 0.010324026 -0.09986987 -0.13851802 0.002352292 0.034943186 -0.12655784 0.05000005
0.02693273 0.11369503 0.035176698 0.12338388 0.035912488 -0.02316492 -0.042320874 -0.1270654
-0.063034594 -0.010155137 -0.10722748 -0.07215478 -0.09937023 -0.13373661 0.080800764 -0.14825536
0.055764545 -0.074818134 0.1117073 -0.034495335 -0.090796374 -0.011363595 0.073285446 -0.101164825
0.002017395 0.10504956 -0.043723304 0.07081534 0.089788064 0.16375709 -0.04964935 -0.020751992
0.14935042 -0.029313214 0.020170761 0.15487307 0.05286161 0.08302058 0.16776623 0.0010738942
-0.12848291 -0.10650936 0.11490875 -0.110861234 0.13289993 0.09865178 0.015828818 0.16934983
00000000: f390 1b3e 64fb 043e 74db 9dbd 8c7b e33d
00000010: 1dbb 853d 1b47 07be b45e 2abd 4d10 c0bc
00000020: 84af 74bc 2df9 323d b38f 443d 5eb1 173c
00000030: c4ea 1c3e 3d60 e33d 2851 973d ccb5 0cbd
00000040: 2561 8d3d 80b4 803d 9d43 48bc d740 08be
00000050: ee1f 5d3d d0d7 babc f778 ac3d 962a 0fbe
00000060: ba9b c93d 7525 28bb 930f 413d ee24 01be
00000070: 3a3d 08be 88e8 28be d6cf 1dbc ef3b 2e3e
00000080: 2d32 96bd 40ed 943d c941 1c3e 59f0 083d
00000090: 678f b2bb 38a2 1fbe 1479 b23d fbc7 88bd
000000a0: 7c99 59ba 9896 cc3c 4b38 3e3d 82f9 a63d
000000b0: 6971 273e bff4 a83d e638 733d 14d6 17be
000000c0: 2998 e43d 1fc4 d6bd 5036 29be ad7f 893d
000000d0: 5892 03be 1338 55bd 240d 80bc 200d d2bc
000000e0: 78a1 c83d 0cea e8bd 7700 123e 7b75 81bd
000000f0: 9ae4 e53d 89f4 7c3d fb44 c93d 3a6e dc3d
00000100: 2569 16be 01bd 163e 7d40 18be 4d77 2cbd
00000110: 454f 683d 852a b03d 030a d6bc 0234 be3c
00000120: 060c 723d 46b1 033e 6729 023e 6920 6dbc
00000130: 6133 0dbd 58b1 6cbd 798b cd3d 0962 14bd
00000140: 1d3d c23d baff 1e3e 65bf f53d 0320 ea3c
00000150: d55a 81bc 26cb 283e ce22 6cbd 1e74 ecbd
00000160: a5d5 a9bd b2e7 cfbd ce12 4dbb 2bc8 d3bd
00000170: e13f 02be 84f9 c93d d5ba 9e3c 5fff 403d
00000180: 1587 02be 77c5 b13c 647f 093e f658 edbc
00000190: 2130 cdbc 2b88 27be e9a8 103e fbec a2bd
000001a0: 687b 083e 3d10 063e d229 f2bc 2a62 603c
000001b0: 6ff4 1ebe fa42 8b3d 039d 06bd 710d f33c
000001c0: 11c4 17be 324f 8e3d 6152 a3bd b5ff 2bbe
000001d0: 738b 69bd 4e0d 1b3e 1fee ea3d d99b a63d
000001e0: a2e2 3e3c 6d89 62bd da7a fdbd 4bfa 0dbe
000001f0: c7ba 86bd ea7c 0a3e e948 a7bc 9720 22be
00000200: 26ad dfbb 5c69 f1bd a765 8ebc 1366 0b3e
00000210: a2d6 19be b17e 0d3e 16ae 8dbd 6e87 7e3c
00000220: 04a1 f0bd a896 d0bd ca24 993d 8b23 6e3d
00000230: 7a58 10be d5ee cfbd b13b b03d b8c8 babd
00000240: 6e4f 29be 68cd 003e 67fc 2d3e 7811 d53d
00000250: cdfe 153e 6b01 22be a745 ba3d 0149 cc3d
00000260: 4e3f 733d 1e95 f7bc acbb 0c3d 1306 2e3e
00000270: 7a6c 313d 78fd 03be ee57 d03d a960 1c3e
00000280: e535 db3d 0d22 a83d 7d4c d1bc a8ad 253e
00000290: 208a e3bd 116e ce3d e163 60bd 1ba3 9dbd
000002a0: ea4c 1abe d35d a0bd 930c 273e 4478 1c3e
000002b0: 2f59 14be 1d70 e33c 070d 86bd 4901 8c3d
000002c0: 65c8 3e3d caba 02be 6b89 a33d 1b9a 28be
000002d0: 3190 a03d 8476 913d c597 e33c 062d 2c3d
000002e0: f385 9abd 1b96 ffbd 2bf6 8dbd 7d56 043e
000002f0: 6dd6 fe3d 0617 a6bd 8c85 18be 509a 0a3e
00000300: 31f3 02bd bfe0 0ebd 3325 1d3e 2551 3fbd
00000310: 7d51 f8bd f4e9 b4bd 7a9e 1c3e a472 593d
00000320: 40dc 2cbd 1b26 293c 9388 ccbd abd7 0dbe
00000330: e928 1a3b 9620 0f3d 6198 01be dacc 4c3d
00000340: 07a2 dc3c f1d8 e83d 7115 103d b0b0 fc3d
00000350: f918 133d 5cc4 bdbc a758 2dbd 6f1d 02be
00000360: 4818 81bd bb61 26bc 159a dbbd e3c5 93bd
00000370: 9f82 cbbd 40f2 08be df7a a53d 41d0 17be
00000380: 5d69 643d 403a 99bd ccc6 e43d fb4a 0dbd
00000390: 73f3 b9bd 5f2e 3abc ae16 963d 812f cfbd
000003a0: 4636 043b 3924 d73d 3517 33bd a207 913d
000003b0: cee2 b73d f0af 273e 1e5d 4bbd 1500 aabc
000003c0: 51ef 183e 4422 f0bc 273d a53c 0c97 1e3e
000003d0: 6a85 583d b206 aa3d e9ca 2b3e e9c1 8c3a
000003e0: 0691 03be 9421 dabd 4755 eb3d 370b e3bd
000003f0: eb16 083e f209 ca3d 70ab 813c 0b6a 2d3e

pi.net.0.bias f4 [50]
0.10778716 0.055680785 0.1431296 0.03821571 0.16708685 -0.084703736 0.06087333 0.1709894
0.117782325 0.1083338 0.091117494 -0.0061928006 0.12571211 -0.13221388 -0.1703201 0.08637266
-0.04981366 0.08227931 -0.17055987 0.12012337 0.14032392 -0.047437858 0.17136756 -0.055787157
-0.0570446 -0.16501315 -0.01230268 0.10660575 0.06423798 0.10969273 0.012992488 -0.112675376
0.09885672 -0.018318148 -0.09814898 0.16202177 0.08340888 -0.14452094 -0.047614988 0.1271128
0.004503433 0.06640873 0.021717163 -0.07684221 -0.11501446 0.047111794 5.397275e-05 -0.11784617
0.09045361 0.088352636
00000000: 84bf dc3d 8911 643d 9190 123e 1488 1c3d
00000010: d118 2b3e 2779 adbd 5056 793d d817 2f3e
00000020: dc37 f13d 1dde dd3d cf9b ba3d faec cabb
00000030: adba 003e 1363 07be 6468 2ebe 26e4 b03d
00000040: 6909 4cbd 0e82 a83d 3fa7 2ebe 3e03 f63d
00000050: 13b1 0f3e 334e 42bd fa7a 2f3e 1381 64bd
00000060: 99a7 69bd 35f9 28be 2e91 49bc 1e54 da3d
00000070: 348f 833d 95a6 e03d 72de 543c 59c2 e6bd
00000080: 6475 ca3d f10f 96bc 5502 c9bd 09e9 253e
00000090: 46d2 aa3d 4cfd 13be ef07 43bd dc29 023e
000000a0: 8991 933b 4d01 883d 31e8 b13c 735f 9dbd
000000b0: b48c ebbd 4cf8 403d cd60 6238 5559 f1bd
000000c0: be3f b93d 3af2 b43d

pi.net.2.weight f4 [50, 50]
0.10270574 -0.0668049 0.06531278 0.06181343 -0.02481593 0.073646985 -0.11790983 0.019413024
-0.048531592 -0.023438167 -0.007493339 0.06189302 -0.104714915 -0.0802315 0.06081617 -0.08107894
-0.0908929 0.08427839 0.057279207 -0.02079335 -0.011538341 -0.13157685 -0.0018139499 -0.07407309
0.051762417 0.0639579 -0.028912924 0.020383514 -0.10171652 0.12961288 0.023540365 -0.10649701
0.024273906 0.050424762 -0.018799754 0.113837145 0.13497871 -0.0497245 0.013589611 -0.031818308
0.098950334 0.114781566 -0.07509608 0.062430613 0.068138085 -0.12230367 -0.011608204 0.0037094792
0.13184752 -0.12819783 -0.13890633 0.07048489 -0.06581871 -0.08030206 -0.03375629 0.01180916
-0.14094444 0.02340069 -0.116564535 0.0068339603 0.07370661 0.12936726 -0.051948927 -0.02782471
-0.083580546 0.055758834 0.023076227 -0.03659857 -0.06496045 0.11879837 0.07227844 -0.072663076
0.12933771 -0.06604976 -0.07204672 0.0063528116 0.0007350579 -0.024152674 0.032044552 -0.11353546
-0.10925814 -0.0016675486 -0.091028295 0.04009558 -0.017526228 -0.036580972 0.12503687 0.07094176
-0.100800164 0.11559001 0.12314497 -0.13852356 0.09382381 -0.080720775 -0.069796115 -0.015658854
0.009896889 0.018278178 -0.0985081 0.068956815 0.09664079 -0.05341965 0.110136226 -0.019236311
-0.010580158 0.015400998 -0.067477375 -0.029737301 -0.13055761 0.11892887 -0.11083445 0.074143134
0.043132313 0.100235425 -0.003953105 0.01582073 0.08165184 -0.0755263 0.006279662 0.13246702
-0.08199796 -0.006272716 0.1331571 0.029079977 0.06464981 0.104966246 0.1161913 -0.069359876
-0.029504178 0.11237669 -0.070504665 -0.1029558 0.09428534 0.05173145 -0.06374796 -0.11833229
0.05891757 -0.014644513 0.10193159 0.08532569 0.11217763 -0.021411544 0.111143 0.028669804
0.009612044 -0.11181526 -0.021513304 -0.051148996 -0.10714126 0.120949626 0.020991223 0.07417507
-0.07910885 -0.14079024 0.08218617 0.10061853 -0.10442483 0.0011760658 0.12573203 -0.090382874
-0.0757164 0.110380255 0.05642172 -0.051644996 -0.06348771 0.023403067 -0.09025772 0.05500759
-0.010650172 -0.010626856 0.088506214 0.0025059 -0.023933325 -0.052427664 -0.06628443 0.11484076
-0.027514527 -0.10889881 -0.07536435 -0.090422325 0.13386278 -0.100319296 -0.13343145 -0.11108231
0.031455915 -0.087960154 -0.13091944 0.10703845 -0.13841456 0.1303899 0.08610578 -0.10583617
0.007984367 0.1276127 0.12371264 0.09537598 0.030122135 -0.06290328 0.05342919 -0.12571926
-0.026953096 0.04903931 0.13755596 -0.026709976 -0.10917894 0.10078914 -0.10280212 -0.03832462
-0.06621586 0.012921719 -0.12542652 0.04079827 -0.051724873 0.12160676 -0.11863627 -0.047229424
0.12109678 0.056163087 -0.11019881 -0.004049149 -0.0715504 -0.039961956 -0.0026284968 0.007267668
-0.010491818 -0.027500128 -0.11166832 -0.07102776 -0.046283092 -0.08922215 0.13650706 -0.04898258
-0.067356 0.0635264 0.025832647 0.08657752 -0.085185125 0.11703326 0.10797379 -0.07164085
-0.07755493 0.034243744 -0.00023263376 -0.12853827 -0.067362756 0.13098365 0.016196985 0.060505968
-0.011473806 0.12760524 0.110466234 0.12483432 0.014077116 0.081596844 -0.06059763 0.07272009
00000000: 6357 d23d 02d1 88bd b5c2 853d 1430 7d3d
00000010: c74a cbbc 3bd4 963d b57a f1bd 1008 9f3c
00000020: 10c9 46bd 6601 c0bc af8a f5bb 8983 7d3d
00000030: c674 d6bd 6a50 a4bd 601a 793d b70c a6bd
00000040: 0f26 babd 269a ac3d 9a9d 6a3d d156 aabc
00000050: 4f0b 3dbc 15bc 06be 0fc2 edba a2b3 97bd
00000060: d404 543d 5cfc 823d ccda ecbc 54fb a63c
00000070: c050 d0bd 3db9 043e b9d7 c03c 1b1b dabd
00000080: 12da c63c 328a 4e3d f101 9abc 7323 e93d
00000090: dc37 0a3e ebab 4bbd f6a6 5e3c ea53 02bd
000000a0: 79a6 ca3d 9912 eb3d f9cb 99bd 3eb7 7f3d
000000b0: fb8b 8b3d 597a fabd 5630 3ebc bc1a 733b
000000c0: 0903 073e 4b46 03be 763d 0ebe 625a 903d
000000d0: f6cb 86bd 6875 a4bd 0944 0abd 357b 413c
000000e0: bd53 10be ceb2 bf3c 63b9 eebd 6aef df3b
000000f0: 7ef3 963d da78 043e 66c8 54bd a5f0 e3bc
00000100: 472c abbd 6063 643d 5b0a bd3c 62e8 15bd
00000110: fc09 85bd 8f4c f33d b806 943d 61d0 94bd
00000120: 1b71 043e 1945 87bd 3b8d 93bd 3f2b d03b
00000130: e7b0 403a d4db c5bc 2641 033d 4785 e8bd
00000140: bbc2 dfbd a591 daba 0b6d babd 433b 243d
00000150: 2a93 8fbc eed5 15bd aa09 003e ea49 913d
00000160: 5170 cebd 75ba ec3d 6e33 fc3d 1fd9 0dbe
00000170: b326 c03d ef50 a5bd 44f1 8ebd ff46 80bc
00000180: 9026 223c 1ebc 953c 9dbe c9bd 3b39 8d3d
00000190: 9beb c53d 90ce 5abd 1a8f e13d 7895 9dbc
000001a0: 6658 2dbc 7854 7c3c 9431 8abd a49b f3bc
000001b0: e5b0 05be fb90 f33d 2cfd e2bd 5bd8 973d
000001c0: 82ab 303d 3b48 cd3d 0c89 81bb 7a9a 813c
000001d0: 1439 a73d 88ad 9abd 9fc5 cd3b 6fa5 073e
000001e0: 8cee a7bd 5b8b cdbb 565a 083e 2239 ee3c
000001f0: 1f67 843d 8bf8 d63d b4f5 ed3d 8d0c 8ebd
00000200: bfb2 f1bc c025 e63d c064 90bd 7eda d2bd
00000210: ac18 c13d 5be4 533d 4a8e 82bd 3358 f2bd
00000220: 8d53 713d 8aef 6fbc 82c1 d03d 3cbf ae3d
00000230: 63bd e53d 4367 afbc f19e e33d f0dc ea3c
00000240: d67b 1d3c 66ff e4bd ab3c b0bc 9c81 51bd
00000250: e06c dbbd 70b4 f73d c9f5 ab3c 19e9 973d
00000260: d203 a2bd 512b 10be 3951 a83d 1611 ce3d
00000270: afdc d5bd 3826 9a3a e6bf 003e a81a b9bd
00000280: 3311 9bbd 0b0f e23d 761a 673d b489 53bd
00000290: d805 82bd cab7 bf3c 0ad9 b8bd a44f 613d
000002a0: 0f7e 2ebc 441c 2ebc bf42 b53d 073a 243b
000002b0: d20f c4bc 64be 56bd 22c0 87bd a231 eb3d
000002c0: 2566 e1bc 5706 dfbd a058 9abd 572f b9bd
000002d0: 5313 093e 3474 cdbd 41a2 08be 1f7f e3bd
000002e0: ebd7 003d 7424 b4bd bf0f 06be fa36 db3d
000002f0: 8cbc 0dbe ee84 053e 3a58 b03d a2c0 d8bd
00000300: ddd0 023c e7ac 023e 0d5d fd3d 7b54 c33d
00000310: b2c2 f63c 6fd3 80bd 91d8 5a3d 8dbc 00be
00000320: bdcc dcbc 72dd 483d 78db 0c3e e1ce dabc
00000330: 3599 dfbd 896a ce3d eb89 d2bd 47fa 1cbd
00000340: 2e9c 87bd 9eb5 533c cf6f 00be 161c 273d
00000350: 76dd 53bd f70c f93d 93f7 f2bd a473 41bd
00000360: 9701 f83d 440b 663d eaaf e1bd b9ae 84bb
00000370: 0489 92bd 26af 23bd dc42 2cbb 9e25 ee3b
00000380: e0e5 2bbc f347 e1bc 5cb2 e4bd 0177 91bd
00000390: 5793 3dbd 1aba b6bd 82c8 0b3e f5a1 48bd
000003a0: f1f1 89bd 211a 823d fd9e d33c 8e4f b13d
000003b0: 8a75 aebd 22af ef3d 5d21 dd3d 70b8 92bd
000003c0: 1ed5 9ebd 2b43 0c3d 26ef 73b9 899f 03be
000003d0: 7cf5 89bd 9420 063e 8aaf 843c 1bd5 773d
000003e0: a1fc 3bbc f3aa 023e 1f3c e23d 23a9 ff3d
000003f0: b4a3 663c 3f1c a73d 3835 78bd 45ee 943d

pi.net.2.bias f4 [50]
-0.0625273 0.07347218 -0.043323386 -0.04819093 0.10067846 -0.13879001 -0.07335842 -0.11525921
-0.01718435 0.01638705 0.0049834438 0.14014849 0.11710251 -0.050329342 0.0023308895 -0.043325696
-0.105890945 -0.056346092 0.06540471 -0.09912961 -0.03645362 0.06848145 0.035139244 -0.124971226
-0.0046221777 -0.052784935 0.1245973 -0.11205096 0.033507504 0.11956593 -0.13582677 -0.06483676
0.06628364 -0.021136729 0.10126214 -0.061059203 0.030205164 -0.13932192 -0.027606204 -0.037196685
0.055045437 0.007790778 -0.011458549 -0.06957489 -0.046703093 0.049910605 0.044980638 0.055450387
0.0867092 0.089043565
00000000: 500e 80bd 9578 963d dd73 31bd da63 45bd
00000010: 8230 ce3d f81e 0ebe f03c 96bd 050d ecbd
00000020: 32c6 8cbc 223e 863c 284c a33b 1683 0f3e
00000030: 71d3 ef3d 2426 4ebd d6c1 183b 4976 31bd
00000040: 5add d8bd 29cb 66bd e8f2 853d 7704 cbbd
00000050: 6450 15bd 0140 8c3d 2bee 0f3d eaf0 ffbd
00000060: a375 97bb 0435 58bd df2c ff3d f97a e5bd
00000070: 2a3f 093d fbde f43d 2c16 0bbe 23c9 84bd
00000080: b8bf 873d ef26 adbc 8662 cf3d 3719 7abd
00000090: d270 f73c 68aa 0ebe 6826 e2bc 8d5b 18bd
000000a0: 5377 613d c849 ff3b a3bc 3bbc 487d 8ebd
000000b0: be4b 3fbd 106f 4c3d 9e3d 383d f21f 633d
000000c0: 9894 b13d 795c b63d

pi.net.4.weight f4 [4, 50]
-0.10557528 -0.08442383 -0.021767585 -0.1218382 -0.13559175 -0.061794095 0.050872445 0.10116128
-0.12853488 0.0077860407 -0.03559379 0.11812312 0.06568359 0.13493492 -0.11825973 0.105998285
0.10681885 -0.106675126 0.057416383 0.018124579 0.01111866 -0.014371081 0.14063267 0.109193675
-0.08308587 0.12222762 -0.0913985 0.07348583 0.061992064 -0.06847798 -0.09507795 -0.025742942
0.07227534 -0.038714767 0.08686247 -0.091108546 0.102696046 0.06540842 0.0966345 0.095820054
0.06741542 0.018585885 0.06103331 -0.063709535 -0.042545643 0.0058839195 0.0008025435 0.12616901
-0.085873485 -0.035097536 0.009493056 -0.05277639 0.025198994 0.09133184 -0.049320683 0.10950841
0.019937854 -0.093286455 0.0685707 0.08283879 -0.06780609 -0.09289203 0.045710906 0.12624283
-0.031840783 0.04076558 0.06530292 0.13308467 -0.0029238113 -0.07312184 0.04399917 0.063278355
0.054651905 0.08834447 0.07768081 0.03786308 -0.090124145 0.014098948 0.006955815 0.08451243
-0.05727981 0.07003422 0.12836823 0.08093468 -0.030167418 -0.100206144 -0.018333087 0.048449237
-0.027795477 0.016640909 -0.048242144 0.089742616 -0.123954594 0.077439815 -0.10518333 -0.09883881
-0.00035582058 0.08866747 -0.12953828 0.035178848 0.048808448 -0.07717061 0.08470998 0.11110593
-0.07240738 0.105773054 0.07158614 0.12042274 0.12839852 0.091077 0.116880365 -0.030423991
0.029532585 0.007943906 -0.14053732 0.0031343433 0.11772138 -0.016742667 -0.059199836 0.13053109
-0.12831081 -0.12811828 0.112390086 -0.034828085 -0.024894897 0.04007975 0.07480555 -0.05329095
0.03357855 -0.041192695 0.007671789 -0.099281274 -0.033710737 -0.027634172 0.1225153 0.07238578
-0.05454035 -0.13400829 -0.116664186 0.059071627 -0.042972155 0.065404244 -0.11702151 0.028892947
0.07484421 -0.10961096 0.0427629 0.010459618 0.053476986 -0.09937922 -0.06132515 -0.09713514
0.023057682 0.07845984 -0.09073897 -0.103855945 -0.060079154 0.0197722 -0.12041335 -0.092007235
-0.0015957977 0.023399105 0.10553509 0.035541344 0.045441587 0.10291726 0.0035543113 0.1098987
-0.101163805 0.04737581 0.011204977 -0.09918679 0.035352543 0.1344867 -0.067938566 0.09573092
0.07971035 0.13235746 -0.05514133 -0.06890381 -0.09792878 0.11603139 -0.064867996 -0.017186608
-0.07394973 0.13195997 -0.0959731 0.13536571 0.112693496 -0.007598268 -0.021638867 0.033253476
-0.013982926 -0.027580123 0.109638914 0.036693048 -0.042877004 -0.06787068 0.008169594 0.1408095
00000000: da37 d8bd 67e6 acbd ef51 b2bc 4e86 f9bd
00000010: 90d8 0abe ce1b 7dbd a05f 503d a52d cf3d
00000020: a69e 03be 0b22 ff3b cbca 11bd 89ea f13d
00000030: 1e85 863d 612c 0a3e 2832 f2bd a115 d93d
00000040: d7c3 da3d 7d78 dabd 712d 6b3d ff79 943c
00000050: 0a2b 363c af74 6bbc 0302 103e efa0 df3d
00000060: ed28 aabd 7952 fa3d 232f bbbd bd7f 963d
00000070: 64eb 7d3d 2f3e 8cbd 3ab8 c2bd dde2 d2bc
00000080: 1805 943d 6093 1ebd f3e4 b13d 1e97 babd
00000090: 4e52 d23d daf4 853d 4fe8 c53d 4e3d c43d
000000a0: 1911 8a3d 6d41 983c 10fe 793d 257a 82bd
000000b0: 5744 2ebd e5cd c03b c861 523a 7332 013e
000000c0: 70de afbd 6fc2 0fbd c388 1b3c 0e2c 58bd
000000d0: 1f6e ce3c 300c bb3d 7c04 4abd f245 e03d
000000e0: b654 a33c f80c bfbd cc6e 8c3d 62a7 a93d
000000f0: ebdd 8abd 2d3e bebd 5c3b 3b3d cd45 013e
00000100: 7b6b 02bd cff9 263d 8abd 853d 5947 083e
00000110: 6a9d 3fbb e7c0 95bd 7938 343d 1598 813d
00000120: adda 5f3d f2ed b43d 1e17 9f3d 5116 1b3d
00000130: 0293 b8bd 46ff 663c 9bed e33b da14 ad3d
00000140: 3c9e 6abd 1a6e 8f3d f672 033e 15c1 a53d
00000150: a921 f7bc e138 cdbd 452f 96bc b572 463d
00000160: 57b3 e3bc 8452 883c 8e99 45bd faca b73d
00000170: e8db fdbd c498 9e3d 5c6a d7bd 016c cabd
00000180: 6e8d bab9 4a97 b53d afa5 04be b217 103d
00000190: 5eeb 473d a00b 9ebd 6d7c ad3d 818b e33d
000001a0: 524a 94bd 8b9f d83d c19b 923d 33a0 f63d
000001b0: e77a 033e 9486 ba3d f95e ef3d bc3b f9bc
000001c0: 52ee f13c 2827 023c 04e9 0fbe 8e69 4d3b
000001d0: e817 f13d eb27 89bc 877b 72bd f1a9 053e
000001e0: e963 03be 7031 03be c62c e63d e5a7 0ebd
000001f0: 62f0 cbbc aa2a 243d a733 993d 9c47 5abd
00000200: a989 093d acb9 28bd a163 fb3b fb53 cbbd
00000210: 4514 0abd 0f61 e2bc 4de9 fa3d ff3e 943d
00000220: b465 5fbd 7839 09be a2ed eebd 17f5 713d
00000230: 9203 30bd a9f2 853d f9a8 efbd e7b0 ec3c
00000240: ec47 993d b67b e0bd 2728 2f3d d15e 2b3c
00000250: af0a 5b3d 5587 cbbd 1530 7bbd caee c6bd
00000260: 77e3 bc3c 8daf a03d 5ad5 b9bd 6db2 d4bd
00000270: 8f15 76bd 4ff9 a13c 469b f6bd 4a6e bcbd
00000280: 162a d1ba 7baf bf3c c822 d83d cd93 113d
00000290: f520 3a3d 49c6 d23d 73ef 683b 9212 e13d
000002a0: f82e cfbd 230d 423d 1495 373c 7222 cbbd
000002b0: d4cd 103d e2b6 093e 6023 8bbd 930e c43d
000002c0: 2e3f a33d b788 073e e0db 61bd 711d 8dbd
000002d0: e28e c8bd dea1 ed3d 83d9 84bd eeca 8cbc
000002e0: f572 97bd 8420 073e 8b8d c4bd 4f9d 0a3e
000002f0: d9cb e63d e4fa f8bb fe43 b1bc cc34 083d
00000300: a418 65bc b6ef e1bc 5e8a e03d 734b 163d
00000310: cc9f 2fbd c8ff 8abd c3d9 053c 5e30 103e

pi.net.4.bias f4 [4]
0.0617887 0.03873938 0.022161353 -0.12818514
00000000: 2616 7d3d 2fad 1e3d ba8b b53c f742 03be

v.net.0.weight f4 [64, 34]
0.0057017305 0.10535552 -0.079471685 0.0008314666 0.14367904 0.018520975 0.1696825 -0.06367018
-0.111115806 0.14952448 0.018348036 0.09821939 -0.14200135 -0.06497763 0.11030841 0.035727568
0.14048505 0.08349877 0.14074399 0.010749716 -0.034538433 0.09154754 0.026642565 -0.06627928
-0.15248454 0.006922046 -0.15384606 -0.0841104 -0.0019592312 0.015359112 0.0662186 -0.079730205
-0.13776892 0.07648675 0.074802004 -0.16563173 0.13035178 0.15248884 0.02588392 0.11217357
0.15892111 -0.09589357 -0.07150758 0.15252371 0.13028634 0.09410852 -0.14407809 -0.12159151
-0.16848114 -0.036614113 0.047826074 -0.1390825 -0.08810878 0.094757095 0.02844184 0.11333374
-0.14609179 0.099359706 0.16293578 -0.07929795 0.022283817 -0.13994046 0.050257094 0.17096208
0.11635278 0.03611875 0.056066833 0.0009669505 -0.010201852 0.037655275 0.025816271 -0.013844992
0.15907066 0.069845155 0.17118514 -0.092407875 0.026076484 -0.05578955 0.019139003 0.10689214
-0.095717385 0.004538311 0.11364151 -0.021747747 0.124937825 -0.10943626 0.002071511 -0.12140003
-0.15010144 0.02556354 0.0013526717 -0.048771087 0.15186097 0.049673453 0.14552401 0.040225852
-0.108174376 -0.13967404 -0.09843861 -0.16020633 0.0071508377 0.0035910688 0.16745876 -0.092805125
-0.0027385242 0.107565425 -0.054772243 -0.10625209 -0.07678928 0.07452946 -0.089525975 -0.07826266
-0.11734453 -0.15044346 0.12125537 -0.12188305 -0.020061897 -0.081718266 -0.15205063 0.101390615
0.0866792 0.086213805 -0.088125974 0.08491862 -0.07750207 0.08182429 -0.046486158 0.059506368
-0.067336425 -0.120964736 0.060544018 -0.112607725 -0.030671243 -0.12582259 -0.04862624 -0.17096181
-0.115906134 0.089187905 0.1339612 -0.12309187 0.0037558288 -0.06889127 0.036754586 -0.07294656
-0.06531077 -0.09867981 0.12229222 0.08948848 0.12545238 -0.1662387 -0.15063345 -0.007307563
0.092575595 -0.15550435 0.08424339 0.12924847 0.08450861 -0.091441676 -0.07811787 0.05659133
0.11755063 -0.13541487 -0.09613849 -0.08269263 0.17117123 0.0110735325 -0.10412388 0.124902576
-0.13596582 0.15611428 0.1022707 0.00596587 0.03155429 -0.09913783 -0.0009361819 0.03188242
0.014743209 -0.0056759096 -0.122830145 0.029152686 0.07392378 0.045408543 0.1120035 -0.018817374
0.16359718 0.13898984 -0.080907196 -0.021577448 0.08744575 0.014530998 0.13556693 0.13642156
0.16208962 0.015507516 -0.033467237 -0.13265309 -0.054660313 -0.15337858 0.09503178 0.13827151
-0.12559684 0.036371175 -0.011342987 0.12463547 -0.13018641 -0.114500515 0.024958001 -0.058819074
-0.11621403 -0.06360337 0.07464317 -0.037968565 0.12850653 -0.06865349 0.011000853 -0.08073369
0.08235676 -0.07169742 0.086461425 -0.15417519 0.09104692 -0.091438875 0.15482499 -0.13828371
-0.16167049 0.032075945 0.14549477 0.0022055842 -0.017553391 0.04330144 0.1127308 -0.107031316
-0.14415595 -0.006913153 0.10058681 0.1382796 -0.1390719 -0.048050694 -0.014444703 -0.05783446
0.07166516 0.008150601 -0.011474586 0.008101229 0.16923805 -0.13426813 -0.15610471 0.050694417
-0.15063341 0.11967507 -0.046286132 0.037038557 0.12497479 -0.0714653 -0.10280924 0.1113885
00000000: 95d5 ba3b a3c4 d73d 0dc2 a2bd c7f6 593a
00000010: 9920 133e 4db9 973c 40c1 2d3e 8365 82bd
00000020: af90 e3bd f21c 193e 9f4e 963c 3f27 c93d
00000030: cd68 11be fe12 85bd 60e9 e13d 1257 123d
00000040: 50db 0f3e 6701 ab3d 311f 103e 941f 303c
00000050: 2c78 0dbd 477d bb3d 8241 da3c 6ebd 87bd
00000060: e824 1cbe 55d2 e23b d289 1dbe 1342 acbd
00000070: 7266 00bb c9a4 7b3c 9e9d 873d 9749 a3bd
00000080: 4c13 0dbe 16a5 9c3d cb31 993d 5d9b 29be
00000090: f07a 053e 0926 1c3e 840a d43c 42bb e53d
000000a0: 37bc 223e d963 c4bd 9172 92bd 2d2f 1c3e
000000b0: c869 053e f8bb c03d 3589 13be f804 f9bd
000000c0: 5286 2cbe aef8 15bd 46e5 433d a56b 0ebe
000000d0: 6072 b4bd 0210 c23d ddfe e83c 851b e83d
000000e0: 1699 15be 1a7d cb3d a3d8 263e f766 a2bd
000000f0: 8d8c b63c 8d4c 0fbe 62da 4d3d af10 2f3e
00000100: 5e4a ee3d 41f1 133d 56a6 653d f37a 7d3a
00000110: ab25 27bc 6b3c 1a3d a57c d33c 1bd6 62bc
00000120: 6be3 223e fa0a 8f3d 284b 2f3e 5740 bdbd
00000130: 5a9e d53c 9583 64bd 66c9 9c3c 44ea da3d
00000140: 7a07 c4bd 1db6 943b e1bc e83d 5528 b2bc
00000150: 67df ff3d 1e20 e0bd 30c2 073b 94a0 f8bd
00000160: 31b4 19be a16a d13c 214c b13a 31c4 47bd
00000170: 7181 1b3e 6476 4b3d 3f04 153e ddc3 243d
00000180: 878a ddbd b606 0fbe 2f9a c9bd 210d 24be
00000190: 9351 ea3b 2358 6b3b 4f7a 2b3e 9d10 bebd
000001a0: d078 33bb 434b dc3d dc58 60bd b29a d9bd
000001b0: b343 9dbd e7a2 983d 6559 b7bd 2c48 a0bd
000001c0: 5452 f0bd da0d 1abe bc54 f83d d29d f9bd
000001d0: d958 a4bc e85b a7bd 29b3 1bbe e2a5 cf3d
000001e0: dd84 b13d dd90 b03d 647b b4bd d0e9 ad3d
000001f0: 68b9 9ebd 7e93 a73d 4568 3ebd f3bc 733d
00000200: aee7 89bd 5cbc f7bd 01fd 773d e19e e6bd
00000210: 4242 fbbc a3d7 00be 4f2c 47bd 9d10 2fbe
00000220: 3260 edbd 26a8 b63d 202d 093e 9717 fcbd
00000230: 5a24 763b de16 8dbd fa8b 163d 0265 95bd
00000240: a7c1 85bd a418 cabd 5874 fa3d bc45 b73d
00000250: 9776 003e 7a3a 2abe a83f 1abe 4874 efbb
00000260: 4698 bd3d 883c 1fbe cc87 ac3d b659 043e
00000270: da12 ad3d c645 bbbd 43fc 9fbd 4fcc 673d
00000280: 62be f03d 32aa 0abe 42e4 c4bd c15a a9bd
00000290: 8347 2f3e c36d 353c e73e d5bd eccc ff3d
000002a0: a03a 0bbe 6cdc 1f3e 4d73 d13d 587d c33b
000002b0: 123f 013d c608 cbbd 1b6a 75ba 2497 023d
000002c0: 808d 713c fbfc b9bb 5f8e fbbd 9dd1 ee3c
000002d0: 5a65 973d 4ffe 393d 1762 e53d e526 9abc
000002e0: 0586 273e 5a53 0e3e acb2 a5bd 30c3 b0bc
000002f0: c216 b33d 6c13 6e3c 0fd2 0a3e 18b2 0b3e
00000300: d2fa 253e 3d13 7e3c f114 09bd 36d6 07be
00000310: 7ee3 5fbd 460f 1dbe 06a0 c23d 0c97 0d3e
00000320: 759c 00be f1f9 143d f0d7 39bc e240 ff3d
00000330: 964f 05be 3f7f eabd b974 cc3c 45ec 70bd
00000340: 9f01 eebd 7c42 82bd 85de 983d ed84 1bbd
00000350: 3797 033e 339a 8cbd ec3c 343c b457 a5bd
00000360: a9aa a83d 19d6 92bd b012 b13d 1ae0 1dbe
00000370: cf76 ba3d 4e44 bbbd 718a 1e3e 3f9a 0dbe
00000380: f38c 25be 1162 033d 95fc 143e 908b 103b
00000390: 21cc 8fbc da5c 313d 68df e63d 3c33 dbbd
000003a0: 9e9d 13be bb87 e2bb 7500 ce3d 2b99 0d3e
000003b0: dd68 0ebe ced0 44bd 7aa9 6cbc d4e3 6cbd
000003c0: 2fc5 923d 198a 053c e7ff 3bbc 04bb 043c
000003d0: bd4c 2d3e 967d 09be ead9 1fbe f3a4 4f3d
000003e0: a53f 1abe 3418 f53d 8796 3dbd beb5 173d
000003f0: c8f2 ff3d 665c 92bd a78d d2bd a71f e43d

v.net.0.bias f4 [64]
-0.062903136 0.01657076 -0.02381662 -0.07318057 0.16667537 -0.001245544 -0.030823164 -0.16143267
-0.16758874 0.019095356 0.13943365 -0.12392273 -0.0034622701 -0.049672697 0.15056868 -0.0010121526
-0.12878439 -0.16895005 0.076221526 0.082311556 0.12737937 0.12543963 0.03090212 -0.13259242
0.15411264 0.07421589 -0.12315061 -0.075131625 -0.056027293 -0.15377718 -0.113272265 0.01908137
-0.08681333 0.10695747 0.12014997 -0.0126727 0.03455675 0.1436022 0.066016875 0.07128429
-0.11351772 -0.03828506 0.023642743 0.08825774 0.061909627 0.104725026 0.00068614905 -0.158279
0.1450152 -0.078813076 0.080505535 0.13492078 -0.016846532 0.046037387 -0.16610725 -0.14152318
-0.09553281 0.063875526 -0.12970233 -0.12212609 -0.03211082 -0.072958626 -0.0018300033 0.16128726
00000000: 5cd3 80bd 67bf 873c 131b c3bc b2df 95bd
00000010: f3ac 2a3e 8541 a3ba dc80 fcbc 9b4e 25be
00000020: 629c 2bbe dd6d 9c3c b2c7 0e3e 33cb fdbd
00000030: 41e7 62bb 9975 4bbd ad2e 1a3e 35aa 84ba
00000040: 0ee0 03be 3e01 2dbe 081a 9c3d f692 a83d
00000050: bd6f 023e 3f73 003e 7126 fd3c 4fc6 07be
00000060: b4cf 1d3e 80fe 973d 6336 fcbd 9cde 99bd
00000070: e07c 65bd c477 1dbe 4afb e7bd 8950 9c3c
00000080: 30cb b1bd 850c db3d 3011 f63d 28a1 4fbc
00000090: 618b 0d3d 750c 133e db33 873d 7ffd 913d
000000a0: fa7b e8bd ccd0 1cbd 6dae c13c 79c0 b43d
000000b0: f394 7d3d 137a d63d afde 333a e413 22be
000000c0: dd7e 143e c068 a1bd 16e0 a43d ac28 0a3e
000000d0: bd01 8abc b391 3c3d 0518 2abe 74eb 10be
000000e0: b5a6 c3bd 2cd1 823d b0d0 04be 3e1d fabd
000000f0: a386 03bd 556b 95bd b9dc efba 7d28 253e

v.net.2.weight f4 [64, 64]
-0.041993976 0.09376629 0.112227574 -0.022822961 0.037767917 0.05468677 -0.015457198 0.059263363
0.11313854 0.04139696 -0.06965521 -0.03205055 0.0067659914 0.105474144 0.033529982 -0.05020319
0.025595903 0.060374573 0.03825909 0.028218597 -0.09742947 0.075942785 0.041978493 -0.06211573
0.09779477 -0.026304662 0.03378521 0.00034463406 -2.1606684e-06 -0.021075457 0.11294252 -0.122510746
0.0074039847 0.076961145 0.12351394 0.042936966 0.090700835 0.033263087 -0.012013361 0.028686956
0.051040232 0.090150535 -0.08069892 0.003812477 -0.022621155 -0.08991936 0.009420082 -0.00783363
-0.014368027 -0.054788873 0.062618434 0.016629547 0.07172777 -0.017709464 0.06306893 -0.042312533
0.118248254 0.09256019 0.09686023 0.01831539 0.015831485 -0.025981203 -0.05551271 -0.1189231
-0.03726636 -0.03917584 -0.03959444 -0.103741094 0.033554688 0.031118795 0.10603237 0.11363448
-0.06970012 0.020578384 -0.04459642 0.11086476 0.0041749477 0.124974206 0.07995577 0.05073534
-0.028918669 -0.05892265 0.08136152 -0.112148285 0.020195022 0.0577915 0.085619256 0.027157947
0.061509684 0.11096488 -0.04721661 0.076585084 0.061634257 0.108336404 0.024100304 0.106563285
0.10556294 -0.0024133176 0.07451956 0.09353222 0.0017356575 0.057669133 0.06138383 -0.03803891
0.09448719 -0.031324834 -0.039239615 -0.03450547 0.08574425 0.044598117 -0.013220981 -0.009186968
0.10282883 -0.08896683 0.06956987 -0.09947954 0.0025669485 0.009868011 -0.06490156 -0.1070804
-0.10902041 0.035349205 -0.087533504 0.07268764 0.042863324 0.07018085 0.072366714 -0.0030433834
0.06627156 0.0154170245 -0.088902086 0.05634223 0.09939441 0.09485622 0.026976526 -0.03067498
-0.096585155 0.10939887 -0.05287908 -0.1007577 0.019866481 -0.087803885 -0.0306717 0.11748403
0.077424034 0.07518737 0.09204115 -0.0070851445 0.07103105 -0.06042479 0.037255257 0.031449363
-0.11536388 0.032205895 -0.054425508 0.010818124 0.08033596 0.07395691 0.075455874 -0.07514614
-0.066795334 0.09870349 -0.06867048 0.06048 -0.02852571 0.117718816 0.09894855 0.061030805
-0.12143077 -0.04626502 0.1006857 0.06004028 -0.06282525 -0.06949787 -0.062956735 0.090712965
-0.0549704 0.094573826 0.06843884 -0.12289508 0.017301753 -0.008649707 -0.0898695 0.09562369
0.008279994 0.11082359 0.06348419 -0.07296656 0.09440887 -0.025150746 -0.08970605 0.023558855
-0.123021975 0.022906438 -0.017768398 -0.004801303 0.0006776005 0.051140457 0.068336606 -0.10094039
-0.05826105 0.018419117 -0.086823165 0.10505006 -0.06314497 -0.032590568 -0.106672734 0.07010296
0.08780813 0.09939559 -0.109987035 -0.11277713 0.0730135 0.009741783 -0.014887676 0.041242316
0.086734265 0.10079835 0.035856083 -0.07426278 -0.05150558 0.024673581 0.021776125 -0.034212723
0.06789413 -0.06791705 0.099542275 0.120774075 0.012983009 -0.10843195 0.1109508 -0.1118606
0.10967831 0.11270915 0.047737375 0.05874227 -0.011320323 0.003360644 0.124761015 -0.10244341
-0.115398586 -0.117337376 0.09067355 -0.10357742 0.014162719 0.04143539 0.018365338 -0.022509873
0.1146422 0.11277646 -0.06666361 0.015591264 -0.07187429 0.11945528 -0.07527529 0.07189228
00000000: e001 2cbd 8a08 c03d 92d7 e53d 38f7 babc
00000010: 88b2 1a3d 3cff 5f3d 3040 7dbc 24be 723d
00000020: 2eb5 e73d dc8f 293d 64a7 8ebd 7047 03bd
00000030: 40b5 dd3b d402 d83d bc56 093d dca1 4dbd
00000040: 80ae d13c 544b 773d 90b5 1c3d b02a e73c
00000050: 1a89 c7bd e487 9b3d a4f1 2b3d 106d 7ebd
00000060: a048 c83d e07c d7bc 5c62 0a3d 00b0 b439
00000070: 0000 11b6 70a6 acbc 684e e73d eae6 fabd
00000080: 209d f23b ce9d 9d3d e0f4 fc3d acde 2f3d
00000090: 5cc1 b93d e03e 083d b0d3 44bc e800 eb3c
000000a0: 900f 513d d8a0 b83d 7a45 a5bd c0da 793b
000000b0: 0050 b9bc a427 b8bd b056 1a3c a058 00bc
000000c0: e067 6bbc 4c6a 60bd 183e 803d b03a 883c
000000d0: 02e6 923d 7013 91bc 482a 813d e84f 2dbd
000000e0: 242c f23d 3290 bd3d a85e c63d 280a 963c
000000f0: 08b1 813c 88d6 d4bc 4c61 63bd f48d f3bd
00000100: 9ca4 18bd d876 20bd c82d 22bd 3676 d4bd
00000110: a470 093d d8ec fe3c 8027 d93d 32b9 e83d
00000120: f0be 8ebd 0094 a83c bcaa 36bd 100d e33d
00000130: 00ce 883b 7af2 ff3d dabf a33d dccf 4f3d
00000140: d8e6 ecbc e058 71bd dea0 a63d 00ae e5bd
00000150: 0870 a53c c8b6 6c3d 2659 af3d 587a de3c
00000160: 94f1 7b3d 8e41 e33d 3466 41bd a4d8 9c3d
00000170: 3474 7c3d 7adf dd3d 006e c53c da3d da3d
00000180: 6231 d83d c028 1ebb b69d 983d d28d bf3d
00000190: 007f e33a 7836 6c3d 9c6d 7b3d b0ce 1bbd
000001a0: 8082 c13d 784e 00bd b8b9 20bd 9c55 0dbd
000001b0: ae9a af3d 84ac 363d d09c 58bc f084 16bc
000001c0: ec97 d23d 3e34 b6bd a67a 8e3d eebb cbbd
000001d0: 403a 283b 70ad 213c 1ceb 84bd f84c dbbd
000001e0: 1846 dfbd 54ca 103d c444 b3bd 42dd 943d
000001f0: 7491 2f3d faba 8f3d 0035 943d 8073 47bb
00000200: 62b9 873d b097 7c3c 4c12 b6bd 1cc7 663d
00000210: 4c8f cb3d fa43 c23d e0fd dc3c 184a fbbc
00000220: 70ce c5bd 840c e03d bc97 58bd 0e5a cebd
00000230: 08bf a23c 86d2 b3bd 3843 fbbc 789b f03d
00000240: 7e90 9e3d d6fb 993d 1280 bc3d 802a e8bb
00000250: ba78 913d fc7f 77bd f898 183d 0cd1 003d
00000260: e643 ecbd 54ea 033d 48ed 5ebd 803e 313c
00000270: 2e87 a43d b876 973d 9c88 9a3d 38e6 99bd
00000280: fecb 88bd 0e25 ca3d 1ca3 8cbd e0b9 773d
00000290: c0ae e9bc 9016 f13d 8aa5 ca3d 70fb 793d
000002a0: b2b0 f8bd 6480 3dbd 4e34 ce3d ccec 753d
000002b0: 86aa 80bd e654 8ebd 76ef 80bd b8c7 b93d
000002c0: a428 61bd ecaf c13d aa29 8c3d 6ab0 fbbd
000002d0: 68bc 8d3c 80b7 0dbc 800d b8bd 5ad6 c33d
000002e0: d0a8 073c 7af7 e23d 0004 823d 7e6f 95bd
000002f0: 7059 c13d f008 cebc ceb7 b7bd 80fe c03c
00000300: f2f2 fbbd 48a6 bb3c 088f 91bc 4054 9dbb
00000310: 00a1 313a a878 513d 10f4 8b3d d6b9 cebd
00000320: 24a3 6ebd b0e3 963c 58d0 b1bd 7c24 d73d
00000330: 2652 81bd b07d 05bd 3c77 dabd 2492 8f3d
00000340: c0d4 b33d ea8f cb3d e240 e1bd b2f7 e6bd
00000350: 1a88 953d 009c 1f3c 70eb 73bc b4ed 283d
00000360: bca1 b13d 5e6f ce3d d4dd 123d 1617 98bd
00000370: 84f7 52bd 4020 ca3c d863 b23c a422 0cbd
00000380: 140c 8b3d 1818 8bbd d2dc cb3d 6658 f73d
00000390: b0b6 543c 9211 debd 2c3a e33d 2c17 e5bd
000003a0: 069f e03d 0ed4 e63d 4488 433d bc9b 703d
000003b0: e078 39bc 403e 5c3b b482 ff3d dacd d1bd
000003c0: 1856 ecbd 944e f0bd 0eb3 b93d 6620 d4bd
000003d0: c00a 683c 28b8 293d e872 963c a066 b8bc
000003e0: 88c9 ea3d 58f7 e63d ee86 88bd 8072 7f3c
000003f0: d432 93bd f8a4 f43d ee29 9abd 423c 933d

v.net.2.bias f4 [64]
0.055238605 0.05709827 0.016773134 0.042292416 -0.05667481 0.00894241 0.010265812 -0.075966716
-0.05382912 0.06922555 0.049367145 -0.10734327 -0.061056226 -0.007006794 0.010466427 0.028988853
0.034525856 -0.09715836 0.122392476 0.100969285 -0.05709356 0.0196473 -0.09502888 -0.03723672
0.08238125 0.02309154 0.08606082 -0.005226746 -0.01710695 0.025225371 -0.109356314 0.116552025
0.09157546 0.101729065 -0.048854098 0.080546826 0.008885831 -0.03104937 0.012151524 -0.087277934
-0.12163867 -0.122111276 -0.09670593 0.029996544 0.11043556 0.022291169 -0.09773639 0.073670164
-0.09158635 -0.094587415 -0.049812376 -0.033351123 -0.10879852 -0.06439924 0.01495868 0.11944656
0.041630536 0.09125945 -0.11864458 -0.046389714 -0.031803727 -0.08532694 0.082768396 -0.028874427
00000000: e041 623d e0df 693d d067 893c d03a 2d3d
00000010: d823 68bd 3083 123c f031 283c 7094 9bbd
00000020: ec7b 5cbd 20c6 8d3d 3435 4a3d cad6 dbbd
00000030: 1816 7abd 4099 e5bb 607b 2b3c 087a ed3c
00000040: fc6a 0d3d f6fa c6bd e8a8 fa3d fcc8 ce3d
00000050: f0da 69bd 60f3 a03c 809e c2bd 8885 18bd
00000060: 80b7 a83d 782a bd3c a840 b03d 2045 abbb
00000070: e023 8cbc 70a5 ce3c 34f6 dfbd d4b2 ee3d
00000080: ea8b bb3d 5457 d03d 3c1b 48bd bcf5 a43d
00000090: e095 113c 405b febc 3017 473c c6be b2bd
000000a0: b21d f9bd 7a15 fabd c20d c6bd 50bb f53c
000000b0: 0a2c e23d f89b b63c 042a c8bd 62e0 963d
000000c0: a091 bbbd 0cb7 c1bd 1008 4cbd 309b 08bd
000000d0: c2d1 debd c0e3 83bd 4015 753c 66a0 f43d
000000e0: c884 2a3d 3ce6 ba3d eefb f2bd 2403 3ebd
000000f0: a044 02bd e4bf aebd 7a82 a93d 108a ecbc

v.net.4.weight f4 [1, 64]
0.10584791 -0.028505236 -0.08020337 -0.107960686 -0.06687769 0.083458856 0.10539523 -0.060165584
-0.0009704679 -0.113103494 -0.059084818 -0.10746129 -0.10460007 0.072040305 -0.03955631 0.06328532
0.06435296 0.015392721 -0.05038935 -0.08287896 -0.016120464 -0.06998554 -0.10946971 0.06814575
-0.032381937 0.033079356 0.123502895 0.024260476 -0.02077949 -0.026662722 -0.06526303 0.019288793
-0.042755693 0.050598368 0.08803201 0.076777086 0.05914858 0.11663674 0.058902994 0.058647677
0.025871575 0.10465002 -0.10524282 -0.03841734 -0.05306135 0.11890854 -0.026743442 -0.017608166
-0.046542287 0.0320023 -0.12004249 0.11445923 -0.06461339 -0.06895012 0.09397884 0.013623536
0.12186679 -0.115403086 -0.068311766 -0.05732958 -0.0984271 0.081044585 0.025979057 0.07414618
00000000: cac6 d83d d083 e9bc aa41 a4bd 7e1a ddbd
00000010: 2cf7 88bd 7aec aa3d 74d9 d73d 3070 76bd
00000020: 0067 7eba cea2 e7bd ec02 72bd aa14 dcbd
00000030: 9038 d6bd de89 933d cc05 22bd bc9b 813d
00000040: 7ccb 833d c031 7c3c 1065 4ebd 72bc a9bd
00000050: 100f 84bc 9454 8fbd a831 e0bd 0090 8b3d
00000060: eca2 04bd 387e 073d 16ef fc3d e8bd c63c
00000070: c039 aabc c86b dabc a0a8 85bd 8803 9e3c
00000080: 9820 2fbd 3c40 4f3d 204a b43d 4e3d 9d3d
00000090: c845 723d 3edf ee3d 4444 713d 8c38 703d
000000a0: a0f0 d33c c052 d63d 8c89 d7bd 805b 1dbd
000000b0: dc56 59bd 5286 f33d 1015 dbbc 003f 90bc
000000c0: 20a3 3ebd d814 033d d6d8 f5bd 9a69 ea3d
000000d0: 0654 84bd b835 8dbd fa77 c03d 4035 5f3c
000000e0: 4c95 f93d 7458 ecbd 0ae7 8bbd 6cd2 6abd
000000f0: 2694 c9bd b4fa a53d 08d2 d43c f4d9 973d
