runs/phoenix/DroneHoverBulletEnvWithAdversary-v0/ppo/2023-07-30__14-00-07/seed_53079/torch_save/model.pt (torch, 49538 bytes, 14 tensors)

obs_oms.mean f4 [34]
00000000: 0000 0000 0000 0000 0000 0000 0000 0000
00000010: 0000 0000 0000 0000 0000 0000 0000 0000
00000020: 0000 0000 0000 0000 0000 0000 0000 0000
00000030: 0000 0000 0000 0000 0000 0000 0000 0000
00000040: 0000 0000 0000 0000 0000 0000 0000 0000
00000050: 0000 0000 0000 0000 0000 0000 0000 0000
00000060: 0000 0000 0000 0000 0000 0000 0000 0000
00000070: 0000 0000 0000 0000 0000 0000 0000 0000
00000080: 0000 0000 0000 0000
0.0 0.0 0.0 0.0 0.0 0.0 0.0 0.0
0.0 0.0 0.0 0.0 0.0 0.0 0.0 0.0
0.0 0.0 0.0 0.0 0.0 0.0 0.0 0.0
0.0 0.0 0.0 0.0 0.0 0.0 0.0 0.0
0.0 0.0

obs_oms.std f4 [34]
00000000: 0000 803f 0000 803f 0000 803f 0000 803f
00000010: 0000 803f 0000 803f 0000 803f 0000 803f
00000020: 0000 803f 0000 803f 0000 803f 0000 803f
00000030: 0000 803f 0000 803f 0000 803f 0000 803f
00000040: 0000 803f 0000 803f 0000 803f 0000 803f
00000050: 0000 803f 0000 803f 0000 803f 0000 803f
00000060: 0000 803f 0000 803f 0000 803f 0000 803f
00000070: 0000 803f 0000 803f 0000 803f 0000 803f
00000080: 0000 803f 0000 803f
1.0 1.0 1.0 1.0 1.0 1.0 1.0 1.0
1.0 1.0 1.0 1.0 1.0 1.0 1.0 1.0
1.0 1.0 1.0 1.0 1.0 1.0 1.0 1.0
1.0 1.0 1.0 1.0 1.0 1.0 1.0 1.0
1.0 1.0

pi.log_std f4 [4]
00000000: 1872 31bf 1872 31bf 1872 31bf 1872 31bf
-0.6931472 -0.6931472 -0.6931472 -0.6931472

pi.net.0.weight f4 [50, 34]
00000000: 7193 283e db44 b7bd afdf 2d3c c653 dfbd
00000010: 628d 8b3c 8f30 223e 51d3 6b3d 5459 72bc
00000020: e28f c0bd 9957 99bd f05b e5bd ac29 643c
00000030: 8a89 c53d 8a4e 8bbd facf 8dbc c412 74bd
00000040: b62d 2abe f26a b1bd 9fe5 6fbd f14c 31bd
00000050: efee 003e c5e0 39bc e99c bc3b da89 dfbd
00000060: faa1 72bd 57ec 253d 9ab4 16bd 4a94 2c3e
00000070: 8b2f 97bc f74a 39bd 73e3 933d f763 db3d
00000080: 32e4 0b3e b43f 333d 1d08 bcbd 4764 4b3d
00000090: 5584 26be 0805 2cbe 150b 2d3e ddf8 8c3d
000000a0: 0b2d 06be a740 34bd aa43 0cbd 5233 77bc
000000b0: 2a62 1bbe 01b7 c9bd cd01 b2bd 5d2d 23be
000000c0: c19c efbb a7e0 0f3e 44c7 92bd 7974 08be
000000d0: 69b7 d23d 530c 6d3d 4805 2dbe 6fcd bc3d
000000e0: 579e 1d3e 27e1 02be eadc 02be 2265 14be
000000f0: 53ce d4bd 00e5 afbd 92e8 c7bd c1de c0bd
00000100: a203 9f3d b6db 0abc ea59 ef3d fc9e 0f3e
00000110: 68a8 17bd fa54 13bd 3c7d e43c 6ed6 86bd
00000120: 00d7 133e 0813 1dbe 6f71 d8bc cd0c e0bc
00000130: f76f 0ebd 4d15 8fbd 46cd 0cbd 4c54 b63c
00000140: 3676 11be c317 403d 18e1 0abe 9e05 48bd
00000150: 7787 e5bd 8d27 df3b a47e b23c abc4 d23c
00000160: f755 0a3d a929 4ebb 2354 3dbd dea3 bcbd
00000170: d6cb 3c3d 0963 063e 9efb d83c fc31 b13d
00000180: 74c3 453d 2bf8 e9bd fe76 5ebc b06e 1a3d
00000190: 10d7 fabd 6bf4 db3d 647f ad3b 0b49 533d
000001a0: 26f4 e93c 2593 f03d 7582 243e 54a3 2e3e
000001b0: 967c 033e 6e74 0cbe fc35 b8bd 3541 f63c
000001c0: aa9d 86bd 0c0b da3d 2fbe c6bc b33c 2f3e
000001d0: 01d1 0f3e 4575 043e 67c1 823d 66ee c63d
000001e0: 5502 1cbd 8b4f 703c 69a2 1bbe 151f 85bd
000001f0: 84a1 a3bc f86d fbbd a6ae c53d 7978 473d
00000200: ed91 143c 69ba 0a3e cf38 223e 2888 8c3d
00000210: 72e5 943c 005d 2c3d 8590 d63d 2f6e 1a3e
00000220: c99e 9a3d 7c38 fbbc 409d 1bbe 09b0 d9bc
00000230: 51ba 9ebc acaa e63d 01f1 2cbd a7ed 053e
00000240: b9b0 fbbd fab5 0abe 27a7 86bd 152d 16be
00000250: eecb 0ebd 163b f8bb b074 313d 582a a3bd
00000260: 5f0a 2b3e 8595 04be e044 2dbe 88cf dc3d
00000270: 0004 cf3d b642 2b3d 23e3 cc3d 2f3a 22bd
00000280: 9d8a 0abe f083 243a e202 073c b4c6 22bd
00000290: 2b69 80bd 9c82 12bd 24ca 82bd c52c 93bd
000002a0: 9dd0 6f3d 6302 eb3b f4cb 11be 2251 a5bd
000002b0: 9ff7 fe3d e147 d63d 1fd7 263d a59e 2dbd
000002c0: e779 163e d4c7 eb3d ed05 2e3e 6315 12be
000002d0: 6e65 373d b8b0 373d 3231 a63b 14ad 7f3d
000002e0: 1230 95bd 667b fd3d 59b2 283e 3128 7bbb
000002f0: 43d0 e4bd cc5e 733d 9e97 263e 2723 a13c
00000300: 7e4b 7abd fde5 a8bd 69fe 2bbe f57a bf3d
00000310: 7e67 e53d 1578 ec3d 43a1 16be 6d05 e7bd
00000320: 3c21 443d c3d6 eebd 7d1f 2ebe df62 eebc
00000330: 137d 1f3d 8fdb a8bd af23 6cbd 2185 22bd
00000340: ee8d 1a3e 6562 ccbd a579 c33d 857c 0ebe
00000350: 1794 d4bd f88e 2cbe 814d 1c3e 1a93 c5bd
00000360: 6fd9 043e 7b62 853d ef5f f5bd f18b dfbd
00000370: 6d97 d4bd 41cf b9bd 0af0 8bbd fbb5 14be
00000380: dc75 23be 12b7 9c3d c965 2b3e 18a1 c1bd
00000390: 385b 523d b18f 89bd c138 25be 7337 e53d
000003a0: a7ac 20be 55b2 163e edbe debd 6498 4bbd
000003b0: dcff 99bd 3fb2 95bd c74d 5b3b cee1 bbbc
000003c0: 8ed2 213e a288 a03d 06a5 25be 071d 273e
000003d0: ccf3 ffbd b22f 22be a647 193d 9996 fabd
000003e0: efd7 9c3c e822 a33d 33e4 f7bd eabe 203c
000003f0: acdb 1abe b794 233d 36a0 febd 96f7 143e
0.16462494 -0.0894868 0.010612412 -0.109046504 0.01703519 0.15838836 0.057574574 -0.014791805
-0.094024435 -0.07487411 -0.11199176 0.013925951 0.09645374 -0.068020895 -0.017311085 -0.05958821
-0.16619 -0.08662976 -0.058568593 -0.043286268 0.12591146 -0.011345093 0.00575601 -0.10914965
-0.059236504 0.040508594 -0.03679333 0.16853443 -0.018455287 -0.045237508 0.07221117 0.10712426
0.13661268 0.043761924 -0.09181235 0.04965618 -0.16261418 -0.16798794 0.16898759 0.068834044
-0.1310312 -0.04400697 -0.034244217 -0.015087919 -0.15174165 -0.09849358 -0.0869175 -0.15935273
-0.0073123877 0.14050542 -0.07166913 -0.13325681 0.10288889 0.05787308 -0.16896546 0.09218871
0.15392433 -0.12781201 -0.12779585 -0.14491704 -0.10390916 -0.085886 -0.09761156 -0.09417487
0.07764365 -0.008475235 0.116870716 0.14025491 -0.03702584 -0.03596971 0.027891748 -0.06583868
0.14437485 -0.15339291 -0.026421277 -0.027349854 -0.034774747 -0.06986485 -0.03437545 0.022256993
-0.1420525 0.04689766 -0.13562429 -0.048833482 -0.112074785 0.0068101347 0.021788903 0.025728544
0.03377339 -0.0031457937 -0.046222817 -0.09210943 0.04609283 0.13123716 0.026487168 0.08652112
0.0482821 -0.114242874 -0.013578175 0.037703216 -0.12248051 0.107399784 0.005294727 0.05158333
0.028558802 0.117468156 0.1606539 0.17054492 0.12840495 -0.1371629 -0.08994672 0.03006039
-0.06573041 0.10646638 -0.024260608 0.17112999 0.14044572 0.1293536 0.06384545 0.0971344
-0.03808816 0.014667402 -0.15198673 -0.06500069 -0.019974478 -0.12276834 0.09652452 0.048698876
0.009067995 0.13547672 0.15841983 0.06861907 0.018175814 0.04208088 0.10476784 0.15081094
0.07549817 -0.030666582 -0.15196705 -0.026573198 -0.019375952 0.11263022 -0.042222027 0.13078938
-0.122895665 -0.13545981 -0.065748505 -0.14665635 -0.03486245 -0.007575403 0.043324172 -0.07967061
0.16703175 -0.12947662 -0.16920805 0.10781771 0.10108185 0.041811667 0.100042604 -0.03960627
-0.1352944 0.0006275764 0.008240433 -0.03974028 -0.06270059 -0.03576909 -0.063862115 -0.071862735
0.05854856 0.0071719154 -0.14237958 -0.080721155 0.12449574 0.104629286 0.0407325 -0.042387623
0.1469494 0.115127236 0.16994448 -0.14265971 0.044774465 0.044846267 0.0050717825 0.06242092
-0.07284559 0.12377052 0.16474284 -0.0038323516 -0.11172535 0.059416577 0.16268775 0.019670082
-0.06110715 -0.08246992 -0.16796269 0.09349624 0.1120138 0.11546341 -0.14709954 -0.11280332
0.047883257 -0.11662056 -0.170042 -0.02909988 0.03893764 -0.082450025 -0.057651218 -0.039677743
0.15093204 -0.09979705 0.09544686 -0.13914688 -0.103798084 -0.16851413 0.1526394 -0.09647198
0.1297357 0.06512924 -0.119811885 -0.109153636 -0.10380445 -0.09072734 -0.06832893 -0.14522545
-0.15962929 0.076521054 0.16738047 -0.09454554 0.051356524 -0.0671686 -0.16134931 0.11192217
-0.15690862 0.14716466 -0.1087626 -0.049705878 -0.075195044 -0.07309388 0.0033463107 -0.02293482
0.15802976 0.07838561 -0.16176233 0.16319667 -0.124976724 -0.15838507 0.037421845 -0.122357555
0.019145934 0.07965642 -0.121040724 0.009811142 -0.1512286 0.039936747 -0.124329016 0.14547572

pi.net.0.bias f4 [50]
00000000: f60c 67bd 8886 d93c 5c8a 2cbd 92d9 943d
00000010: 9f82 e53d 82cf ea3d 59d1 bc3c eefa 3b3c
00000020: bea7 023e feca 09be a164 653d 3760 c6bd
00000030: 95e3 12be bc6a 18be 0eae 19be 33ec 25be
00000040: a9ac 12be 62f6 6fbd 72d8 2abe 1a5a 88bd
00000050: 31e5 a33d 7a97 773c 5495 7b3d e3e8 883d
00000060: efd9 02be 1d88 f2bd acbd 17bd 8be8 eebd
00000070: 0fcb eabd 3547 debd b38c b4bd 9358 50bc
00000080: 163e 4dbd 4c65 3b3c f850 29be 2234 5f3d
00000090: a084 413d b9ff 893c b182 e63c 43d7 d63d
000000a0: f9c5 0c3e 1c71 d03d c08d 82bd 9dab 153e
000000b0: f8fa 07be 2f39 173e 60fc a5bb 269f 0d3e
000000c0: fef5 043e f716 313b
-0.056408845 0.026553407 -0.042124137 0.07268061 0.112065546 0.1146536 0.023049043 0.0114734005
0.12759301 -0.13456342 0.05600417 -0.0968632 -0.14344628 -0.14884466 -0.15007803 -0.16203384
-0.14323677 -0.05858458 -0.1668413 -0.066578105 0.08002699 0.015111798 0.061421707 0.066850446
-0.12778448 -0.11842368 -0.03704612 -0.11665448 -0.114645116 -0.108534254 -0.08815899 -0.01271643
-0.050108038 0.011437725 -0.16534793 0.054493077 0.04724562 0.01684557 0.02813849 0.10490277
0.13747396 0.10177824 -0.06374693 0.14616247 -0.1327933 0.14767908 -0.005065486 0.13830242
0.12984464 0.0027021745

pi.net.2.weight f4 [50, 50]
00000000: 6fcc 0d3e f665 08bd f9bf 973d db20 4ebd
00000010: 0128 97bd 5104 eabc 3d0c c7bd 8c3a 1a3d
00000020: 56f3 f53d dc43 8abd c9fe f43c 93f3 063e
00000030: e0a3 d33d 0546 183d 272c ab3c 70d3 063c
00000040: 3470 f7bd 73ba c13d 1f43 a5bd 88ed 5cbd
00000050: 0132 0abd c95a ccbd 1f53 833d 4ccb e83d
00000060: 255d 6e3d 3b1e ed3d 05cc 563d d221 3e3d
00000070: 3f8c af3d 326c 8e3c 563e f4bd a3f2 e0bb
00000080: 63b8 2fbd bff1 f23d 9ff1 6cbd b416 28bc
00000090: d4ce 42bd daac f93d e5f3 ea3d 57b5 563d
000000a0: ddc6 8f3d 8336 d4bd 9257 dfbd 03ee 233c
000000b0: b97d ac3d 6b9f fa3d 8331 bbbd cd1d 063d
000000c0: 30b6 f7bc 844e 0e3e c26e ee3d 3509 5c3d
000000d0: e43e 153d 0b5b c0bd 87e0 ca3d b961 efbd
000000e0: e600 483d 27eb 9c3d 354e 803c 7b68 debd
000000f0: 25a3 83bd 7928 f9bd c970 ecbd c9e8 7cbd
00000100: 03d8 babd 95b6 d9bd 052b 41bc 75e2 a83d
00000110: d0e1 f2bc c6f4 41bd dd80 083e a796 bd3d
00000120: eb91 503d 49c3 983d 6934 913d c49a 5abd
00000130: 12cf 953c 78e3 59bd 7977 243d 2ab5 1d3d
00000140: 92a2 66bc 9254 813d f86d 87bd b2fb 2ebd
00000150: d6b2 0c3e be57 01bd 0c3d 913d f842 07be
00000160: 7b31 803d 3391 ebbd 8ff3 f13d 60fd a33d
00000170: b55a 213d ce22 843d 0142 46bc 3098 d9bd
00000180: 7498 0dbd d537 1b3d 76a1 07be 60f5 36bd
00000190: 7536 eb3c 44e5 ff3d 8899 f9bc 4f14 1abd
000001a0: 3059 9f3d 647b 16bd 2568 d43d 39a7 d73d
000001b0: 1b1a 1cbd cd9e aa3d 4f85 f5bc af68 0abe
000001c0: 396a fd3d 91f0 6f3d a936 61bc 93ce 8cbc
000001d0: d734 d63d 90ba 0c3e 7759 8ebd ff27 a23d
000001e0: 1322 01be 8a4c cbbd 1ffa 2ebd 9987 59bd
000001f0: e0db cfbd aa84 96bd 0d83 bc3d e8c7 f9bd
00000200: cb55 a03d 1c4e 6d3d ed7c 06bd c10b e43d
00000210: 2198 a73b 819a b9bc 8542 cf3d 4eb1 a3bd
00000220: cbce b9bb 4e8e 65bd e196 44bd 08f8 fd3d
00000230: 67e5 0d3e 5310 453c 62d2 c2bd dcab 07be
00000240: adf4 0cbe 549c 0bbe 0df4 413d b7d3 08be
00000250: 2f6d 9a3d e614 12bd 05a8 bfbb 95d6 d7bd
00000260: 52de fdbd 887a 223d 3d36 f7bd ea34 b3bd
00000270: 9217 bc3c 25fe b7bd f7d2 0fbd bc50 813d
00000280: ca9b 9c3c f06d edbd 646c 363d 695e 4cbc
00000290: 6990 f93d 9ee1 483b 9401 f13c a50a 6a3d
000002a0: fec4 2bba ffd3 073e 1763 dc3d 0980 063e
000002b0: eb7f f53d 8559 653d 784d 3e3d c39d dd3d
000002c0: 2ff4 563b 1d17 383d 6bbe b3bd f44b 0b3e
000002d0: b196 ee3d 8fa6 8d3b 371f 01be b201 653d
000002e0: 82ea 29bd 2163 8cbb f486 e0bd d61d b43c
000002f0: b68c 673d 3cc9 8cbc 7a04 0e3e ebfe 9dbd
00000300: 4899 0bbe 4bfb d4bd 25c2 d93c 2781 c63d
00000310: 3754 cfbd 0cf7 ea3d 731e edbd 73f1 dabd
00000320: 848e 633d bad2 da3d ff4e c0bd 149a c53d
00000330: 8999 e93d fbd5 aebd 364a 703d 1fdf a0bd
00000340: e561 91bd 6a0f e33d 970b 13bd aa66 c33d
00000350: 8dce d13d 0ed1 fd3d bd3d 0dbe 970c d3bd
00000360: 14b4 9cbc 339d 8d3d 65c3 1f3d f595 863d
00000370: 8972 9fbd 9e9e 933d c587 9b3d 3378 8e3d
00000380: 15a2 eb3c 49d5 873d 81a8 08be 890a 053e
00000390: 4ade a0bd f57a 093e 3706 e4ba 9721 bebd
000003a0: 3fd7 923d c83f 583d c157 a2bd 2b4e 67bd
000003b0: a63b ea3c ea2d 523d b494 233d 49c2 2fbd
000003c0: 5fa0 0e3e 277a 65bd 2e32 363d 542c a23c
000003d0: fefc 05bd 182e edbc 7a87 69bc a1b1 883d
000003e0: dc0f debd 4203 0ebe 1ff2 8d3d 7e8d 05be
000003f0: 0d7b b13d 62b9 9b3d 3441 a43d 796d 9e3d
0.13847516 -0.033300363 0.07409663 -0.050324302 -0.07380677 -0.028566511 -0.09719131 0.03765349
0.12009303 -0.067512244 0.029906647 0.13178854 0.10333991 0.03717615 0.020895077 0.008229122
-0.12081948 0.094593905 -0.08069443 -0.053937465 -0.033739094 -0.099782534 0.064123385 0.11366901
0.0581943 0.11578032 0.052440662 0.046418972 0.08571672 0.017385576 -0.11925952 -0.006864862
-0.042900454 0.11862516 -0.057847615 -0.010259319 -0.047560528 0.12191172 0.114723004 0.052419033
0.07020352 -0.1036196 -0.109053746 0.010005477 0.08422417 0.12237438 -0.09140303 0.032743264
-0.030238241 0.13897139 0.11642219 0.053719718 0.03643693 -0.09392365 0.099061064 -0.11688561
0.04882898 0.07662039 0.015662292 -0.10859772 -0.06427602 -0.12165923 -0.115449496 -0.06174544
-0.09123232 -0.10630528 -0.011790042 0.08246318 -0.029648691 -0.047352575 0.13330407 0.0925725
0.05092041 0.07459123 0.070900746 -0.053370252 0.018287215 -0.053195447 0.040153 0.03850285
-0.014076846 0.06314959 -0.06612772 -0.042720504 0.13740095 -0.031577818 0.07091722 -0.1320914
0.06259438 -0.11502304 0.11814033 0.08007312 0.039393146 0.06451951 -0.0121006975 -0.106247306
-0.03456922 0.037895042 -0.13245186 -0.0446676 0.02871249 0.12494901 -0.030468717 -0.037617024
0.07780683 -0.03673877 0.103714265 0.10529942 -0.038110834 0.0833107 -0.029970793 -0.13516496
0.12373776 0.05857903 -0.013745942 -0.017188346 0.10459297 0.13743043 -0.06950658 0.07917785
-0.12610655 -0.09926708 -0.042719003 -0.05310783 -0.1014936 -0.073495224 0.092046835 -0.12196332
0.07828864 0.05793582 -0.032833982 0.111350544 0.0051145707 -0.022656681 0.101201095 -0.079928026
-0.0056704036 -0.056043915 -0.04799545 0.12400824 0.13857041 0.012027818 -0.095127836 -0.13249153
-0.13765211 -0.13633853 0.047351886 -0.13362013 0.07540356 -0.03566446 -0.005848887 -0.10538975
-0.1239592 0.039667636 -0.12070892 -0.08750327 0.022960458 -0.08984021 -0.0351133 0.06314227
0.019117255 -0.115932345 0.044536963 -0.012473681 0.12185747 0.0030652056 0.029419698 0.057139058
-0.00065524864 0.13264464 0.107610874 0.13134779 0.11987289 0.055993576 0.0464606 0.10821106
0.0032799353 0.044943918 -0.08776554 0.13603193 0.11649836 0.004322834 -0.12609564 0.05590982
-0.04148341 -0.004284278 -0.1096324 0.021986883 0.056530677 -0.0171858 0.13868895 -0.07714637
-0.13632691 -0.10399493 0.026581833 0.096926026 -0.101234846 0.11472902 -0.11578073 -0.10690584
0.055555835 0.10684724 -0.09390067 0.09648529 0.11406238 -0.08536907 0.058664523 -0.07855057
-0.0709875 0.110869244 -0.035899725 0.09541066 0.102444746 0.1239339 -0.13793083 -0.10305136
-0.019128837 0.06914749 0.039004702 0.06571571 -0.07785518 0.07207988 0.07594255 0.0695652
0.02876381 0.06632478 -0.13345529 0.129923 -0.07854898 0.1342581 -0.0017396872 -0.092837505
0.07169961 0.0527952 -0.07926894 -0.05647103 0.028592896 0.05131332 0.039936736 -0.042909894
0.13928364 -0.056024697 0.04448145 0.019796528 -0.032711975 -0.028952643 -0.014253492 0.06674505
-0.10842869 -0.1386843 0.069309466 -0.13042256 0.08666048 0.07603718 0.08020249 0.07735724

pi.net.2.bias f4 [50]
00000000: 2860 ad3d 75b2 e33d ec04 d03d 9f84 09be
00000010: e58b 783d 3a3f cc3d 6839 dbbd f149 87bd
00000020: c149 ab3d 4c79 573d 9647 99bc f9ad 3a3d
00000030: 8e82 f53d 5da0 d9bd 4a08 adbd 6122 debc
00000040: 9f9b b43d 0991 2dbd 5bd3 42b9 a848 e0bd
00000050: 0150 063e c7cd e53d 35f0 88bd 9e0a a93d
00000060: ae00 01bd 4618 b73b 48ed de3d cb06 493d
00000070: a482 e03d 55f0 3ebd f006 5b3d 62f9 33bb
00000080: 0bc8 e1bd 7c80 77bd 1dcc 713d b5a1 a1bd
00000090: d9e1 0ebe 94f5 c53d d972 d2bd f1e2 74bd
000000a0: 2a4a 7cbd c2c4 683d ec8e dabc fee7 453c
000000b0: 4fc6 8dbc 07f2 14bd bc4b 12bd 83c7 ad3d
000000c0: 5caf 69bc b76a 103e
0.08465606 0.11118022 0.10157189 -0.13429497 0.06068029 0.09972997 -0.10704309 -0.066059
0.08363677 0.052605912 -0.018710893 0.04557607 0.11987792 -0.1062629 -0.08448847 -0.027116003
0.08818745 -0.042374644 -0.00018580018 -0.10951358 0.13116457 0.112208895 -0.06686441 0.08253978
-0.03149479 0.0055876104 0.108851016 0.049078744 0.10962418 -0.046615917 0.053473413 -0.0027461876
-0.11024483 -0.060425267 0.05903255 -0.07892171 -0.13953342 0.09665981 -0.10275812 -0.05978674
-0.061594166 0.056828268 -0.026679479 0.012079237 -0.017306475 -0.036363628 -0.035716757 0.084853195
-0.014263 0.14103208

pi.net.4.weight f4 [4, 50]
00000000: 6a7d 993d 5989 05be 580e b9bd 6975 1ebd
00000010: 08d7 8c3d 76d3 0f3e 9553 88bd 8ca3 76bc
00000020: 22e0 7dbd 14c6 cd3d da44 513d 4238 24bc
00000030: bd4c 373a 233d b1bd c696 ac3d 8d2a 0ebe
00000040: b558 053e e32c 6c3d a693 09bc 0f01 e73d
00000050: e9a3 753d 55e5 a13d 1e06 ad3d f8d6 ba3a
00000060: 6d68 333c 93ef 1b3b f2a8 983c b9e4 643d
00000070: 63c5 d1bd 97b6 0b3e 318c 17bc 7982 29bd
00000080: 0b01 ce3d a4ef 3e3d 054a 08be 433c 86bc
00000090: bd20 0cbe b206 29bc 2904 d13d ac03 08be
000000a0: 2399 9d3d 244e 283c 262b 863c bd6e 73bc
000000b0: 7266 283d ec7c 0e3e f46f 8bbc 521c c23d
000000c0: b815 2bbd a812 84bd 6006 81bd 89b8 fa3d
000000d0: 6016 673d 7317 04be a4f2 fe3d da7a e4bd
000000e0: 348d f6bb a647 443d 25f1 bfbd 2fbc a53d
000000f0: df4a 1d3d c72c 6c3d 7007 023e ab23 53bd
00000100: 0daf 5dbc ea29 2e3d 210e e8bc 8080 18bc
00000110: 3fbd 863d b934 593d c15a 063d 47ac e63d
00000120: b350 99bd 0818 ba3d ecec babc 4407 e13d
00000130: 3b0a 8a3d 219c f93d d2ba 80bc 9b90 08be
00000140: dcae ab3c cc59 883c 49f2 aa3d 0ad5 e53d
00000150: fe85 d1bd 2b73 c4bc 16dd 03bd 2b0f cb3d
00000160: c8d6 27bd a06f 8cbd 5b01 e13d 4bdd 863d
00000170: 6716 5dbd 5805 31bc e5a7 15bc 32a1 433c
00000180: 1af5 efbd 40e6 bbbd ad8c 043e fef0 05be
00000190: 3e6d 7639 facc 1f3d 6de5 e63c c600 1c3d
000001a0: 6578 083e 0efd 993d 8463 f83d 67d1 0abe
000001b0: 3130 0e3e e158 74bd 0c24 40bd 624b fcbd
000001c0: 2421 ebbc 596f 293c b8fe 0abe 952f 78bd
000001d0: 1741 cbbc 936f ce3c 18cb 0ebe 0a3f 03be
000001e0: a5d6 8cbd 867f 7f3d 1bc0 01be 644e 10bd
000001f0: 0849 873d 580b a03d 889f aebd bf35 713d
00000200: 3380 2ebd a193 073e 8d59 5e3d 6583 32bc
00000210: 4032 8d3d 5e10 05be 0a8e 0dbd d5f2 a03b
00000220: 2dc5 fb3c 6c86 00bd 0823 41bd 1f96 e0bd
00000230: fc33 933c 3e71 053e f7cf debd 7d3f fc3d
00000240: e437 293d 046e d03d f65d bdbd 1b7a c73d
00000250: f573 acbd 0894 1a3c 8351 d83d b1ed b9bd
00000260: 295e 8ebd 8c1c 513d 5339 67b9 52f9 9cbd
00000270: d8d6 02be a29d 6cbd 0b2f 333d c5cc 0abe
00000280: 6543 a33d d4c5 f03c 765d babd 370a a7bc
00000290: f06c b0bd 000b a63d cff7 123c ce42 d6bd
000002a0: 508c 103e bdb8 e73d c000 8f3d 0223 bdbd
000002b0: 878e f7bd 37eb 133d 439f 8a3d 373f 6e3c
000002c0: ce2b 23bd 5953 513d b7a5 d4bc ec4d 843c
000002d0: 9bf7 2b3d 92d6 e73d cde7 9fbd c164 98bd
000002e0: 13c8 b9bd 8352 60bd e6d8 6d3d a43c fe3d
000002f0: 366e 243d 5169 76bd 04e1 0f3d 87c8 f93d
00000300: d16b 8e3d d888 823d ee69 863d 2455 28bd
00000310: 7957 b53c 2314 ab3d 16c3 d2bd c8ef a13d
0.07494624 -0.13040675 -0.09035939 -0.03868619 0.068769515 0.1404551 -0.06656567 -0.015053641
-0.061981328 0.10047546 0.051091053 -0.0100231785 0.0006992331 -0.08654239 0.08427195 -0.1388342
0.1302212 0.057659995 -0.008397019 0.11279499 0.05997077 0.0790507 0.084484324 0.001425474
0.01095019 0.002379392 0.018635247 0.05588219 -0.10242727 0.13643871 -0.009249733 -0.041384194
0.10058793 0.046615258 -0.13309486 -0.016386157 -0.13684364 -0.010316538 0.102058716 -0.1328265
0.07695224 0.010272536 0.016377997 -0.014857945 0.041113324 0.13914841 -0.017021157 0.09478058
-0.04176876 -0.06448871 -0.06300044 0.122422285 0.056417823 -0.1289957 0.12448624 -0.111562446
-0.007524157 0.04791989 -0.093721665 0.08092534 0.03840148 0.05765989 0.1269815 -0.051547688
-0.013530505 0.04252044 -0.02832705 -0.009307981 0.065790646 0.053028796 0.032801393 0.11263328
-0.07486095 0.09086615 -0.022818051 0.10987714 0.067402326 0.12187982 -0.015714083 -0.13336413
0.020957403 0.016644381 0.083469935 0.112222746 -0.10230635 -0.023980698 -0.032193266 0.099150024
-0.040976316 -0.06857228 0.10986587 0.06585177 -0.053976443 -0.010804497 -0.009134267 0.011940287
-0.11716671 -0.09174776 0.12944289 -0.13080212 0.00023501084 0.03901384 0.02818557 0.038086675
0.13327177 0.075189695 0.12128356 -0.13556443 0.13885571 -0.059655074 -0.046909377 -0.12319066
-0.028702326 0.010341489 -0.1357373 -0.060592253 -0.02481131 0.025199687 -0.13944662 -0.12817016
-0.06876878 0.062377475 -0.12670939 -0.03523101 0.066057265 0.07814664 -0.08526522 0.058889147
-0.04260273 0.1323991 0.05428462 -0.010895585 0.0689435 -0.12994525 -0.034559287 0.0049117603
0.03073367 -0.031378195 -0.04715255 -0.10966133 0.017969124 0.1303148 -0.1087951 0.12316797
0.041313067 0.10177234 -0.09246437 0.09740087 -0.084205545 0.009434707 0.10562422 -0.09078539
-0.069515534 0.051052615 -0.00022051232 -0.076647416 -0.12777269 -0.057767518 0.043746036 -0.13554676
0.07971839 0.029391207 -0.090998575 -0.020390613 -0.08614528 0.08107567 0.008970215 -0.10461961
0.14116025 0.11314533 0.06982565 -0.09235193 -0.12087732 0.03611299 0.06768658 0.014541439
-0.039836697 0.051104877 -0.025957925 0.016150437 0.04198418 0.11320223 -0.07807884 -0.07441092
-0.09071364 -0.05476619 0.05806818 0.1241391 0.040144168 -0.06015903 0.0351267 0.12196451
0.06954158 0.06373757 0.06563173 -0.04109682 0.022136437 0.0835345 -0.10291116 0.07907063

pi.net.4.bias f4 [4]
00000000: c364 033e 4b49 093d b9eb e53d 154a 063e
0.12831406 0.033517163 0.11226601 0.13114198

v.net.0.weight f4 [64, 34]
00000000: 9e18 873d 46a8 29bd 8aa9 f8bd 7aed c63b
00000010: a78c 60bd b7e3 9fbd 4ddb fbbd 0f2a 773c
00000020: 8653 ffbd 2dd0 18bd 5628 113e c061 043d
00000030: 7664 24be 083a eebd 3153 e53d 1b12 113c
00000040: 0b9f ca3d dfa2 09be 846d 38bd 106e 273d
00000050: 541b 5abd c4c7 ecbd 49f4 f9bd a2a3 ffbd
00000060: 646b 8a3d bc4f 2dbe cf27 2bbd ade9 873c
00000070: a9f5 4a3d b9b7 973d 0f71 f2bd e282 003e
00000080: 1acd 103e 1b9d 1c3e 1436 4fbd b809 363d
00000090: 302a 72bd 265e 21be 0654 f03d 3ac2 063c
000000a0: 092a 473d 51e1 4a3d 477d b43c 3101 21be
000000b0: 2f36 623d 3f58 2d3d 1f95 acbb 1802 d93d
000000c0: 0124 83bc 8760 0c3e 7709 c5bc c35d 47bd
000000d0: 524e 45bd 946a e0bd ce41 b83d 25ac 31bd
000000e0: 3339 6fbd 6291 d53d 71e2 1d3b c63f af3d
000000f0: f594 03be 56c5 1fbe 9d21 80bd 176f 10be
00000100: 6c32 353c b565 a1bd 8fd8 24be 361a 993d
00000110: ceba 1f3e ce14 ddbc 5ec6 15bd 4b7c 803d
00000120: 3181 58bd c063 083e 43be 283d 681a dc3d
00000130: 9dd8 fcbd ff2a ec3d 5d69 9fbd 5fd1 fd3d
00000140: 41c0 1dbe b3c8 05be e681 f53d 0f9a 1e3e
00000150: 1f22 7f3d 06d9 543d c729 423b fca1 d2bc
00000160: 50ad bcbd 05eb 2c3e 22ec 9dbd 8def d8bd
00000170: 2205 ad3d a607 a5bb 93bc 913d 3a33 233e
00000180: 1195 b33d b326 8bbd 021d b1bd d633 d4bd
00000190: 9b8e 14bd 54cd dbbd 1792 7bbc b1ed 0bbe
000001a0: 0198 9b3c 9f26 c33d ebaa 9fbd 41f3 29be
000001b0: 4381 dcbd 344d 073d a51f 9ebd 4401 35bd
000001c0: 63fe 273e ed76 e73d 068b 2c3e c735 ac3d
000001d0: 9d73 563c d568 3fbd 389e 24be 79bb 203e
000001e0: 4ecf f43d 01ab a63d 0326 273d 950f 16be
000001f0: db12 a93c 065e abbd 4fd4 c63c 4778 acbd
00000200: d6fd b6bd 6897 aabd 25d0 febd 8406 85bc
00000210: feda eb3d 579f 0e3e 9093 2abe c51c db3c
00000220: b948 283e fdac 6b3d 18f3 50b9 db07 4a3b
00000230: 3693 cfbd 151e a83c bdf1 09be db15 d4bd
00000240: 3344 b63d 5119 13bc c91a 113d dbed 2e3e
00000250: 5669 9ebd ed94 b0bc ae32 2c3c 73a4 b1bc
00000260: 30d8 aebc 65ea 85bb af01 1b3c c6e0 f1bd
00000270: 463f a73d 6980 0cbe 0a0b 693c 4403 13be
00000280: 0db1 00bc 4fd7 e5bd 53b5 1abe beb9 263e
00000290: 6f50 273d e5da 0f3e 386c 313d 50b6 f0bd
000002a0: b9de 753c 2221 d63d 8d36 e33d eb93 3eb9
000002b0: 89ce 183e 7202 8dbd fd2d 6abd c0a2 0c3e
000002c0: c353 d7bb cac9 bebd 99de b8bd d9f6 0abe
000002d0: 0965 2abe 70dc 2dbe 6d9b 95bd 5e98 203e
000002e0: ea06 c33d 11b8 86bc 741b 253d 4129 5d3d
000002f0: 2a1f 04be f5f2 1c3e 5de5 3f3d 7e0f ba3d
00000300: adf1 ec3d ccd5 f13d 4b6c 7abd 20e9 183e
00000310: 757a 66bc 629f 26bc 9d86 c5bc 90e6 86bd
00000320: e22b 0a3e 1099 133e 4850 8ab9 030c 20be
00000330: 85c4 d7bc 2158 003d dad8 023e f64f eebd
00000340: c34a 24bd 5b9f e2bc 6372 1cbe 7c8a 9f3d
00000350: 0b57 193e b4a8 acbd 93dd 193e b6ad 3abc
00000360: b02b f0bd 3faf 0bbe 94f7 b03c e37f 833d
00000370: b06f d3bd e840 d9bc 97e9 cabd 7a6d 04bd
00000380: 2ec9 153e 7fef 08be 2976 933d f0d4 f3bc
00000390: a1fb 0e3b 8880 debd 4c75 46bd 21ba a63d
000003a0: 17bf 133d 14bd 15be 833b 07be f424 2ebe
000003b0: 828a d63c 4cb9 2b3e f6bc c3bd 101d d0bb
000003c0: df59 d5bd e1a2 073e 6dea f9bd 29fc 1b3d
000003d0: e88c c0bd 35a1 1dbe be46 24be 6363 d7bd
000003e0: 1540 1f3e aa67 053e c5f3 d73b 54e8 33bd
000003f0: 7c66 ae3c 0144 fd3d 0557 0b3d b84a 75bc
0.06596492 -0.041420244 -0.12141712 0.00607079 -0.054821637 -0.07807105 -0.12297688 0.015085711
-0.12467103 -0.037307907 0.14175543 0.032319784 -0.16053948 -0.11632162 0.11197508 0.008854414
0.09893616 -0.13441037 -0.045026317 0.04087645 -0.05324872 -0.1156154 -0.12204797 -0.12482382
0.067587644 -0.16924948 -0.04178601 0.016590917 0.049550686 0.07408089 -0.118379705 0.12549928
0.1414074 0.15294306 -0.050588682 0.044442862 -0.059122264 -0.15758571 0.11734776 0.008225018
0.048624072 0.049531285 0.022032393 -0.1572311 0.055227455 0.042320486 -0.0052668 0.105961025
-0.016008379 0.13708697 -0.024052365 -0.048673403 -0.048170395 -0.10957828 0.08996926 -0.04337706
-0.05840416 0.1042812 0.0024091268 0.08557086 -0.12849791 -0.15602621 -0.06256411 -0.14104877
0.011059385 -0.07880727 -0.16098236 0.074757025 0.15598604 -0.02698746 -0.03656613 0.06273707
-0.05285758 0.13319302 0.041197073 0.10747224 -0.12346003 0.11531638 -0.07783768 0.1239345
-0.1540537 -0.13064842 0.11987667 0.15488456 0.0622884 0.051964782 0.0029626952 -0.025712006
-0.09212744 0.16886528 -0.077110544 -0.10592566 0.08448245 -0.005036312 0.07116046 0.1593751
0.087686665 -0.06794491 -0.08648111 -0.103614494 -0.03626881 -0.107325226 -0.015354655 -0.13664891
0.01899338 0.09528851 -0.07796272 -0.165967 -0.10766842 0.03303261 -0.077208795 -0.04419066
0.16405635 0.1130198 0.16849908 0.08408695 0.013089088 -0.046730835 -0.1607598 0.15696515
0.11953603 0.08138085 0.040807735 -0.14654382 0.020638874 -0.08367543 0.024271159 -0.084213786
-0.08935134 -0.0832966 -0.12442044 -0.016238458 0.11516379 0.13927971 -0.16657853 0.026747117
0.16433991 0.05753802 -0.00019926985 0.0030827436 -0.101355 0.020522157 -0.13471122 -0.10355731
0.08899727 -0.008978204 0.035425935 0.17082922 -0.07734935 -0.021555388 0.01051013 -0.02168486
-0.02134332 -0.00408678 0.009460851 -0.1181045 0.08166365 -0.1372086 0.014223823 -0.14356714
-0.007854712 -0.112227075 -0.15108232 0.16281793 0.04084819 0.14048345 0.043316096 -0.11753523
0.0150067145 0.10455538 0.11094389 -0.00018174916 0.14922537 -0.06885232 -0.057172764 0.13733959
-0.0065712645 -0.09315832 -0.09026832 -0.13570727 -0.16640104 -0.16978621 -0.07305036 0.15683123
0.09522803 -0.016445192 0.040309384 0.05399442 -0.12902513 0.15327056 0.046849597 0.09084986
0.115695335 0.11808357 -0.061138432 0.1493268 -0.014067282 -0.010169836 -0.02411204 -0.06586945
0.13493302 0.14413857 -0.00026381225 -0.15629582 -0.026338825 0.031334046 0.12778035 -0.11636345
-0.04011036 -0.027663877 -0.1527801 0.07790086 0.1497461 -0.08430615 0.1502593 -0.011393955
-0.11727083 -0.1364107 0.02160243 0.06420877 -0.10324037 -0.026520208 -0.09907835 -0.032330967
0.14627525 -0.1337261 0.07200272 -0.029764622 0.0021817463 -0.10864359 -0.048451707 0.0814097
0.03607091 -0.14622909 -0.13206296 -0.17006284 0.026189093 0.16769904 -0.09557526 -0.006351121
-0.10417532 0.13245727 -0.12202916 0.038082276 -0.09401876 -0.15393527 -0.16042611 -0.105170034
0.15551789 0.13027826 0.006590339 -0.043922737 0.021289103 0.12366486 0.034018535 -0.014971428

v.net.0.bias f4 [64]
00000000: 327f 26be 31b4 9d3d 9842 b73c 64e5 e9bd
00000010: 16a3 b3bc 1412 8bbd eb91 bd3d 58af 22be
00000020: 442a eebd f506 16bd 908a 3cb9 78b2 b33d
00000030: 6ddb 1fbe 4566 03bd 1ce9 513d 0661 be3d
00000040: dce6 73bd 9346 9b3d 2543 d2bc a6f5 06be
00000050: 79ee ac3b e3e7 0abd 26f9 003e e13b 8d3d
00000060: 4df0 a93c c48f 07bb 46dc d23d 9eff be3c
00000070: 15e5 07be 9a18 263e 6c76 153e 6b12 9ebd
00000080: 0deb 1ebe edf4 a03d 97fa a8bd 1795 eabd
00000090: 9329 ef3d f030 083e 35ac 1ebe 9d6d d7bd
000000a0: 5f98 12bd f6cc 26be 5dbf 923d ed35 9bbd
000000b0: 5d41 05be ab8c e83d 75b8 cabc 176e 403d
000000c0: c41c 84bd e809 d23d 8ee2 f4bd 605e e63c
000000d0: af79 953d 3d49 40bc 1c85 f4bc 24fd 873c
000000e0: 5cfa 05be d56c dcbd 0faa 09be 03a2 a4bd
000000f0: b7a6 c2bc 2085 5b3d 854c cfb9 6d2f 213e
-0.16259459 0.077003844 0.022370622 -0.11420706 -0.021928351 -0.067905575 0.09256347 -0.15887201
-0.11629155 -0.03662773 -0.00017980696 0.087742746 -0.15611048 -0.032079954 0.0512477 0.092958495
-0.059546337 0.0758182 -0.025666783 -0.13179645 0.0052774516 -0.03391255 0.12595043 0.068961866
0.020744467 -0.0020685056 0.1029592 0.023315247 -0.13270982 0.16220322 0.14595956 -0.07718357
-0.15519352 0.07859216 -0.08250921 -0.11454218 0.116778515 0.13299918 -0.1549538 -0.10518954
-0.035789844 -0.16289124 0.07165406 -0.07578645 -0.13013215 0.11354955 -0.02474616 0.04697999
-0.06450799 0.10255796 -0.119572744 0.028121173 0.072986 -0.011736211 -0.029848628 0.016600199
-0.13083786 -0.107629456 -0.13443778 -0.08038714 -0.023761136 0.053593755 -0.00039539128 0.15740748

v.net.2.weight f4 [64, 64]
00000000: a080 e2bb 5650 9f3d 1691 ee3d 3602 eb3d
00000010: bccd d43d c0dd 823d da08 acbd 3898 a63d
00000020: e881 2dbd d049 513d 3ebf 823d e079 b9bb
00000030: 1233 b0bd 349d 2d3d 860e da3d f0ad e03d
00000040: f05b 19bd d8d6 2c3d d2de 8f3d 6061 30bc
00000050: a0b7 56bd 2ce1 943d 5e20 b7bd 1cf8 db3d
00000060: 803a f23c c0e1 da3c 90ff e23d 80e3 7c3b
00000070: a0df 8fbd 3c0c 353d 54ed b03d 8a6d ddbd
00000080: a620 a83d 9822 743d 0ac0 bb3d 1878 df3c
00000090: 2c02 473d 3051 68bc b075 ac3d e05e 86bc
000000a0: 7815 0dbd 40f0 babd 1897 a2bc 5016 d03c
000000b0: 6460 f9bd 3670 dcbd 8c1c eabd 00bd 563c
000000c0: 0265 853d f842 e8bc d285 fe3d 484e 773d
000000d0: 640c a4bd b8ee 5e3d 84b1 1cbd 20a5 babb
000000e0: 7c8a 47bd 1e94 be3d ce9c adbd 90bc 8a3c
000000f0: b84e 113d a832 b4bd a8be bfbc 325e c3bd
00000100: a0ac eb3c 78c9 cebc 44b0 94bd a0d6 f9bb
00000110: 00d4 363a 442b 1a3d 3410 12bd 145f f73d
00000120: 702a f13d 18b8 573d 94d5 cd3d d03d 6e3d
00000130: a849 72bd f086 7dbc b22a c83d 9840 98bc
00000140: 7233 fdbd 80dd 8dba 8092 d5bb 1c85 af3d
00000150: 8053 1dbb fe69 f23d 0020 6e3c a0e4 1dbc
00000160: 8cb7 acbd c6c7 b0bd 3815 bfbd c241 e53d
00000170: 402e 313b 0c75 53bd 3e30 a63d 002b c9bc
00000180: 0409 d8bd 300b 3b3c 9e52 a63d 48d5 563d
00000190: 6eda c8bd 48bb 683d 8ea4 a2bd 601f 183d
000001a0: 20df 903c 60b1 263c 2819 9dbc 58ae 2dbd
000001b0: 5ac6 88bd 50ee 18bc 180f 9e3d 38f0 9bbc
000001c0: b60c b9bd e825 163d 00be f6ba 1462 3ebd
000001d0: 9870 b2bd a844 e6bc e80c f43c 0098 553a
000001e0: 5a24 c63d 9c99 723d 2029 ce3b 044e 46bd
000001f0: 923c d0bd dc39 963d d821 4abd c0aa 07bc
00000200: 3882 903d 00c4 133d 4eb2 d7bd 30b7 2cbc
00000210: 00ab 223d c23c 973d 3c8e 53bd b4a3 4f3d
00000220: a2b4 ccbd e8ef 46bd a016 943d d4b3 fc3d
00000230: 46df 9ebd becd a0bd ee69 dc3d 3ebf 89bd
00000240: 82be 9dbd c0a1 023c 66a6 db3d 10c3 bcbc
00000250: 88c7 aa3d 8c0c 8ebd 283c a7bd f0e5 b2bc
00000260: 5acc bdbd 206b 47bd 3c29 163d f0af 9fbc
00000270: 5cc8 27bd 5c21 f0bd f4b3 a93d 3424 5c3d
00000280: 2010 ba3c 207b 153c 8877 4b3d d07d f1bd
00000290: 2c71 d1bd 3058 fb3c 308f 483d fc69 013d
000002a0: 7437 663d d068 c7bd baa8 dfbd 804f 2abc
000002b0: c8e7 3c3d 18e8 adbc 78f4 a13d 283f 553d
000002c0: 9a9c 8abd cafe cfbd 40b0 a33d 500e 7a3c
000002d0: 8a77 de3d fa1c cfbd 080a 903d a48b ae3d
000002e0: 2cab f53d 00f1 f1bd 7ee3 9e3d f0e7 f43c
000002f0: d486 43bd 30e6 31bc 6e06 cc3d 96e0 fe3d
00000300: 54c8 60bd a835 1d3d 4e01 923d 5a93 ec3d
00000310: e80c 9c3c 183e 09bd 8209 863d 8c88 933d
00000320: e0f4 a8bb b81e 1abd c00a 943b 2ec8 f0bd
00000330: 3011 4fbc 50e2 dbbd 0098 4dba 720b cb3d
00000340: 2a64 ebbd 90fb 64bc 0e69 903d e8e7 c83c
00000350: aecc 993d 50c8 6a3d 0ebc ffbd 9c5c a33d
00000360: 5419 c0bd 267e ac3d 0c15 9b3d 9643 ce3d
00000370: 38fd 133d b00c f2bd e4a7 69bd 3017 8bbc
00000380: 18dc 3d3d 38e6 f2bd f665 90bd a0f1 f63d
00000390: bc99 96bd 88eb f53c a466 0a3d 601d 9a3b
000003a0: cc07 1dbd 24fb fcbd 00d6 6b3d a6d0 e9bd
000003b0: 80db 92ba 367c eebd a87c c1bd ec76 1ebd
000003c0: 6090 a13c f096 d63c d0b5 113d 18b6 35bd
000003d0: 6817 c23d 80a9 5cbb 78ee e83c 2a21 d9bd
000003e0: 80e7 adbb f0f1 94bc 3a8c b33d 4eb5 ea3d
000003f0: c8dc acbd 205a a63c 1201 c8bd ecd5 ef3d
-0.006912306 0.07778995 0.11648767 0.11475031 0.10390803 0.06389952 -0.08400126 0.08134502
-0.042360216 0.051095784 0.06384133 -0.0056602806 -0.08603491 0.04238625 0.106473014 0.10970676
-0.037441194 0.04219708 0.070249215 -0.0107654035 -0.052421212 0.072695106 -0.089417204 0.107406825
0.02956891 0.026718974 0.11083901 0.003858775 -0.07025075 0.04420112 0.08639017 -0.108119085
0.08209352 0.059603304 0.09167488 0.027278945 0.048586056 -0.014179513 0.084208846 -0.016402662
-0.034444302 -0.09127855 -0.019847438 0.025401264 -0.12176588 -0.1076359 -0.11431226 0.013106585
0.06513406 -0.028352246 0.12427868 0.06037739 -0.08010176 0.05442688 -0.03825523 -0.005695954
-0.048716053 0.09305595 -0.08477174 0.016935617 0.035475463 -0.087987244 -0.023406342 -0.09539451
0.028768837 -0.025242552 -0.072601825 -0.0076244622 0.00069743395 0.037638918 -0.035659984 0.120786816
0.117756724 0.0526658 0.100505024 0.058164418 -0.059152275 -0.015474066 0.097737685 -0.018585488
-0.12363328 -0.0010823458 -0.0065177083 0.085703105 -0.0024006069 0.11836623 0.014533997 -0.009637028
-0.08433446 -0.08631854 -0.09330219 0.11194183 0.0027035624 -0.051625296 0.0811467 -0.024556637
-0.105485946 0.0114162415 0.08121227 0.052449495 -0.09807287 0.05681923 -0.079415426 0.037139297
0.01768452 0.010174125 -0.019177034 -0.042402595 -0.066784576 -0.009334162 0.07717723 -0.019035444
-0.090356275 0.036657244 -0.0018824935 -0.046480253 -0.08712882 -0.02810891 0.02979131 0.0008147955
0.09674902 0.059228525 0.0062915236 -0.048414245 -0.10167803 0.073352545 -0.049348682 -0.008280456
0.07056087 0.036075592 -0.10532056 -0.010541722 0.03971386 0.073846355 -0.051649317 0.05069323
-0.099953905 -0.048568636 0.07230878 0.12338987 -0.0775743 -0.07851742 0.10762392 -0.0672593
-0.07702352 0.0079731345 0.10725097 -0.023042232 0.08338839 -0.06935987 -0.08165771 -0.021838158
-0.092674926 -0.048686147 0.036660418 -0.019493073 -0.040962562 -0.11725113 0.082862765 0.053745463
0.022712767 0.009123594 0.04967454 -0.11791575 -0.10226664 0.0306817 0.04896468 0.031595215
0.056205228 -0.09736788 -0.10920854 -0.010394931 0.04611948 -0.021228835 0.07907957 0.052062184
-0.06768151 -0.10156019 0.079926014 0.015262201 0.10862644 -0.10112949 0.07033163 0.08522728
0.11995539 -0.11813545 0.077582344 0.029895753 -0.047736004 -0.010858104 0.09962164 0.1244518
-0.054878548 0.03838125 0.07129155 0.115515426 0.019049123 -0.033506483 0.06544782 0.072037786
-0.0051561445 -0.037626952 0.004517883 -0.11756931 -0.012638375 -0.10736525 -0.0007842779 0.099142924
-0.11493714 -0.013975993 0.070512876 0.024524644 0.07509743 0.05731994 -0.124870405 0.07976648
-0.09379831 0.084224984 0.07572374 0.10071485 0.03613016 -0.11818826 -0.05704488 -0.01697883
0.046352476 -0.11860317 -0.070506975 0.12057805 -0.07353541 0.030019537 0.033789292 0.004703209
-0.038337514 -0.12352589 0.057577133 -0.1141675 -0.0011204332 -0.11644785 -0.094476044 -0.03868763
0.019722164 0.02619502 0.03557378 -0.04436311 0.09477121 -0.0033670366 0.028434023 -0.10602029
-0.005307138 -0.018181771 0.087669805 0.114603624 -0.08440548 0.020306647 -0.09765829 0.11710724

v.net.2.bias f4 [64]
00000000: 7077 653c 4af9 ad3d 401d 113d 8636 873d
00000010: ae0f c5bd 00c8 aa3c ec53 f03d a073 ee3b
00000020: 0851 a33c 5ca3 1e3d 34d5 f63d 501a abbc
00000030: b83e cf3d c4a1 c2bd 0031 15bc 5e15 953d
00000040: ba70 a8bd 2406 1dbd e4b0 1e3d 68cf a03c
00000050: 5c73 31bd ecc3 1dbd c82f f63c 4ce0 f23d
00000060: f404 dcbd 50b1 6bbc c063 13bc 905b 9cbc
00000070: ba05 b33d d028 c13c a8e6 053d 78ae 95bc
00000080: 482a 233d e604 bc3d b6c1 c93d 60d9 e43d
00000090: c44f 243d 8434 3bbd 9003 cfbd e029 853b
000000a0: 16d2 dfbd 547f d73d a86f e1bc d869 a4bc
000000b0: 7cdb 163d 0856 b03d 06e6 efbd 84e2 40bd
000000c0: 283c d73c 6adf 943d bcb8 d73d 20c3 d13c
000000d0: 18b7 dfbd dcdb e53d 1c50 88bd 64dd 7cbd
000000e0: eed5 b3bd e046 a03d 009d dbba cef6 c8bd
000000f0: 0ca5 1ebd 6aed f93d 481f c4bd 0a0c df3d
0.014005527 0.08494814 0.035428286 0.066021964 -0.09622131 0.02084732 0.11734757 0.007276967
0.0199361 0.03873001 0.12052384 -0.02088657 0.101193845 -0.095035106 -0.009105921 0.07279466
-0.08224626 -0.038335934 0.038742915 0.019630149 -0.043322906 -0.038516924 0.03005208 0.118591875
-0.10743132 -0.014385536 -0.00899595 -0.01908663 0.08741327 0.023579031 0.032690674 -0.01827167
0.039835244 0.09180622 0.098514006 0.111742735 0.040115133 -0.04570438 -0.10108101 0.00406383
-0.109287426 0.10522333 -0.027519062 -0.020070001 0.03683041 0.08610159 -0.11713795 -0.047091022
0.026273802 0.07269175 0.10533282 0.025605738 -0.10923594 0.112235755 -0.06655905 -0.061734572
-0.08781038 0.07826018 -0.0016755164 -0.09812699 -0.03873162 0.12203486 -0.09576279 0.10890968

v.net.4.weight f4 [1, 64]
00000000: d8f2 e0bd 2886 f43c 4431 35bd 3c70 12bd
00000010: fcd1 cc3d 7235 fabd 52c4 f33d 0cfb 43bd
00000020: b021 5d3d 80e6 273d 6e07 e43d b85d c2bc
00000030: 86e6 97bd c0ac c1bd b02d 87bc 2c70 2b3d
00000040: 907f b0bc bcd1 a23d 60f6 ba3c 44d9 dcbd
00000050: 50bd 193d 3417 b4bd 4c8f c83d 2600 e13d
00000060: 609d 94bd 809d 5cbd 847f f23d e07b e13d
00000070: 00a8 ddb9 fe2e 9bbd 40c1 4f3d 7c9f c43d
00000080: 96c9 c43d 7a3a e53d cc04 dc3d 40d3 d4bb
00000090: 507e 9fbc 707d 4ebd 80df 6abd 887b f6bc
000000a0: f091 84bd d065 243d 54f2 83bd 5ecd ac3d
000000b0: b4d7 c4bd 647d 103d 1038 c7bd 4cfa cfbd
000000c0: b6f0 b6bd a08b ddbb 0660 da3d a812 873c
000000d0: 4043 e63d cab0 dcbd 0481 36bd 2032 cbbd
000000e0: fed5 9a3d f024 c0bc e0d8 39bc a05f 33bc
000000f0: 9e86 a2bd 3ad7 ce3d ca31 d13d 08ce c43c
-0.10983819 0.029849127 -0.044236436 -0.035751566 0.10000989 -0.12217225 0.119026795 -0.04784684
0.053987205 0.040991306 0.111342296 -0.02372633 -0.07417016 -0.094567776 -0.016501278 0.041855022
-0.021545202 0.0795016 0.022822559 -0.10783628 0.037534058 -0.08793488 0.09792957 0.109863564
-0.072565794 -0.05386114 0.11840728 0.110099554 -0.00042277575 -0.075773224 0.050721407 0.09600732
0.09608762 0.11192794 0.107431024 -0.0064949095 -0.01946941 -0.050412595 -0.057342052 -0.030088201
-0.06473148 0.04013616 -0.06442705 0.08437608 -0.096114546 0.03527583 -0.0972749 -0.10155162
-0.08932631 -0.0067610294 0.10662846 0.016488388 0.11243296 -0.10775907 -0.044556633 -0.0992167
0.07560347 -0.023455113 -0.011343211 -0.010948092 -0.079358324 0.10099645 0.10214575 0.024024025
