runs/phoenix/DroneHoverBulletEnvWithAdversary-v0/ppo/2023-07-30__14-00-07/seed_53079/torch_save/model.pt (torch, 49538 bytes, 14 tensors)

obs_oms.mean f4 [34]
000000 4a 24 00 3d 84 9a 97 bc 16 b2 77 3f e4 53 bc 3c
       0.031284608 -0.018506296 0.9675611 0.02298922
000010 c6 b2 45 3b a3 c0 50 bd fd 28 1c 3f 9b 48 8d 3c
       0.0030166372 -0.050964963 0.61000043 0.017246535
000020 e3 9a 9e bc 57 94 9d be 5b d4 9b 3d 10 b1 75 be
       -0.019360965 -0.30777237 0.07608863 -0.23993325
000030 b1 d3 36 bf b3 fb 78 3e 8b 79 69 3e 9c 86 74 3e
       -0.71416765 0.24314766 0.22800271 0.23879474
000040 96 49 6d 3e aa d5 00 3d 34 2d 99 bc e4 e2 76 3f
       0.23172602 0.031453766 -0.018698312 0.9643996
000050 44 2d bd 3c 60 6e 2d 3b 01 e5 53 bd 3b cf 1b 3f
       0.023092873 0.0026463494 -0.051732067 0.60863084
000060 a2 5a 8a 3c 02 d9 9d bc dd b8 a3 be 9b 7a 96 3d
       0.01688892 -0.019268516 -0.31976977 0.07347604
000070 cd 54 7d be 1c 09 37 bf 40 b6 78 3e 6d 83 69 3e
       -0.2473938 -0.71498275 0.24288273 0.22804041
000080 28 74 72 3e 99 81 6c 3e
       0.23677123 0.23096313

obs_oms.std f4 [34]
000000 4f 92 b4 3e 8d 60 ca 3e 8e 61 ae 3e 6f 5b 4b 3e
       0.35267875 0.39526787 0.34058803 0.19859098
000010 64 05 45 3e f6 d2 2d 3f 2e 72 99 3e d4 59 4f 3f
       0.19240338 0.67900026 0.29969925 0.8099644
000020 0b 60 54 3f 5e d4 1c 3f 89 a8 63 40 bc 61 81 40
       0.8295905 0.61261547 3.5571616 4.0431805
000030 8d 2f 30 40 74 a4 c7 3e ba 4b cb 3e ea 1b ca 3e
       2.7529023 0.38992655 0.39706212 0.39474422
000040 3d a8 c2 3e de cd b6 3e e6 f3 cc 3e ff 4b b0 3e
       0.3801898 0.3570394 0.4002983 0.3443298
000050 76 9a 4e 3e 95 35 48 3e 88 a2 2d 3f 0f 8a 99 3e
       0.2017611 0.1955169 0.6782613 0.29988143
000060 29 16 52 3f ac 6a 57 3f c9 de 1f 3f f4 dd 65 40
       0.82065064 0.84147143 0.6244932 3.591672
000070 e1 80 82 40 d9 18 31 40 f9 b9 c7 3e 03 55 cb 3e
       4.0782323 2.7671416 0.39009073 0.39713296
000080 c5 7f ca 3e 16 c3 c2 3e
       0.39550605 0.38039464

pi.log_std f4 [4]
000000 72 69 86 c0 72 69 86 c0 72 69 86 c0 72 69 86 c0
       -4.2003717 -4.2003717 -4.2003717 -4.2003717

pi.net.0.weight f4 [50, 34]
000000 ba 6c 48 3e 07 bd ce bb 6d ca 93 bd a2 50 02 be
       0.19572726 -0.006309155 -0.07216344 -0.12726071
000010 f3 19 6a bd 0a b4 29 3e 16 7c f8 bc 84 09 32 bc
       -0.057153653 0.16572586 -0.030332606 -0.0108665265
000020 de 9d 74 bd e7 4b b6 be f1 8a f1 bd 29 15 4f 3b
       -0.059720866 -0.35604784 -0.11794079 0.0031598306
000030 a6 b1 7a 3d 06 3a 5b bd 2e 3b 25 bd fb 4c bc bc
       0.061204575 -0.053522132 -0.04033964 -0.022985926
000040 74 68 00 be bb a4 5b bd 2f 04 aa 3c 51 58 03 be
       -0.12539846 -0.053623896 0.020753948 -0.12826659
000050 46 3b 41 3d 96 16 4d bd d5 95 ac bd c7 ce 3e be
       0.04717567 -0.050070368 -0.08427016 -0.18633567
000060 a4 6d 42 bd 88 2d 8b 3d 80 24 a1 be 9d a6 07 3e
       -0.047467843 0.06795794 -0.3147316 0.13247152
000070 8b 2c 00 bd 4e a8 99 bd 67 c2 84 3d 83 a7 ee 3c
       -0.03129248 -0.07502805 0.06482392 0.02913261
000080 93 3e 05 3e 99 60 1e bc c1 49 59 3d e4 d4 66 3d
       0.13012151 -0.009666585 0.053048853 0.056355372
000090 9e b5 88 be ec 5a 5f be 2a b1 b3 3e 7a 2a 6d bc
       -0.26701063 -0.21812028 0.35096103 -0.014475459
0000a0 32 c8 11 bd 87 3d c3 bd f6 09 2b bd 45 71 8b 3c
       -0.03559131 -0.0953322 -0.041757546 0.017021785
0000b0 3e ac 36 be f3 0e 04 be 25 44 90 bd e0 91 1b be
       -0.17839143 -0.12896328 -0.070442475 -0.15192366
0000c0 19 95 08 bd a9 52 3b 3e 36 09 98 bd 8a f2 ff 3b
       -0.033345316 0.18293251 -0.07423632 0.0078108953
0000d0 d4 b8 de 3d 12 3e 3c bd d7 03 49 be 46 87 57 3e
       0.10875097 -0.045957632 -0.19630371 0.21047696
0000e0 32 0c 00 3e cf 82 08 bd bb 09 2c be 8d a0 18 be
       0.12504652 -0.033327874 -0.16800587 -0.14904995
0000f0 16 d1 99 bd 2e 2a c7 bd 22 38 27 be 46 91 b8 bd
       -0.07510583 -0.09724842 -0.16330007 -0.09012084
000100 26 98 c6 3d 8c 69 70 bd 99 b2 c0 3d fd 15 c7 3d
       0.09696989 -0.058694407 0.09409065 0.09720991
000110 75 f2 cf 3b b3 73 85 bd 8f 9a 0e bc 54 f8 d5 bd
       0.006346042 -0.065162085 -0.008703842 -0.104477555
000120 18 67 a0 3e 92 17 85 be b8 c4 59 bd 3d 6a 9e 3c
       0.31328654 -0.25994545 -0.05316612 0.019337768
000130 d0 57 c3 bd 4b 6d 42 be 01 14 89 bd d0 27 43 3d
       -0.09538233 -0.18987004 -0.066932686 0.04764539
000140 3a 8c 73 be 18 0b 6c 3d 38 70 30 bd f8 b6 65 bd
       -0.23783961 0.057627767 -0.04307577 -0.056082696
000150 2f d2 2a 3d 33 fd 55 3d 09 31 14 bc 92 c0 59 bc
       0.041704353 0.052243423 -0.009044894 -0.013290541
000160 c6 4a 9e 3d 72 7d 6b 3e 58 bb b9 bd 57 b7 f2 bd
       0.07729106 0.22997072 -0.09068936 -0.118513756
000170 ee 2b c4 3d 17 98 8f 3d fc e0 b5 bd 18 be 39 bc
       0.095786914 0.07011431 -0.08880803 -0.011336826
000180 ba 6a 36 3d 17 e1 48 be a1 55 a3 bb 4e a6 6c bb
       0.044535376 -0.19617115 -0.004984573 -0.0036109868
000190 18 e7 f6 bd 45 b5 87 3e 32 e8 03 be 30 09 3d 3d
       -0.120557964 0.26505485 -0.12881544 0.04615134
0001a0 03 3c 2d 3d 0a ac c2 3d 32 29 90 3e 84 83 91 3e
       0.04229356 0.0950547 0.2815643 0.2842065
0001b0 6c ba c5 3d 35 b2 44 be 91 d1 8a bd 90 aa d6 3d
       0.09654698 -0.19208606 -0.06778253 0.10481751
0001c0 c6 e9 a1 bd ec ce 25 3e 53 d9 7a 3c 19 84 d4 3d
       -0.07905917 0.16192216 0.015310603 0.10376758
0001d0 7e 3a 55 bc e4 1f f9 3c 13 70 5a 3e b6 21 1c bd
       -0.013014434 0.030410714 0.21331815 -0.038118087
0001e0 4b a8 33 bd 2d f4 e8 3c c2 8b 40 be 52 66 3b 3d
       -0.04386167 0.028436745 -0.18803313 0.045751877
0001f0 c1 12 b8 3d 0a e8 07 be 9c bf 24 3d 4f d8 8f 3d
       0.08987952 -0.1327211 0.040221795 0.070236795
000200 be de a6 3d 08 63 00 3e c0 51 96 3e d5 67 c7 3d
       0.081479535 0.12537777 0.29359245 0.09736601
000210 df ee 22 be d6 4c 9a bd ca 75 d0 3d 42 22 22 3e
       -0.15911435 -0.075341865 0.101787165 0.15833381
000220 cf f9 9a 3d 05 11 df bd c6 7e 22 be 01 2b 18 3d
       0.075671785 -0.10891918 -0.15868673 0.037150387
000230 96 04 12 be b5 41 72 3e 56 bf ca bc 14 8d 0d 3e
       -0.14259562 0.23657878 -0.02474944 0.13823348
000240 fa 3b 91 be f9 18 f1 bd b5 4a 32 bd 32 62 28 be
       -0.2836607 -0.11772341 -0.043528277 -0.16443709
000250 14 dd 43 bc 28 ff 03 3d c2 3b 8a 3d d4 7d 2b be
       -0.011954565 0.032225758 0.06749679 -0.16747218
000260 2f a8 78 3e d3 75 05 be 0b f4 7f be 48 6c d0 3d
       0.24282907 -0.13033228 -0.24995439 0.10176903
000270 7d cf 58 3e 98 4d 08 bd 61 57 51 3e 51 d5 cb bc
       0.211729 -0.033277124 0.20443489 -0.02488199
000280 7f d9 05 be e9 12 1d be 82 71 ed 3c f6 3c 60 bc
       -0.1307125 -0.15339245 0.028984789 -0.013686409
000290 71 c6 d5 bd 80 41 63 bb 91 37 cf bd 63 de 72 bd
       -0.1043824 -0.0034676492 -0.1011802 -0.059294116
0002a0 9a 62 99 3d 1b 5f be bb 30 58 3e be 6b d2 ad bd
       0.0748951 -0.0058096773 -0.18588328 -0.084874
0002b0 7b fb c6 3d 35 e0 4e 3e 99 7e 5b 3d 11 44 fe bd
       0.09715935 0.20202716 0.05358753 -0.124153264
0002c0 e1 2a 2a 3e 42 9f d3 3d 6d 09 b5 3d 1d a0 da bd
       0.1661792 0.103331104 0.088396885 -0.106750704
0002d0 81 47 9a 3d ac ae 06 3d 7a 93 d8 3d 93 11 a2 bc
       0.075331695 0.032881424 0.10575004 -0.01978377
0002e0 25 a1 fd bd 1f 66 1b 3e ae 3d 36 3e 13 6d 47 bd
       -0.123842515 0.15175675 0.17796966 -0.048688006
0002f0 a5 aa ed bd 2c 44 06 3d 92 2d a6 3e 72 55 cc 3d
       -0.116048135 0.032779858 0.32456642 0.09977235
000300 10 7e 56 be 2b 8d 80 bd e3 07 34 be 93 b8 f6 3b
       -0.20946527 -0.06276926 -0.17581134 0.007529327
000310 03 b9 1b 3e 7d 3a 49 3e d4 ee f6 bd 00 e8 7a bc
       0.15207295 0.19651218 -0.120572716 -0.015314102
000320 d7 30 13 3e d9 e2 49 bc 45 17 7e bd cf 49 c4 bd
       0.143741 -0.012322151 -0.06203391 -0.0958439
000330 80 fc de bc 38 ff b0 bc 79 5e a2 bd 65 9c 0a be
       -0.02722001 -0.021606073 -0.079281755 -0.13536222
000340 3c 24 4b 3e b7 c6 dc bd eb 2c 13 3e 9b 36 55 be
       0.19838041 -0.10780089 0.14372604 -0.20821612
000350 73 bd 4e bd 40 60 e4 bd a7 d9 5f 3e 8f 00 8e bd
       -0.05047364 -0.11151171 0.21860372 -0.069337
000360 4a 25 30 3e be c5 39 3e b2 b4 40 be 2c 1f 6c 3c
       0.17201725 0.18141839 -0.1881893 0.014411729
000370 03 48 a4 bd ae 0a 21 be 8e 06 45 bb 13 25 2b be
       -0.08021548 -0.1572673 -0.0030063721 -0.16713361
000380 fb 3c 93 be 2f 48 91 3d 90 44 e2 3d 07 2b 74 bd
       -0.28757462 0.07093846 0.110482335 -0.059611347
000390 05 d4 45 bc 1a f3 3b bc 99 20 cc bd 07 81 34 3e
       -0.012074475 -0.011471534 -0.09967155 0.17627345
0003a0 06 7f 28 be 88 05 31 3e ba 4b 88 bd a3 ab 87 ba
       -0.16454706 0.17287266 -0.06655069 -0.0010350834
0003b0 62 72 0c be 75 3c 69 be 03 05 54 bc 4e b8 c4 bc
       -0.13715509 -0.22776969 -0.012940648 -0.024013665
0003c0 74 b4 04 3e 00 d4 a2 3d ba aa 8c be 46 31 4c 3e
       0.12959462 0.07950592 -0.27474004 0.19940671
0003d0 e3 77 23 be 38 87 70 be e3 59 08 be 49 a5 00 be
       -0.15963702 -0.23489082 -0.13315539 -0.12563051
0003e0 c4 ad 09 3d 35 9b 85 3d 3c 3e de bd 10 15 b5 3c
       0.03361298 0.06523744 -0.10851714 0.02210477
0003f0 a9 39 e2 bd d0 55 1a be 3f 8e bb bd 34 74 01 3e
       -0.11046154 -0.15071797 -0.09157991 0.12641984

pi.net.0.bias f4 [50]
000000 e2 32 67 3c cd f0 46 3e a0 7e 26 3d 85 1f 0f 3e
       0.0141112525 0.19427796 0.040648103 0.13976867
000010 40 e4 00 3e a4 bc 4c 3e ce 05 10 3d d5 96 cd bd
       0.1258707 0.19993836 0.035161786 -0.100385346
000020 2d 92 a1 3d 85 bc 84 be 1c a3 9d bb 9d aa 1a 3b
       0.07889209 -0.2592508 -0.004810704 0.0023600229
000030 5c 7c 08 be 61 ec b7 bd 6c 91 2c be 32 ab 29 be
       -0.1332869 -0.089806326 -0.16852349 -0.16569212
000040 15 a0 14 3b 2c 7f f9 bc 6f 89 3f be cf 9b aa bc
       0.0022678424 -0.030456148 -0.1870477 -0.020826248
000050 0a 35 5f 3d f5 a1 b0 3d bf e3 61 3e 2f 7d 62 3e
       0.05449394 0.08624641 0.22059534 0.22118066
000060 62 ea d6 bd ea c0 10 bd 4a 61 0a 3d 07 f5 80 bd
       -0.10493924 -0.035340227 0.03378419 -0.06296735
000070 8b ef 18 be 93 8b 1a be 2c 11 24 3c 23 ea be 3b
       -0.14935128 -0.15092306 0.01001386 0.005826251
000080 f8 5c 5e 3c 5f ac 34 3c bd cc 49 be ea c1 08 bc
       0.01357197 0.011027425 -0.19707008 -0.008347014
000090 b0 01 1b 3d 3c 39 30 3d 03 53 5b 3c 07 45 26 3e
       0.037843406 0.043023333 0.013386491 0.1623727
0000a0 dc c8 aa 3e bf b8 38 3c 53 35 d5 3d 0b 97 54 3e
       0.3335637 0.011274516 0.104105614 0.20760743
0000b0 5a 8a 1a be 4f f1 b1 3d 8c 5a bf 3d ec dd 99 3e
       -0.1509184 0.08688604 0.09343442 0.30052125
0000c0 17 e2 9c 3d 12 16 07 bd
       0.07660311 -0.032980032

pi.net.2.weight f4 [50, 50]
000000 4d 84 01 3e d8 d3 41 bd ef 9a ca 3d 4b bb 1d 3d
       0.12648125 -0.04732117 0.098928325 0.038508695
000010 3b cf ce bd 2a 54 82 bd 1a 65 08 be 6f 1a 9e 3d
       -0.1009812 -0.06363709 -0.13319817 0.077198856
000020 ad f2 eb 3d bd e8 b9 bd 29 7b 64 bb 8d 8e 77 3e
       0.11520896 -0.090775944 -0.0034863448 0.24175473
000030 3e 72 b4 3d 07 56 08 3e 31 66 30 bc f5 41 ce 3c
       0.088108525 0.13314067 -0.010766552 0.025177935
000040 08 0f 0a be b5 54 89 3d 35 85 10 be f2 77 42 bd
       -0.13482296 0.0670561 -0.14113314 -0.04747767
000050 e2 4e 02 bd 08 69 d4 bc 73 ed f5 3d 22 de dc 3d
       -0.03181351 -0.025928989 0.120081805 0.10784556
000060 26 ba 11 bc 4e 6f a1 3d 16 c3 1f 3c 42 6d 7e 3d
       -0.008894479 0.07882558 0.009751102 0.062115915
000070 27 1e 95 3d 95 4a c2 bc db 57 1a be ba de ba bd
       0.07281142 -0.023717204 -0.15072577 -0.09124513
000080 37 9c 0b bd 75 cb 3f 3e 6c 20 ec bd 34 5c a3 bd
       -0.034084525 0.18729956 -0.115296215 -0.07976571
000090 23 6f cc bc 8d 48 10 3e 27 73 15 3e 7d d9 5b 3d
       -0.024955338 0.14090176 0.14594708 0.05367421
0000a0 e5 20 f2 3c dc 88 05 be ec a9 10 be c6 17 a3 3c
       0.029556701 -0.13040489 -0.1412732 0.019908797
0000b0 6c fe b3 3d 0b b1 12 3e e1 1b 11 be 71 5c 82 bc
       0.087887615 0.14325349 -0.14170791 -0.01591322
0000c0 0a aa 18 bd 14 13 f6 3d 75 b2 ac 3d f6 4d f2 3d
       -0.037271537 0.120153576 0.084324755 0.11831276
0000d0 74 34 11 3e b2 1e 63 be cf 55 54 3e 4a 0d 13 be
       0.14180166 -0.22179678 0.20735858 -0.14360538
0000e0 b8 b6 64 3d a8 79 e2 3d 15 43 a0 bc 7a 80 13 be
       0.055838317 0.1105836 -0.019563237 -0.14404479
0000f0 63 c6 0e be da 1e ba be dd 85 04 be 57 d5 04 be
       -0.13942866 -0.36351663 -0.1294169 -0.12972008
000100 a3 0e 74 bd c8 47 8a be 06 45 ce 3d c9 0f f8 3d
       -0.05958427 -0.2700789 0.10071759 0.12112386
000110 a3 f6 39 bd 28 49 96 bd 9d d7 fa 3d f0 2f e8 3d
       -0.045401227 -0.07338172 0.12248156 0.11337268
000120 36 db 82 3a d8 ef e0 3d 8c 4f 47 3e ff 7e 85 3d
       0.0009983543 0.109832466 0.19463938 0.06518363
000130 50 46 90 3d dc 89 d0 bd e3 ac 49 3d 6b 0d c9 3c
       0.07044661 -0.101825446 0.049237143 0.024542531
000140 a9 f2 42 bd 26 02 04 3e 0e 37 05 be 36 24 77 bb
       -0.0475947 0.12891445 -0.13009283 -0.0037710792
000150 a7 e9 85 3d 51 36 2e bd a5 02 26 3d 65 1b f8 bd
       0.06538706 -0.04253227 0.040529866 -0.121146
000160 a7 1d 64 3d a4 1f 41 be 59 ba 38 3e 00 8f 98 3d
       0.05569234 -0.18859726 0.18039836 0.0744915
000170 67 e9 b4 3d 91 3b ff 3c 7b 88 71 bd f8 3e b7 bc
       0.088335805 0.031156333 -0.05896805 -0.022368893
000180 db 50 b5 3d d2 ba 21 3d a5 6d 3d be 44 d1 a0 bc
       0.088533126 0.039484806 -0.18498857 -0.019631036
000190 49 63 80 bd aa 97 17 3e c8 a7 d1 3d de f6 3c be
       -0.06268937 0.14803949 0.1023708 -0.18453547
0001a0 50 63 c0 3d 56 3a 25 bd b0 48 cb 3d e2 a3 44 3d
       0.09393942 -0.040338837 0.099259734 0.048007853
0001b0 3c 08 f0 3b de e5 05 3e 53 28 f9 bc 73 d4 80 be
       0.0073252004 0.13075969 -0.030414736 -0.25162086
0001c0 05 99 06 3e 0c 7c 16 3c 63 b6 80 bc 47 3e b7 bd
       0.1314431 0.0091848485 -0.015711969 -0.08947425
0001d0 b9 f9 25 3e 74 7a 35 3e 7f 4b b4 bd f3 9e 4b 3d
       0.16208543 0.17722493 -0.08803462 0.049712133
0001e0 3e 4a 19 be 82 0b a3 bd bd fb b6 bb 51 7a 0a bc
       -0.14969727 -0.07961179 -0.0055842088 -0.008452014
0001f0 4d c3 13 3c ba fc 92 3b 36 b0 0d 3e dc 88 b4 bd
       0.009018731 0.0044856938 0.1383675 -0.08815166
000200 32 15 a0 3d d3 9e 7f 3d 27 26 94 bc 86 84 33 3e
       0.07816543 0.062407326 -0.018084599 0.17531022
000210 a9 0e a1 ba 5c 75 6c bd fa f7 d9 3d 7b 51 46 bd
       -0.0012287694 -0.05772911 0.10643001 -0.04841755
000220 89 1a 6b 3c 59 51 4b bd 1e a9 d9 bd 7f c7 11 3e
       0.014349588 -0.049638126 -0.1062796 0.14236258
000230 25 da 4e 3e 5a c5 58 bd 36 f2 d7 bc b9 81 30 be
       0.20200403 -0.052922584 -0.026360612 -0.17236985
000240 b7 53 1a be de 6a b5 bd 0b d3 42 3d 3e 79 31 bd
       -0.15070997 -0.08858274 0.047564548 -0.043328516
000250 fe 62 b9 3d 41 6b 93 bd 0d 99 7d 3c 59 c8 4f be
       0.090520844 -0.071981914 0.015478385 -0.2029127
000260 08 52 b6 bd 66 5a 43 3d 2b 2e aa be b4 61 42 bd
       -0.08902365 0.047693633 -0.33238348 -0.04745646
000270 10 08 34 3c b9 66 18 be 7e 25 66 be 98 4e 25 3e
       0.01098825 -0.14882936 -0.2247524 0.16143262
000280 0c 68 e4 bd f7 5c 22 bd 92 ea ae 3d a1 87 47 3c
       -0.11152658 -0.03963944 0.085408345 0.012178333
000290 34 45 39 3e 75 1a 5f 3d 5b 4e 4a 3d 7a 0e 80 3d
       0.18092805 0.05446859 0.04939113 0.06252761
0002a0 87 d9 28 bd ef a9 38 3e de 82 fc 3d f4 7c 92 3e
       -0.041223075 0.18033575 0.123296484 0.28610957
0002b0 5b fa 72 3e a6 98 d3 3d ce 87 d6 3d 97 c9 0a 3e
       0.23728316 0.1033185 0.104751214 0.13553463
0002c0 2c 40 ce 3d 51 05 86 3d 70 04 aa bd 12 89 1e 3d
       0.100708336 0.06543983 -0.08301628 0.03870494
0002d0 27 33 39 3e fa 67 7d bc 4b 52 24 be b8 e2 b1 3d
       0.1808592 -0.0154666845 -0.16047017 0.08685821
0002e0 0d 32 b1 bd 45 2a 7e bd 85 0b 1b be c9 6f 60 3d
       -0.086521246 -0.06205203 -0.15141113 0.054794107
0002f0 f6 5e 24 3d c9 fe 85 3c 0d a9 0a 3e e4 62 6e bd
       0.040129624 0.016356843 0.1354105 -0.05819978
000300 b9 d6 a0 bd 56 f0 06 be fb 7d 44 3d 94 97 ca 3d
       -0.07853455 -0.13177618 0.047971707 0.098921925
000310 07 5d 12 be 5a 48 16 3e 19 c4 21 be 28 3e 31 be
       -0.142933 0.14676037 -0.15797462 -0.17308867
000320 41 7a 59 bd 50 4a 02 3e 4c 98 8f bd 49 bb e6 3d
       -0.053095106 0.1272366 -0.0701147 0.112661906
000330 6f 61 03 3e d3 da 59 3c 82 41 a4 3d 1a bc b0 bd
       0.12830137 0.013296801 0.08020307 -0.086296275
000340 3b 8b b7 bd f2 04 c1 3c ea a7 93 bd 44 18 98 3d
       -0.08962103 0.023561928 -0.072097614 0.07426503
000350 48 ec 5f 3d 35 fe 04 3e 14 0c 06 be 76 07 e7 bd
       0.054668695 0.12987597 -0.13090545 -0.1128072
000360 9b d6 3a bd bc 41 88 3d 65 3f 09 3d 48 31 84 3d
       -0.04561482 0.06653163 0.033507723 0.06454712
000370 67 01 98 bd e3 05 ac 3d 0e 02 30 3d 88 a8 a3 3d
       -0.074221425 0.0839956 0.04297071 0.07991129
000380 d0 7b e8 3c 39 2d b9 3d 5c ea 1a be 47 14 36 3e
       0.02837935 0.09041829 -0.15128464 0.17781173
000390 5d 8a a4 bd c0 28 1e 3e 38 bb 0e bb e3 1b 93 bd
       -0.08034203 0.15445232 -0.0021779072 -0.07183053
0003a0 d3 91 93 3d 20 64 02 bb fa f8 01 bc 27 1f 1a bd
       0.07205548 -0.0019896105 -0.007932896 -0.037627365
0003b0 1f ad 6d 3d c3 fc 6a 3d 16 c3 33 3d 57 aa c1 bd
       0.05802643 0.05736996 0.04388722 -0.09456318
0003c0 8d 3d 57 3e 91 07 96 bd 55 d4 80 3d 53 0a 59 bc
       0.21019574 -0.07325662 0.06290499 -0.01324709
0003d0 90 87 80 bd bf bf b2 bb 3d 98 bc 3c 51 92 9a 3d
       -0.062758565 -0.005454987 0.023021812 0.07547439
0003e0 02 35 ab bd 0e 60 29 be 43 c7 99 3d e6 20 15 be
       -0.0835972 -0.16540548 0.07508709 -0.14563331
0003f0 2f d8 03 3e 6e e6 16 3e c6 4d b3 3d 1b 71 c0 3d
       0.12875436 0.1473634 0.087550685 0.09396573

pi.net.2.bias f4 [50]
000000 d5 a1 dd 3d 4b 47 38 3e 4a 8f 1e 3e 7e fc 09 be
       0.10821883 0.17995946 0.15484348 -0.13475224
000010 0a 2a 2b 3e 07 c6 1f 3e 62 29 b0 bd 7c dc c4 bd
       0.16715255 0.15602885 -0.08601643 -0.096123666
000020 c7 31 03 3e f3 fc 6c 3d f0 35 81 bc 50 7b b7 3c
       0.12811957 0.05785842 -0.01577279 0.022397667
000030 e2 c2 18 3e a3 91 0b be 3b d8 de bd 49 a1 83 bd
       0.14918092 -0.13629775 -0.108810864 -0.06427247
000040 4c e4 bc 3c 88 0c 83 bd 23 bb 04 bd f7 6f c2 bd
       0.02305808 -0.063988745 -0.03240503 -0.09494012
000050 cb f6 42 3e 28 5a 41 3e 70 c5 99 bd e3 4a 82 3d
       0.19039457 0.18882048 -0.07508361 0.0636194
000060 44 99 c8 3b 8c a4 4b 3d 0c e1 db 3d f0 d7 50 3e
       0.0061217863 0.04971747 0.10736284 0.20394874
000070 80 8e a7 3d 85 54 8b 3c fa ae 43 3e ab da da 3b
       0.081814766 0.017008075 0.19109717 0.0066788993
000080 66 3a a7 bd 7d 6e 67 bd 8e 1f a2 3d 9e f0 c6 bd
       -0.081654355 -0.056501854 0.07916175 -0.09713863
000090 1f c1 1e bd 47 f8 2b 3e e7 da a7 bc a9 16 e6 bc
       -0.038758393 0.16793929 -0.020490123 -0.028086977
0000a0 bf ba 4a bd 9f c0 40 3e c3 77 68 bd 59 e8 0c 3e
       -0.0494945 0.18823479 -0.05675484 0.13760509
0000b0 c2 64 89 3d d7 f2 50 bc 2a 30 f6 bc 5f 36 26 3e
       0.06708671 -0.01275321 -0.030052263 0.16231678
0000c0 75 f9 b5 bc 6a 71 11 3e
       -0.022213677 0.1420342

pi.net.4.weight f4 [4, 50]
000000 3b 78 c2 3d 59 99 56 be 0b ae 37 be c8 bc 88 bd
       0.094955884 -0.20956935 -0.17937486 -0.06676632
000010 50 10 d5 3d b6 be 47 3e 22 f5 06 be dd 68 c0 bc
       0.10403502 0.19506344 -0.13179448 -0.023487503
000020 ae 83 41 bd 5c 0b 43 3e 8e 4c a6 3d 1a 9b 8f bb
       -0.04724472 0.19047302 0.081200704 -0.004382503
000030 6c b5 d2 ba 63 5f 44 be 8f 8f ee 3d 1f 5a 5d be
       -0.0016075796 -0.19177012 0.116484754 -0.2161641
000040 8d 30 76 3e 5d 94 37 3e 90 b6 8b 3c a8 df 25 3e
       0.24041958 0.1792769 0.017054826 0.161986
000050 00 e3 64 3e 36 bb 01 3e 02 da 30 3e b0 9d 26 3d
       0.22352219 0.12669072 0.17270663 0.040677726
000060 c2 05 dd bc 2c cd 46 3c c6 a9 3b 3c 4f db 19 3e
       -0.026980285 0.012133878 0.011454051 0.15025066
000070 49 85 60 be 70 90 11 3e ba 25 0c be e8 23 bf bc
       -0.21925844 0.14215255 -0.13686267 -0.023332551
000080 22 e5 b5 3d 59 2d 84 3d de ac 97 be 14 55 92 bd
       0.08881594 0.06453962 -0.29624075 -0.071451336
000090 de ae b1 be db 3d 7e be 2a 4d 62 3e 06 91 92 bd
       -0.34703726 -0.24828283 0.22099748 -0.07156567
0000a0 b8 a0 8f 3d 56 c4 66 3b 2c b6 1e 3d 7b 26 c9 bd
       0.070130765 0.003521224 0.03874795 -0.09821793
0000b0 f9 1a b7 3d 10 8d 84 3e 0d ee 21 bd af 6f 98 3e
       0.089406915 0.25888872 -0.039533664 0.29772708
0000c0 1b 48 8d bd 1d a3 7c bd 22 8e e6 bd 78 54 55 3e
       -0.06898519 -0.061678994 -0.112575784 0.20833004
0000d0 2d 5b d6 3d 47 7c ad be 97 36 16 3e d1 37 fc bd
       0.10466609 -0.3388388 0.14669262 -0.12315334
0000e0 de 73 06 3d 5f bc a2 3d df 86 1c be ae b3 22 3e
       0.032825343 0.07946085 -0.15285824 0.15888855
0000f0 bd 46 b9 3b dd 79 7b 3d 57 eb 48 3e 4f d1 2e bd
       0.0056541846 0.061395515 0.19621025 -0.04268008
000100 31 29 ae 3c 60 4a a9 3d 29 b8 06 bc 78 45 b2 3b
       0.021259876 0.08266139 -0.008222618 0.00544041
000110 bf df 66 3d 22 b9 c5 3c 29 f6 07 3e 60 06 47 3e
       0.056365725 0.02413613 0.13277496 0.19436026
000120 38 73 1b be 60 18 19 3e c4 c7 70 3d 37 83 04 3e
       -0.15180671 0.14950705 0.05878426 0.1294068
000130 0c 95 d7 3d 78 6a 8b 3e d7 66 3d bd a1 62 29 be
       0.10526475 0.27229667 -0.046240654 -0.1654153
000140 ea d8 85 bd 6a 4c bb 3b 54 31 2b 3e 4e 83 09 3e
       -0.06535514 0.0057158964 0.16718036 0.13428995
000150 86 1a 8c be b2 e5 f0 bd 9e e5 23 bd 0b 6c 20 3e
       -0.27363986 -0.11762561 -0.040013902 0.15666215
000160 23 24 09 be 59 98 5c bd f1 4b 4a 3e 92 66 f6 3d
       -0.13392691 -0.053856228 0.19755532 0.120312825
000170 4f 89 e2 bd a6 2f 1f bd e2 e5 72 3c 4a fa ba 3c
       -0.11061346 -0.0388638 0.014825316 0.022824425
000180 a7 28 89 be 49 ce 8f be d6 d2 3a 3e e1 e0 43 be
       -0.26788828 -0.2808707 0.1824449 -0.19128753
000190 f9 ce dc 3b ef c9 05 3e ae cd af 3d 77 59 39 bd
       0.0067385403 0.13065313 0.08584152 -0.045251336
0001a0 16 dd 1e 3e e9 61 05 3e c1 72 0d 3e 28 24 32 be
       0.15514025 0.13025631 0.13813306 -0.17396605
0001b0 36 f0 72 3e a1 6b eb bd 65 fa 6d bd af 04 2d be
       0.23724446 -0.11495138 -0.058100123 -0.16896318
0001c0 a8 7e 76 3c 99 aa 9a bc 3b b7 59 be 98 28 89 bc
       0.015044846 -0.018880175 -0.21261303 -0.01674299
0001d0 83 20 9a bc 7f 56 09 ba 00 77 0f be c0 62 5d be
       -0.01881433 -0.0005239024 -0.14010239 -0.21619701
0001e0 63 86 e1 bd c5 19 e6 3d 89 94 66 be 61 fc 30 bd
       -0.1101196 0.11235384 -0.22517599 -0.043209437
0001f0 02 32 3e 3e d0 8e 4a 3e 0b 80 e1 bd 53 2b 1a 3e
       0.18573764 0.19781041 -0.110107504 0.1505559
000200 ce b7 93 bc d4 c4 0a 3e f5 34 2a 3e 45 06 c3 ba
       -0.01803198 0.13551646 0.16621764 -0.0014879188
000210 77 57 89 3e d7 88 3b be a3 51 1b 3a 0b 73 04 bc
       0.26824543 -0.18313919 0.00059249456 -0.008084069
000220 31 3d 0e 3e 1f 13 23 3e 77 b2 0f be 2f 80 5c be
       0.1389053 0.15925263 -0.14032923 -0.21533273
000230 30 24 5e 3d b0 19 53 3e 87 f0 0c be 71 43 62 3e
       0.05423373 0.20615268 -0.13763629 0.2209604
000240 a7 20 65 3e 37 21 cb 3d 7c f1 11 be 27 11 18 3e
       0.22375737 0.099184446 -0.14252275 0.14850293
000250 90 08 b2 bd 82 9e af 3c d8 cd 32 3e c1 2a 82 be
       -0.086930394 0.021437887 0.17461336 -0.25423244
000260 41 f7 eb bd 59 cd 3a 3e c0 a9 b4 3c 37 3d fb bd
       -0.11521769 0.18242396 0.0220536 -0.12267535
000270 f4 5c 25 be 68 6d a4 bd 29 7f 85 3d 99 07 6c be
       -0.1614874 -0.0802868 0.065183945 -0.23049773
000280 74 91 21 3e 58 44 98 3d ba 1a 3f be 01 c7 af bc
       0.15778142 0.074349105 -0.18662539 -0.021457197
000290 b5 38 da bd d9 b2 21 bc c3 c4 a0 3c 83 d8 3e be
       -0.10655347 -0.009869301 0.019625073 -0.1863728
0002a0 c4 d9 30 3e 4a 7f 09 3e 79 d4 8e 3e e9 a9 04 be
       0.17270571 0.13427463 0.2789648 -0.1295544
0002b0 bf 07 44 be 17 be 85 3a 2f bd 2d 3e 25 4c c1 bd
       -0.1914358 0.0010203746 0.16966699 -0.094383515
0002c0 25 74 0a be f4 c7 3b 3d d2 d3 77 bd 1a 6b 09 bc
       -0.13520868 0.045844987 -0.060504742 -0.008387351
0002d0 3a 81 7c 3e 59 95 16 3e 07 de 8c be 10 69 f4 bd
       0.24658671 0.14705409 -0.27513143 -0.119341016
0002e0 fa d6 1b bd bd 3b ea bd c5 2f 81 3c 1a 93 3a 3e
       -0.038046815 -0.114371754 0.015769849 0.18220177
0002f0 e1 10 4a 3d b0 e7 15 be ae 52 db 3d b1 76 22 3e
       0.049332503 -0.14639163 0.10709129 0.1586559
000300 0b fe 44 3e f4 29 3b 3e 34 5a 4f 3e f6 b0 b8 bd
       0.19237535 0.18277723 0.20249254 -0.090181276
000310 ae dc aa 3d f3 9c 96 3e 92 75 1e be ff 6e e3 3d
       0.083428726 0.29416618 -0.15474537 0.11105155

pi.net.4.bias f4 [4]
000000 d9 22 0b 3e fd 4b d5 3c 69 37 39 3e 76 97 1c 3e
       0.13587512 0.02603721 0.18087544 0.15292153

v.net.0.weight f4 [64, 34]
000000 23 f1 c3 3d e0 24 78 3c fb a6 90 bd 79 b6 63 be
       0.095674776 0.01514551 -0.07063099 -0.22237577
000010 1d 8b 8f bc b0 b2 9f b6 e6 7f c9 bd bd 01 a7 3c
       -0.01752239 -4.759371e-06 -0.09838848 0.020386571
000020 44 44 7d 3c 8f 2e 70 bd da 86 bd 3d 1d d0 99 bc
       0.01545817 -0.05863815 0.092542365 -0.018775994
000030 8d 74 5a be 43 49 d7 3c ff 43 19 3d 8c e9 a7 3c
       -0.21333523 0.026280051 0.03741836 0.020497106
000040 ab e5 56 3c 39 9d d2 bd 9f 06 97 3c fe 8f b4 3d
       0.013116281 -0.10283894 0.018435774 0.08816527
000050 a8 5b a3 be d9 2c fb bd df 9b 01 bd 62 1c ae bd
       -0.31905866 -0.122644134 -0.03164279 -0.08501507
000060 c4 5f 6d 3d 02 aa 57 bd 0e 38 f7 bc fc b8 08 bd
       0.057952657 -0.052652366 -0.030178096 -0.03337954
000070 9b dd 23 3b d9 74 fa bc 20 03 c8 3c 97 27 48 3d
       0.0025003913 -0.030573295 0.024415553 0.04886588
000080 24 41 58 3d 2e 9c e0 3c dd 0f 0a 3d f6 14 98 3d
       0.052796498 0.027418222 0.033706535 0.07425873
000090 d2 87 d6 bd 8f 60 9c bd ef af be 3d 1c 82 98 3d
       -0.104751244 -0.076356046 0.093109004 0.074466914
0000a0 35 94 ba bd c0 e7 9c 3d a1 7a 2d bc db d9 45 bf
       -0.091102995 0.0766139 -0.010588319 -0.77285546
0000b0 0a f8 ac 3d 41 a2 88 3d 56 03 bd bc 84 a8 4b bd
       0.08445747 0.066715725 -0.02307288 -0.049721256
0000c0 cb c9 b6 bc 97 cd 6c bd 76 ff eb 3c f0 53 09 3d
       -0.02231302 -0.057813253 0.028808337 0.033527315
0000d0 81 77 ae bc a0 c6 25 be 19 c5 29 3d 8e 56 04 bd
       -0.021297218 -0.1618905 0.041447733 -0.032309107
0000e0 53 51 b9 bd 30 55 a8 bd 28 56 40 3d 1e 92 c8 3d
       -0.090487145 -0.08219373 0.046957165 0.09793495
0000f0 fd df 6c bf d0 a5 42 bd 8b 84 c2 bc 57 a0 b8 bd
       -0.9252928 -0.047521412 -0.023744842 -0.090149574
000100 59 4a 79 bd ef 92 47 bd 60 9d a9 bd 1e ef ad 3c
       -0.06086192 -0.04872411 -0.0828197 0.021232184
000110 3b 9b 59 bc 86 7b 81 3d 41 35 9f bd fe 2b 85 bd
       -0.013281639 0.06322388 -0.07773829 -0.065025315
000120 d1 b4 8f bc 6e e9 97 3e 44 0b e1 3d c8 74 94 bd
       -0.017542275 0.2967028 0.10988477 -0.07248837
000130 93 94 be bd 43 e2 da 3d 87 56 f0 bd 67 99 f0 3c
       -0.09305682 0.10687687 -0.11735254 0.029370023
000140 9a 22 80 be 8f eb c2 bd 39 ae fc 3d 9b 4b c1 3d
       -0.250264 -0.095175855 0.12337918 0.09438249
000150 4b 7b f2 3c 4f 78 f7 bd 5a e2 c1 3d 91 58 8a bd
       0.029599806 -0.12083494 0.09467001 -0.06755174
000160 a3 92 91 be 4a dc 3f 3e 87 36 a2 3d e8 e6 bf bc
       -0.28432187 0.18736377 0.079205565 -0.023425534
000170 e0 9e bd bd a2 2b 85 3c ed b6 be 3d ba 04 d2 3d
       -0.092588186 0.016256157 0.09312234 0.10254808
000180 c3 4b d2 bb 4c 4d 5a be d4 c5 92 bd f1 8f 78 bd
       -0.006417723 -0.21318549 -0.07166639 -0.06068415
000190 6d 42 98 bd 6e bf d9 bd 66 09 9d bc 36 56 5e be
       -0.07434545 -0.106322154 -0.01916952 -0.21712574
0001a0 6b 0c 05 3e 1c 7e ec 3d 91 1d e9 bd 02 69 48 be
       0.12993018 0.11547491 -0.113825925 -0.19571307
0001b0 44 2f 25 be 34 a9 32 3e a2 ab 00 be d2 fb 8f bd
       -0.16131312 0.17447358 -0.12565473 -0.07030453
0001c0 50 96 6e 3e 18 06 09 3e 58 44 76 3e 69 93 3d bc
       0.23299527 0.13381231 0.24049509 -0.01157079
0001d0 3e f9 8d bd 5e ee dc 3c d2 85 e2 bd 0d 97 1d 3e
       -0.06932305 0.026969131 -0.110606804 0.15389653
0001e0 54 90 16 3d 1b 9b 45 3e 79 a7 05 3e 7a 14 1b be
       0.036758736 0.1929745 0.13052167 -0.1514453
0001f0 1a 98 0c 3e b5 ca 17 be d3 8a 2f 3e 78 ab f3 bd
       0.13729897 -0.1482342 0.17142801 -0.118979394
000200 f1 6e 0d be dd 00 37 3d c7 0e d9 bd 22 74 bf 3d
       -0.13811852 0.044678558 -0.10598522 0.093483225
000210 1d e6 16 3d ae 18 8e bc 32 04 97 bd 12 8a 28 3d
       0.036840547 -0.017345753 -0.07373847 0.0411473
000220 52 99 84 3d 32 d4 ac 3d d9 9e b9 bc a2 10 d9 bd
       0.06474556 0.084389105 -0.022658752 -0.105988756
000230 d2 c3 35 be fc 4d 20 bb 77 bb 69 be c4 28 c7 bd
       -0.17750481 -0.0024460545 -0.22825418 -0.09724572
000240 a7 7a 8b 3e 0a 03 10 be c4 e9 34 ba 53 da 5a 3e
       0.27242014 -0.1406366 -0.0006901289 0.21372347
000250 2e 70 41 be d7 12 bb bc 52 48 9a bd 78 59 c8 bd
       -0.1889045 -0.022836132 -0.07533325 -0.0978269
000260 92 6c 97 bd 1d f6 cb bd ee 8c 29 3d 40 e3 12 be
       -0.07393755 -0.09959052 0.041394167 -0.14344501
000270 04 47 2d bd 2b 1e 41 be d5 a1 91 bd 4c e6 63 be
       -0.042304054 -0.18859164 -0.07110945 -0.2225582
000280 aa f1 a7 bc cc 66 b0 3d d6 2e 84 be b8 67 06 3e
       -0.020500977 0.08613357 -0.25816983 0.13125503
000290 3f 42 de 3d a3 99 0f bc 6c 4b 04 bc 13 d4 e7 bc
       0.10852479 -0.008764657 -0.008074623 -0.028299367
0002a0 a2 e1 44 bd 38 43 0b bc f8 c1 95 3d c8 fd 28 3e
       -0.048066743 -0.008499913 0.07312387 0.1650306
0002b0 36 cf 61 3e b0 99 62 bd a1 04 16 bd dd 15 89 3d
       0.22051701 -0.05532235 -0.03662551 0.06693623
0002c0 62 6d fe bc 25 d3 fc bd 16 78 ed 3a 41 8d 56 be
       -0.031058017 -0.1234496 0.0018117453 -0.20952322
0002d0 77 44 b9 bd 27 45 ad bd 1f 97 0a be cc 36 f4 3d
       -0.09046262 -0.084604554 -0.1353421 0.11924514
0002e0 19 f6 ca bc 00 4f d3 3b a0 42 51 3d 88 b5 84 3c
       -0.024775552 0.0064486265 0.05108893 0.016199842
0002f0 5c b3 0a 3d d3 08 66 3e 12 13 f0 3c 3a ac 41 3e
       0.033862457 0.22464304 0.029305968 0.18913355
000300 34 2b 31 3e 31 f0 a8 3d 5a a9 b9 bd b0 45 71 3e
       0.17301637 0.08248938 -0.09065504 0.2356174
000310 8d 1d d6 bd 2b 82 9a 3d 87 40 54 3d 68 e6 00 be
       -0.10454855 0.07544359 0.05181935 -0.12587893
000320 17 6d df 3d 35 f7 3b 3d 12 38 4e 3d 56 f2 f9 bd
       0.10909479 0.045890052 0.05034644 -0.12204425
000330 24 04 c6 3e 64 f9 88 3e 38 e6 b4 3d 1e 79 ce bd
       0.38675034 0.2675277 0.08832973 -0.10081695
000340 3e 1e 67 3e 33 45 8d 3c 88 7a 85 be 91 de b1 3e
       0.2257013 0.01724491 -0.26070046 0.34740117
000350 55 e1 7f 3e 00 11 8a bd 62 d5 fa 3c cb 0a b8 3d
       0.24988301 -0.06741524 0.030619327 0.089864336
000360 26 e5 00 3e c0 35 56 bd 45 f3 b4 bb d4 ba 02 3e
       0.12587413 -0.052297354 -0.005522164 0.12766582
000370 7f 65 0e 3d 5b cc c3 3e 28 44 09 3e 93 67 93 bd
       0.034764763 0.38241848 0.13404906 -0.071974896
000380 88 16 8d 3e c0 88 8c 3e 5c 7c 96 be ff 2a 29 be
       0.27556252 0.27448082 -0.29391754 -0.16520308
000390 ca d5 a0 3e 83 48 21 3d 09 d6 11 bd 07 28 f9 3d
       0.31413108 0.039375793 -0.03560451 0.12165838
0003a0 e2 ae 41 3e 72 bf f0 3d 61 c3 d9 bc c6 1a 52 3c
       0.18914369 0.11755265 -0.026582422 0.012823766
0003b0 8c 0b fe 3d af 28 98 3c 7e 36 0b bd 27 20 a4 bd
       0.12404546 0.018574087 -0.033987515 -0.08013945
0003c0 f7 e3 a4 bd ce 48 ae bb 1f 63 f4 bb 79 1b 9b bd
       -0.08051293 -0.0053187376 -0.007458105 -0.07573599
0003d0 78 ca 4d be b4 b3 d2 b9 c2 2a c1 bc ab 69 43 3d
       -0.20096767 -0.0004018821 -0.023579959 0.047708195
0003e0 75 94 1f 3d 0f 78 94 3d b5 6e 9c bc a1 17 56 bd
       0.03895994 0.07249462 -0.019095758 -0.052268628
0003f0 d4 92 eb bc e0 9d e4 3c 09 d6 e8 bb d7 19 55 3d
       -0.028756537 0.027907312 -0.007105593 0.052026596

v.net.0.bias f4 [64]
000000 86 03 8d be f5 f5 39 3e a3 11 c2 bd 97 93 d3 3c
       -0.2754175 0.18160231 -0.0947602 0.025827212
000010 80 36 c8 bd 1f c7 aa 3d 6d cf 78 be ab 1b bd be
       -0.0977602 0.083387606 -0.24297877 -0.3693517
000020 65 e4 02 be 65 82 91 3d 75 ac bc bd d8 b6 b7 3e
       -0.12782438 0.07104949 -0.09212581 0.35881686
000030 f8 18 ad be ae bf 41 be 09 c2 70 3e f6 46 92 3e
       -0.33808112 -0.18920776 0.23511519 0.28569764
000040 7c 79 6e be 31 56 0d 3e 34 54 09 be 40 9e 8c be
       -0.2328853 0.1380241 -0.13411027 -0.27464485
000050 a9 af 0c 3e 9f d2 3d be 20 3c ca 3d b0 45 42 3e
       0.13738884 -0.18537377 0.09874749 0.18971896
000060 3b e6 b0 3d cd 09 55 3d 62 70 77 3e 39 6f 1c 3e
       0.08637663 0.0520113 0.24163964 0.15276803
000070 22 eb 31 bd 03 f1 b0 3e b7 4c 3e 3d 6b 7c 7f be
       -0.04343713 0.34558877 0.04645988 -0.24949805
000080 98 3e 9d be 10 31 71 3d 58 27 7c bd 48 dc 76 be
       -0.30711818 0.05888468 -0.06156096 -0.24107468
000090 38 c7 8b 3b b1 21 a3 3e cf 1b ba be c7 f8 7b 3c
       0.004265692 0.31861642 -0.3634934 0.015379137
0000a0 ca bd 4f be eb a6 90 be 64 25 c9 3c e4 64 56 3e
       -0.20287243 -0.28252348 0.024553962 0.20936924
0000b0 ec 7a 9b be 41 77 8e 3d da 33 6b be c6 f1 53 be
       -0.3036722 0.0695634 -0.22968999 -0.20697698
0000c0 05 cb 6a 3d 61 b6 df bd 5b d1 59 3e d0 e2 1f be
       0.05732252 -0.10923458 0.21271269 -0.15613866
0000d0 2a 31 7d 3e 08 0d 0c 3e 1f de 10 3f f8 80 93 be
       0.24725786 0.13676846 0.5658893 -0.28809333
0000e0 08 7a dc 3e 82 2e 83 be 43 6a 98 be 95 ff 53 be
       0.43061852 -0.2562142 -0.2976857 -0.20702966
0000f0 4b 89 2e be ef 10 1f 3e e6 25 63 3e 32 da 02 3d
       -0.1704456 0.15533803 0.22182426 0.03194637

v.net.2.weight f4 [64, 64]
000000 37 b8 6d bd 2c 6e ff 3d 68 ef db 3d 55 0e d4 3d
       -0.05803701 0.124721855 0.107390225 0.10354296
000010 64 12 b8 3d 81 e9 a7 3d c5 bc 32 bd 66 2d 24 3d
       0.08987883 0.08198834 -0.043637056 0.040082358
000020 67 35 88 bd e9 e0 66 3e e0 fb ef 3d f3 0e 54 3d
       -0.06650811 0.22546734 0.11717963 0.05177207
000030 c3 bb 66 be aa a1 85 3d 21 7d f8 3d 65 ef 09 3e
       -0.22532563 0.065249756 0.121332414 0.13470228
000040 e3 ec 97 bc d2 59 ae bd 69 c6 1c 3d 47 07 0d be
       -0.018545574 -0.085132256 0.038275156 -0.13772307
000050 47 61 01 bd 48 a5 b0 3d 78 cc f1 bc c2 73 a9 3b
       -0.03158691 0.08625275 -0.029516444 0.00517127
000060 6d ba 5d 3d d1 4a 17 3e 49 f2 4b 3e a5 9b e4 3d
       0.054132868 0.14774634 0.19916643 0.11162499
000070 10 36 5b be d5 ca f8 3d 2e 79 ac bc 4e 4a 28 be
       -0.21407342 0.12148062 -0.021053877 -0.16434595
000080 02 15 4c 3d 0c 65 06 3e 29 4b 35 3e 4b 99 97 bc
       0.049824722 0.13124484 0.17704453 -0.018505713
000090 c0 ea 25 3d 0c 85 89 3c ee ea 0b ba ed 3f 0e be
       0.04050708 0.016787075 -0.00053374365 -0.13891573
0000a0 32 2b 5e bd cf 78 f5 bd 72 ee c2 bd 12 79 2f 3e
       -0.054240413 -0.11985933 -0.09518136 0.17136028
0000b0 d5 8d 23 be 3a 55 12 bd 84 0c 1e be 5b d7 94 3e
       -0.15972073 -0.03572581 -0.15434462 0.29070553
0000c0 58 da e9 3d a5 20 04 bd ef 59 65 be c9 f5 a4 3d
       0.11418599 -0.032257695 -0.22397588 0.08054692
0000d0 3e 21 48 bd f2 31 74 3d 00 00 78 be 53 32 66 3c
       -0.048859827 0.059617944 -0.2421875 0.014050084
0000e0 e3 2b 07 be 0a 15 c7 3d 50 29 b2 bd d2 22 24 3d
       -0.13200335 0.0972081 -0.08699286 0.04007227
0000f0 13 1b 8f 3d 09 65 65 be 9a de 4f bd 9b c4 68 bd
       0.06987586 -0.22401823 -0.0507494 -0.056828123
000100 5c c7 2d 3e ec fa 55 3e dd 76 09 3d e3 57 2d be
       0.16970581 0.208965 0.033560622 -0.16928057
000110 b7 32 ac bb b3 ed 59 3d 51 f0 73 bd 4d 87 3a 3e
       -0.005255069 0.053205203 -0.059555355 0.18215676
000120 d7 22 9f 3c b8 49 1e 3e 66 7b a5 3d 83 5e 26 be
       0.019425793 0.15457809 0.08080177 -0.16246991
000130 44 af f0 3d 73 b1 92 3d 7a f0 72 3d 97 b7 0f be
       0.11752179 0.07162752 0.059311368 -0.14034878
000140 a7 8f 18 be 98 df ef 3d b9 9c 1b 3e c9 42 9d 3e
       -0.14898549 0.11712569 0.15196504 0.30715016
000150 df 0f 0e 3d 93 bb 05 3e b0 c2 b8 3d 5f f3 0e bd
       0.034683105 0.13059835 0.09021509 -0.034900066
000160 93 77 78 be 19 b5 4e be 05 3e 1e be b4 69 df 3d
       -0.24264364 -0.20186271 -0.15453346 0.10908833
000170 fd 12 fe 3d 88 68 8d be 36 f7 60 3e 8b 28 17 3d
       0.124059655 -0.27618814 0.21969303 0.0369039
000180 29 cc 79 bc 26 ac 48 be 39 e9 6e 3d 77 1a 6b 3d
       -0.0152464295 -0.1959692 0.058327887 0.057398286
000190 6c 7f 5e bd 26 eb bc b9 69 ff 05 3b e5 fd 92 3e
       -0.054320738 -0.00036033354 0.0020446426 0.2870933
0001a0 e7 55 9c bd 14 8c 4f 3c 08 33 81 3e c3 47 2e be
       -0.07633572 0.012667675 0.25234246 -0.17019562
0001b0 07 b6 20 bd bd 2f b1 bc eb 19 86 bd 8a 45 74 be
       -0.039236095 -0.021629209 -0.06547912 -0.23854652
0001c0 3d ea 01 be ef 37 df 3d 39 e9 93 3e 80 d1 62 bd
       -0.12687011 0.1089934 0.28888872 -0.055375576
0001d0 d9 c4 42 be 2b 50 1c 3d 8f 93 57 3e f5 40 33 3e
       -0.19020404 0.03816239 0.21052383 0.17505248
0001e0 a6 cf a4 3e 9a fc d7 3d fc c5 a6 3c 0c cf 8a 3d
       0.32189673 0.10546227 0.020358078 0.06777772
0001f0 66 89 9a bd 41 e2 6f 3e ec 1e 0e 3d d0 42 a4 3c
       -0.07545738 0.23426153 0.03469746 0.02005139
000200 96 b1 61 3d 7a d0 20 3e 82 af f6 bd 73 02 1d 3e
       0.055101 0.15704527 -0.12045194 0.15332966
000210 44 f3 b2 3d e4 8f 26 3d c7 c3 f7 3d f1 dc 82 3b
       0.087378055 0.04066457 0.120978884 0.0039936234
000220 06 15 b8 be fd 89 82 be b7 45 96 3d 7b ea f0 bd
       -0.3595354 -0.25495902 0.07337516 -0.117634736
000230 7a ec 4e be d1 79 0d be 30 1e 50 3e 8c fc b6 3c
       -0.20207396 -0.13816 0.20324016 0.02233722
000240 2d 20 3e be a6 13 a5 3d 06 6c bc 3d 3b 01 0b be
       -0.18566962 0.08060388 0.09200291 -0.13574688
000250 a5 45 5b 3e b4 4f d5 bd 20 ab 12 3d a2 e5 65 3d
       0.21413286 -0.10415593 0.03580773 0.056127198
000260 db 80 e3 bd 63 48 23 be e9 6f b7 3d e7 33 ab bd
       -0.111085616 -0.15945582 0.08956892 -0.08359509
000270 b3 51 e3 bd 45 8b 4d 3d 0c 95 a6 3d a0 9c 89 bc
       -0.11099567 0.050181646 0.08133897 -0.016798317
000280 b5 ad 1e be 08 87 01 3d 53 bb ec 3d 7b 20 49 be
       -0.15495951 0.031622916 0.11559167 -0.19641297
000290 2e 1a 5c 3d a5 f7 d4 3d ab 53 f2 bd 6a 45 e7 3d
       0.053735904 0.10398797 -0.11832365 0.112925366
0002a0 29 94 40 bd 8d 68 09 be c4 15 79 bd e3 ab 5e be
       -0.047016297 -0.13418789 -0.060811773 -0.21745257
0002b0 8a 15 85 ba 47 81 a6 39 e9 64 be 3d d1 b4 38 3d
       -0.0010153514 0.00031758306 0.09296591 0.045094315
0002c0 52 e4 60 bd 93 eb 1f 3e b1 78 f9 bd 11 5c 15 be
       -0.054905243 0.15617208 -0.12181223 -0.14585902
0002d0 90 b6 52 3e 25 a0 85 bd 89 5c 0c be 9d de bb 3e
       0.20577455 -0.06524686 -0.13707174 0.36693278
0002e0 20 3e b5 3c b3 80 41 be 48 5c 6c bc 42 14 d1 bb
       0.02212435 -0.18896751 -0.014426298 -0.0063805887
0002f0 80 82 57 be ea 54 8b bd 62 f8 1a 3d ae be 37 3e
       -0.21045876 -0.068033054 0.037834533 0.17943832
000300 75 29 c8 bd f9 9a 60 be 84 60 a6 3d 3b 77 54 3e
       -0.09773532 -0.21934117 0.08123878 0.20748608
000310 08 3b ee 3c 6b 6e f8 bd 69 53 30 3e db da 43 3c
       0.029080883 -0.121304356 0.17219318 0.011954035
000320 3e 51 fe bd 93 a3 1c bd ce bd a2 3d 24 bd c6 be
       -0.124178395 -0.038241934 0.079463586 -0.38816178
000330 4d 64 cf bd 8a 72 31 be c5 2e 9b 3d 78 ce 54 3e
       -0.10126553 -0.1732885 0.0757728 0.20781887
000340 c0 de 21 be c3 43 4d bc 7c 4a 2c 3d 12 fd 31 bd
       -0.15807629 -0.012528363 0.04206322 -0.043454237
000350 df 18 ff 3d 22 e8 02 3d 85 2e 2c bb e2 98 cb 3d
       0.12455916 0.03195966 -0.0026272845 0.099412695
000360 94 92 35 be 6d a8 98 3c 6c aa 02 3e ed d0 74 3d
       -0.17731696 0.018635 0.12760323 0.05976956
000370 0e b0 19 bd b8 59 de 3b 68 8e 81 3d 12 b0 29 be
       -0.037521414 0.0067855977 0.0632599 -0.16571072
000380 19 5d 68 bd 7f 8d 59 be 9b 73 20 bd f4 65 e9 3d
       -0.05672941 -0.21245383 -0.03917275 0.11396399
000390 9b 22 65 3d 0c 0a 79 3d 36 0f 18 be bd 6c 1a 3e
       0.055941205 0.060800597 -0.14849553 0.15080543
0003a0 08 c2 a1 bd e6 f2 f3 bb d6 49 e4 3c 9a 3a 86 be
       -0.07898337 -0.0074447272 0.027867239 -0.26216584
0003b0 ab 45 1c bc 62 57 f7 bd 6b 44 32 bd 2e d5 1a be
       -0.0095380945 -0.12077214 -0.04352228 -0.15120384
0003c0 bd 41 c0 bd 93 85 89 3e 49 5b b5 3e 2f 0e a8 bd
       -0.093875386 0.26859722 0.35421208 -0.0820583
0003d0 5d 03 bf 3e 1c 5b 61 3d 12 6f 35 3e 66 0a 16 3d
       0.37307253 0.05501853 0.17718151 0.03663101
0003e0 cf 0f b4 3d 49 35 f5 bc a0 d0 e0 3d 8d b8 d2 3d
       0.08792078 -0.029932635 0.10977292 0.102891065
0003f0 3f 20 a3 be 8d bb 3c 3e 1e 62 5d be 11 44 3d 3e
       -0.3186054 0.1843092 -0.2161946 0.18482997

v.net.2.bias f4 [64]
000000 f6 37 eb 3d 40 92 9b bd d1 54 47 3e 2d 88 5a 3e
       0.11485283 -0.07596254 0.19465949 0.2134101
000010 08 29 72 be 1e 13 49 3e 19 24 15 3d 72 98 1c 3e
       -0.23648465 0.19636199 0.03641138 0.15292528
000020 09 f6 fa bd fd 74 86 bc e0 4b 92 3c 66 59 2f 3e
       -0.12253959 -0.016413206 0.017858446 0.17123947
000030 db da 57 3e 70 09 f8 bc 9f 77 0d 3e 7b 88 97 bd
       0.2107958 -0.030277938 0.13815163 -0.073990785
000040 ee 36 20 3e 0b 95 4f be 3b 91 bf bd ef c1 08 3e
       0.15645954 -0.20271699 -0.093538724 0.1335523
000050 20 de 2c be 6c 9c 94 3d 7d 36 54 bd 5a db c9 3a
       -0.16881609 0.072563976 -0.051809777 0.0015400455
000060 35 6e c4 bc 4d 7d 8b 3d fa 1c df bd 7a 51 08 be
       -0.023978332 0.068110086 -0.10894199 -0.13312331
000070 35 f2 b5 3e 23 58 0b 3e 86 d0 90 bd c7 0d 22 be
       0.35536352 0.1360784 -0.07071023 -0.15825568
000080 24 21 a9 bd 3d d3 02 bd 6f 0a 00 3b 57 26 ac 3e
       -0.08258274 -0.031939734 0.001953747 0.33623
000090 4b 5b 25 3e 33 f3 e1 3d ee aa 98 3d 29 f3 d9 3d
       0.16148107 0.11032715 0.07454477 0.10642082
0000a0 6d 40 4d 3b 51 29 12 bd 03 34 00 3e 2a bb 27 be
       0.0031318918 -0.035683934 0.12519841 -0.16379991
0000b0 09 45 27 3e 18 95 c6 bd f5 f0 95 3c 50 3e 6a 3d
       0.16334929 -0.09696406 0.018303374 0.057188332
0000c0 24 bf 10 3e 37 2e 64 3e b5 46 ff bc 6b be 3f be
       0.14135414 0.22283255 -0.031161645 -0.18724982
0000d0 07 22 7f be 33 c2 4b 3e c2 68 a1 3c b5 6e 5d 3d
       -0.24915324 0.198983 0.019703273 0.054060657
0000e0 82 5e 3b be 0f 8f 7d 3e dd 28 24 3e 04 8e 1c 3e
       -0.1829777 0.24761604 0.16031213 0.1528855
0000f0 40 c3 d8 3d a3 22 ae 3b 8f a7 5c be d9 c6 9b 3d
       0.10584116 0.0053141876 -0.21548294 0.076062866

v.net.4.weight f4 [1, 64]
000000 5c 57 54 be 5a 6f 2a 3e 5c 81 04 be 9b 81 32 be
       -0.2073645 0.1664404 -0.12939972 -0.17432253
000010 97 81 58 3e 65 b1 78 be 5b 26 34 3e 4a e4 0c be
       0.21143185 -0.2428642 0.17592756 -0.1375896
000020 36 85 0a 3e f7 08 6a 3e d9 34 80 3e e1 4d 1c be
       0.13527378 0.22854982 0.2504032 -0.15264083
000030 21 f0 12 be e6 0d 87 be 6f f2 1b be b1 f5 30 3e
       -0.14349414 -0.2637779 -0.152292 0.17281224
000040 0a a2 2e be 3e d1 30 3e 99 57 00 3e d3 91 56 be
       -0.17054 0.1726732 0.12533416 -0.20954065
000050 89 e1 32 3e 8d 28 23 be 8d b3 64 3e 07 82 3f 3e
       0.17468847 -0.15933438 0.22334118 0.18701945
000060 99 65 0f be 65 ac 1e be 5e 7e 7f 3e 7e f3 56 3e
       -0.140036 -0.15495451 0.24950549 0.20991322
000070 17 ee 33 be c4 0e 5d be 4a c6 eb 3d 02 8d 4b 3e
       -0.17571293 -0.21587664 0.1151243 0.19878009
000080 91 9a 3d 3e 7f 7b 55 3e 82 9f 36 3e f0 c6 14 be
       0.18515994 0.20847891 0.17834285 -0.14529014
000090 4a 2a 26 be 33 28 ea bd b0 16 31 be 85 4d 81 be
       -0.1622707 -0.11433449 -0.17293811 -0.25254455
0000a0 c0 fa 0b be d3 25 fe 3d 49 72 38 be 10 b0 47 3e
       -0.13669872 0.12409558 -0.18012346 0.19500756
0000b0 74 f4 4f be 29 31 1e 3e 4b ae 23 be 97 1e 50 be
       -0.20308095 0.1544844 -0.15984456 -0.20324169
0000c0 05 5f 5b be 07 34 3a be 25 43 3f 3e 26 4a 26 3e
       -0.21422966 -0.1818391 0.18677957 0.16239223
0000d0 17 cf 44 3e 6b 26 59 be 81 77 46 be 53 29 2e be
       0.19219624 -0.21206062 -0.19381525 -0.17007951
0000e0 f6 43 5c 3e fa 37 f8 bd 8e 47 13 be da 58 1f be
       0.215103 -0.12120052 -0.14382765 -0.15561238
0000f0 52 64 21 be 50 de 33 3e 52 1f 44 3e c7 70 4d 3e
       -0.15760925 0.17565274 0.19152573 0.20062552
