runs/phoenix/DroneHoverBulletEnvWithAdversary-v0/ppo/2023-08-16__13-45-36/seed_13680/torch_save/model.pt (torch, 49538 bytes, 14 tensors)

obs_oms.mean f4 [34]
0.0 0.0 0.0 0.0 0.0 0.0 0.0 0.0
0.0 0.0 0.0 0.0 0.0 0.0 0.0 0.0
0.0 0.0 0.0 0.0 0.0 0.0 0.0 0.0
0.0 0.0 0.0 0.0 0.0 0.0 0.0 0.0
0.0 0.0
00000000: 0000 0000 0000 0000 0000 0000 0000 0000
00000010: 0000 0000 0000 0000 0000 0000 0000 0000
00000020: 0000 0000 0000 0000 0000 0000 0000 0000
00000030: 0000 0000 0000 0000 0000 0000 0000 0000
00000040: 0000 0000 0000 0000 0000 0000 0000 0000
00000050: 0000 0000 0000 0000 0000 0000 0000 0000
00000060: 0000 0000 0000 0000 0000 0000 0000 0000
00000070: 0000 0000 0000 0000 0000 0000 0000 0000
00000080: 0000 0000 0000 0000

obs_oms.std f4 [34]
1.0 1.0 1.0 1.0 1.0 1.0 1.0 1.0
1.0 1.0 1.0 1.0 1.0 1.0 1.0 1.0
1.0 1.0 1.0 1.0 1.0 1.0 1.0 1.0
1.0 1.0 1.0 1.0 1.0 1.0 1.0 1.0
1.0 1.0
00000000: 0000 803f 0000 803f 0000 803f 0000 803f
00000010: 0000 803f 0000 803f 0000 803f 0000 803f
00000020: 0000 803f 0000 803f 0000 803f 0000 803f
00000030: 0000 803f 0000 803f 0000 803f 0000 803f
00000040: 0000 803f 0000 803f 0000 803f 0000 803f
00000050: 0000 803f 0000 803f 0000 803f 0000 803f
00000060: 0000 803f 0000 803f 0000 803f 0000 803f
00000070: 0000 803f 0000 803f 0000 803f 0000 803f
00000080: 0000 803f 0000 803f

pi.log_std f4 [4]
-0.6931472 -0.6931472 -0.6931472 -0.6931472
00000000: 1872 31bf 1872 31bf 1872 31bf 1872 31bf

pi.net.0.weight f4 [50, 34]
0.020186627 0.058058858 0.124107994 0.06928233 -0.035442926 0.03657482 0.042929046 0.009310566
0.099778175 -0.014195611 -0.15048671 0.09446687 -0.009193563 0.15970843 0.08806315 -0.08982372
-0.14430979 0.011601259 0.15926701 0.093519755 0.060822856 -0.1529056 0.14344504 0.13094237
0.044844814 0.00045568132 -0.02455936 0.15236643 -0.08255537 0.018545508 0.09450796 -0.13779008
-0.04638584 -0.012338805 -0.16216302 0.06609176 0.15813082 0.15878558 -0.16480201 0.12433435
0.086263426 -0.025867995 -0.007271377 -0.08574445 0.16658172 0.11736733 -0.04359375 -0.15898822
-0.047236256 -0.06420535 0.04926921 -0.026725406 -0.15789324 -0.13834248 -0.11020183 -0.10479292
0.045678284 0.12581539 0.029844785 0.10817814 -0.09504884 0.027415378 -0.13891633 -0.030977968
-0.038242802 0.117928624 -0.050950687 0.07534813 -0.0075099403 0.0016870983 -0.010424571 0.15115052
0.015865372 0.0712831 -0.13072436 -0.05884185 0.14792737 -0.14893669 -0.039038554 -0.044086967
-0.1431211 -0.03525496 0.030464714 -0.07830512 0.13818058 0.058819033 -0.16381457 -0.15449066
-0.003416414 0.13043654 0.00064988097 -0.087623596 -0.15743911 -0.027252804 -0.070298485 0.115956694
0.11140683 -0.15266714 -0.07838543 -0.06609638 -0.027473643 -0.06303471 -0.0071946084 0.14873908
-0.121335916 0.08319262 0.05630605 0.11997613 -0.03947328 -0.104542136 0.10149169 -0.08506175
-0.17092164 0.15839672 -0.08322157 0.01749124 0.00014515399 -0.053370506 0.014154559 -0.10219305
0.0059963115 -0.09371698 -0.14480092 0.15524295 -0.06849318 -0.009441061 -0.14429884 0.104490265
0.0580839 0.09518344 -0.11099071 0.10987856 0.05328965 0.15678363 -0.07983524 0.011216233
-0.09615436 0.0114437975 0.029318387 0.15714261 0.16422908 0.006688553 0.1633706 -0.08071482
0.06252835 -0.02964437 0.16484311 0.103355244 0.14250223 0.1337809 0.12128663 -0.0073362463
0.014976498 0.106456675 0.081026 -0.14316061 -0.08706563 0.0312684 -0.021787634 -0.028680405
-0.0049555777 -0.13142717 0.14857419 -0.114084594 0.13567208 -0.08731898 0.087401286 -0.13484286
-0.16134992 0.108760655 -0.03727755 -0.07483833 0.010804608 0.06663688 0.14693974 0.017644715
0.0033268887 -0.12388844 -0.09113757 0.12422951 -0.1461017 0.017806368 -0.10031431 0.13806033
0.0724226 0.094667345 0.029435983 -0.06361523 -0.04772455 -0.07893016 0.15951021 -0.111788504
-0.08921786 -0.0023033076 -0.13558389 0.12055123 -0.16912575 -0.05869555 -0.005498699 0.075662255
-0.009409638 0.11085106 0.091861315 0.06124922 -0.100374416 0.04423662 0.15446045 0.05162512
0.15862294 -0.12977868 0.05573216 0.011742978 -0.1377603 0.14475106 -0.09866016 -0.043057457
0.09329926 -0.083068356 -0.018597435 -0.05011002 -0.13755898 0.09115045 -0.07025858 0.113770045
0.08702734 0.036253374 -0.061005726 0.0550704 -0.07770743 0.06736904 -0.08111403 -0.14280325
0.0111221075 0.048278768 0.14782625 -0.0011272536 0.15359235 0.003423508 -0.14699784 -0.0077570295
-0.1505562 -0.16260776 0.082670964 0.092931144 0.14150903 0.16874467 0.11979753 -0.011902525
0.07905299 0.08780999 0.08649287 0.09442858 -0.07132174 0.17140129 0.16480187 0.021472936
00000000: 6d5e a53c 20cf 6d3d 552c fe3d e5e3 8d3d
00000010: 9a2c 11bd 7acf 153d 5ed6 2f3d 588b 183c
00000020: 8058 cc3d b594 68bc 3019 1abe d977 c13d
00000030: 99a0 16bc 9b8a 233e 745a b43d 80f5 b7bd
00000040: f2c5 13be 3513 3e3c e416 233e 4987 bf3d
00000050: 6321 793d 4993 1cbe 42e3 123e c215 063e
00000060: 32af 373d 83e8 ee39 b630 c9bc f205 1c3e
00000070: ca12 a9bd c0ec 973c 648d c13d d818 0dbe
00000080: 14ff 3dbd b328 4abc 100e 26be 1e5b 873d
00000090: 0ced 213e b098 223e dcc1 28be 02a3 fe3d
000000a0: e1aa b03d 1ee9 d3bc bb44 eebb c99a afbd
000000b0: 6694 2a3e 485e f03d 5c8f 32bd cfcd 22be
000000c0: ce7a 41bd 187e 83bd 83ce 493d 3def dabc
000000d0: c4ae 21be a7a9 0dbe 7fb1 e1bd ac9d d6bd
000000e0: 2719 3b3d c0d5 003e 0d7d f43c 808c dd3d
000000f0: f7a8 c2bd 3796 e03c 1540 0ebe 82c5 fdbc
00000100: 7ca4 1cbd 9084 f13d abb1 50bd 1f50 9a3d
00000110: f215 f6bb a021 dd3a d2cb 2abc 34c7 1a3e
00000120: 19f8 813c e0fc 913d 9bdc 05be 2704 71bd
00000130: 467a 173e dc82 18be e4e6 1fbd 8994 34bd
00000140: 568e 12be 8167 10bd 2391 f93c 6f5e a0bd
00000150: 367f 0d3e 3aec 703d 02bf 27be cd32 1ebe
00000160: eae5 5fbb 2891 053e c65c 2a3a 0074 b3bd
00000170: b837 21be 4641 dfbc a7f8 8fbd b47a ed3d
00000180: 4429 e43d c654 1cbe 8a88 a0bd 8a5d 87bd
00000190: 6810 e1bc 5818 81bd c0c0 ebbb 0f4f 183e
000001a0: f77e f8bd e460 aa3d 2ca1 663d 0cb6 f53d
000001b0: bcae 21bd 301a d6bd e0da cf3d db34 aebd
000001c0: 1506 2fbe c032 223e 1270 aabd ca49 8f3c
000001d0: 7a34 1839 089b 5abd 86e8 673c 974a d1bd
000001e0: b57c c43b b0ee bfbd b146 14be 02f8 1e3e
000001f0: 2746 8cbd aeae 1abc 13c3 13be fefe d53d
00000200: 62e9 6d3d 89ef c23d 194f e3bd 0308 e13d
00000210: 3f46 5a3d e38b 203e a980 a3bd 4ac4 373c
00000220: 94ec c4bd c47e 3b3c 1d2d f03c fee9 203e
00000230: ab2b 283e a62b db3b 9f4a 273e d04d a5bd
00000240: dd0e 803d c0d8 f2bc a2cc 283e eaab d33d
00000250: 1bec 113e dcfd 083e 2065 f83d e564 f0bb
00000260: fc5f 753c f505 da3d f6f0 a53d b298 12be
00000270: 774f b2bd 4b13 003d fb7b b2bc 2bf3 eabc
00000280: 6662 a2bb d894 06be d523 183e 2fa5 e9bd
00000290: 9fed 0a3e 4bd4 b2bd 72ff b23d 3f14 0abe
000002a0: ea38 25be e8bd de3d 58b0 18bd d744 99bd
000002b0: d005 313c eb78 883d 5f77 163e a68b 903c
000002c0: ee07 5a3b 39b9 fdbd 56a6 babd 0b6c fe3d
000002d0: af9b 15be a9de 913c 9771 cdbd b05f 0d3e
000002e0: 4d52 943d f4e0 c13d bb23 f13c b448 82bd
000002f0: d17a 43bd 23a6 a1bd a556 233e 5ff1 e4bd
00000300: dab7 b6bd 17f3 16bb 81d6 0abe 90e3 f63d
00000310: 4d2f 2dbe bf6a 70bd 6e2e b4bb d0f4 9a3d
00000320: e22a 1abc e105 e33d c921 bc3d 76e0 7a3d
00000330: 1a91 cdbd 7531 353d e12a 1e3e dd74 533d
00000340: 0d6e 223e b4e4 04be 6847 643d 9f65 403c
00000350: 0911 0dbe 9f39 143e 570e cabd 045d 30bd
00000360: af13 bf3d be1f aabd a659 98bc 2a40 4dbd
00000370: 43dc 0cbe 16ad ba3d bbe3 8fbd 4500 e93d
00000380: 643b b23d 6b7e 143d 24e1 79bd 8091 613d
00000390: 1325 9fbd c7f8 893d 1d1f a6bd 043b 12be
000003a0: 8039 363c f5bf 453d c45f 173e 5bc0 93ba
000003b0: 5047 1d3e ef5c 603b 9a86 16be ae2e febb
000003c0: 682b 1abe a682 26be 654f a93d af52 be3d
000003d0: bee7 103e 67cb 2c3e 6858 f53d cf02 43bc
000003e0: 89e6 a13d b9d5 b33d 2c23 b13d c563 c13d
000003f0: 2211 92bd d283 2f3e d2c1 283e 03e8 af3c

pi.net.0.bias f4 [50]
0.12975433 0.0151857035 -0.021533942 -0.12158853 0.004153735 0.15397033 0.085088864 -0.07041535
-0.017535072 -0.037874337 -0.06993113 -0.13177443 0.10938175 -0.1334544 0.14593709 0.15397878
-0.11508205 -0.07913767 0.122606814 -0.064481474 -0.069750845 0.10948007 -0.021257803 -0.12434993
0.030966723 -0.120874025 -0.037849106 -0.036210462 0.120645046 0.14619738 0.046719693 0.1574306
0.019599898 -0.1479704 -0.120278664 0.046398044 0.053109046 0.012133974 -0.12536688 0.15472198
-0.043755077 0.02003211 -0.041365575 -0.068195105 -0.13203473 -0.12843499 0.14398779 -0.12793219
0.16146581 0.009146051
00000000: 52de 043e 75cd 783c f367 b0bc 6803 f9bd
00000010: 0e1c 883b 66aa 1d3e 1243 ae3d ec35 90bd
00000020: b6a5 8fbc 1f22 1bbd 0d38 8fbd e0ef 06be
00000030: 8a03 e03d 45a8 08be 8870 153e 9dac 1d3e
00000040: 23b0 ebbd ee12 a2bd 4819 fb3d dd0e 84bd
00000050: 88d9 8ebd 1637 e03d d824 aebc 2dab febd
00000060: edad fd3c cd8c f7bd aa07 1bbd 6c51 14bd
00000070: c014 f73d c4b4 153e 265d 3f3d 7d35 213e
00000080: f78f a03c 8d85 17be a954 f6bd e00b 3e3d
00000090: df88 593d 93cd 463c 2d60 00be 706f 1e3e
000000a0: 8638 33bd 611a a43c f36e 29bd e0a9 8bbd
000000b0: 1d34 07be 7684 03be 8971 133e a800 03be
000000c0: 4b57 253e 51d9 153c

pi.net.2.weight f4 [50, 50]
0.1083691 -0.045879528 -0.04427616 -0.037806112 0.02886754 -0.03447985 0.014666025 0.02269908
-0.097784705 0.09621983 0.017667606 -0.13805799 -0.034088187 -0.016178692 0.0063592684 -0.039498158
-0.05496951 0.13907464 -0.04738186 -0.12198994 0.13460656 0.07804309 0.08822192 0.09785413
0.07815255 0.020151353 0.13888277 -0.04042989 0.0843037 0.0048341933 0.11623132 0.12802957
0.009007878 0.008477839 -0.09806694 -0.11017893 -5.2009214e-05 -0.11916147 0.089836515 0.05415808
0.11427356 -0.08499063 -0.073980905 -0.066351704 -0.041637313 0.00610691 -0.03102846 0.12789309
0.13940808 -0.07305577 -0.053888593 -0.06532135 0.034840897 0.046155978 -0.07699001 0.046721235
-0.11144917 -0.068264864 -0.029798733 0.093488745 0.11757632 0.11739865 0.006454487 0.08065028
-0.050943237 0.09433256 -0.10859834 -0.015686164 -0.0025958752 -0.11697835 0.004777632 0.124723
0.07870176 0.09275232 0.0061124396 -0.05220282 0.09977495 0.028586742 -0.04331408 -0.10700868
-0.046357777 0.12831703 -0.038242348 0.03090895 0.02401342 -0.13412304 -0.10487343 0.050744083
-0.05980363 0.124914885 0.020470556 -0.0563409 -0.0495168 0.051092956 -0.12358753 0.045257017
-0.045057982 -0.08613159 0.08188165 -0.027309237 0.055875715 -0.09933779 0.006715713 -0.07749238
0.10313237 0.033437826 -0.09251337 0.02037367 -0.09826626 0.009620912 0.12714297 0.10676181
0.0859363 -0.124563664 -0.056984194 0.035261758 0.037252557 0.07254754 -0.10607069 -0.13396676
0.03140163 -0.06348723 -0.060819726 0.09775724 0.02764186 0.11494937 -0.038853545 0.059225075
0.014830701 0.015109426 0.13456208 -0.13878514 -0.030013952 -0.0664834 0.03414195 -0.038000174
0.006707081 0.05700783 -0.099670745 0.123764075 0.06689609 -0.10542163 0.11074653 -0.066500075
-0.067876 0.1400581 -0.10010648 -0.020149903 0.046364453 -0.000113290735 0.04870436 -0.044955164
-0.015734212 -0.017719295 -0.071324155 -0.08170293 0.038628668 -0.12796427 -0.1289155 -0.13905284
-0.12534961 -0.03407581 -0.07501187 -0.1092429 0.05746514 0.07073076 -0.007375901 -0.0801907
0.09262659 -0.13826288 -0.017978497 0.061945736 -0.10316114 -0.07418169 -0.08525343 0.11640438
0.08651868 -0.03621775 -0.0021553899 0.08143318 -0.06354959 0.0561392 -0.11236784 -0.09464269
0.13153127 0.037258826 0.045510676 -0.076789744 0.061821066 0.0300958 -0.04773055 -0.013845375
-0.06885368 0.02720021 0.020720657 -0.012152994 0.111133695 -0.1013916 0.1386459 -0.01743381
0.029250031 0.062523656 -0.12722261 -0.0077990894 -0.021705003 0.11591355 -0.018327793 -0.07702465
0.07189644 -0.021873238 -0.045634653 0.13806853 -0.06927865 -0.11267642 -0.018907482 -0.13976476
0.13622266 0.081570156 0.11152792 -0.025199113 -0.010834826 0.1400893 -0.01881282 0.12310768
-0.103442885 0.059915457 0.03151438 -0.029709078 -0.13889375 -0.01615917 0.114944495 -0.13218623
0.025904298 -0.09914546 -0.11036153 -0.09212346 0.038097415 0.04143757 0.11634099 -0.002106685
-0.021835912 0.05638891 -0.052481614 0.023087421 1.09076045e-05 -0.12803839 0.07518676 -0.09754388
-0.12692523 -0.048959874 0.124333195 0.12500556 -0.007850677 -0.08089946 -0.1087836 -0.107503854
00000000: 9ef0 dd3d 2cec 3bbd eb5a 35bd 95da 1abd
00000010: 9f7b ec3c be3a 0dbd c449 703c 6cf3 b93c
00000020: 5943 c8bd e70e c53d a8bb 903c 135f 0dbe
00000030: 0ea0 0bbd 2d89 84bc 6961 d03b d2c8 21bd
00000040: b527 61bd 9569 0e3e 7b13 42bd ddd5 f9bd
00000050: 4dd6 093e 0ed5 9f3d b2ad b43d bf67 c83d
00000060: 720e a03d 7314 a53c 4937 0e3e d099 25bd
00000070: 6ba7 ac3d 2768 9e3b b00a ee3d 2f1a 033e
00000080: c795 133c a2e6 0a3c 52d7 c8bd 7ea5 e1bd
00000090: 7824 5ab8 ee0a f4bd 35fc b73d ddd4 5d3d
000000a0: 4208 ea3d 910f aebd 4d83 97bd 67e3 87bd
000000b0: e38b 2abd 791c c83b 662f febc 68f6 023e
000000c0: fec0 0e3e 439e 95bd 49ba 5cbd 33c7 85bd
000000d0: 54b5 0e3d 0d0e 3d3d f0ac 9dbd c45e 3f3d
000000e0: 763f e4bd 73ce 8bbd 791c f4bc 0777 bf3d
000000f0: dbcb f03d b46e f03d 2980 d33b f92b a53d
00000100: dba9 50bd 6e31 c13d ce68 debd 4580 80bc
00000110: 8f1f 2abb 5892 efbd af8d 9c3b c66e ff3d
00000120: 632e a13d eef4 bd3d dc4a c83b a0d2 55bd
00000130: cf56 cc3d be2e ea3c 1b6a 31bd 5e27 dbbd
00000140: a7e1 3dbd 8a65 033e 02a4 1cbd c434 fd3c
00000150: cbb7 c43c 8d57 09be e2c7 d6bd 07d9 4f3d
00000160: a7f4 74bd 60d3 ff3d deb1 a73c b7c5 66bd
00000170: 21d2 4abd d946 513d 751b fdbd 6c5f 393d
00000180: b88e 38bd c265 b0bd 91b1 a73d 9fb7 dfbc
00000190: efdd 643d 9c71 cbbd 7c0f dc3b 53b4 9ebd
000001a0: 1037 d33d 1af6 083d a677 bdbd afe6 a63c
000001b0: d23f c9bd 08a1 1d3c c431 023e f0a5 da3d
000001c0: 5fff af3d 3c1b ffbd 4268 69bd a26e 103d
000001d0: 2396 183d ce93 943d 973b d9bd 952e 09be
000001e0: ff9e 003d 9805 82bd 1b1e 79bd f334 c83d
000001f0: 2f71 e23c 936a eb3d e524 1fbd fe95 723d
00000200: 78fc 723c 878d 773c a4ca 093e b11d 0ebe
00000210: d2df f5bc 7328 88bd 6ed8 0b3d 12a6 1bbd
00000220: 13c7 db3b 0b81 693d 2d20 ccbd 0578 fd3d
00000230: d100 893d 4ce7 d7bd 14cf e23d 3131 88bd
00000240: 9302 8bbd 646b 0f3e a004 cdbd 6911 a5bc
00000250: a7e8 3d3d 8096 edb8 397e 473d e822 38bd
00000260: 09e5 80bc 0e28 91bc 6612 92bd de53 a7bd
00000270: 1839 1e3d 1109 03be 6d02 04be de63 0ebe
00000280: a65b 00be 1493 0bbd d39f 99bd beba dfbd
00000290: 9160 6b3d 4adb 903d 8bb1 f1bb 063b a4bd
000002a0: 02b3 bd3d c994 0dbe a447 93bc d0ba 7d3d
000002b0: 2646 d3bd 92ec 97bd 5a99 aebd 6b65 ee3d
000002c0: b530 b13d 1059 14bd 7141 0dbb 70c6 a63d
000002d0: 4a26 82bd 38f2 653d 1c21 e6bd 07d4 c1bd
000002e0: 22b0 063e b69c 183d 6769 3a3d f143 9dbd
000002f0: 1638 7d3d 788b f63c 1c81 43bd b6d7 62bc
00000300: 2803 8dbd fad2 de3c 5ebe a93c 5a1d 47bc
00000310: 109a e33d 66a6 cfbd 31f9 0d3e 59d1 8ebc
00000320: c39d ef3c 670c 803d a546 02be 818f ffbb
00000330: b1ce b1bc 1564 ed3d 2b24 96bc 1abf 9dbd
00000340: 713e 933d 812f b3bc 67eb 3abd d661 0d3e
00000350: f7e1 8dbd e5c2 e6bd dde3 9abc 7e1e 0fbe
00000360: f47d 0b3e 410e a73d c068 e43d 5f6e cebc
00000370: 8e84 31bc 9273 0f3e 581d 9abc e11f fc3d
00000380: ddd9 d3bd e969 753d 3915 013d 7460 f3bc
00000390: 2a3a 0ebe 3c60 84bc 0568 eb3d d45b 07be
000003a0: 4035 d43c c60c cbbd 3a05 e2bd 39ab bcbd
000003b0: 090c 1c3d 71ba 293d 2f44 ee3d 4f10 0abb
000003c0: 3ae1 b2bc 0ff8 663d f6f6 56bd d521 bd3c
000003d0: ceff 3637 7f1c 03be 84fb 993d 16c5 c7bd
000003e0: b0f8 01be 268a 48bd 67a2 fe3d 7501 003e
000003f0: 20a0 00bc 9eae a5bd f0c9 debd fb2a dcbd

pi.net.2.bias f4 [50]
0.07057561 0.12038098 -0.014848825 0.06715932 0.12748449 -0.12368907 0.04757953 0.04323822
-0.09362726 -0.10624103 0.0076690577 -0.13592485 -0.11528141 0.024072696 -0.10776154 -0.07728763
-0.071994744 -0.03698118 0.03896557 0.10114251 -0.057399794 -0.07199309 -0.06214307 0.1037116
-0.00967953 0.055650413 0.022004971 -0.05173455 0.018759951 -0.08142593 -0.049292024 -0.13628717
0.112082236 -0.13361083 -0.076541685 -0.01352285 -0.122864865 0.048808903 0.09300837 0.070447885
0.085966624 -0.10544333 -0.0827063 0.061221708 0.04779109 0.04703275 0.12251838 0.1324569
-0.0039122393 0.03359178
00000000: f289 903d 4e8a f63d 7c48 73bc d38a 893d
00000010: 4b8b 023e b250 fdbd c1e2 423d 8f1a 313d
00000020: a6bf bfbd e694 d9bd b84c fb3b e22f 0bbe
00000030: a918 ecbd 1a34 c53c 15b2 dcbd fa48 9ebd
00000040: fb71 93bd 9479 17bd 5d9a 1f3d ce23 cf3d
00000050: 0c1c 6bbd 1d71 93bd bb89 7ebd bf66 d43d
00000060: e496 1ebc b0f1 633d c543 b43c 9ce7 53bd
00000070: 78ae 993c a3c2 a6bd 6fe6 49bd dd8e 0bbe
00000080: 5f8b e53d 47d1 08be e3c1 9cbd f28e 5dbc
00000090: 93a0 fbbd d8eb 473d 2c7b be3d fb46 903d
000000a0: 450f b03d acf2 d7bd ec61 a9bd 9dc3 7a3d
000000b0: 97c0 433d 6aa5 403d ebea fa3d c8a2 073e
000000c0: 3e32 80bb 8997 093d

pi.net.4.weight f4 [4, 50]
-0.111481726 -0.05421206 0.07629396 0.03599828 0.089687675 0.12328928 0.12640925 -0.11885339
-0.01889848 -0.09390568 0.11719251 -0.04064553 -0.10489378 0.0019186427 0.05953067 -0.07864361
0.1221458 -0.007336148 -0.008842173 0.051606104 0.049803432 0.1118337 0.07464312 0.057392765
0.06916737 -0.12066512 -0.039660793 0.106369786 0.11683146 -0.06866228 0.09781899 -0.08850734
-0.12568213 -0.14018893 -0.11953422 0.057545844 -0.12800243 0.102862455 -0.103430495 0.089904256
0.1380196 -0.07665214 -0.08419003 0.11649619 -0.116643816 -0.05288034 0.13079907 -0.06497564
-0.08436486 -0.092299834 -0.04007417 0.11996307 0.07121117 0.04723202 -0.08481846 0.088884756
-0.027434852 -0.023077475 -0.0069240364 -0.072291896 -0.048437927 0.08066395 -0.0032792778 -0.037510596
0.05929448 -0.066119105 0.0336371 -0.07494814 -0.119905904 -0.010358802 -0.10633696 0.12610283
0.025185155 0.0971978 0.012995914 -0.027163258 -0.09517585 0.030525919 0.012034797 0.12693791
0.017820515 -0.051790707 -0.0417737 -0.12617515 0.04933547 -0.015418464 0.053682175 0.016785456
-0.11177171 0.13750644 0.10096408 0.07413656 -0.054379888 0.025592377 -0.09902188 0.053548098
0.05376915 -0.06868794 0.09031362 -0.06020642 -0.009883503 -0.12978925 0.01873436 -0.07463494
-0.07741673 -0.08331055 0.12009008 0.13836998 0.13197115 0.12281134 -0.036868684 0.026158206
-0.05251936 0.07863894 0.124090694 -0.03326764 -0.10245653 -0.07056246 -0.006257981 0.021534966
0.037491698 0.063901335 0.0019186932 0.058864415 0.07781834 -0.107530914 0.10753983 -0.13167785
0.08173078 0.11084377 -0.1033872 0.06547832 -0.0675043 0.032623466 -0.04911327 -0.014010405
0.07500511 -0.12219174 0.12332671 -0.03267674 0.0692257 -0.083553046 0.09090711 -0.10065993
-0.10313363 -0.09699184 0.09190075 -0.08361588 -0.12416071 0.13547197 -0.034975562 0.056356695
0.022372425 -0.056526598 0.07292346 -0.10702716 -0.110678606 -0.07884362 -0.029800285 0.060638107
-0.046254363 0.022661788 0.096269526 0.0822148 -0.093189515 -0.06825871 -0.040989902 -0.11233154
-0.10066639 0.06186131 -0.010220426 0.13773166 0.081333324 -0.011069465 -0.07037089 -0.072887816
-0.055337347 -0.13538994 0.10740336 -0.108508445 -0.026679765 0.046284527 0.09890497 0.06409209
0.12545133 -0.09228685 0.04461981 -0.09731442 0.13661185 0.12226938 0.12577802 0.018554594
0.0665501 0.06621789 0.13061938 -0.078291014 -0.07490158 0.12451027 0.11505237 0.072372735
00000000: 8850 e4bd 770d 5ebd 0240 9c3d ef72 133d
00000010: 2cae b73d 177f fc3d 6d71 013e 6869 f3bd
00000020: fcd0 9abc 9f51 c0bd a002 f03d ed7b 26bd
00000030: 8dd2 d6bd f77a fb3a 6fd6 733d e70f a1bd
00000040: 9427 fa3d 1264 f0bb c3de 10bc ec60 533d
00000050: affe 4b3d 1109 e53d 7ede 983d ad14 6b3d
00000060: 9fa7 8d3d 461f f7bd 5b73 22bd 67d8 d93d
00000070: 5545 ef3d cf9e 8cbd 5355 c83d 5643 b5bd
00000080: d1b2 00be b08d 0fbe 5bce f4bd 31b5 6b3d
00000090: 1213 03be 8da9 d23d 5ed3 d3bd b91f b83d
000000a0: 0355 0d3e ccfb 9cbd d36b acbd 8e95 ee3d
000000b0: f4e2 eebd 0e99 58bd 31f0 053e f311 85bd
000000c0: 7cc7 acbd b207 bdbd d024 24bd 33af f53d
000000d0: 29d7 913d 5d76 413d 4db5 adbd 3609 b63d
000000e0: 0ebf e0bc f90c bdbc 07e3 e2bb c60d 94bd
000000f0: d966 46bd 2433 a53d 27e9 56bb b6a4 19bd
00000100: c5de 723d 7469 87bd 0ec7 093d 697e 99bd
00000110: 3a91 f5bd f7b7 29bc 31c7 d9bd 1a21 013e
00000120: 1951 ce3c a40f c73d d0ec 543c 7b85 debc
00000130: 8eeb c2bd 7e11 fa3c 992d 453c 03fc 013e
00000140: 54fc 913c 7e22 54bd e61a 2bbd 0f34 01be
00000150: fd13 4a3d ba9d 7cbc d7e1 5b3d a781 893c
00000160: 91e8 e4bd 7dce 0c3e 41c6 ce3d e9d4 973d
00000170: 72bd 5ebd 1ba7 d13c fccb cabd 4055 5b3d
00000180: 0a3d 5c3d 43ac 8cbd 59f6 b83d 029b 76bd
00000190: 6bee 21bc 79e7 04be cd78 993c 34da 98bd
000001a0: aa8c 9ebd b99e aabd caf1 f53d dcb0 0d3e
000001b0: 7223 073e 8384 fb3d 9e03 17bd bc49 d63c
000001c0: 8a1e 57bd 740d a13d 4323 fe3d a643 08bd
000001d0: bbd4 d1bd 0d83 90bd c00f cdbb 196a b03c
000001e0: e590 193d b4de 823d a97c fb3a d01b 713d
000001f0: 395f 9f3d 2b39 dcbd d83d dc3d 8fd6 06be
00000200: 7862 a73d 0f02 e33d abbc d3bd 7f19 863d
00000210: b23f 8abd 2fa0 053d ff2a 49bd e68b 65bc
00000220: 479c 993d aa3f fabd b792 fc3d 0cd8 05bd
00000230: 34c6 8d3d dc1d abbd 822d ba3d cb26 cebd
00000240: b937 d3bd a8a3 c6bd 7636 bc3d cd3e abbd
00000250: f847 febd 2ab9 0a3e 8942 0fbd 47d6 663d
00000260: 6046 b73c 6f88 67bd e558 953d 0e31 dbbd
00000270: 77ab e2bd c478 a1bd ba1f f4bc aa5f 783d
00000280: 3775 3dbd 37a5 b93c f528 c53d 3c60 a83d
00000290: 25da bebd 39cb 8bbd 07e5 27bd 140e e6bd
000002a0: 2e2a cebd 4962 7d3d 9373 27bc 8709 0d3e
000002b0: 1692 a63d b45c 35bc 9d1e 90bd 3546 95bd
000002c0: 6aa9 62bd a9a3 0abe 4bf6 db3d ad39 debd
000002d0: 868f dabc d894 3d3d b08e ca3d b742 833d
000002e0: 5076 003e e300 bdbd 43c3 363d c84c c7bd
000002f0: fae3 0b3e 5e68 fa3d f4cb 003e ceff 973c
00000300: 6b4b 883d 3f9d 873d 16c1 053e 0a57 a0bd
00000310: 0066 99bd 3eff fe3d 94a0 eb3d 2838 943d

pi.net.4.bias f4 [4]
-0.011641415 -0.119812116 0.014477174 0.0384867
00000000: a2bb 3ebc 0e60 f5bd ab31 6d3c 3ba4 1d3d

v.net.0.weight f4 [64, 34]
0.08695161 -0.12774737 -0.009928942 -0.11140912 -0.037802823 -0.08599272 -0.01355221 0.013124149
-0.019475944 -0.14146651 -0.017429233 -0.15132484 0.12762365 0.032641042 0.1194868 -0.061557867
0.049036063 0.14909893 -0.15233116 0.059252042 0.12174443 0.037577752 -0.09537944 0.06153646
-0.13394658 -0.16826023 0.02784716 -0.09986274 -0.081816 0.14283393 -0.13044186 0.022105133
-0.08212322 -0.09616548 -0.015350361 -0.0021652274 0.09202299 -0.06371555 -0.10240939 0.033371188
-0.008004425 0.12266394 0.06685911 -0.037176535 -0.0429417 -0.064863086 0.14748302 -0.03640777
0.027915627 -0.12059586 -0.069075204 0.066796206 0.005154643 0.057163175 -0.15839861 0.06333423
-0.009328945 -0.13661136 -0.027951384 -0.13338253 -0.07575898 0.034914788 -0.026016952 -0.15008503
-0.028792623 -0.043857582 0.085981496 -0.13632697 -0.07741512 -0.023508016 -0.05032906 -0.09151037
0.15248697 0.10626482 -0.06018467 -0.13589221 0.049795486 0.11926048 -0.13136639 0.0064117787
0.06531337 0.14593343 0.10448859 0.07655728 0.030069303 -0.08765461 0.10008396 0.0029806043
0.11806423 0.07086467 -0.053572413 0.0129369 0.0027485625 -0.06857359 0.16295165 0.07182113
0.14663757 -0.13087477 0.14427638 -0.13130598 0.029603932 0.09807168 -0.13196352 0.0033598037
0.11479532 -0.02577661 0.061037518 0.10744679 0.012269581 0.08859425 0.09966009 0.021963373
-0.09471484 0.12322491 -0.045438822 0.082897544 -0.11929462 0.07992213 0.005905437 -0.025439074
0.10421286 -0.09678498 -0.07335169 0.0047042975 0.15473285 0.101311274 0.1031756 -0.16596854
-0.03906049 0.12943648 -0.06918787 0.07333022 0.038729846 0.1389498 0.026329728 0.15825613
0.118453346 0.019896094 0.022167018 -0.1325918 -0.07660487 0.010283281 -0.06692926 -0.08093259
-0.12987964 -0.14387555 0.16137433 0.07135793 0.059569705 -0.037153758 0.011061082 -0.034698427
-0.05121959 0.16495651 -0.07719375 -0.16722934 -0.020031987 0.04994344 0.061844185 0.15502664
0.07728935 0.029583896 -0.15397164 0.026858987 0.07339415 -0.056789435 -0.10242644 -0.0050645047
0.10841286 0.12701245 0.025656683 0.06440965 0.14350776 -0.030443883 0.1288142 0.02594969
-0.018437153 0.108861074 0.07840401 0.0009882943 0.043135453 -0.16444011 -0.040401917 -0.11251487
0.02534125 0.030726217 -0.104223736 0.10601692 0.00075539364 0.017669432 0.0058118226 -0.15948185
-0.062212285 -0.14130001 0.14261588 -0.03157627 -0.06215592 0.1010633 0.017746916 0.032873802
-0.16448705 -0.011407611 -0.004117651 -0.015242457 0.04728256 -0.08145507 -0.10056449 0.058144763
-0.09139296 -0.092006 -0.17058423 0.057384953 -0.039046116 0.09147797 0.10899253 -0.056653745
0.05845378 0.14477667 0.07199501 -0.079649575 -0.040294543 -0.04756177 0.0754848 0.16099937
-0.052464418 -0.042586196 0.0017501687 -0.1399581 -0.117312945 0.12201457 -0.055142324 -0.08023201
0.13880403 0.021097356 -0.101014055 -0.09821473 0.022016773 0.08077916 -0.065132886 0.04333658
-0.10421752 0.10361286 0.010898407 -0.09277834 -0.1050619 0.10497907 0.06253093 -0.12012159
0.08103142 -0.08053317 0.09009761 0.12700428 0.09022621 -0.120745815 0.10997915 -0.050453074
00000000: b013 b23d 35d0 02be 00ad 22bc 772a e4bd
00000010: 22d7 1abd f41c b0bd 170a 5ebc ac06 573c
00000020: 048c 9fbc 99dc 10be c0c7 8ebc e6f4 1abe
00000030: c6af 023e 9db2 053d 7fb5 f43d 1a24 7cbd
00000040: 0ada 483d 64ad 183e b3fc 1bbe 45b2 723d
00000050: 2555 f93d 21eb 193d 4c56 c3bd a80d 7c3d
00000060: 4b29 09be 694c 2cbe ba1f e43c d684 ccbd
00000070: 268f a7bd 0f43 123e 8d92 05be d315 b53c
00000080: 3830 a8bd 68f2 c4bd 1580 7bbc 7de6 0dbb
00000090: 8d76 bc3d 4c7d 82bd 04bc d1bd 3ab0 083d
000000a0: fe24 03bc 3b37 fb3d 6eed 883d 6c46 18bd
000000b0: a3e3 2fbd f0d6 84bd ca05 173e 5020 15bd
000000c0: 50af e43c f6fa f6bd 4d77 8dbd 73cc 883d
000000d0: 48e8 a83b ef23 6a3d 3f33 22be 60b5 813d
000000e0: 6ed8 18bc d9e3 0bbe 4dfa e4bc 6e95 08be
000000f0: 8627 9bbd cf02 0f3d 8121 d5bc e4af 19be
00000100: 82de ebbc 02a4 33bd 1117 b03d 4c99 0bbe
00000110: d28b 9ebd e293 c0bc d825 4ebd ca69 bbbd
00000120: 8b25 1c3e 5fa1 d93d 3384 76bd 5427 0bbe
00000130: 5af6 4b3d d73e f43d e984 06be e619 d23b
00000140: 04c3 853d 936f 153e 1dfe d53d 10ca 9c3d
00000150: e653 f63c 4384 b3bd d2f8 cc3d 3e56 433b
00000160: a9cb f13d 7f21 913d bf6e 5bbd 4bf5 533c
00000170: 3a21 343b 4f70 8cbd ccdc 263e f516 933d
00000180: 2928 163e 0904 06be 30bd 133e 1375 06be
00000190: f283 f23c ced9 c83d 7221 07be 2730 5c3b
000001a0: cf19 eb3d 7829 d3bc 7a02 7a3d 100d dc3d
000001b0: 5a06 493c e770 b53d 971a cc3d 88ec b33c
000001c0: dbf9 c1bd 575d fc3d 0f1e 3abd 30c6 a93d
000001d0: bd50 f4bd 37ae a33d 6582 c13b 9b65 d0bc
000001e0: 8d6d d53d 3437 c6bd 6939 96bd 8226 9a3b
000001f0: 4a72 1e3e 497c cf3d bb4d d33d a8f3 29be
00000200: e4fd 1fbd ff8a 043e 5fb2 8dbd 282e 963d
00000210: 30a3 1e3d db48 0e3e 71b1 d73c e50d 223e
00000220: ab97 f23d 22fd a23c 9b97 b53c 25c6 07be
00000230: 04e3 9cbd 357b 283c 3512 89bd fcbf a5bd
00000240: 2bff 04be 1d54 13be 503f 253e 1b24 923d
00000250: 5dff 733d 8a2e 18bd 8a39 353c f01f 0ebd
00000260: a2cb 51bd 5cea 283e c217 9ebd 2b3e 2bbe
00000270: 1f1a a4bc 7e91 4c3d 5450 7d3d 4ebf 1e3e
00000280: e149 9e3d ed59 f23c beaa 1dbe 6107 dc3c
00000290: ac4f 963d 0a9c 68bd f4c4 d1bd 25f4 a5bb
000002a0: 9007 de3d 8d0f 023e f72d d23c 35e9 833d
000002b0: b3f3 123e 7365 f9bc dfe7 033e 7294 d43c
000002c0: 8309 97bc 8ef2 de3d 4892 a03d a789 813a
000002d0: cdae 303d fd62 28be 7b7c 25bd 326e e6bd
000002e0: 7498 cf3c 8cb5 fb3c 4173 d5bd 661f d93d
000002f0: 9c05 463a 7cbf 903c 1a71 be3b 364f 23be
00000300: 4fd2 7ebd f3b0 10be e609 123e 1e56 01bd
00000310: 3597 7ebd 47fa ce3d fb61 913c aea6 063d
00000320: 4b6f 28be fde6 3abc 5ced 86bb 80bb 79bc
00000330: 5cab 413d ead1 a6bd c1f4 cdbd 3429 6e3d
00000340: 3b2c bbbd a46d bcbd a2ad 2ebe 7c0c 6b3d
00000350: d2ee 1fbd cd58 bb3d 7a37 df3d c20d 68bd
00000360: 3b6d 6f3d 5640 143e 1f72 933d 511f a3bd
00000370: e40b 25bd 21d0 42bd c697 9a3d 05dd 243e
00000380: eee4 56bd dd6e 2ebd eb65 e53a 2d51 0fbe
00000390: c541 f0bd c6e2 f93d ebdc 61bd ae50 a4bd
000003a0: a522 0e3e 5dd4 ac3c 75e0 cebd ce24 c9bd
000003b0: 855c b43c 8b6f a53d 6464 85bd b381 313d
000003c0: ff6f d5bd fb32 d43d 3b8f 323c 9202 bebd
000003d0: b22a d7bd 44ff d63d 3710 803d 4f02 f6bd
000003e0: cdf3 a53d 93ee a4bd 1985 b83d 690d 023e
000003f0: 85c8 b83d 9549 f7bd c03c e13d e2a7 4ebd

v.net.0.bias f4 [64]
0.1588387 0.13788658 0.07614059 -0.14913663 0.09727137 0.044968296 0.03841666 -0.05716436
-0.12837127 -0.14762284 -0.0119176535 0.09780282 0.13591515 0.0910891 0.13626325 -0.14488144
-0.15267906 0.06424442 -0.123780765 -0.13117896 0.035580657 -0.16685228 0.12859 -0.0018973262
-0.03463552 -0.01759154 0.11588095 0.09045318 -0.09017626 -0.07108113 0.12666407 -0.16459727
0.007332096 -0.12940249 0.09527478 -0.03522264 0.114426754 0.04248191 -0.122025095 -0.026255004
0.14485836 -0.06891243 -0.049528137 -0.14719132 -0.071770325 0.113233626 0.16313873 0.13836011
-0.0060876766 0.06081388 0.1707298 0.14461641 0.14969042 0.107489906 -0.04498766 -0.045353036
-0.14643788 -0.020283226 0.0368703 -0.10541179 0.048947256 0.0010319427 -0.038327154 -0.16422676
00000000: 9da6 223e 2432 0d3e 99ef 9b3d 46b7 18be
00000010: 3636 c73d ad30 383d ca5a 1d3d 2d25 6abd
00000020: c273 03be 712a 17be 4342 43bc d84c c83d
00000030: 572d 0b3e ec8c ba3d 9888 0b3e cd5b 14be
00000040: e657 1cbe 9492 833d c580 fdbd c753 06be
00000050: 06bd 113d 53db 2abe 19ad 033e b4af f8ba
00000060: fadd 0dbd 221c 90bc fe52 ed3d 843f b93d
00000070: 55ae b8bd fc92 91bd 3ab4 013e 308c 28be
00000080: 1442 f03b 1682 04be 6d1f c33d 9d45 10bd
00000090: 9358 ea3d 8301 2e3d 4be8 f9bd bc14 d7bc
000000a0: c055 143e f621 8dbd 04de 4abd 52b9 16be
000000b0: 52fc 92bd 08e7 e73d d70d 273e 46ae 0d3e
000000c0: 227b c7bb fa17 793d cbd3 2e3e 5316 143e
000000d0: 7248 193e ab23 dc3d fb44 38bd 1bc4 39bd
000000e0: d0f3 15be 0229 a6bc 5005 173d 23e2 d7bd
000000f0: eb7c 483d 4042 873a effc 1cbd 0f2b 28be

v.net.2.weight f4 [64, 64]
0.11937545 -0.07917954 -0.11542803 0.025179878 -0.0505189 -0.07698637 0.036304936 0.04897411
0.01991646 0.07318139 -0.0052805394 -0.069567785 -0.05989133 -0.09735696 -0.03174901 -0.11997479
-0.051776886 -0.052240208 0.051290587 0.050367936 0.03161262 0.07355732 0.02520664 -0.032186404
-0.019021332 0.08023505 0.06980792 0.010320812 0.016418055 0.087674305 -0.09950358 -0.08307834
-0.016149849 0.07167144 -0.07866587 0.09315714 -0.08926773 0.057725668 -0.008975074 -0.12069477
0.025115103 0.0783117 -0.0002681315 -0.053222045 0.030513689 -0.11891034 0.11095385 0.029349372
-0.00019161403 0.105782986 0.11415157 0.0040245205 0.04593472 0.04756023 -0.10564476 0.009154901
0.100904 -0.1116312 0.0841292 -0.0417455 -0.1117757 0.11654329 0.02427867 -0.09693557
-0.089338005 -0.03218822 -0.11240025 -0.091102526 -0.040705338 -0.1037285 -0.036373183 -0.058447763
-0.09867132 0.04359427 -0.03487274 -0.09476516 0.021755263 -0.115081996 0.061738044 -0.029868156
-0.001891315 0.0964466 -0.05445029 0.06768115 -0.08217512 -0.0016613454 -0.03802915 0.03048414
0.08190344 -0.12269056 -0.009996846 -0.09575531 -0.027351856 0.023850143 -0.03473498 0.0046757758
-0.02542378 0.05773318 0.081481814 -0.08974089 0.109680355 -0.044451997 0.059512377 -0.035905182
0.033980742 0.021654487 -0.06807396 0.03771898 0.051826686 0.05694881 -0.05989963 0.029029205
0.05988635 0.027308032 0.08154142 -0.07269956 -0.00898768 0.07894893 0.023560345 0.034592316
0.10589942 0.10483138 0.11928351 -0.0022669733 -0.041487396 0.03330989 0.066472664 0.024271011
-0.057849407 0.03829357 -0.12036908 0.08677797 -0.08650155 -0.0435825 0.1045987 -0.03235133
0.05852446 0.117239505 0.06104271 0.090208516 0.108612016 -0.08472994 -0.0669827 -0.08654626
0.092067674 0.11057767 -0.08588518 -0.0116285235 0.053866893 0.018879563 0.0940475 0.06637068
-0.0037314892 0.071018174 0.03980452 -0.00041541457 -0.026523724 -0.111300096 0.011755124 0.028243631
0.016598508 0.091612056 0.08165689 -0.0031295866 -0.10229617 -0.033392087 0.057610616 0.04116401
-0.0027649403 0.06681639 0.08452648 0.056664303 -0.015321329 -0.04758422 -0.056189775 -0.021089658
0.012944594 0.04375787 -0.04922685 -0.0250552 0.04250759 -0.022427306 0.061184853 0.084324986
-0.022679314 -0.10487434 0.06943022 0.09266503 0.019304767 0.11693643 -0.09024125 0.037089974
-0.07319912 -0.07500817 -0.0010242909 0.10767056 0.09782167 0.0003259331 0.013071835 0.014555395
0.0002834201 -0.07996346 -0.021675318 0.056850597 0.050348535 -0.053728282 -0.10373287 -0.0166585
-0.11015737 0.08063787 -0.03668365 -0.05332844 0.0019373447 0.124108195 0.076128215 0.08016145
0.04320368 0.0918026 0.12246321 -0.028651789 -0.051705047 0.0335833 0.014655232 0.07217161
0.034448013 0.111991316 0.06974992 -0.055521518 0.07756561 -0.08982675 -0.065222755 0.052517638
-0.021544784 -0.030739933 0.004528329 0.040885746 0.009378403 0.03051646 0.05430664 -0.07916385
0.09897037 0.10881415 0.02620478 0.010395333 0.099936515 0.08504324 0.08090334 -0.051996157
-0.0068434477 0.07097794 0.122272536 -0.114739686 0.041854903 0.05971007 -0.019998923 -0.047083497
00000000: 1e7b f43d e228 a2bd 8865 ecbd 0846 ce3c
00000010: e8ec 4ebd 08ab 9dbd 7cb4 143d 1499 483d
00000020: d827 a33c 20e0 953d 6008 adbb 8e79 8ebd
00000030: 9c50 75bd 1663 c7bd 400b 02bd 58b5 f5bd
00000040: 0014 54bd d4f9 55bd 1416 523d 9c4e 4e3d
00000050: 3c7c 013d 38a5 963d 287e ce3c e4d5 03bd
00000060: a0d2 9bbc 4652 a43d 74f7 8e3d a018 293c
00000070: 287f 863c 968e b33d 88c8 cbbd fa24 aabd
00000080: b04c 84bc 7ac8 923d 921b a1bd 2cc9 be3d
00000090: 00d2 b6bd c071 6c3d 300c 13bc d22e f7bd
000000a0: 30be cd3c e261 a03d 0094 8cb9 5cff 59bd
000000b0: d8f7 f93c 4487 f3bd c63b e33d 186e f03c
000000c0: 00ec 48b9 c0a4 d83d 4cc8 e93d 20e0 833b
000000d0: 0c26 3c3d 84ce 423d 485c d8bd 70fe 153c
000000e0: c2a6 ce3d e69e e4bd ee4b ac3d 54fd 2abd
000000f0: a8ea e4bd 40ae ee3d 10e4 c63c 2886 c6bd
00000100: d8f6 b6bd ccd7 03bd 1a32 e6bd f693 babd
00000110: a4ba 26bd 9c6f d4bd 0cfc 14bd ec66 6fbd
00000120: 3014 cabd e88f 323d b8d6 0ebd 3c14 c2bd
00000130: 1838 b23c 1cb0 ebbd 08e1 7c3d 10ae f4bc
00000140: 00e6 f7ba cc85 c53d 4407 5fbd 6a9c 8a3d
00000150: 6e4b a8bd 80c1 d9ba 74c4 1bbd e0b9 f93c
00000160: febc a73d 3045 fbbd d0c9 23bc 5c1b c4bd
00000170: 0011 e0bc 6061 c33c 4446 0ebd 4037 993b
00000180: 8845 d0bc a079 6c3d f0df a63d 12ca b7bd
00000190: 18a0 e03d 4c13 36bd 40c3 733d 5011 13bd
000001a0: 642f 0b3d c064 b13c 5c6a 8bbd 387f 1a3d
000001b0: 3848 543d 2843 693d 5059 75bd a8ce ed3c
000001c0: 644b 753d 18b5 df3c 30ff a63d 82e3 94bd
000001d0: 1041 13bc faaf a13d a001 c13c acb0 0d3d
000001e0: cce1 d83d d6b1 d63d ea4a f43d 8091 14bb
000001f0: b0ee 29bd f46f 083d d222 883d 00d4 c63c
00000200: 80f3 6cbd b8d9 1c3d 1084 f6bd a6b8 b13d
00000210: ba27 b1bd 9083 32bd d837 d63d d482 04bd
00000220: 58b7 6f3d 441b f03d ec07 7a3d 3ebf b83d
00000230: fa6f de3d e486 adbd 3a2e 89bd 2a3f b1bd
00000240: fa8d bc3d 8c76 e23d 92e4 afbd 9085 3ebc
00000250: 88a3 5c3d 50a9 9a3c fa9b c03d 5aed 873d
00000260: 008c 74bb fa71 913d 100a 233d 00cc d9b9
00000270: 4848 d9bc 4ef1 e3bd 9098 403c 305f e73c
00000280: 98f9 873c 1a9f bb3d ba3b a73d c019 4dbb
00000290: a880 d1bd 24c6 08bd 1cf9 6b3d 989b 283d
000002a0: 0034 35bb 08d7 883d 381c ad3d d418 683d
000002b0: 5006 7bbc ace7 42bd 4027 66bd 38c4 acbc
000002c0: 9015 543c 743b 333d 18a2 49bd 9040 cdbc
000002d0: 701c 2e3d 78b9 b7bc f89c 7a3d 94b2 ac3d
000002e0: f8c9 b9bc 5cc8 d6bd 6e31 8e3d 2ac7 bd3d
000002f0: 0825 9e3c 5e7c ef3d 68d0 b8bd a8eb 173d
00000300: 6ce9 95bd e29d 99bd 8041 86ba 6282 dc3d
00000310: ba56 c83d 00e2 aa39 402b 563c c079 6e3c
00000320: 0098 9439 e2c3 a3bd 7090 b1bc 2cdc 683d
00000330: 443a 4e3d 3012 5cbd e671 d4bd 6877 88bc
00000340: 309a e1bd 7825 a53d 9841 16bd ec6e 5abd
00000350: 80ee fd3a 702c fe3d 1ce9 9b3d b02b a43d
00000360: 58f6 303d 0003 bc3d fecd fa3d 28b7 eabc
00000370: acc8 53bd a48e 093d 801c 703c b6ce 933d
00000380: 5c19 0d3d b45b e53d 0cd9 8e3d 886a 63bd
00000390: b8da 9e3d 16f7 b7bd 8293 85bd bc1c 573d
000003a0: b07e b0bc 50d2 fbbc 6062 943b d077 273d
000003b0: e0a7 193c a8fd f93c a470 5e3d a820 a2bd
000003c0: fab0 ca3d f4d9 de3d 68ab d63c 3051 2a3c
000003d0: 84ab cc3d 262b ae3d a6b0 a53d ecf9 54bd
000003e0: 003f e0bb e25c 913d 066a fa3d a4fc eabd
000003f0: 0c70 2b3d 8c92 743d c8d4 a3bc a0da 40bd

v.net.2.bias f4 [64]
0.0036836863 0.0032332242 -0.08823384 0.060134307 -0.019095108 0.06419115 0.09725374 -0.1015812
-0.09275757 0.017239973 -0.014051005 0.11662987 0.04733236 -0.116527215 0.094877556 0.039978206
-0.08552551 -0.027001694 0.10231465 -0.06742297 0.00035053492 0.10525496 -0.02028215 0.008709937
-0.05604358 -0.052284047 0.104061484 -0.002399981 0.009124428 0.004242733 -0.021754235 -0.012347475
0.0715954 -0.027564839 -0.06685302 0.0019003898 0.049838632 -0.054592565 -0.08617827 0.041751966
0.034799576 0.012743458 0.06181456 0.0037827343 0.038284108 -0.0952273 -0.035758868 0.02228351
0.062493086 0.05785474 -0.040406108 -0.033764333 -0.059736535 0.12216613 0.061478123 0.060899407
-0.07561533 0.080508396 0.013460532 0.09244515 -0.02157925 0.06109214 -0.100128055 0.08382055
00000000: 006a 713b 80e4 533b f2b3 b4bd 644f 763d
00000010: 586d 9cbc a676 833d f82c c73d ce09 d0bd
00000020: aef7 bdbd d83a 8d3c 3036 66bc a4db ee3d
00000030: 94df 413d d2a5 eebd 2a4f c23d 30c0 233d
00000040: 0028 afbd a832 ddbc 588a d13d 0e15 8abd
00000050: 00c8 b739 ea8f d73d c026 a6bc 20b4 0e3c
00000060: f48d 65bd cc27 56bd 301e d53d 0049 1dbb
00000070: a07e 153c a006 8b3b f035 b2bc 104d 4abc
00000080: 9ca0 923d a8cf e1bc 3cea 88bd 8016 f93a
00000090: 9823 4c3d 749c 5fbd 3c7e b0bd 1c04 2b3d
000000a0: 008a 0e3d f0c9 503c 4431 7d3d c0e7 773b
000000b0: cccf 1c3d 8806 c3bd e477 12bd e88b b63c
000000c0: c0f8 7f3d 18f9 6c3d e080 25bd 784c 0abd
000000d0: 4cae 74bd 3c32 fa3d 7cd0 7b3d a871 793d
000000e0: 36dc 9abd 96e1 a43d 9089 5c3c e253 bd3d
000000f0: f8c6 b0bc c03b 7a3d f00f cdbd 1caa ab3d

v.net.4.weight f4 [1, 64]
0.062102288 -0.068773896 -0.0785477 -0.05601646 0.11543818 -0.102498665 -0.0920026 0.03669551
0.107776895 -0.06507304 0.10095462 -0.07044548 -0.06389131 -0.050592497 -0.040622592 -0.079576224
0.065996245 -0.06511438 0.049924538 -0.10389006 -0.042863786 -0.0073577017 -0.09103462 0.090665355
-0.0044512153 -0.11388163 -0.06091605 -0.082976595 -0.05747366 -0.07216728 -0.062431633 0.07562308
-0.08401336 -0.018992841 0.08998014 0.055436924 0.10225181 0.00525862 0.12198791 -0.019703776
-0.030271798 0.022150591 0.050941557 0.012586594 -0.031092465 0.0049415827 -0.0560233 0.087653294
-0.04312718 -0.07757223 0.079334274 -0.049365968 -0.01908663 0.120979786 -0.0998632 0.04910977
0.10008341 0.017555699 -0.11130294 0.011539176 0.060195044 -0.008094057 -0.031773776 0.052649185
00000000: f85e 7e3d 54d9 8cbd 9edd a0bd 8471 65bd
00000010: da6a ec3d d2ea d1bd dc6b bcbd 084e 163d
00000020: 22ba dc3d 0445 85bd 4cc1 ce3d b845 90bd
00000030: 72d9 82bd 143a 4fbd e063 26bd dcf8 a2bd
00000040: 0a29 873d b05a 85bd ac7d 4c3d 50c4 d4bd
00000050: f091 2fbd e018 f1bb 5c70 babd c2ae b93d
00000060: 80db 91bb c63a e9bd 1c83 79bd a2ef a9bd
00000070: 8069 6bbd 70cc 93bd 50b8 7fbd 46e0 9a3d
00000080: 320f acbd e096 9bbc 8247 b83d d411 633d
00000090: 6669 d13d 8050 ac3b ccd4 f93d d069 a1bc
000000a0: 90fc f7bc 2875 b53c 18a8 503d 0038 4e3c
000000b0: a0b5 febc 00ed a13b b078 65bd 9283 b33d
000000c0: 20a6 30bd 30de 9ebd 027a a23d f833 4abd
000000d0: 905b 9cbc 40c4 f73d 1485 ccbd 5427 493d
000000e0: 88f8 cc3d f8d0 8f3c ccf2 e3bd d00e 3d3c
000000f0: 148f 763d f09c 04bc 3825 02bd aca6 573d
