runs/phoenix/DroneHoverBulletEnvWithAdversary-v0/ppo/2023-08-21__12-14-11/seed_46979/torch_save/model.pt (torch, 49538 bytes, 14 tensors)

obs_oms.mean f4 [34]
0	0xb98e3722	-0.00027125428
1	0x36217248	2.405739e-06
2	0x3f7ff1d1	0.9997836
3	0x3a049f38	0.0005059126
4	0x3a561b08	0.000816748
5	0xba6f0a8f	-0.00091187
6	0x3f1f5d3e	0.6225165
7	0x38b9dfc3	8.863166e-05
8	0xb68f81a0	-4.2768224e-06
9	0xbba985f0	-0.0051734373
10	0x3ed6fe09	0.41990688
11	0x3ecd0d22	0.40049082
12	0x3a294db4	0.0006458417
13	0x3dd45fc9	0.10369832
14	0xbbeeca00	-0.007287264
15	0xbdec8700	-0.11549187
16	0x3e4313b4	0.19050485
17	0xb98dd9de	-0.0002705594
18	0x36013ac8	1.9256713e-06
19	0x3f7fe975	0.999656
20	0x3adb3cae	0.0016726458
21	0x3afda42f	0.0019351299
22	0xba813acd	-0.0009859443
23	0x3f1edce6	0.62055814
24	0x390e5bfc	0.00013576442
25	0xb71b806b	-9.26862e-06
26	0xbc7ab3a5	-0.01530162
27	0x3eef112e	0.46692795
28	0x3ef2c56f	0.47416255
29	0xbaa5ed07	-0.0012659141
30	0x3def28f1	0.11677731
31	0xbd0d8c8b	-0.03455786
32	0xbe3c0786	-0.18362245
33	0x3e5dcd27	0.2166029

obs_oms.std f4 [34]
0	0x3e13d8bb	0.14438145
1	0x3e13c557	0.14430748
2	0x3e13e171	0.14441468
3	0x3e19796d	0.14987727
4	0x3e19a5e6	0.15004691
5	0x3f30c190	0.6904535
6	0x3e9a4aa1	0.30135062
7	0x3d798856	0.060921036
8	0x3d79b16b	0.060960215
9	0x3d726e6b	0.059187334
10	0x40ed0189	7.4064374
11	0x40ed04a1	7.406815
12	0x3f648a92	0.8927394
13	0x3e8fd2ff	0.28090665
14	0x3e93fe8a	0.28905135
15	0x3eb8d16f	0.36097285
16	0x3e9cb464	0.30606377
17	0x3e13d991	0.14438464
18	0x3e13c5fd	0.14430995
19	0x3e13e238	0.14441764
20	0x3e22ea3e	0.15909669
21	0x3e231e5f	0.15929554
22	0x3f303a73	0.68839186
23	0x3e99eb29	0.30062225
24	0x3d8c2502	0.06842996
25	0x3d8c3d59	0.06847639
26	0x3d791bfc	0.060817704
27	0x410a41fc	8.641109
28	0x410a46c2	8.642275
29	0x3f7d6f3d	0.9899786
30	0x3e9454f3	0.2897106
31	0x3e98ff68	0.2988236
32	0x3eca84ed	0.3955454
33	0x3ea48190	0.32130098

pi.log_std f4 [4]
0	0xc0866972	-4.2003717
1	0xc0866972	-4.2003717
2	0xc0866972	-4.2003717
3	0xc0866972	-4.2003717

pi.net.0.weight f4 [50, 34]
0	0x3e062e9e	0.1310372
1	0x3dc64d60	0.09682727
2	0x3d1387ab	0.036018055
3	0xbda0cb0b	-0.078512274
4	0x3de3c5e7	0.11121731
5	0xbd2e0a5b	-0.042490344
6	0x3e013dff	0.12621306
7	0x3de9eb80	0.11421871
8	0x3c88ac2d	0.016683662
9	0x3e98367a	0.29729062
10	0xbda52c24	-0.0806506
11	0xbe367a05	-0.17819984
12	0x3d4931a0	0.04911959
13	0x3d812e5f	0.06307673
14	0x3e5a5bee	0.21324131
15	0xbe41efc1	-0.18939115
16	0x3ca44562	0.020052616
17	0x3dd8cf6d	0.10586438
18	0x3cb64b71	0.02225277
19	0x3e5f1b1b	0.21787684
20	0x3cfe3a68	0.03103371
21	0xbb24b800	-0.0025134087
22	0x3cddab97	0.02705936
23	0xbd3fbe1f	-0.046812173
24	0x3e00b490	0.12568879
25	0xbe254619	-0.16140021
26	0xbcd54d4e	-0.026037838
27	0xbd950c55	-0.07277743
28	0x3d91f18c	0.071261495
29	0x3bf7ed77	0.00756615
30	0x3e5115ea	0.20418516
31	0x3e4d29d2	0.20035484
32	0x3d1abaf9	0.037775967
33	0xbd8d9d06	-0.069147155
34	0x3d07edc5	0.03318574
35	0xbd1dbefa	-0.038512208
36	0xbd05eaa3	-0.03269447
37	0xbd4008e4	-0.04688348
38	0xbd6c2cba	-0.057659842
39	0x3dab6e3f	0.08370637
40	0xbe6eebc6	-0.23332128
41	0x3c9ac0ba	0.018890727
42	0xbd244e0e	-0.0401135
43	0x3c364ae4	0.011126254
44	0xbd4f24c2	-0.050572164
45	0x3e2abc78	0.16673458
46	0x3e2ae9a7	0.16690694
47	0x3bbd9a7e	0.005786239
48	0xbca58dc0	-0.020209193
49	0xbe10ac16	-0.14128146
50	0xbd39e412	-0.04538352
51	0xbe222c7f	-0.15837286
52	0x3d1c3186	0.038133167
53	0x3cd80eda	0.02637427
54	0x3d96c499	0.07361717
55	0x3e0ff211	0.14057185
56	0x3e04a2c9	0.12952723
57	0xbe52ed16	-0.20598254
58	0x3e48ec63	0.19621424
59	0xbe87715e	-0.2645368
60	0xbe207609	-0.15670027
61	0x3e292295	0.16517098
62	0x3d449a90	0.047998965
63	0xbd54bdb1	-0.051938716
64	0xbe7fb68b	-0.24971978
65	0xbcdcb618	-0.026942298
66	0xbe26134f	-0.16218303
67	0xbd90a90f	-0.07063495
68	0x3da045e5	0.07825831
69	0x3e451821	0.19247486
70	0xbc50edf9	-0.01275205
71	0x3d3bb442	0.045826204
72	0x3d32cc30	0.04365176
73	0x3e3f0c77	0.18657099
74	0x3e23a806	0.15982065
75	0xbc42532d	-0.011860651
76	0xbd7ccc85	-0.061718483
77	0x3e2d3cc9	0.16917719
78	0xbe0b5fd4	-0.13610774
79	0x3d6fccb6	0.058544837
80	0xbd77682c	-0.06040208
81	0xbd2d63f6	-0.04233166
82	0xbe3b0d15	-0.18266709
83	0x3dea7aa7	0.11449175
84	0x3b3a4c0f	0.0028426682
85	0x3d974c4e	0.07387601
86	0x3e3a7a08	0.18210614
87	0xbd86ccf6	-0.06582062
88	0xbd306d43	-0.04307295
89	0xbe233912	-0.1593974
90	0xbd8f4b66	-0.06996803
91	0xbe1a5c8f	-0.15074371
92	0x3da97b37	0.082754545
93	0xbdfd6fa5	-0.1237481
94	0x3e3488c8	0.17630303
95	0x3d84d745	0.06486372
96	0x3ddc4194	0.107546955
97	0xbe900f8f	-0.2813687
98	0x3dbe0f4a	0.0928026
99	0xbd29f76d	-0.04149573
100	0xbda712c2	-0.08157875
101	0xbdbb0e82	-0.091336265
102	0xbe169ad1	-0.14707495
103	0x3db8422e	0.08996998
104	0xbe0a4a2b	-0.13504855
105	0xbe6efdb9	-0.23338975
106	0x3c89b4ef	0.016809909
107	0xbca9c723	-0.020724839
108	0x3bb1e453	0.0054288297
109	0x3dd0f1d6	0.102023765
110	0xbd93ba87	-0.07213312
111	0x3c19bc74	0.00938331
112	0xbc0f1c2c	-0.008734744
113	0xbddcfdb2	-0.10790576
114	0x3de604db	0.11231395
115	0x3dbf6e6a	0.09347232
116	0x3ccab23a	0.024743188
117	0x3e25c9ff	0.16190337
118	0x3e44ef1e	0.19231841
119	0x3d7d0e92	0.061781473
120	0xbd3e82de	-0.046511523
121	0xbdb20977	-0.086932115
122	0x3df1fd81	0.1181593
123	0x3da9b538	0.08286518
124	0xbe18a2b9	-0.14905824
125	0xbddd5873	-0.10807886
126	0x3dab7c26	0.08373289
127	0xbe813468	-0.25235295
128	0x3e094812	0.13406399
129	0x3d23bb1c	0.039973363
130	0x3df3a5b6	0.11896841
131	0x3e39f50a	0.18159881
132	0x3cb7c720	0.022433817
133	0x3df65d38	0.12029499
134	0x3e1acdd3	0.15117578
135	0xbd4af185	-0.049546737
136	0x3e37a1f3	0.17932872
137	0xbbaad4f3	-0.005213374
138	0x3df4229d	0.119206645
139	0x3e4685dc	0.19387001
140	0x3c3523e3	0.011055919
141	0xbd9fdf09	-0.078062125
142	0xbe596ab8	-0.21232116
143	0xbe02911a	-0.12750664
144	0xbe225fc1	-0.1585684
145	0x3d022709	0.031775508
146	0x3e15fc2b	0.14646976
147	0xbd0ba4cf	-0.03409272
148	0x3bc59174	0.0060293023
149	0xbe2adac9	-0.16685022
150	0xbddef9e3	-0.10887506
151	0xbd34952c	-0.044087574
152	0xbc427c0e	-0.011870397
153	0x3df63b4f	0.12023031
154	0xbe3ef949	-0.18649782
155	0xbd2df090	-0.042465746
156	0x3e17072a	0.14748827
157	0xbcd22398	-0.025651738
158	0x3d42d752	0.047568627
159	0x3cfc6cf4	0.030813672
160	0xbd8021e1	-0.06256462
161	0x3b2eba2d	0.0026661262
162	0x3d4a1fbf	0.04934668
163	0x3e32c7b5	0.17458995
164	0xbdae58d8	-0.08513039
165	0xbdc62ee1	-0.0967691
166	0xbe54fd14	-0.20799667
167	0xbdb896e5	-0.09013156
168	0xbdf645ec	-0.12025055
169	0xbcb3e660	-0.021960437
170	0x3ca14363	0.019685453
171	0xbe09b5ab	-0.13448207
172	0x3cb4018a	0.02197339
173	0xbe298918	-0.16556203
174	0xbdec8552	-0.11548866
175	0x3d50770d	0.050894786
176	0x3dd31dda	0.10308428
177	0x3c1bdb72	0.009512769
178	0x3de3a107	0.11114698
179	0x3e5c4168	0.21509326
180	0xbc2d5866	-0.010580158
181	0x3e489041	0.19586278
182	0xbd788f15	-0.06068333
183	0xbddaebc1	-0.10689498
184	0x3d7af832	0.061271854
185	0x3c9ef517	0.019403977
186	0xbe57aa41	-0.2106104
187	0x3d920703	0.07130244
188	0xbe7be911	-0.24600627
189	0xbdc3a871	-0.09553612
190	0x3da37cd3	0.07982793
191	0x3e00d60e	0.12581655
192	0xbd1fff15	-0.039061625
193	0x3db25afe	0.08708762
194	0x3dec289b	0.115311824
195	0x3de74441	0.11292315
196	0x3e7b0bb8	0.24516189
197	0x3d48e748	0.049048692
198	0x3d72b94e	0.05925875
199	0x3d512d09	0.05106834
200	0xbe0a5b02	-0.13511279
201	0x3e76c77f	0.24099539
202	0x3d221232	0.039568134
203	0xbbb24783	-0.005440654
204	0x3aa887e1	0.0012857878
205	0x3d9c5974	0.07634249
206	0xbdadf75b	-0.08494445
207	0xbd74d882	-0.05977679
208	0x3e08d1cf	0.13361286
209	0x3e22b151	0.15887953
210	0x3dd15780	0.102217674
211	0xbdc5539c	-0.09635088
212	0x3e30088c	0.1719076
213	0xbe02bf59	-0.12768306
214	0x3db68e7f	0.08913898
215	0x3dc7faef	0.09764659
216	0x3d2f6721	0.04282296
217	0x3d4137c8	0.047172338
218	0x3de911a1	0.113803156
219	0xbe3c50bf	-0.18390177
220	0xbe38a16e	-0.1803033
221	0x3d3c4206	0.045961402
222	0x3dda5f28	0.10662681
223	0xbd8ff7b7	-0.0702967
224	0xbda62a0e	-0.0811349
225	0xbd82b621	-0.063823946
226	0x3e13755f	0.14400242
227	0x3e5c7328	0.21528304
228	0xbe23f150	-0.16010022
229	0xbd57f8aa	-0.05272738
230	0xbdf8ef84	-0.12155059
231	0xbd40b1e1	-0.04704464
232	0x3da9280e	0.08259593
233	0x3e10f8dd	0.14157434
234	0xbde8bed7	-0.11364525
235	0x3cc60c71	0.024175854
236	0xbd6b34e8	-0.057423502
237	0x3d01e7cd	0.031715203
238	0x3e5ae77d	0.21377368
239	0xbd6fcc46	-0.05854442
240	0xbda8f65f	-0.082501166
241	0xbe6d97b2	-0.23202398
242	0x3daee987	0.085406356
243	0xbd8d79c7	-0.06907993
244	0x3dad826f	0.08472144
245	0xbce08d5c	-0.027411155
246	0xbd89f73a	-0.06736608
247	0xbe38560e	-0.18001577
248	0x3e3a57f7	0.18197618
249	0xbdde005e	-0.10839914
250	0xbe273684	-0.1632939
251	0xbe313150	-0.17303967
252	0x3c4f3cd8	0.012648784
253	0x3b5264f2	0.0032103625
254	0x3e2dad5c	0.16960663
255	0x3e507564	0.20357281

pi.net.0.bias f4 [50]
0	0x3da9bdfb	0.08288189
1	0x3d8d0f45	0.06887678
2	0x3e01a05b	0.12658827
3	0x3e11f3d6	0.14253172
4	0xbda66534	-0.08124772
5	0x3e2c8807	0.16848765
6	0xbdc50373	-0.096197985
7	0xbd92cd84	-0.07168105
8	0xbd499b4b	-0.049220365
9	0xbd90ef5b	-0.070769034
10	0x3e4a304a	0.19744983
11	0x3e32f9b9	0.17478074
12	0xbd9ff487	-0.07810312
13	0x3e006e55	0.12542088
14	0x3d895b3d	0.067068554
15	0xbc4e50a6	-0.01259247
16	0xbd81cf0c	-0.06338319
17	0xbde87afd	-0.11351583
18	0xbd68907e	-0.056778423
19	0xbd100b55	-0.035167057
20	0xbe78bd2c	-0.24290913
21	0x3d9bcbd8	0.076072395
22	0x3e360bb1	0.17777897
23	0xbdae593b	-0.08513113
24	0x3da53f17	0.08068674
25	0xbc9e10de	-0.019295152
26	0xbd3175b8	-0.043325156
27	0xbd824029	-0.06359894
28	0xbda61ca2	-0.0811093
29	0x3df87160	0.121309996
30	0x3c42a9d1	0.011881308
31	0x3da59cb4	0.080865294
32	0x3b8522e1	0.004062996
33	0x3d7e272a	0.06204907
34	0x3e0ebd70	0.13939452
35	0x3cb9888a	0.022648115
36	0x3e0e907b	0.13922302
37	0x3e102378	0.1407603
38	0x3dc000c3	0.09375145
39	0xbcef6a8b	-0.029225608
40	0xbcf011a8	-0.029305294
41	0x3c3f70f1	0.011684642
42	0x3e392f39	0.1808442
43	0x3b56bb00	0.003276527
44	0xbd16dff2	-0.036834665
45	0x3e1ff1f3	0.1561964
46	0x3e307f3f	0.1723604
47	0x3e2327e3	0.15933184
48	0xbcd6ac12	-0.026205096
49	0x3dc9980e	0.09843455

pi.net.2.weight f4 [50, 50]
0	0xbcdddc1f	-0.027082501
1	0x3d974474	0.07386103
2	0xbdde0ed7	-0.10842674
3	0x3d3058ac	0.043053314
4	0xbdd6369b	-0.10459634
5	0x3cb4d39b	0.022073558
6	0x3e020f00	0.12701035
7	0xbe25e201	-0.16199495
8	0xbda45431	-0.08023871
9	0x3c5c4aec	0.013445597
10	0x3d647882	0.055778988
11	0x3cbfa6cf	0.02339497
12	0xbd309700	-0.043112755
13	0xbd2c0c92	-0.042004175
14	0xbdf03c07	-0.11730199
15	0xbc586169	-0.013206818
16	0xbe15dc33	-0.1463478
17	0xbdf1a7b9	-0.11799569
18	0x3ccebe85	0.025237331
19	0x3e411768	0.18856585
20	0xbda483f7	-0.08032983
21	0x3c203443	0.009778085
22	0xbd8a212c	-0.06744608
23	0x3d5a690f	0.053322848
24	0xbdb67ad7	-0.089101486
25	0x3dd2ade1	0.10287071
26	0x3de0efae	0.10983215
27	0xbd603a03	-0.054742824
28	0xbca5c96f	-0.020237653
29	0xbd90d2ca	-0.07071455
30	0x3e188917	0.14896046
31	0x3d6ae3f0	0.057346284
32	0x3e01601f	0.12634324
33	0x3e04c777	0.12966715
34	0xbcb825b4	-0.022478916
35	0x3de0a8e6	0.10969715
36	0x3ce02b0c	0.027364276
37	0x3bfa42c6	0.0076373545
38	0x3cc4b1bc	0.024010532
39	0x3d0a8d9b	0.03382645
40	0x3db2d3aa	0.08731778
41	0xbdab1d9b	-0.08355256
42	0xbdf52121	-0.119692095
43	0x3dfab41c	0.122413844
44	0xbc69b34a	-0.014263937
45	0x3ddabaae	0.106801376
46	0xbe326d94	-0.17424613
47	0x3d2b7e35	0.041868407
48	0xbde3cf91	-0.111235745
49	0xbd5cf363	-0.05394305
50	0x3e5748b9	0.21023835
51	0x3cb9e925	0.02269418
52	0xbd3305e0	-0.043706775
53	0x3cc73162	0.02431554
54	0x3db1577e	0.08659266
55	0xbcbf9c9a	-0.023390103
56	0x3d76fd1f	0.06029999
57	0x3d10bcb9	0.03533623
58	0xbdecc95d	-0.115618445
59	0x3c060b02	0.008181335
60	0x3e0d7b32	0.13816527
61	0x3e2f0a6a	0.17093816
62	0xbdf68f90	-0.12039101
63	0xbe0b286a	-0.13589635
64	0x3d577e36	0.0526106
65	0x3db162b3	0.086614035
66	0xbcf15e0b	-0.029463788
67	0xbc395662	-0.011312099
68	0xbd873d83	-0.06603529
69	0xbded4dfe	-0.115871415
70	0x3dbd0eb8	0.09231323
71	0x3d4b2ec8	0.04960516
72	0x3ca1e4b8	0.019762382
73	0x3d9d48a2	0.07679869
74	0xbdcc76c2	-0.09983589
75	0x3dba0e4c	0.09084758
76	0xbcc30ea1	-0.023810687
77	0x3c787bf5	0.015166272
78	0xbe4575fc	-0.19283289
79	0x3e1b969f	0.15194176
80	0x3d1118bb	0.035423975
81	0x3d7ffd2e	0.06249731
82	0xbc75a13c	-0.014992055
83	0x3b5a8607	0.0033344047
84	0x3c2354a6	0.009968912
85	0xbd736cde	-0.059429996
86	0x3dde9ca2	0.10869719
87	0x3e03073c	0.12795728
88	0x3d884fce	0.066558465
89	0xbe45a30b	-0.19300477
90	0x3e1f7b79	0.15574445
91	0xbe0981fc	-0.13428491
92	0xbd8536fc	-0.06504628
93	0x3dab9e83	0.08379843
94	0xbd40cc78	-0.047069997
95	0xbe28ec93	-0.16496496
96	0xbdf39486	-0.11893563
97	0xbe9003bf	-0.28127858
98	0x3e07a015	0.1324466
99	0x3bbc8794	0.005753467
100	0xbc8c4dfd	-0.017127031
101	0x3df6d9a1	0.12053228
102	0x3d291776	0.04128214
103	0xbd590d57	-0.052991237
104	0xbd526831	-0.051368896
105	0x3c6cd571	0.014455185
106	0x3d9dee7c	0.07711503
107	0xbcf5973d	-0.029979343
108	0x3df2f5c1	0.1186328
109	0xbdd3257c	-0.10309884
110	0x3d620eb0	0.05518979
111	0xbbd86e83	-0.006604971
112	0x3ddf1241	0.108921535
113	0xbb8e83d8	-0.004349213
114	0x3d5de7fe	0.054176323
115	0x3d5d6a1b	0.05405627
116	0x3d0671d0	0.032823384
117	0x3e33cd72	0.1755884
118	0xbcf7004d	-0.03015151
119	0xbd1a69ab	-0.03769843
120	0x3d748863	0.05970038
121	0xbda2319b	-0.07919618
122	0x3c8f7e36	0.017516237
123	0x3e01027f	0.12598608
124	0xbe3b743d	-0.1830606
125	0x3d767248	0.06016758
126	0x3d9f868c	0.07789335
127	0x3de63d7b	0.11242195
128	0x3b7286ae	0.0037006545
129	0xbe19e222	-0.15027669
130	0x3bd7c6df	0.0065849866
131	0x3d0e3968	0.034722716
132	0xbddec7c3	-0.10877945
133	0x3de68402	0.11255647
134	0x3e3fbe26	0.1872488
135	0xbdf8a5f7	-0.1214103
136	0xbd7b3fa4	-0.06133999
137	0xbcb1793a	-0.02166425
138	0xbd9b8c13	-0.075950764
139	0xbd571ce2	-0.05251778
140	0x3c482e35	0.012218048
141	0x3dda5819	0.106613345
142	0xbd925f7d	-0.07147119
143	0x3d0b4dc2	0.034009703
144	0x3d95a82c	0.07307467
145	0x3d1a3069	0.037643824
146	0x3dc8b031	0.09799231
147	0xbbeaa82f	-0.0071611623
148	0x3ca96821	0.020679535
149	0xbd0a5f66	-0.033782385
150	0x3df5d27b	0.120030366
151	0xbe6723bf	-0.2257223
152	0xba1ce3b7	-0.000598486
153	0xbdbb1f03	-0.091367744
154	0x3c713337	0.014721683
155	0x3e33d3fb	0.17561333
156	0xbd915f90	-0.07098305
157	0x3db2728e	0.08713256
158	0xbdd17963	-0.10228231
159	0xbda4ad28	-0.080408394
160	0xbdbed8ba	-0.09318681
161	0x3d1bfe70	0.038084447
162	0x3cfd473b	0.030917754
163	0xbc4a4921	-0.012346537
164	0xbde6fe25	-0.11278943
165	0x3def8e29	0.11697037
166	0xbcf762c5	-0.030198464
167	0xbc51aa62	-0.01279697
168	0xbdd8a0d0	-0.105775476
169	0x3dfb3a85	0.12267021
170	0xbd7561b0	-0.059907615
171	0x3dc3656c	0.09540829
172	0xbd4428fd	-0.047890652
173	0xbb4d783a	-0.0031352178
174	0xbe0920b7	-0.13391386
175	0x3dfefa24	0.12450054
176	0x3d9dec01	0.0771103
177	0xbdd007e7	-0.10157757
178	0x3d94aa80	0.07259083
179	0x3dca7017	0.09884661
180	0xbe197277	-0.14985071
181	0x3c20a07f	0.00980389
182	0x3e0c20fc	0.13684458
183	0xbc2fa054	-0.010719378
184	0x3d3b1337	0.04567262
185	0x3e190b80	0.14945793
186	0xbdd5e9ee	-0.10445009
187	0x3d2996c6	0.041403554
188	0xbdedda04	-0.11613849
189	0x3dd4d6d9	0.103925414
190	0xbd31f79e	-0.043449037
191	0xbc817966	-0.015804958
192	0xbd3b5876	-0.04573866
193	0x3e1f1f9e	0.15539405
194	0xbd8f9493	-0.0701076
195	0x3d4e9912	0.050438948
196	0x3c1408ba	0.009035284
197	0x3c98fdb1	0.018675657
198	0x3e1bd495	0.15217812
199	0x3df96396	0.12177198
200	0x3c6a9329	0.014317312
201	0x3c606dfb	0.013698096
202	0x3d5ef7a8	0.054435402
203	0xbda2fef5	-0.079587854
204	0xbc98d553	-0.018656408
205	0x3d13251b	0.03592406
206	0xbe041c11	-0.12901331
207	0x3dc7461d	0.0973017
208	0x3dbbabd6	0.091636345
209	0xbd7fc0e4	-0.062439814
210	0x3d978930	0.07399213
211	0x3b970dcd	0.0046097995
212	0xbdbe95dc	-0.09305927
213	0x3babe0f7	0.0052453238
214	0x3d777315	0.060412485
215	0xbdb0a8b7	-0.0862593
216	0x3d2c8b70	0.042125165
217	0xbdf864c1	-0.12128592
218	0xbe7c41e4	-0.2463451
219	0xbe206128	-0.15662062
220	0xbe0315f5	-0.12801345
221	0x3aeea445	0.0018206915
222	0xbce1b3aa	-0.02755149
223	0x3c9923e1	0.018693866
224	0xbd21563c	-0.03938888
225	0xbdfea7e3	-0.124343656
226	0x3e038291	0.12842776
227	0x3d9c8c31	0.07643927
228	0xbdc8813d	-0.09790275
229	0xbe28c0d7	-0.16479813
230	0x3d0d6823	0.03452314
231	0xbd89d103	-0.06729319
232	0x3de3e4fe	0.11127661
233	0xbdae4f48	-0.085112154
234	0x3dabcef4	0.083890826
235	0xbb3e6c55	-0.002905627
236	0x3ce9e74b	0.028552672
237	0x3d638734	0.05554886
238	0xbe36576c	-0.17806786
239	0xbe39a0df	-0.18127774
240	0x3d7618d7	0.060082283
241	0x3dd1b731	0.10240019
242	0x3e319354	0.17341357
243	0xbdc2bb01	-0.095083244
244	0xbcd03e19	-0.025420235
245	0x3d29b2b7	0.0414302
246	0xbd34a9d6	-0.04410728
247	0xbe5b7988	-0.21433079
248	0x3cffd51a	0.031229544
249	0xbc407184	-0.011745814
250	0x3db2bcc1	0.08727408
251	0xbdfd8b4e	-0.12380086
252	0x3d9fb97f	0.077990524
253	0xbe173df6	-0.1476973
254	0xbdf8474f	-0.12122976
255	0x3e3d576e	0.18490383

pi.net.2.bias f4 [50]
0	0x3d565da1	0.052335385
1	0x3dc8290f	0.09773456
2	0xbd852720	-0.06501603
3	0x3dadc657	0.08485096
4	0xbdfe02eb	-0.124029
5	0xbaca2b32	-0.001542425
6	0xbd493f45	-0.049132604
7	0x3dade5c3	0.08491089
8	0x3dd02e34	0.101650625
9	0x3d27a927	0.0409328
10	0x3c3023dc	0.010750737
11	0x3e024703	0.12722401
12	0xbd87d949	-0.06633241
13	0x3d92dad1	0.07170642
14	0x3d0066a1	0.031347875
15	0xbcd87982	-0.026425127
16	0x3da9625f	0.08270716
17	0x3da903a3	0.08252647
18	0xbd43507f	-0.04768419
19	0xbcb21178	-0.021736845
20	0x3e0b68de	0.13614222
21	0xbd5cca03	-0.05390359
22	0xbcb6f4e8	-0.022333577
23	0xbd07d5da	-0.03316293
24	0x3e262c61	0.16227867
25	0x3dbe9e99	0.09307594
26	0x3e2c5597	0.16829525
27	0x3c002794	0.007821936
28	0xbd84beff	-0.06481742
29	0x3e090631	0.13381268
30	0x3d90479c	0.070449084
31	0x3c9cb22b	0.019127926
32	0x3e4fa3cc	0.20277327
33	0x3ce8df4c	0.028426789
34	0xbd5c2e76	-0.053755246
35	0xbda40716	-0.08009164
36	0xbcf98d67	-0.030462934
37	0x3cc62812	0.024189029
38	0xbdf0930b	-0.11746796
39	0xbd48f9e4	-0.04906644
40	0xbc44e761	-0.012018056
41	0xbdf46b6d	-0.11934552
42	0x3d88bed5	0.06677023
43	0xbd7506a9	-0.059820805
44	0x3d8702a4	0.065923005
45	0xbdc80d3c	-0.09768149
46	0xbdc09bab	-0.09404691
47	0xbd31ac41	-0.043377165
48	0xbd4bb75a	-0.049735405
49	0xbd0719dc	-0.032983646

pi.net.4.weight f4 [4, 50]
0	0xbddac614	-0.10682312
1	0xbd70b730	-0.05876845
2	0x3d8d1f9d	0.068907954
3	0xbdc612d6	-0.096715614
4	0x3d737db8	0.059446067
5	0x3da9f6fe	0.08299063
6	0xbd6d10ab	-0.057877224
7	0x3e196287	0.14978991
8	0xbe1693b3	-0.1470478
9	0x3df63751	0.120222695
10	0xbe43d6c4	-0.19124895
11	0x3dd64ce3	0.10463884
12	0x3e220c2c	0.15824956
13	0x3d22ec24	0.039775982
14	0xbe2217df	-0.15829419
15	0x3e1e0da5	0.15434892
16	0x3d69e550	0.057103455
17	0x3e010f8f	0.12603591
18	0x3d42011e	0.047364347
19	0xbd8653d9	-0.065589614
20	0xbe41b477	-0.18916498
21	0xbcfd19b6	-0.030896049
22	0xbe0d481a	-0.13797036
23	0x3e306fbd	0.17230125
24	0xbcf85ac0	-0.03031671
25	0xbdafa16c	-0.08575711
26	0xbe14b492	-0.14522007
27	0xbdde9f84	-0.10870269
28	0x3b7419dd	0.003724686
29	0x3cf3108d	0.029670978
30	0xbe29704a	-0.16546741
31	0x3e494e35	0.1965874
32	0x3e08f608	0.13375103
33	0x3d0a3517	0.033742037
34	0x3e0beeae	0.13665268
35	0x3da1c7eb	0.078994595
36	0x3df1bee9	0.11803991
37	0x3e09cb43	0.13456444
38	0x3e1e1588	0.15437901
39	0x3e03c036	0.12866291
40	0x3dad26e8	0.084546864
41	0xbe32079a	-0.17385712
42	0xbe3a4097	-0.18188702
43	0x3d15e34a	0.036593713
44	0x3e1e718d	0.15473004
45	0x3dfa7c9b	0.12230798
46	0x3da4c511	0.080454
47	0xbe0a6000	-0.13513184
48	0xbdc69f17	-0.09698313
49	0x3dfa7aab	0.12230428
50	0x3c141b2a	0.00903968
51	0xbe4b75d0	-0.1986916
52	0xbd780991	-0.060556
53	0xbe4c0c2d	-0.1992652
54	0xbe31fa4a	-0.17380634
55	0xbdc9a18b	-0.09845265
56	0x3e1e80ae	0.15478775
57	0x3e1b38ca	0.15158382
58	0x3d0c0b99	0.034190748
59	0x3d88f0e7	0.066865735
60	0xbd89f399	-0.06735916
61	0x3d96728a	0.07346065
62	0x3dfe073d	0.12403724
63	0xbcecf25d	-0.028924162
64	0xbe21574e	-0.1575596
65	0x3e004f49	0.12530245
66	0xbd885646	-0.0665708
67	0xbe4c88f9	-0.19974126
68	0x3e07dbd0	0.13267446
69	0x3c859435	0.016306022
70	0x3d95554c	0.0729166
71	0xbdf3ca83	-0.119038604
72	0xbe2c16ab	-0.16805522
73	0xbe28f62d	-0.16500159
74	0x3e2a6878	0.16641414
75	0xbd00b22e	-0.031419925
76	0xbe185f70	-0.14880157
77	0xbdd00992	-0.101580754
78	0x3e4d835c	0.20069641
79	0xbe74e330	-0.2391479
80	0xbe46d0a3	-0.19415526
81	0x3e3ebb4f	0.1862614
82	0x3e1c6f04	0.15276724
83	0xbe20ce17	-0.15703617
84	0xbd05ddbf	-0.032682177
85	0x3dd7d9c8	0.10539585
86	0x3df7724b	0.120823465
87	0x3e0d0ea1	0.13775112
88	0x3d0290e5	0.031876463
89	0xbdf6606d	-0.120301105
90	0xbdcd5f91	-0.100279935
91	0xbdaee934	-0.08540574
92	0xbd3d63a1	-0.04623759
93	0xbd0fd593	-0.03511579
94	0xbf04644a	-0.5171553
95	0x3ade62b5	0.0016966673
96	0x3e341099	0.17584457
97	0x3c4a4153	0.012344676
98	0x3e3d5a4f	0.18491481
99	0x3daa58bc	0.08317706
100	0xbd951b2d	-0.07280574
101	0x3db6b60f	0.08921444
102	0xbdfcd778	-0.12345785
103	0xbe0c09f4	-0.13675672
104	0x3e3eb870	0.18625045
105	0xbd539d89	-0.05166391
106	0x3a9e1805	0.0012061602
107	0xbdfcee7a	-0.12350173
108	0xbd346c0b	-0.04404835
109	0xbe157e13	-0.14598875
110	0x3ddeb307	0.108739905
111	0xbe225113	-0.1585124
112	0x3e3e6221	0.1859212
113	0xbe281c62	-0.16417077
114	0x3e82e8b9	0.25568178
115	0xbc94f42c	-0.018182836
116	0xbe2b7514	-0.1674388
117	0xbe09f719	-0.13473167
118	0x3e2bb6fd	0.16769023
119	0xbe5cc48a	-0.21559349
120	0xbc802d81	-0.015646698
121	0xbe4a7b26	-0.1977354
122	0xbdca7946	-0.09886412
123	0xbd70d842	-0.05879999
124	0xbe1cfd27	-0.15330945
125	0xbd193ab8	-0.037409514
126	0x3e057820	0.13034105
127	0xbde3414c	-0.11096439
128	0x3e73197b	0.23740189
129	0xbdb65b4c	-0.08904132
130	0x3e4ba3e3	0.19886737
131	0xbce608d7	-0.028080387
132	0xbd74a844	-0.059730783
133	0xbcf7f0a3	-0.030266112
134	0x3e14fb05	0.14548881
135	0xbe37dfe2	-0.17956498
136	0xbe1e4484	-0.15455824
137	0x3e33aa72	0.17545488
138	0xbddbc313	-0.10730567
139	0x3e39003c	0.18066496
140	0xbc4f02e6	-0.012634968
141	0xbe0eff6e	-0.13964626
142	0x3db82a12	0.08992399
143	0x3d9c7298	0.076390445
144	0xbdc26f06	-0.09493832
145	0x3e1f203b	0.15539639
146	0xbe306c8f	-0.17228912
147	0x3baa8f03	0.0052050366
148	0xbd84b971	-0.06480683
149	0xbd927ce7	-0.071527295
150	0x3ddc963a	0.10770841
151	0xbe5557b0	-0.20834231
152	0xbdaecc80	-0.08535099
153	0x3e3dbbaa	0.1852862
154	0xbbe48b96	-0.0069746478
155	0x3d822f98	0.06356734
156	0x3e1a311c	0.15057796
157	0xbe0c9257	-0.13727699
158	0xbe0ecc16	-0.1394504
159	0xbc965f08	-0.018355861
160	0xbea1ce9c	-0.31602943
161	0x3da731d3	0.081638
162	0x3d97f4f5	0.07419769
163	0xbe3bd227	-0.18341886
164	0xbd5f6bd4	-0.054546192
165	0xbdc18378	-0.09448904
166	0x3d376d03	0.044781696
167	0x3d9af60d	0.07566462
168	0x3e03e48c	0.12880152
169	0xbd27b712	-0.040946074
170	0x3cee0276	0.029053908
171	0xbcfcd165	-0.030861566
172	0x3e2d9451	0.1695111
173	0x3db07ea8	0.08617908
174	0x3df7f0a5	0.12106446
175	0xbe4a74be	-0.19771096
176	0x3dea74cc	0.114480585
177	0x3e63fd5e	0.2226462
178	0xbe58d154	-0.21173602
179	0x3e555671	0.20833756
180	0x3d9ddf3e	0.07708596
181	0xbd81462f	-0.063122146
182	0xbe531025	-0.20611627
183	0xbddab116	-0.10678308
184	0x3e262228	0.16223967
185	0x3bdb9934	0.006701613
186	0xbe358108	-0.17725003
187	0x3e21d25a	0.15802899
188	0x3e3dd891	0.18539645
189	0x3e78d4ba	0.24299899
190	0x3e932d34	0.28745425
191	0x3d93b98d	0.072131254
192	0x3d085ca9	0.033291493
193	0xbd825a78	-0.06364912
194	0xbe7a38ad	-0.24435683
195	0xbe5a0cbe	-0.21293923
196	0xbe1db9e2	-0.1540294
197	0x3e2edeca	0.17077175
198	0x3d8fcf8f	0.070220105
199	0xbd1b6bdc	-0.03794466

pi.net.4.bias f4 [4]
0	0xbcfe5de4	-0.03105063
1	0xbcf605a2	-0.030031983
2	0x3d983af1	0.07433117
3	0x3de6dd06	0.112726256

v.net.0.weight f4 [64, 34]
0	0xbd4b3905	-0.049614925
1	0xbd5bb6ab	-0.053641003
2	0x3c9605da	0.018313337
3	0x3d8f0225	0.06982831
4	0xb9c56033	-0.00037646442
5	0x3d20430d	0.039126445
6	0xbd5df468	-0.054188162
7	0xbd83c0f7	-0.064332895
8	0x3d801f8a	0.062560156
9	0x3cf0706e	0.029350486
10	0xbb27195b	-0.002549729
11	0xbcaa9190	-0.020821363
12	0xbce147c4	-0.02750004
13	0xbc698836	-0.014253667
14	0xbd3bf8e3	-0.045891654
15	0x3aa4aec2	0.0012564289
16	0xbd8cefda	-0.068816856
17	0x3d834300	0.064092636
18	0x3d66d521	0.0563556
19	0xbd889dba	-0.06670709
20	0xbd9d9315	-0.07694069
21	0xbde197b4	-0.11015263
22	0x3dfedfb8	0.12445015
23	0xbda2ee5b	-0.07955619
24	0x3d5134b2	0.051075645
25	0xbca23fec	-0.019805871
26	0x3ba190f8	0.0049306117
27	0xbc690123	-0.014221462
28	0x3cb0d8b8	0.021587715
29	0xbba9c1fb	-0.005180595
30	0xbd91aa0f	-0.07112514
31	0x3c455ded	0.012046319
32	0x3d88b31c	0.066747874
33	0x3d232f89	0.039840255
34	0x3bc40a8c	0.0059827026
35	0x3cf21d68	0.029555038
36	0x3d14d745	0.03633811
37	0x3d28b71e	0.04119026
38	0x3e2574d6	0.1615785
39	0xbd71e036	-0.059051715
40	0x3d68e4a2	0.056858666
41	0xbd99cf0b	-0.075101934
42	0x3b9e5761	0.0048321937
43	0xbe13009b	-0.143557
44	0x3ccfae0e	0.02535155
45	0x3d4558ee	0.048180513
46	0xbd10521b	-0.035234552
47	0x3e1943e6	0.14967307
48	0xbd99d734	-0.0751175
49	0xbce158f4	-0.027508236
50	0x3d59fcd9	0.05321965
51	0xbc93ed61	-0.018057527
52	0xbcf5da72	-0.03001139
53	0x3c21064c	0.009828161
54	0xbd14c3bb	-0.036319476
55	0xbe000522	-0.12501958
56	0xbe1570b3	-0.14593773
57	0x3db4e0f6	0.088319704
58	0x3dac608e	0.08416854
59	0xbc7618dd	-0.015020576
60	0x3e110906	0.14163598
61	0xbd9189fd	-0.07106397
62	0xbde36efd	-0.11105154
63	0x3d1fa24b	0.038973134
64	0xbda9acf9	-0.08284945
65	0x3d059320	0.032611012
66	0xba9ddf9b	-0.0012044789
67	0x3c3293dd	0.010899511
68	0x3c5c6fd7	0.013454399
69	0x3b73cc97	0.0037200802
70	0xbdacaf9b	-0.084319316
71	0xbc9b363f	-0.018946765
72	0xbdc9b95d	-0.09849808
73	0x3ca0ede1	0.01964468
74	0xbda9c664	-0.08289793
75	0x3bef1cd2	0.007297137
76	0xbd9e8e70	-0.077420115
77	0xbdbd25c2	-0.09235717
78	0xbc9f0ad0	-0.019414335
79	0xbcd26827	-0.02568443
80	0xbdaa1dba	-0.08306451
81	0xbc3b6ad0	-0.01143904
82	0xbd81ad16	-0.06331842
83	0x3d86d957	0.06584423
84	0x3e108d9c	0.1411652
85	0xbcc9eee8	-0.024650052
86	0xbbf40b69	-0.0074476493
87	0x3cf2a7de	0.029621061
88	0xbb91eeb8	-0.0044535063
89	0xbca41485	-0.020029316
90	0xbc91894a	-0.01776566
91	0xbcb70948	-0.022343293
92	0xba0003c8	-0.0004883376
93	0x3da08774	0.07838336
94	0x3dc4b483	0.096047424
95	0x3dab7908	0.08372694
96	0x3d97718c	0.07394704
97	0x3e0796e4	0.13241154
98	0xbe13256e	-0.14369747
99	0x3d9a29ad	0.0752748
100	0xbe110dc5	-0.14165409
101	0xbdc11f8c	-0.09429845
102	0xbd465ac1	-0.048426393
103	0x3d065051	0.03279144
104	0x3dc1c0fe	0.094606385
105	0x3dd0c359	0.101935096
106	0x3d8bfaeb	0.06834968
107	0xbdba5907	-0.09099012
108	0x3cf96d0c	0.030447505
109	0x3cb9cbad	0.022680128
110	0xbcad83c9	-0.021181004
111	0xbd592bb3	-0.05302019
112	0xbd037432	-0.032093234
113	0xbd9c317c	-0.07626626
114	0x3c6b0aae	0.014345808
115	0x3c66d14e	0.014087988
116	0xbd863100	-0.06552315
117	0xbe24d110	-0.16095376
118	0xbd8d1833	-0.06889381
119	0x3d416718	0.04721746
120	0xbb1476f7	-0.0022653916
121	0x3d2e6d63	0.042584788
122	0xbe05ea9c	-0.13077778
123	0xbd948fdc	-0.072540015
124	0xbd2a4c6e	-0.041576795
125	0xbe1bba05	-0.1520768
126	0xbd59caa0	-0.053171754
127	0xbcde65c0	-0.027148128
128	0x3da22fc4	0.07919267
129	0x3c8e3ad4	0.017362036
130	0x3d85ecf0	0.06539333
131	0xbb12fc10	-0.0022428073
132	0x3d001e23	0.03127874
133	0xbd9e2aa8	-0.0772298
134	0x3e169bcb	0.14707868
135	0x3dcf2f27	0.101164155
136	0xbe15abcf	-0.14616321
137	0xbd4f398d	-0.050591994
138	0xbd315f3d	-0.043303717
139	0x3c974908	0.018467441
140	0x3dbb902d	0.09158359
141	0x3cb8c90a	0.0225568
142	0xbd5fb106	-0.054612182
143	0x3df89ccb	0.12139281
144	0x3cb92220	0.02259928
145	0x3be70949	0.0070506674
146	0x3d8231c0	0.06357145
147	0x3e4cbbab	0.19993465
148	0xbb16f4ee	-0.0023034173
149	0xbd8c21a2	-0.068423524
150	0xbc8c337a	-0.01711439
151	0xbd5e4909	-0.05426887
152	0x3d9190c6	0.071076915
153	0x3e28a8a5	0.16470583
154	0x3d41a10c	0.047272727
155	0x3d872a58	0.06599873
156	0xbd2a326f	-0.041552003
157	0xbdf9b1c0	-0.12192106
158	0xbc7df870	-0.015501127
159	0x3deee1c4	0.11664155
160	0xbdf29707	-0.118452124
161	0xbcbe136f	-0.023202626
162	0xbc97a78b	-0.018512508
163	0xbeb6989e	-0.35663313
164	0xbf20b8af	-0.62781805
165	0xbbf44b51	-0.0074552675
166	0x3dc205a5	0.09473733
167	0xbcf6f51a	-0.03014617
168	0xbb75093d	-0.003738954
169	0xbc0c7508	-0.008572824
170	0x3c6a58b0	0.014303371
171	0x3d431a85	0.047632713
172	0xbc50925c	-0.012730207
173	0xbdbb7c87	-0.09154611
174	0xbb1523b5	-0.0022756879
175	0x3cad0781	0.021121742
176	0x3de67ac3	0.11253884
177	0xbd414b2d	-0.047190834
178	0xbcb9efea	-0.022697408
179	0x3bcf9664	0.0063350666
180	0x3ab3e2a6	0.0013724163
181	0xb7817c1c	-1.5435791e-05
182	0xba8255be	-0.0009943766
183	0x3d1932d1	0.037401978
184	0xbaf67a44	-0.0018804749
185	0x3d8c769e	0.06858562
186	0x3db912f6	0.0903682
187	0x3c263683	0.010144833
188	0xbd5f63a4	-0.054538384
189	0x3cf390fb	0.029732218
190	0x3db5a5c3	0.08869507
191	0xbd18f38c	-0.03734164
192	0x3d4701e3	0.048585784
193	0xbde64242	-0.112431064
194	0x3d256f09	0.040389095
195	0x3d95fc03	0.07323458
196	0xbc7e85ce	-0.015534831
197	0xbdfbb05a	-0.12289496
198	0x3d9311e8	0.0718115
199	0x3cf9c2b8	0.030488357
200	0x3d5ad5d4	0.05342658
201	0xbd9c8566	-0.07642631
202	0xbde0f32f	-0.109838836
203	0xbdfe26c0	-0.12409735
204	0xbc330fc6	-0.010929054
205	0xbd12c1c4	-0.03582932
206	0x3c0ff097	0.008785388
207	0x3d828fa2	0.06375052
208	0x3ddf71c5	0.10910372
209	0xbd37d715	-0.044882853
210	0xbcd600fd	-0.026123518
211	0x3d8f65d8	0.07001847
212	0x3cfedba9	0.031110601
213	0x3d61be5c	0.05511318
214	0xbd78eef7	-0.06077477
215	0x3d4dcdc7	0.050245073
216	0xbcd8f65c	-0.02648466
217	0x3d402f34	0.046920016
218	0x3d47f925	0.048821587
219	0xbd31a9c4	-0.04337479
220	0xbbe2d66b	-0.0069225333
221	0x3ca04245	0.01956285
222	0x3d406097	0.046967115
223	0xbcda776b	-0.026668271
224	0xbd16c0fd	-0.03680514
225	0xbdf482cc	-0.1193901
226	0x3c3bb09f	0.011455684
227	0x3de7ddb4	0.113215834
228	0xbdb6a414	-0.08918014
229	0xbc87664d	-0.016528273
230	0xbdca3c09	-0.09874732
231	0x3e7c5968	0.24643481
232	0xbe4735dd	-0.19454141
233	0x3d320d57	0.043469753
234	0x3d2ea6e6	0.042639636
235	0xbc94b993	-0.018154895
236	0x3c861a99	0.016370105
237	0x3da69831	0.08134497
238	0xbcb87364	-0.02251596
239	0x3da28f7d	0.079375245
240	0xbda5867c	-0.080822915
241	0x3c9fbc68	0.019499019
242	0xbdcf1ea0	-0.10113263
243	0x3d038e7d	0.03211831
244	0x3d669f56	0.0563043
245	0xbd74b1ae	-0.05973976
246	0xbb73b1d2	-0.0037184847
247	0x3d651709	0.05593017
248	0xbcbd0c0d	-0.023077035
249	0x3d08566e	0.03328555
250	0xbd25e1f1	-0.040498678
251	0x3ab56322	0.0013838748
252	0xbb778ffd	-0.0037775033
253	0x3c01f8b1	0.007932828
254	0xba705367	-0.00091677014
255	0x3cfa4bec	0.03055378

v.net.0.bias f4 [64]
0	0xbe853ed5	-0.260245
1	0x3eab9517	0.33512184
2	0xbe415057	-0.18878303
3	0x3e557ab7	0.20847593
4	0xbe857234	-0.26063693
5	0x3ea83bf2	0.32858235
6	0xbea6d379	-0.32583216
7	0x3ebe7185	0.37195984
8	0x3f1e632b	0.6187007
9	0x3c97194e	0.018444683
10	0xbeba1162	-0.36341387
11	0xbea90f12	-0.3301931
12	0xbe8c2248	-0.27369905
13	0x3e8e60d0	0.27808237
14	0x3e96155c	0.2931317
15	0xbe5610fe	-0.2090492
16	0xbe9323a1	-0.2873812
17	0x3e878dad	0.26475278
18	0x3e9b0c4c	0.3028282
19	0x3e470d9e	0.19438788
20	0xbdd4d025	-0.10391263
21	0x3e48f735	0.19625552
22	0x3e81ca9b	0.25349888
23	0x3c9f6849	0.019458907
24	0xbe20c55b	-0.15700285
25	0x3dcbe2f8	0.099554
26	0xbe612808	-0.21987927
27	0xbe223ac5	-0.15842731
28	0xbcef9eea	-0.02925058
29	0x3e0fa980	0.14029503
30	0xbeb9a49b	-0.36258397
31	0xbeb044bb	-0.34427437
32	0x3ebe9451	0.3722253
33	0x3c92fb52	0.017942104
34	0xbe08b0f7	-0.13348757
35	0xbcda6206	-0.02665807
36	0xbcf83724	-0.03029973
37	0xbdfc43b0	-0.12317598
38	0xbebc6971	-0.36799195
39	0xbe41c093	-0.18921117
40	0xbeba534f	-0.36391684
41	0xbeb39151	-0.35071805
42	0x3e96c81a	0.2944954
43	0x3ea6c3f5	0.32571378
44	0xbe2e8d21	-0.17046024
45	0x3eab363d	0.33439818
46	0xbe407a54	-0.18796664
47	0x3ea8b735	0.32952276
48	0x3ec2dffe	0.38061517
49	0xbc58bcd4	-0.013228614
50	0x3d2e8810	0.042610228
51	0x3e564469	0.20924534
52	0x3e953604	0.29142773
53	0x3e972ed2	0.2952791
54	0x3e9e1482	0.3087502
55	0x3e84e612	0.2595678
56	0xbea738a2	-0.32660395
57	0xbe38364d	-0.17989464
58	0xbe8c6a77	-0.27424976
59	0xbe9e1243	-0.30873308
60	0x3eb3fa38	0.3515184
61	0x3e2e6b0a	0.1703302
62	0x3e3d9b28	0.18516219
63	0xbda1ebbe	-0.079062924

v.net.2.weight f4 [64, 64]
0	0xbd909687	-0.07059961
1	0x3d38cf7a	0.04511974
2	0xbcf69613	-0.030100858
3	0x3e098938	0.13431251
4	0xbde99804	-0.11405948
5	0xbc51600f	-0.01277925
6	0xbe11c615	-0.14235719
7	0x3e424171	0.18970276
8	0xbdef6c27	-0.1169055
9	0x3d996513	0.074899815
10	0xbe8ae862	-0.2713042
11	0xbe548cf8	-0.207569
12	0xbe00a413	-0.1256259
13	0x3e85169e	0.25993818
14	0x3d366321	0.04452813
15	0xbe0338dd	-0.1281466
16	0xbdae3683	-0.08506491
17	0x3c99152b	0.018686851
18	0x3e7a0da5	0.24419267
19	0x3e12e5fc	0.14345545
20	0xbd65bfd3	-0.05609114
21	0x3bcbd03d	0.0062198923
22	0x3c54042b	0.012940447
23	0x3d6a61ca	0.057222165
24	0xbda091ab	-0.07840284
25	0x3d400dd9	0.046888206
26	0x3d0f0a97	0.03492221
27	0xbddd0a86	-0.10793023
28	0xbb6bdd62	-0.0035990109
29	0xbda9712b	-0.08273538
30	0xbe6b943c	-0.23005766
31	0xbd92de86	-0.07171349
32	0x3e83fb39	0.25777605
33	0x3dc16b74	0.09444323
34	0xbcfface7	-0.031210376
35	0x3db9990f	0.09062397
36	0x3db0bf0e	0.08630191
37	0x3cf4e3e7	0.029893829
38	0xbe906c56	-0.28207654
39	0x3d095b70	0.033534467
40	0xbe6756b2	-0.22591665
41	0xbe566e59	-0.20940532
42	0x3de53fd0	0.11193812
43	0x3e48a836	0.19595417
44	0xbda58e6a	-0.08083804
45	0x3e2ca077	0.16858087
46	0xbdfe9a6c	-0.124317974
47	0x3e5cd8a0	0.21567011
48	0x3e09e6cf	0.13466953
49	0xbc680757	-0.014161906
50	0x3de72b9d	0.112876154
51	0xbccf50c6	-0.02530707
52	0x3e7e99f7	0.2486342
53	0x3d8235e1	0.06357933
54	0x3e4459e7	0.1917492
55	0x3e28c8d7	0.16482864
56	0xbe0a7ee4	-0.13524967
57	0xbd3cabbb	-0.046062212
58	0xbe3c2b1e	-0.18375823
59	0xbe41e1bd	-0.18933769
60	0x3dac18da	0.084031776
61	0x3d5e0034	0.054199412
62	0xbd54a21e	-0.05191242
63	0x3d40e399	0.047092054
64	0xbdcaedba	-0.09908624
65	0x3e3f955f	0.18709324
66	0x3cf2cbdd	0.029638225
67	0xbc0f299f	-0.008737951
68	0xbe651e27	-0.22374783
69	0xbd08af2b	-0.03337018
70	0xbe0579de	-0.1303477
71	0x3dae8a74	0.085225016
72	0xbe71650c	-0.23573703
73	0xbdd698c0	-0.104783535
74	0xbe95f29a	-0.29286653
75	0xbdb164da	-0.08661814
76	0xbd25002d	-0.04028337
77	0x3e447614	0.19185668
78	0x3d80b613	0.06284728
79	0x3d8fba5d	0.07017968
80	0x3c55c4e3	0.01304743
81	0xbd203b66	-0.039119147
82	0x3e0068c9	0.12539972
83	0xbd34dd26	-0.044156216
84	0x3cb2410d	0.021759534
85	0x3e2217e4	0.15829426
86	0x3cd5f6de	0.026118692
87	0x3e02a053	0.12756471
88	0x3e5cc275	0.21558554
89	0x3cfedf5a	0.031112362
90	0x38da9e13	0.00010424494
91	0x3d7258f7	0.059166875
92	0xbdb9aff2	-0.09066762
93	0x3d6758cf	0.05648118
94	0xbd93d5f8	-0.07218546
95	0xbe1e461c	-0.15456432
96	0x3e5a194f	0.21298717
97	0xbe666529	-0.22499527
98	0xbdaf5932	-0.085619345
99	0xbd8fca5d	-0.070210196
100	0x3d3db64f	0.04631644
101	0x3c269c55	0.010169108
102	0xbe71beec	-0.23607987
103	0x3dba129f	0.09085583
104	0xbd895cde	-0.06707166
105	0xbe411683	-0.18856244
106	0xbc97a3bb	-0.01851069
107	0x3e0d7f13	0.13818006
108	0x3c70526f	0.014668091
109	0x3d1dabcb	0.038493913
110	0xbe04e57d	-0.12978168
111	0x3dc63daa	0.0967973
112	0x3e3f6464	0.1869064
113	0x3d8efd18	0.069818676
114	0x3cf3bd01	0.02975321
115	0xbe33d097	-0.1756004
116	0x3d3aad10	0.0455752
117	0x3c49c291	0.012314455
118	0x3b3f86fb	0.0029224742
119	0x3e3e84a1	0.18605281
120	0xbdf78a0c	-0.12086877
121	0x3cae3fc6	0.021270644
122	0xbcef57c6	-0.029216658
123	0xbdc6939e	-0.096961245
124	0x3dadfefa	0.084958985
125	0x3d1743ec	0.03693001
126	0x3df4ad76	0.119471475
127	0xbcc40f1e	-0.02393299
128	0xbde58385	-0.11206726
129	0x3e4bab7b	0.19889633
130	0x3d1d1815	0.038353045
131	0x3db62ccb	0.08895262
132	0xbd48f100	-0.04905796
133	0x3dfb74c9	0.122781344
134	0xbe8c9a74	-0.27461588
135	0x3e22f669	0.1591431
136	0xbe909923	-0.28241834
137	0x3dc8d572	0.098063365
138	0xbe15a4cd	-0.14613648
139	0x3c0b92d2	0.008518891
140	0xbdbafa19	-0.091297336
141	0x3e673030	0.22576976
142	0x3e6d1bbf	0.23155116
143	0xbde9d72f	-0.11417996
144	0xbe5a48c3	-0.21316819
145	0x3e073959	0.1320547
146	0x3dc220fb	0.09478947
147	0x3dd75b7f	0.10515498
148	0x3c031e94	0.008002896
149	0xbd8fc895	-0.0702068
150	0xbc8cc487	-0.017183555
151	0xbd4ed188	-0.050492793
152	0xbdd7ce03	-0.105373405
153	0xbd186696	-0.03720721
154	0xbd644c13	-0.055736613
155	0x3d485ad8	0.04891476
156	0xbce3d423	-0.027811116
157	0xbc3389b3	-0.010958123
158	0xbdfa6f27	-0.12228232
159	0xbe712270	-0.23548293
160	0x3c92d932	0.017925832
161	0x3dd87977	0.105700426
162	0xbdcedd12	-0.101007596
163	0x3d9f5c05	0.07781223
164	0x3e0fd1c1	0.14044859
165	0x3d0de866	0.03464546
166	0xbe86986b	-0.2628816
167	0xbdd6bd1d	-0.10485289
168	0xbe4aa6a0	-0.19790125
169	0xbe49583d	-0.19662566
170	0x3e5b662f	0.21425699
171	0x3d3c2da9	0.045941982
172	0xbc958afd	-0.018254751
173	0x3d1495c8	0.036275655
174	0xbd3097e8	-0.04311362
175	0x3dcb3965	0.099230565
176	0x3e0f6abe	0.14005563
177	0xbcf87861	-0.030330839
178	0x3aeb207b	0.0017938757
179	0x3d873a3e	0.06602906
180	0x3d4b9805	0.049705524
181	0x3e51b855	0.20480473
182	0x3d2f9ca1	0.042873982
183	0xbcef057e	-0.029177424
184	0xbe555f1e	-0.20837066
185	0xbd319b68	-0.043361098
186	0xbddd5700	-0.108076096
187	0xbd420edf	-0.047377463
188	0x3dff4cde	0.12465833
189	0x3de5ca58	0.11220235
190	0x3d869bad	0.065726615
191	0xbc0bd4e0	-0.00853464
192	0x3e01bd1d	0.12669797
193	0xbe44ea5b	-0.19230025
194	0x3dc063ed	0.09394059
195	0xbd815fcc	-0.063171
196	0x3e155ed3	0.14586954
197	0xbd123144	-0.035691515
198	0x3e1c9b71	0.15293671
199	0xbe8520d0	-0.26001596
200	0x3d9a13bc	0.07523295
201	0xbdfa5f1d	-0.12225173
202	0x3d8a9755	0.067671455
203	0x3e461503	0.19343953
204	0x3dc8dbe3	0.09807565
205	0xbe4c2bd2	-0.19938591
206	0xbde1582f	-0.11003148
207	0x3d92ac65	0.07161788
208	0x3db84f91	0.08999551
209	0xbdc63c31	-0.09679449
210	0xbdf0ff62	-0.117674604
211	0xbcbb9d64	-0.022902198
212	0x3ce4acf2	0.027914498
213	0xbd82d95b	-0.063891135
214	0x3c0a383b	0.008436258
215	0x3d7c524b	0.06160192
216	0x3d975c8f	0.07390701
217	0xbd9031f9	-0.070407815
218	0x3e21204d	0.15734978
219	0x3e00891c	0.12552303
220	0xbdbede05	-0.093196906
221	0xbdd2a17c	-0.10284707
222	0x3e4a2f44	0.19744593
223	0x3e870ea6	0.26378363
224	0xbe0134ed	-0.12617846
225	0xbd5608bd	-0.052254427
226	0xbdba6b67	-0.091025166
227	0x3d79f26a	0.0610222
228	0xbc2f115b	-0.01068529
229	0x3dd51a39	0.10405392
230	0x3e776547	0.24159728
231	0x3cfdcc8c	0.030981325
232	0x3e80473a	0.25054342
233	0x3dfa2f12	0.12216009
234	0xbdb3d122	-0.08780123
235	0xbe1c8806	-0.15286264
236	0xbbadf6cc	-0.0053089615
237	0xbdf9d925	-0.1219962
238	0x3d850113	0.064943455
239	0xbbe8b508	-0.0071016587
240	0xbe71a19e	-0.23596808
241	0x3c70c199	0.014694595
242	0xbde813f9	-0.113319345
243	0xbdb74f62	-0.08950688
244	0xbdd6ab2c	-0.10481867
245	0xbd6a2db8	-0.057172507
246	0xbe365ef2	-0.17809656
247	0xbc86caaa	-0.01645406
248	0x3e704fb6	0.23467907
249	0x3e1f4d61	0.15556861
250	0x3e34e876	0.17666802
251	0x3db535d5	0.08848158
252	0xbe76e607	-0.24111186
253	0xbda2ce0c	-0.079494566
254	0xbdffbd42	-0.1248727
255	0x3c350e33	0.011050749

v.net.2.bias f4 [64]
0	0x3dbf2797	0.09333723
1	0x3d5f96ad	0.054587055
2	0x3e8c50f1	0.27405503
3	0xbe3a79b0	-0.18210483
4	0x3dd7b91d	0.105333544
5	0xbe798265	-0.24366148
6	0xbe710e2e	-0.23540565
7	0xbd871971	-0.065966494
8	0xbe1d77a9	-0.15377678
9	0xbdab5c97	-0.083672695
10	0xbe7b440c	-0.24537677
11	0x3df92029	0.12164337
12	0x3cb89b7e	0.022535082
13	0xbd302771	-0.043006364
14	0x3e677cb8	0.2260617
15	0xbe0f0baf	-0.139693
16	0x3e0f2c0e	0.1398165
17	0x3e6d5bfc	0.2317962
18	0xbd644fd2	-0.055740185
19	0xbe650879	-0.22366513
20	0x3de76f8c	0.11300573
21	0xbd973dea	-0.07384856
22	0x3e2958f2	0.16537836
23	0x3e138708	0.14406979
24	0xbe178eff	-0.14800642
25	0x3e823212	0.25428826
26	0x3e11d8e0	0.14242887
27	0xbe57db96	-0.21079859
28	0xbe62a9bb	-0.2213506
29	0x3e1dfe4a	0.15429035
30	0xbe71a345	-0.23597439
31	0x3d9a5426	0.07535581
32	0xbd0f7f4c	-0.03503351
33	0xbe82543e	-0.25454897
34	0x3e03ecb8	0.1288327
35	0xbdfba93c	-0.12288138
36	0xbe3fa200	-0.18714142
37	0x3dfdea35	0.12398187
38	0xbe08dfbd	-0.133666
39	0x3e79243b	0.24330227
40	0x3e549b19	0.2076229
41	0xbe373699	-0.17891921
42	0xbe18a0c0	-0.14905071
43	0x3e216776	0.15762123
44	0xbdeb7d84	-0.114985496
45	0x3c5be0aa	0.013420263
46	0x3da4d94e	0.0804926
47	0xbda399c2	-0.07988311
48	0x3e6a05f1	0.22853829
49	0x3e13de3b	0.14440243
50	0xbde6a6a5	-0.11262254
51	0x3dc8394c	0.097765535
52	0x3e559323	0.2085691
53	0xbe8512f8	-0.25991035
54	0x3cad7b90	0.021177083
55	0x3e6bf20b	0.23041551
56	0xbe817f2e	-0.25292343
57	0x3e18fcb3	0.14940147
58	0xbdee040a	-0.11621864
59	0xbe7f5184	-0.2493344
60	0x3dbd6bad	0.09249053
61	0x3e8aa007	0.27075216
62	0x3dd7a6ee	0.10529886
63	0xbe426176	-0.18982491

v.net.4.weight f4 [1, 64]
0	0xbe769895	-0.24081643
1	0xbe1dda62	-0.15415338
2	0xbe199637	-0.14998709
3	0x3e4cec0a	0.20011917
4	0xbe83a466	-0.25711364
5	0x3e16a1f6	0.1471022
6	0x3e243e81	0.16039468
7	0x3e3d2c7e	0.18474004
8	0x3e6de88e	0.23233244
9	0x3e14dac5	0.14536579
10	0x3e5a010e	0.21289465
11	0xbe0f3fc5	-0.1398917
12	0xbe576110	-0.2103312
13	0x3e4de8b1	0.20108296
14	0xbe54ad92	-0.20769337
15	0x3e49ba44	0.19699961
16	0xbe2badd8	-0.16765535
17	0xbe5f3a2c	-0.21799535
18	0x3e41a74e	0.18911478
19	0x3e41c189	0.18921484
20	0xbe05cf41	-0.13067342
21	0x3e37f72b	0.17965381
22	0xbe164641	-0.14675237
23	0xbe17decb	-0.14831083
24	0x3e1f5270	0.15558791
25	0xbe25262d	-0.16127844
26	0xbe0ad8bd	-0.13559242
27	0x3e6a364d	0.22872277
28	0x3e269a8b	0.16269891
29	0xbe0e79df	-0.13913678
30	0x3e413ea3	0.1887155
31	0xbe238fea	-0.15972868
32	0x3e47c0dc	0.19507164
33	0x3e6406a2	0.22268155
34	0xbe42f759	-0.19039668
35	0x3e09f416	0.13472018
36	0x3e34e0ca	0.17663875
37	0xbe098f82	-0.1343365
38	0x3e5467fa	0.20742789
39	0xbe30f861	-0.17282249
40	0xbe7bbeed	-0.24584551
41	0x3e236e5d	0.15960069
42	0x3e1cfd9a	0.15331116
43	0xbe61419d	-0.21997686
44	0x3e33ecc8	0.17570794
45	0xbe2fd590	-0.17171311
46	0xbdf46b71	-0.11934555
47	0x3e1df0b6	0.15423855
48	0xbe71f686	-0.23629197
49	0xbe14e932	-0.14542082
50	0x3e7a9b7e	0.24473378
51	0xbe198dad	-0.14995451
52	0xbe2931ef	-0.16522954
53	0x3e1f23cc	0.15540999
54	0xbe41575e	-0.18880984
55	0xbe58963c	-0.2115106
56	0x3e29c158	0.16577661
57	0xbe32f641	-0.17476751
58	0x3e290964	0.16507488
59	0x3e411e21	0.1885915
60	0xbe49341b	-0.19648783
61	0xbe19cb58	-0.15018976
62	0xbe4f19fe	-0.20224759
63	0x3e7f42b1	0.24927785
