runs/phoenix/DroneHoverBulletEnvWithAdversary-v0/ppo/2023-08-16__18-11-54/seed_29658/torch_save/model.pt (torch, 49538 bytes, 14 tensors)

obs_oms.mean f4 [34]
000000 fd a0 a8 bc 4d 54 a6 3c a6 e8 4f 3f 73 64 71 3c
       -0.020584578 0.02030387 0.8121437 0.014733422
000010 35 cc e3 bb 5d b5 58 bd 72 d9 0a 3f e8 2c 34 bd
       -0.0069518336 -0.052907337 0.54238045 -0.04398814
000020 ac cc 6b 3d 38 63 4d bf c2 64 81 3e cf 72 e4 3d
       0.057568237 -0.8022952 0.25272185 0.111547105
000030 67 87 5d 3d 8a 6c 62 3d 0a b2 ce 3c 42 8f 34 3d
       0.054084208 0.055279292 0.02523138 0.044081934
000040 f1 e5 96 3d 27 42 ac bc 3a 28 ab 3c a8 d1 4d 3f
       0.073680766 -0.021027638 0.020893205 0.80398035
000050 79 1a 74 3c 62 83 e7 bb 86 ba 5e bd ab 61 0a 3f
       0.01489889 -0.0070652226 -0.0543771 0.5405528
000060 9e 67 38 bd fd 32 75 3d b4 4a 53 bf b0 49 82 3e
       -0.045020692 0.05986308 -0.8253586 0.25446844
000070 fa e1 e6 3d 3e 31 5f 3d b5 9d 5a 3d 87 fe c5 3c
       0.1127357 0.05449032 0.053373057 0.02416922
000080 8a 9d 30 3d 4b 26 92 3d
       0.04311899 0.0713621

obs_oms.std f4 [34]
000000 27 a8 42 3f 06 b2 4f 3f 50 9a d7 3e ac 66 51 3e
       0.7603783 0.8113102 0.4210992 0.20449322
000010 74 bc 46 3e 06 7e 39 3f 48 24 a2 3e 11 bc b6 3f
       0.19407827 0.7245792 0.31668305 1.4276143
000020 d5 34 b7 3f df 49 37 3f fc 62 29 40 38 c0 28 40
       1.4312998 0.71597093 2.6466665 2.636732
000030 c3 6d 17 40 81 f5 b6 3e ca c0 ae 3e 53 7d b4 3e
       2.3660743 0.3573418 0.3413146 0.35251865
000040 13 27 b6 3e ca 7a 45 3f 2b 6e 52 3f df 1c da 3e
       0.35576686 0.77140486 0.8219935 0.42600152
000050 6a 03 53 3e fb 15 48 3e fa 9d 39 3f 21 21 a2 3e
       0.20606771 0.19539635 0.7250668 0.316659
000060 d5 92 b9 3f 08 fc b9 3f a7 02 3a 3f f5 33 29 40
       1.4497935 1.4530039 0.726603 2.6437962
000070 b1 89 28 40 40 3a 18 40 e2 1c b7 3e 80 db ae 3e
       2.633404 2.3785553 0.35764223 0.3415184
000080 25 af b4 3e 89 36 b6 3e
       0.35289875 0.35588482

pi.log_std f4 [4]
000000 72 69 86 c0 72 69 86 c0 72 69 86 c0 72 69 86 c0
       -4.2003717 -4.2003717 -4.2003717 -4.2003717

pi.net.0.weight f4 [50, 34]
000000 b5 d4 99 3c 78 3f 4c be 41 2d 96 bd 5d c8 83 bd
       0.018778184 -0.19946086 -0.0733285 -0.06434701
000010 3a ed 87 3d d0 80 46 be b9 fa 86 bd 92 d8 34 be
       0.06637044 -0.19385076 -0.0659079 -0.1766074
000020 93 c4 6f be 33 12 17 3d fc 4a 24 3e 60 75 62 3c
       -0.23414831 0.03688259 0.1604423 0.01382193
000030 de 23 9a bd 3f f1 60 bd 49 e2 cf 3d df ad 7c 3d
       -0.075263724 -0.05491757 0.10150582 0.061689254
000040 eb 57 b5 bd 43 e3 71 bd 98 43 2e be 81 a2 ee 3d
       -0.0885466 -0.059054624 -0.17017972 0.11652089
000050 5c 7d 39 be 33 e6 0e bd 5b d0 52 be 96 38 fa bd
       -0.18114227 -0.034887504 -0.20587294 -0.12217824
000060 6b 3c e2 3d 9e e5 39 be e4 4b 1d 3e f3 11 db bd
       0.1104668 -0.18153998 0.15360981 -0.10696783
000070 3f c9 7d 3d 9e 97 86 3d 78 23 e7 3d cb 50 07 bd
       0.0619595 0.065718874 0.11286062 -0.033036035
000080 99 db aa 3d 48 4b 7e bd 8e 81 58 3d d4 66 dc bd
       0.08342666 -0.062083513 0.052857928 -0.107618004
000090 84 70 a5 3d f2 4b 2b be 21 05 cc 3d b6 ff 0f bd
       0.08078101 -0.1672819 0.09961916 -0.035155974
0000a0 80 23 12 3e e2 f4 05 be 25 50 8f 3d d0 06 e5 3c
       0.14271355 -0.13081697 0.06997708 0.02795735
0000b0 18 e2 e4 bd 6b c6 9a 3d 38 1d 0a be b3 a7 48 3e
       -0.111759365 0.075573765 -0.13487709 0.19595222
0000c0 49 17 85 3d 64 58 7e bc f5 bd 66 3d ae 3e c0 3c
       0.06498582 -0.015524004 0.0563335 0.023467388
0000d0 0a 17 d9 bb 1a 83 98 3d 7f 61 ed bd a1 ad 29 3d
       -0.006625061 0.07446881 -0.115908615 0.04142535
0000e0 04 a1 14 3d 13 bb 27 3d 44 be e6 bd f6 86 83 bd
       0.03628637 0.040949892 -0.11266759 -0.06422226
0000f0 0d 7e 0c 3d de 34 61 bd ce 96 c9 3d 7e c4 ab bd
       0.0342999 -0.05498206 0.09843217 -0.08387087
000100 04 7b 2d 3e 19 eb f4 bd 85 91 cc 3c 16 cf 09 be
       0.16941458 -0.11958904 0.024971733 -0.13457903
000110 f3 48 21 3d 60 b4 36 be 66 51 3c 3c fb b7 09 be
       0.03937621 -0.17842245 0.011494016 -0.13449089
000120 85 66 03 be 3d 7f 36 bd 65 75 81 bd 03 f7 1d be
       -0.12832077 -0.044554938 -0.06321219 -0.15426259
000130 39 f0 18 be 8c 79 0e bd 40 e3 12 3e d4 91 96 3c
       -0.14935388 -0.034783885 0.14344501 0.018380083
000140 66 c3 ee bc 99 c4 4c 3c c0 fc 38 be 83 4f a8 3d
       -0.029145908 0.012498044 -0.18065166 0.08218291
000150 de a2 0f 3e 23 bd 5c be ef b3 20 be 9a 3a 38 bc
       0.14026973 -0.21556525 -0.15693639 -0.01124444
000160 8d 3b ac bd d7 0b 12 3c b3 ff 48 be ca e8 eb 3d
       -0.08409796 0.008913956 -0.19628792 0.1151901
000170 34 fe b3 bd eb 02 34 be 6a fc 35 3e 3c 21 5a 3d
       -0.0878872 -0.17579238 0.1777207 0.05325435
000180 66 e2 13 be 03 02 19 3e 0c a1 84 bc 95 49 97 3d
       -0.14441833 0.14942174 -0.016190074 0.073870815
000190 12 00 2d be 84 0c c6 bd f0 40 96 bd 6c df da bd
       -0.16894558 -0.09670356 -0.073366046 -0.106871456
0001a0 b4 ed 1d be 64 c2 b4 bd a0 db 32 be df a9 d9 39
       -0.15422708 -0.088261396 -0.17466593 0.0004151603
0001b0 b7 bb 1d be 6f af 1a be bd 99 e8 3a 12 fe ff bd
       -0.15403639 -0.15105985 0.0017746013 -0.12499632
0001c0 0b 85 53 3e ff fa 90 3d 24 12 f4 bd 1e b1 24 be
       0.2065622 0.07079124 -0.119175225 -0.1608319
0001d0 52 7d 19 3e 59 0a e9 bd 90 bc b6 bd 46 8c 8f bb
       0.14989212 -0.11378927 -0.08922684 -0.0043807356
0001e0 db c5 35 3e 2a 14 34 3b ec ee 1d be d5 d0 b5 bd
       0.17751257 0.002747784 -0.15423173 -0.08877722
0001f0 73 12 a9 3d cf e9 00 be 48 40 ce 3d c5 7c dd 3c
       0.08255472 -0.12589191 0.100708544 0.027037034
000200 3d eb 98 bd 30 20 06 3e a3 d7 a8 3b 15 59 c9 bd
       -0.07466743 0.13098216 0.005152659 -0.09831444
000210 f9 3a f3 3d da 29 18 3d b0 8c 68 3c 11 38 01 be
       0.118764825 0.037149288 0.014193699 -0.12619044
000220 f4 b3 f8 3d 58 eb b4 3c 78 9c 18 3e c2 86 1f 3e
       0.12143698 0.022084877 0.14903438 0.1557875
000230 58 ad aa bd 6b 0d 2d 3e 29 a6 73 bd 2e 11 63 be
       -0.08333844 0.1689965 -0.059484635 -0.22174522
000240 93 bd 18 3e a9 1d a5 bb 97 06 37 3e 54 00 07 be
       0.14916067 -0.005038936 0.17873608 -0.13183719
000250 44 bf 74 3e f5 0a 7b 3d 8b c0 0c 3e ea 09 43 be
       0.23901087 0.061289746 0.13745324 -0.1904675
000260 e9 f6 1f be 74 d7 a4 bd 8f 3c ff 3d 10 e6 dd bd
       -0.15621532 -0.08048907 0.124627225 -0.108348966
000270 c0 c3 5d 3e e2 33 f0 3d 0b 2d dc 3d 51 7e 3c 3e
       0.21656704 0.11728646 0.10750779 0.18407561
000280 b8 b3 2b be a7 e1 75 bd 6b 4d d2 bd 8a d7 32 bc
       -0.16767776 -0.060029652 -0.102686726 -0.010915646
000290 c7 56 c1 bd a2 49 22 3e f6 9d c0 bc c6 9c bb bd
       -0.094403796 0.15848401 -0.023512822 -0.091607615
0002a0 f7 c7 77 3a 6c 4f 3d bd fe 4d dc bd 3a e5 ec 3d
       0.00094520993 -0.04621832 -0.10757063 0.11567159
0002b0 7b 92 15 3e c3 a6 dd 3c 70 cb d1 3c 5d fd 5b be
       0.14606659 0.027057057 0.025609702 -0.21483369
0002c0 6b 6a 83 3d 3a 03 b5 3c 98 bc bf bc ce 3a 27 3e
       0.06416782 0.022096265 -0.023405358 0.16331026
0002d0 31 4a 85 bc c4 fb c0 3d c8 24 02 3e a6 cd 51 3e
       -0.016270729 0.094230205 0.12709343 0.20488605
0002e0 5f ec 31 3e fd 3d 31 3e d5 d1 55 3d 53 05 f8 3d
       0.17375325 0.17308803 0.052202065 0.121103905
0002f0 d3 e9 a0 bd 36 40 1f 3d 5b f2 1a be c7 a2 e6 bd
       -0.078570984 0.038879596 -0.15131514 -0.11261516
000300 a4 5b fb bd 25 12 60 be d2 51 3e be d6 3f 70 3d
       -0.122733384 -0.21881922 -0.185859 0.05865463
000310 8c 7a b6 bd 4c 8d d9 3c 8b 3b 50 3d 53 9a 6e 3d
       -0.08910093 0.026556633 0.050838035 0.058252644
000320 5c 27 8f bd 15 b2 bf bd 1c fa 90 3d bc 47 0e be
       -0.06989929 -0.09360138 0.070789546 -0.13894552
000330 ed 62 bd bd 0e e6 ff bc b4 48 f2 bd 83 68 2f be
       -0.09247384 -0.031237628 -0.11830273 -0.17129712
000340 f0 cd b4 3c e2 75 03 be 9f 74 e2 bb f8 1d 3a bc
       0.022070855 -0.12837937 -0.006910875 -0.011359684
000350 1e de 46 3e 4c 22 2a 3e 68 48 fd 3d 75 71 d8 3d
       0.19420668 0.16614646 0.12367326 0.10568515
000360 f9 8c f7 bd 3b c3 ff bb c4 a6 8e 3d 86 38 db 3c
       -0.12087435 -0.0078052557 0.06965402 0.02676035
000370 c7 75 fc bc 3f de f2 3d cd fa c7 3d 7d f8 1d 3e
       -0.03081788 0.11858796 0.09764633 0.15426822
000380 29 76 98 bd 97 09 1c 3d f5 0f 27 be 06 e8 62 3e
       -0.07444412 0.038095083 -0.16314681 0.22158822
000390 da 80 fb bd fb f5 6a 3d ca e3 d8 bd 3a 7b 38 bd
       -0.12280436 0.05736349 -0.10590322 -0.045039393
0003a0 20 f2 22 be a5 c3 13 3e eb 68 97 3d be 24 e5 3d
       -0.15912676 0.14430101 0.073930584 0.11188649
0003b0 93 18 31 be 63 04 58 bd 6d e7 44 3d b8 4d 20 be
       -0.1729453 -0.05273856 0.048072267 -0.15654647
0003c0 51 c7 fb 3d 44 13 46 39 0b e1 3c 3d 18 f2 13 be
       0.12293876 0.00018889928 0.046113055 -0.1444782
0003d0 ab 55 94 3d c5 48 18 3e 4d 19 c1 3c 89 0d ca 3c
       0.07242902 0.1487151 0.023571635 0.024664657
0003e0 4c b5 67 3d bf 19 9f bd 78 d7 19 bd 4e 68 66 3d
       0.056569383 -0.077685826 -0.037559003 0.056251816
0003f0 df 52 6f be 5e cd 92 3d 66 b0 02 3e d8 e3 04 3d
       -0.23371457 0.07168077 0.12762603 0.03244385

pi.net.0.bias f4 [50]
000000 cb 32 5c bd eb 31 6e 3d 04 94 be bc 86 f5 5d bb
       -0.053759377 0.058153074 -0.023263939 -0.0033868267
000010 35 e2 39 3e 9c 5b b3 bd 17 13 eb bc da 08 06 3e
       0.18152697 -0.087577075 -0.028695626 0.13089314
000020 d9 7c 4a 3e 5a 9e 8f bc 8d 20 56 3e 4a 4e 28 3e
       0.19774188 -0.017531563 0.20910855 0.16436115
000030 c7 ff 91 3d 83 11 08 bd 69 3a d5 3d 34 c9 05 3e
       0.07128864 -0.033219825 0.104115315 0.13065034
000040 a6 e2 40 3d 31 d9 aa bc 3b 91 f2 bc e2 7e c5 bd
       0.04709115 -0.020855518 -0.029610267 -0.096433416
000050 5c 05 30 be 32 27 6f 3d 43 7b f5 bd e7 e1 94 bd
       -0.17189544 0.05838699 -0.11986401 -0.0726965
000060 f9 ac 2c be ef 5d 5c 3d 18 74 91 3d 08 ab 74 bb
       -0.16862859 0.05380052 0.07102221 -0.0037333388
000070 2e e8 3b bd db ca 3b be f4 3a 24 3e 74 5d 12 3e
       -0.04587572 -0.18339102 0.16038114 0.14293462
000080 58 5d ca bc f7 1d b7 3c 9b 32 09 3d 17 f9 2f 3d
       -0.024702713 0.022353156 0.033495527 0.04296216
000090 c4 1e 9e bd 0b 5c 19 be ec 7d 92 bc aa 0b b5 3d
       -0.07720712 -0.14976518 -0.01788231 0.08840115
0000a0 2d fd 56 be e0 9c 32 3d df d8 a2 bd a1 9f 17 3e
       -0.20995016 0.04360664 -0.07951521 0.14806987
0000b0 49 b8 f3 bd 3c 90 54 3e e3 e4 0b bd 10 34 15 3e
       -0.11900384 0.20758146 -0.03415383 0.14570642
0000c0 fb c9 5c 3d 35 53 f7 bd
       0.05390356 -0.12076417

pi.net.2.weight f4 [50, 50]
000000 8e 55 ff 3d 21 6f 23 3d f4 da 83 bd 7e 1f b0 3d
       0.1246749 0.039900903 -0.06438246 0.08599757
000010 2e db 36 3d cb 4c 25 be 9d a8 ee 3c 51 88 39 3d
       0.04464262 -0.16142575 0.029133135 0.045296017
000020 50 72 28 3c 76 cc 02 3d a8 e8 00 be ab f2 a5 bd
       0.0102811605 0.03193327 -0.12588751 -0.08102926
000030 b8 69 ec bd c5 a8 3c bd d4 b6 0d 3e af 0c 02 3e
       -0.11543602 -0.04605939 0.13839275 0.12700151
000040 b0 4e 7f bd eb a4 4c be 03 75 ab 3d 51 3f 0a 3e
       -0.0623309 -0.19984786 0.083719276 0.13500716
000050 bf cc 7d bc 64 2d ba 3d 0c bc 8a bd 1f 4d 26 bd
       -0.01549071 0.09090689 -0.06774148 -0.040600892
000060 80 95 3a 3d 05 17 5d 3c 2e c1 7d 3d 12 1c 07 bd
       0.04555273 0.013494258 0.06195181 -0.032985754
000070 d1 9e 11 3e 52 18 54 bd 18 54 cc bd ee 31 89 3d
       0.1422074 -0.051781006 -0.09976977 0.066989765
000080 ad 70 89 3d 90 18 7e bc 4e 17 7a 3c 76 32 01 3e
       0.06710944 -0.015508786 0.015264345 0.12616906
000090 27 80 4e bd fb 5c 08 be 52 50 e3 bd dc 06 c5 bc
       -0.050415184 -0.13316719 -0.11099304 -0.024051122
0000a0 fc ad 34 3e 6a 37 3c be bf 18 0a 3e 1e 85 d1 3d
       0.17644495 -0.18380514 0.13486002 0.10230468
0000b0 bb b5 19 be b7 c0 ba 3d 0f 8f 1a be 62 5b c2 3d
       -0.15010731 0.09118789 -0.15093635 0.09490086
0000c0 dd 6a 2b be 95 1a f4 3d 9e 32 0b bd a0 07 23 3d
       -0.16739984 0.119191326 -0.03398382 0.039802194
0000d0 48 87 7d bd a9 83 14 3d 16 12 b2 3d d3 43 3e bd
       -0.061896592 0.036258373 0.08694856 -0.0464514
0000e0 2d d9 1e bd f9 17 ae bc 57 a1 94 bd 09 4b 81 bb
       -0.038781334 -0.021251665 -0.07257336 -0.0039457125
0000f0 ac 37 ba bc b3 75 8a 3b 06 12 22 bc 47 2b 2e 3d
       -0.022731625 0.0042254566 -0.009891992 0.04252174
000100 60 31 31 bc b7 fa de bd 8d de b2 bd 8b 94 e4 bd
       -0.010814995 -0.10887664 -0.087338544 -0.11161145
000110 ab c2 5a 3d 11 b6 91 3d 88 46 bc bc e9 cd 09 be
       0.053408306 0.071148045 -0.02298285 -0.13457455
000120 cb 29 ea bd 5d 3b c6 bd b8 80 6c 3d 3d 48 5b 3d
       -0.114337526 -0.096792914 0.057739943 0.05353569
000130 af 1d 95 bd fc 97 d2 bd 4c cd 53 bd 83 48 ef bd
       -0.07281052 -0.10282895 -0.05170946 -0.116837524
000140 68 39 0e 3e 6f bc 30 be fa 7a fb bc 6d c8 6b 3d
       0.13889086 -0.17259382 -0.030698288 0.057564188
000150 58 e2 6e bd 6e c0 00 3e ef 05 dc 3b 5e e8 ee bc
       -0.058321327 0.12573406 0.0067145745 -0.029163536
000160 cd d4 ef 3b 8b 44 bc bb 0d b0 08 3e 2d 27 a5 3d
       0.007319069 -0.0057454756 0.13348408 0.08064113
000170 9b 57 bf 3b 44 e4 8c 3d 32 26 2b 3d a6 d7 d4 bc
       0.005839301 0.06879476 0.041784473 -0.025981735
000180 b4 b7 a8 3d af 68 76 bd f7 c6 36 3c 1a 38 14 be
       0.082381636 -0.060158428 0.011155835 -0.14474526
000190 89 9e 9c 3d 54 e6 f8 bd b3 5d 98 bd 72 59 07 3e
       0.07647426 -0.121533066 -0.07439747 0.13217714
0001a0 1d ea 58 3d c4 c2 00 3e 0d 82 8a bd a4 94 48 bc
       0.052957643 0.12574297 -0.067630865 -0.01224247
0001b0 1e ad 3f bd 50 63 0f 3d 99 62 15 be 63 85 8b 3d
       -0.046795957 0.03500682 -0.14588393 0.06812551
0001c0 26 c3 50 bc 70 6b 07 bd 96 ff d1 3d f6 16 a2 3d
       -0.0127418395 -0.033061445 0.10253827 0.07914536
0001d0 ac 08 ca 3c d5 99 3d 3e fb 33 42 be 1b a3 d2 3c
       0.024662338 0.18515714 -0.18965141 0.02571254
0001e0 f0 9d 3d be 72 34 b3 bc e2 cb 19 be d7 5a 38 3d
       -0.1851728 -0.021875594 -0.15019181 0.045008507
0001f0 da 95 31 bd 3b 2e 40 3d c1 6c 8a bd fe b9 ab bc
       -0.0433558 0.04691909 -0.067590244 -0.020962711
000200 ba 4c 0c 3d 48 9e e2 bc 47 00 18 3e a3 8a f0 3d
       0.03425286 -0.027663365 0.14843856 0.11745193
000210 ab 85 af 3c e9 26 2a be 76 bb 0e 3e a2 80 d1 bd
       0.021426043 -0.16616406 0.13938698 -0.10229613
000220 75 9b b8 bd 05 53 e9 3d 49 53 93 bc d9 38 0a be
       -0.09014026 0.11392788 -0.01798405 -0.13498248
000230 f7 a0 d4 3d d5 11 5e 3d d0 d6 26 3d 67 27 a0 bd
       0.10382264 0.054216225 0.040732205 -0.078200154
000240 50 18 0b 3e 23 b9 2a 3e 96 c0 64 3d 88 80 3b be
       0.13583493 0.16672187 0.055847727 -0.1831075
000250 47 77 ff bb e2 06 f1 bc 84 55 27 bd d2 51 8e bd
       -0.0077962014 -0.029422227 -0.04085304 -0.069492
000260 47 42 10 3e 88 09 bd 3b e7 03 1e bc 6e 23 e1 ba
       0.14087783 0.0057689585 -0.009644485 -0.0017176697
000270 7a aa 27 bb 97 8d 09 be 9c de 3f 3e a6 9f c1 3d
       -0.002558379 -0.13432918 0.18737262 0.09454279
000280 65 ac 89 3c aa f4 94 bd 8d 07 bd 3d a0 96 bb bd
       0.016805837 -0.072732285 0.09229956 -0.09159589
000290 25 cd a0 3c b1 13 8a 3d 15 85 01 be 99 7e 18 3e
       0.01962907 0.06742037 -0.12648423 0.14892043
0002a0 88 5d b5 bd 12 78 2b 3d 0c 48 30 be 72 84 b2 bd
       -0.0885573 0.041862555 -0.17214984 -0.08716668
0002b0 e3 42 aa bd a2 5b 11 3e 21 5e bb 3d b5 14 0c 3e
       -0.08313539 0.14195111 0.09148813 0.13679774
0002c0 3b 52 c7 bd 2e 64 b0 3d 12 8f e9 bc b9 02 08 3e
       -0.09732481 0.08612858 -0.028510604 0.13282289
0002d0 ac 10 b2 3d cd 1e eb 3d 5e fc 3f be f1 28 cd 3d
       0.08694586 0.11480484 -0.18748614 0.100175746
0002e0 61 c4 ea bd 00 90 ca 3d b5 87 0f be 57 06 29 3e
       -0.114632376 0.09890747 -0.14016612 0.16506325
0002f0 35 ae c5 bd 20 98 e3 bc 8b 1a 12 bd 94 39 89 bd
       -0.09652368 -0.0277825 -0.035669845 -0.06700435
000300 d0 70 ad bd 03 67 4f 3d cd 81 e7 3d 23 be 39 bd
       -0.08468783 0.05063535 0.113040544 -0.045347344
000310 aa 5f 1e 3c 56 a9 d8 3d 16 1a 1f bc 27 2c c1 3d
       0.009666363 0.10579173 -0.009710809 0.094322495
000320 ff 39 04 3e 69 75 49 3d 98 1b 0e 3e 07 bc 16 3d
       0.12912749 0.049184237 0.13877714 0.03680041
000330 1e e5 c3 3d 2f d4 8c bd bb b5 c6 bd 73 8a 12 3e
       0.09565185 -0.06876408 -0.09702631 0.14310627
000340 fe 2f aa bd 5e ab ee bd ed 4b aa 3d 1a a1 e6 bb
       -0.08309935 -0.116537794 0.08315263 -0.007038248
000350 9d 96 a5 3d 26 e7 ba 3d c3 1e 74 ba db db 6b bd
       0.08085368 0.09126119 -0.0009312445 -0.057582717
000360 b6 7d 9d 3d 91 d7 d1 bd 66 58 95 bd 22 c5 53 bd
       0.07689993 -0.10246194 -0.07292251 -0.051701672
000370 98 86 a0 bd 81 02 74 3d ce eb ec bd 3e ea 50 bd
       -0.07838172 0.0595727 -0.11568414 -0.05100464
000380 f9 c7 04 3e 59 7b a0 3d de b1 57 3a ec 8a 03 3d
       0.12966909 0.07836027 0.00082281034 0.032114908
000390 55 90 d8 3c 07 40 10 3e 51 b7 dd bd c6 25 fa 3d
       0.02643601 0.14086924 -0.108259805 0.12214236
0003a0 98 b8 d8 3c cc 2e f2 3d 51 60 62 3d f6 12 3e 3d
       0.026455209 0.11825332 0.055267636 0.0464048
0003b0 f9 bb 22 3e b2 c3 8c bd cc ee bc 3d 56 ba 85 bd
       0.15892018 -0.068732634 0.092252344 -0.065296814
0003c0 05 80 a1 bd a1 8f 06 3e f2 5a d4 bd 8f e5 85 3c
       -0.07885746 0.13140728 -0.10368909 0.016344814
0003d0 1b 34 d0 bc ed ef 99 bd c7 24 d4 bd 99 2b 6a bd
       -0.02541547 -0.07516465 -0.10358577 -0.057170484
0003e0 76 26 3c bd 12 a6 7c 3d 72 36 5b 3c db 64 9a bd
       -0.045935117 0.061681814 0.01337968 -0.07538768
0003f0 b4 2c 27 bd 4e 7f ac 3d ca 9e fc 3c 18 a1 40 bc
       -0.040814117 0.08422719 0.030837435 -0.011757158

pi.net.2.bias f4 [50]
000000 41 6b 38 bd d2 0a d5 bd 33 cb 0d 3e 4e eb bb bd
       -0.04502416 -0.104024544 0.13847046 -0.0917574
000010 18 c6 22 bd 88 b6 34 3d 16 86 16 3e f0 ab a0 3d
       -0.0397397 0.044119388 0.14699587 0.078452945
000020 2b bd a9 3d 07 57 2a bc 64 9d d3 3b c6 65 d3 3d
       0.08288034 -0.0103967255 0.0064579714 0.10322146
000030 56 97 10 bc 52 3a 89 bc 02 c9 37 3d d5 fa 57 3c
       -0.008825144 -0.016751442 0.04486943 0.013182362
000040 8e 51 b2 bd ef a5 8f bd e8 94 d3 3c 45 43 38 be
       -0.087069616 -0.07014071 0.02582784 -0.17994411
000050 88 b8 03 3c 97 66 08 3d 42 83 e2 3c 26 10 ab bd
       0.008039601 0.033300962 0.02765048 -0.083526894
000060 04 89 c3 3d c5 be 1c be 3b d8 ff bd 68 06 0a 3e
       0.09547618 -0.15307148 -0.124924146 0.13479006
000070 8c d6 62 3d 8b f1 40 bd be 80 a6 3d 7f 81 3f 3d
       0.05538039 -0.047105353 0.081300244 0.046754356
000080 7b d2 af 3d 74 83 04 3b b1 08 39 3c 00 53 95 bd
       0.08585068 0.0020219954 0.011293576 -0.072912216
000090 34 b8 bb bd 6f d3 1b bd 81 2f 6e bd 78 4e 39 3a
       -0.09165993 -0.038043436 -0.058150772 0.00070688827
0000a0 6c 2b 0b 3e 18 c3 e8 3d 65 f3 89 bc 48 ac 82 3d
       0.13590783 0.11365336 -0.016839692 0.06380516
0000b0 e7 e7 f6 b9 5c 71 c2 bd 7f 46 5f bd ec 60 cd 3d
       -0.00047093557 -0.09494278 -0.05451059 0.10028252
0000c0 d3 3d f2 bc cf 0c 27 3e
       -0.029570496 0.1631348

pi.net.4.weight f4 [4, 50]
000000 fa bf 1d 3e af fd 1f 3d 39 7b 51 3e 4f 74 e8 3d
       0.15405264 0.03906029 0.20457162 0.11350309
000010 be 61 9a 3c 30 aa f8 bd 59 55 c9 3d b0 8d 6f 3c
       0.018845435 -0.12141836 0.09830732 0.014621183
000020 f1 b3 f3 bd 55 3c 13 3e e2 b6 5b 3b df 64 f6 bd
       -0.118995555 0.14378484 0.0033525755 -0.120309584
000030 97 c0 0a 3e 11 7f 27 be 61 40 1d 3e 9d 68 2b 3e
       0.1355003 -0.16357066 0.1535659 0.16739126
000040 6b 16 63 be 9f b1 2a 3e d3 85 03 bd 10 7e 93 3c
       -0.2217652 0.1666932 -0.032110047 0.018004447
000050 c0 fa 3f be 8a e3 2d 3d d3 9a 1a 3e 1e ab 40 bd
       -0.18747997 0.042453326 0.15098123 -0.04703819
000060 b2 b2 85 bd c1 8b 2c bd 8c b1 2e be 30 76 02 bd
       -0.06528224 -0.042125467 -0.17059916 -0.031850994
000070 4f 7c 8f 3c e3 e1 c6 3c d4 b5 b2 bc 3d 32 65 be
       0.01751533 0.024277633 -0.021815218 -0.22382446
000080 e5 cd c2 bd fc e7 83 3d c6 f1 3a be 7b 45 bc bd
       -0.095119275 0.06440732 -0.18256292 -0.0919294
000090 07 fc b0 3d de 32 16 be 22 ba 44 be c4 85 89 bd
       0.086418204 -0.14667842 -0.19211629 -0.06714967
0000a0 e6 04 62 be 9b 65 5d bc 69 55 2c 3e 4d 65 07 3d
       -0.22072181 -0.013512994 0.16829456 0.033055592
0000b0 cb d4 e7 3c a1 82 53 3d db 32 9b be b7 91 06 3e
       0.02829971 0.05163825 -0.30312237 0.13141523
0000c0 a8 87 61 3d d5 2f 83 bd 4c 05 0f be 27 86 94 bd
       0.055061013 -0.064056076 -0.13966864 -0.0725215
0000d0 c8 2e 6a bc 25 02 65 bd 11 25 f3 3c 65 35 53 3d
       -0.01429338 -0.05591025 0.02968076 0.051564593
0000e0 d1 59 1c 3e d6 8a 1a 3e 11 a6 ea bd 77 09 07 3e
       0.15268637 0.15092024 -0.11457456 0.13187204
0000f0 38 f9 b9 bd 7f 60 37 bd db ed 2c 3e 64 20 2c be
       -0.09080738 -0.04476976 0.1688761 -0.16809231
000100 f7 31 e9 bd 72 b6 88 b7 31 6e 68 3e 72 94 0f be
       -0.11386483 -1.6297421e-05 0.22698285 -0.14021471
000110 3c d9 43 3b 68 36 ec bd 84 fb 5e be aa 4d 39 3e
       0.002988412 -0.11533815 -0.21775633 0.18096033
000120 43 5e 1d be 02 80 56 be c4 5f 39 3e f7 37 28 be
       -0.15367989 -0.20947269 0.18102938 -0.16427599
000130 9e 43 06 3f a6 83 52 3e c9 cb 2f be 22 16 97 3d
       0.52446926 0.20558032 -0.17167582 0.073772684
000140 13 19 27 3d 52 14 b1 bb 87 49 b5 bd 29 27 23 be
       0.040795397 -0.0054040337 -0.08851915 -0.15932907
000150 4d 1e ed 3d e8 7a a1 bd 1b 9d 20 3d 7a ef 72 bd
       0.11578045 -0.07884771 0.039212327 -0.059310414
000160 29 75 b1 bd 2f 84 a4 bd e1 34 5b 3d 8a ed f4 bc
       -0.08664925 -0.080330245 0.053517226 -0.029898424
000170 9d 5f fb 3d bc 83 1a 3e 55 0a 16 3e 31 83 7b ba
       0.12274096 0.15089315 0.14652379 -0.0009594439
000180 b7 dd 80 3e b2 6a 6f 3e 83 a7 4c be f1 e4 2c 3e
       0.25169155 0.23380545 -0.19985776 0.16884209
000190 4e 88 47 be 2d 1e f9 bd 55 34 47 3e b7 d0 2d 3e
       -0.1948559 -0.12163959 0.19453557 0.1697415
0001a0 d4 35 3e 3d bc 0f 03 3e 7f 3b 83 bd 8c 09 04 3b
       0.046438053 0.12798971 -0.06407832 0.0020147292
0001b0 4f 8c 84 be bc 7f f7 bd db d3 41 3e 47 6c c6 3d
       -0.25888297 -0.1208491 0.18928473 0.09688621
0001c0 46 40 cf bd b2 9e d0 3b e7 91 92 3c a1 02 82 bd
       -0.10119681 0.006366574 0.017891837 -0.06348158
0001d0 1f fc a3 be c4 aa c8 3d 55 b0 64 3e a0 59 5b bd
       -0.3202829 0.09798196 0.2233289 -0.05355227
0001e0 ff 6e fb bd ab cc e1 bd b2 d8 64 bd 21 46 eb bd
       -0.1227703 -0.110253654 -0.05587072 -0.114879854
0001f0 e7 fd 00 3e a1 2d b0 3d a9 63 b1 be 2b 65 bd 3a
       0.12596856 0.08602453 -0.34646347 0.0014449706
000200 f4 ee 58 be 26 fe 12 3d b4 c3 8b 3d 32 81 67 bd
       -0.21184903 0.035886906 0.06824437 -0.056519695
000210 99 f4 76 3d 06 dd 90 3b 52 42 6b 3d 10 9c 29 3e
       0.06029186 0.0044208793 0.057436295 0.1656344
000220 54 c0 74 3c 71 37 3f be d4 1e fc bd cd cc 22 3e
       0.014938433 -0.18673493 -0.123105675 0.15898438
000230 23 9d 8f bd 48 04 97 bd e6 56 4b 3d 50 28 26 be
       -0.07012393 -0.073738635 0.04964342 -0.16226315
000240 5b 99 2d be 20 eb ce 3d 56 94 1a 3d bf 9d 16 3e
       -0.16953032 0.1010344 0.03773912 0.14708613
000250 5b 55 18 3e 1b 35 5d 3e d7 a1 3c bc 9f 2a d7 bd
       0.1487631 0.2160229 -0.011513195 -0.10506176
000260 67 d5 8d bd a3 81 1d 3d 0b 26 ce bd 06 fe 55 bd
       -0.06925469 0.03845371 -0.1006585 -0.05224421
000270 da bb 24 bd 9c 87 22 3e 67 61 ea 3d 84 f8 b3 bd
       -0.04021821 0.15872043 0.11444359 -0.08787635
000280 f4 f0 22 be 89 84 1c 3e 1c 68 1b be cd ca 7e 3d
       -0.15912229 0.15284933 -0.15176433 0.062205125
000290 e8 e5 8a bd 4e 42 1b 3e 99 4f f9 3d bd 4b dd 3d
       -0.067821324 0.15162012 0.12173385 0.108054616
0002a0 48 b8 b7 bd 2f 3e 91 3d a1 77 ca 3d 2f 86 e4 bd
       -0.08970696 0.07091939 0.09886099 -0.11158406
0002b0 b7 19 f4 bd d1 a0 48 3c 17 0e ba bd 52 28 9c bb
       -0.11918967 0.012245373 -0.09084719 -0.0047655487
0002c0 9f a5 a9 bd ce 90 bf bd 21 6a 01 be a8 98 94 bd
       -0.08283543 -0.09353791 -0.12638141 -0.07255679
0002d0 4d 12 c4 bd 3e 62 36 3e 6b 92 d9 bb 4e 38 1d 3e
       -0.09573803 0.17810914 -0.006639769 0.1535351
0002e0 a7 17 dc bc 68 43 e0 3d 4b c9 09 be 66 2d d8 bd
       -0.026866747 0.10950357 -0.13455693 -0.10555534
0002f0 52 49 39 be 04 3e 87 3d 52 e8 03 be 7d a4 00 3e
       -0.18094376 0.066036254 -0.12881592 0.12562747
000300 58 2e a1 3d e9 71 c3 3d c6 28 95 b9 95 83 18 3e
       0.078701675 0.09543211 -0.00028449873 0.14893945
000310 68 23 48 be d0 c8 fb bd 8a c8 f0 3d 54 e3 c8 bd
       -0.19544756 -0.12294161 0.11757 -0.098089844

pi.net.4.bias f4 [4]
000000 ff af 0f bd 4f 0e 2b bd 2d c3 56 bd 9c a7 4e 3d
       -0.035079952 -0.041761693 -0.052432228 0.050452814

v.net.0.weight f4 [64, 34]
000000 47 65 23 bd a3 0f d2 3d 28 c1 fb 3d 38 f9 ce 3d
       -0.039891507 0.10256889 0.12292701 0.101061285
000010 af 45 ac 3d 90 d4 59 3e 08 b4 46 3d ba 7d 4d 3c
       0.084117286 0.21272492 0.048511535 0.012542183
000020 22 b1 5e bd 98 e2 3e 3e 5e 32 03 bd 7b 6e 49 3d
       -0.054368146 0.18641126 -0.032030456 0.049177628
000030 64 a3 13 be bb 58 1d 3e 5e cb 79 3c 92 fa c6 bd
       -0.14417797 0.15365879 0.01524624 -0.09715761
000040 7e c4 14 3c 8e e1 88 3d f8 3c 94 bd 49 c7 2f bc
       0.0090800505 0.06683646 -0.07238191 -0.010728666
000050 70 44 37 3e 33 29 b0 3a 7b 98 85 bd 11 13 20 be
       0.178972 0.0013440013 -0.06523224 -0.15632273
000060 18 15 14 be b3 65 55 3d fa 54 28 bc b4 b0 e3 3c
       -0.14461172 0.05209894 -0.010274166 0.02779422
000070 74 25 77 3c ad b0 f1 3d f5 90 0c 3e 7a d8 3f bd
       0.015084613 0.11801276 0.13727172 -0.046837308
000080 c8 af d7 3d d6 78 09 3d 27 eb 0d 3d b1 f6 eb be
       0.105315745 0.033562504 0.034648087 -0.46086648
000090 a0 aa 29 3e 53 a6 10 3e 4b 13 4b 3e fe 52 1a be
       0.16568995 0.14125948 0.19831578 -0.15070722
0000a0 d1 7f c2 bd 1c a1 fb bd 16 a2 9f bd b2 25 20 3e
       -0.09497035 -0.122865885 -0.07794587 0.1563938
0000b0 30 10 09 3c f9 50 80 bc 7a 9e 76 3d 5d 9f 4e bd
       0.008365676 -0.01566361 0.06020973 -0.05044495
0000c0 d0 0c 9a ba 74 f3 76 bd 0d 12 c9 ba 84 9b 10 3d
       -0.0011753086 -0.06029077 -0.0015340463 0.03530456
0000d0 db f2 0f be 08 67 a6 bd e3 36 85 bd cc 03 70 bd
       -0.14057486 -0.081251204 -0.065046094 -0.05859737
0000e0 30 8f f9 3d 73 37 7a 3c 23 28 03 3e 40 34 a5 bd
       0.12185514 0.015272009 0.1280828 -0.080666065
0000f0 a4 04 4d 3e f3 8d 8f 3c 44 27 87 ba 67 58 97 3c
       0.20021302 0.017523741 -0.0010311385 0.01847477
000100 0c 3e b9 bc 16 19 28 bc 12 cb f3 bc 27 08 2a 3c
       -0.022612594 -0.010259887 -0.029759917 0.01037792
000110 f4 53 0d bc a6 b7 9b 3d 48 41 0b be db 84 cd bd
       -0.008625973 0.076033875 -0.13599122 -0.10035106
000120 6c 0a 1f 3e 5d bf ab 3b 19 c1 06 3c 29 7c c1 3c
       0.1553132 0.005241318 0.008224749 0.023618774
000130 01 d1 20 bd 75 c4 1c 3c d4 56 29 bc ad 64 1a 3c
       -0.03926182 0.009568323 -0.010335643 0.009423417
000140 67 e4 8f bd 88 27 52 3d 8f 10 cf 3c 5d 8a d9 39
       -0.07025986 0.05130723 0.02527645 0.00041492554
000150 6f 3e bc 3b 2b 7b 8b bc 37 0f b1 bc 3b 83 c5 3d
       0.0057447474 -0.017026505 -0.0216137 0.09644171
000160 1c 56 0b bb 37 f1 39 be 5f e1 43 3c 67 64 0f be
       -0.0021261042 -0.18158422 0.011955588 -0.14003144
000170 dd fa d6 3c 63 21 ad bd 88 b9 43 3e 3d 28 1f bc
       0.026242668 -0.08453634 0.19113743 -0.009714183
000180 40 14 47 3c 7b 62 99 3d 16 7d 4d 3d 13 84 49 bc
       0.012150824 0.07489487 0.05016812 -0.012299555
000190 f9 89 64 3c d7 d9 d0 bc b9 0a 9c bd 79 16 29 3e
       0.013948911 -0.0254945 -0.07619233 0.16512479
0001a0 2c 73 54 3d e3 f7 8d bc 3c 71 14 3d db 45 f1 3d
       0.05186765 -0.017330116 0.0362408 0.11780902
0001b0 28 f4 7f 3b 5a e9 40 bd d2 77 b9 bd 07 66 0d 3d
       0.003905544 -0.04709754 -0.09056057 0.03452113
0001c0 2c f4 97 bb d5 22 1d ba 4f e9 d2 bd eb 39 f7 3a
       -0.004637262 -0.0005994265 -0.10298406 0.0018861865
0001d0 5c 38 5f 3b c7 d9 04 bc 09 ab 41 3b da e5 dc 3d
       0.0034060692 -0.008108563 0.0029551408 0.10786028
0001e0 f0 b8 c7 bc 17 cf 38 3d c0 83 04 3e b5 73 89 bd
       -0.024380177 0.04511937 0.12940884 -0.067115225
0001f0 d0 ac 9f 3d fe 1f 00 3d 89 fa 42 3c ed 4f 84 bd
       0.07796633 0.03128051 0.011900553 -0.06460557
000200 a0 ac d0 bd 9f 80 cc bb 16 24 92 3b 2a d4 4c 3e
       -0.101891756 -0.0062409188 0.004459868 0.20002809
000210 58 8a de 3c 94 79 17 3d c2 88 d4 3c a3 e3 ff bc
       0.027165577 0.03698118 0.025944117 -0.031236475
000220 8e 01 80 3d 48 d7 35 bd 6a 81 e6 3d a4 e3 bd bc
       0.062502965 -0.04439476 0.112551525 -0.023179837
000230 d9 1e e9 bd 6b 6e 99 3d 25 d7 d3 3d 2d 4d 50 bd
       -0.11382837 0.07491764 0.1034377 -0.05085485
000240 2a 7c ec 3d 7b 98 7c 3d 90 6b b9 3c 4b 56 ee 3c
       0.1154712 0.061668854 0.022634298 0.029093882
000250 fe cb 13 be 76 d8 6f bd 57 5b 63 bd 4d a5 7e bd
       -0.14433286 -0.058556043 -0.05550703 -0.06216936
000260 96 0b 39 bd 87 27 4a bd 87 77 9b 3d c0 50 7c bd
       -0.045177065 -0.049354102 0.075911574 -0.061600447
000270 fd d9 51 3d 46 26 e8 3d 51 82 e5 bd 58 38 fb bd
       0.05123328 0.11335425 -0.112064965 -0.12266606
000280 32 53 1c 3d 92 7d f4 bd cf 86 a4 3c 96 e9 a2 3c
       0.03816528 -0.11938013 0.020083813 0.019886773
000290 f1 d9 55 3d 86 7d 01 3e d7 d9 79 bd 1a 18 ad 3b
       0.0522098 0.1264554 -0.060998764 0.005282414
0002a0 c8 be 7b 3c d7 8a b1 3c 8f b1 e3 bd fb 07 a4 bd
       0.01536531 0.02167265 -0.11117851 -0.08009335
0002b0 df d0 bd bd 83 19 2e be 4f c1 f7 bc 40 07 bf bd
       -0.092683546 -0.1700192 -0.030243544 -0.09327555
0002c0 1e ed 04 be 53 73 17 be 94 f2 5e bd 69 5c b3 bd
       -0.12981078 -0.14790086 -0.05443056 -0.0875786
0002d0 e8 89 19 bd 5d 7a 9c 3c b0 a1 c7 bd c5 1e ac 39
       -0.037485033 0.019101316 -0.09747636 0.00032829322
0002e0 0e 9f 02 bd 2b 97 e6 3c b4 0f d0 bb 60 c7 a6 3c
       -0.031889968 0.028148254 -0.006349528 0.020358741
0002f0 3a 34 2c 3c 79 cc 5c 3e d0 e0 78 be 68 d3 da 3b
       0.010510499 0.21562375 -0.24304509 0.0066780336
000300 48 af a0 3d 71 92 d0 3d 4c 7d 4a bd 80 a5 f2 bc
       0.07845932 0.101841815 -0.0494359 -0.029619932
000310 17 fe 1b be 26 09 04 bd 09 1e ad bb e7 3a c1 3d
       -0.15233646 -0.032235287 -0.0052831215 0.09435063
000320 ea a0 0f 3c 66 e3 19 3a 07 57 c7 bd a4 b0 e0 bc
       0.008766392 0.0005870372 -0.09733396 -0.027427979
000330 46 92 d3 bd 74 c1 9d bd bb 35 6e 3d c9 42 9f bd
       -0.10330634 -0.07702914 0.05815671 -0.0777641
000340 7b c5 9f 3d 9d b2 0d be c1 ff 76 3c 4c 4b 95 3d
       0.07801338 -0.13837667 0.015075625 0.07289752
000350 7d d5 0e 3d a6 e0 fa 3c ef 38 99 3c 88 97 2c 3a
       0.034871567 0.030624699 0.018703906 0.0006583859
000360 6c 8c dc 3d 48 9f 80 bd da 67 ca 3c 25 c0 19 3d
       0.10768971 -0.062803805 0.024707723 0.03753676
000370 94 ee 1d 3d bb 1e 81 3d 66 81 a4 3d 04 b8 69 3d
       0.038557604 0.063046895 0.08032493 0.057060257
000380 72 fd b7 bd ae b5 ca bc a9 98 77 be 5e 8f 24 3e
       -0.08983888 -0.024744835 -0.24179329 0.16070315
000390 c2 92 24 bd 5d 4d 06 bd 46 43 46 bd 7e ea 86 b9
       -0.04017902 -0.032788623 -0.048404 -0.00025733182
0003a0 7a 4a 38 bc a6 f6 fc bd e8 c9 b9 bd 70 32 28 3d
       -0.011248225 -0.12351732 -0.09071714 0.041063726
0003b0 6e c5 5e 3d a3 e1 cc bc 1c c2 1f bc 6b 82 0a 3e
       0.054387502 -0.025009936 -0.009750869 0.13526313
0003c0 66 d7 f1 3d b5 50 45 3e fd 04 c2 bd e0 e3 84 bd
       0.11808662 0.19269069 -0.09473608 -0.06488776
0003d0 37 ee c6 3d e2 d5 35 3c 1d c4 5a 3c 6e 55 fd 3d
       0.097134046 0.011098357 0.013352421 0.1236981
0003e0 49 bf a8 3b bd 81 1e 3a fc 94 f2 bc 9c b2 c8 bc
       0.005149756 0.0006046554 -0.029612057 -0.02449923
0003f0 ac 2d f2 3b 0f 1f 5a bd ba 9b 56 3c ac b0 2c b9
       0.0073906984 -0.053252276 0.013098652 -0.00016469014

v.net.0.bias f4 [64]
000000 c6 e7 1f be ce 36 a5 3d 00 c9 af 3d 64 5a 61 3d
       -0.15615758 0.08067094 0.085832596 0.055017844
000010 ec 1b 44 3e 09 e1 04 bd 07 03 84 3e ef 88 cd 3d
       0.19151276 -0.032441173 0.2578356 0.10035884
000020 63 c0 35 be ca 45 83 be ae 8a 94 3e 8d a8 04 3e
       -0.17749171 -0.25639182 0.29012054 0.12954922
000030 bf c2 b6 bd 4a a7 1f be de d8 d0 bb 7c e8 5b 3e
       -0.089238636 -0.1559116 -0.006373509 0.21475405
000040 8b 9e 62 bd 75 dc 67 3e 64 cd 27 3d 5a d7 9f 3c
       -0.05532698 0.22642691 0.04096736 0.019511867
000050 91 2d dc bd f0 83 65 bc d8 81 60 3d 60 68 3f 3d
       -0.107508786 -0.014008507 0.05481133 0.0467304
000060 3e 25 88 bb 56 f7 59 3e 13 e0 91 bd d7 71 6e 3e
       -0.0041548302 0.21285757 -0.07122817 0.23285614
000070 11 ed 77 be 93 32 0c 3d 40 fd 3c be 39 46 15 be
       -0.24211527 0.03422792 -0.18455982 -0.14577569
000080 b8 02 ae be 8e 97 a7 bd 98 cf 60 be d7 fd a2 bd
       -0.3398645 -0.08183204 -0.2195419 -0.07958572
000090 bb de 68 3e b3 cb 2b 3d 53 66 fc 3d a9 db 0f 3e
       0.22741215 0.04194231 0.12324204 0.14048637
0000a0 6a c2 5d be e2 1f 43 be 24 a9 8e 3d b8 d9 ec 3c
       -0.21656194 -0.19055131 0.06965855 0.02891241
0000b0 e3 2f 33 bd fb d4 3b 3d a5 31 df bd ed 50 32 3e
       -0.04374684 0.04585741 -0.10898141 0.17413683
0000c0 a2 fd 41 3e 90 dd 61 be 51 03 5e 3e f7 d8 82 bd
       0.1894441 -0.22057176 0.21680953 -0.06389039
0000d0 ae 0b 6f be c3 a3 fc 3d 38 37 b7 be 76 d9 5d be
       -0.23344299 0.123359226 -0.35784316 -0.21664986
0000e0 7c 8b b2 3c f1 0a 13 3e fd 03 83 be 63 11 65 3e
       0.021795027 0.14359643 -0.2558898 0.22369914
0000f0 18 df b7 bd 31 d8 4f 3e 1d 2e e5 bd e4 b1 16 be
       -0.08978099 0.20297314 -0.11190436 -0.14716297

v.net.2.weight f4 [64, 64]
000000 9f 32 65 3c 0b 4c 57 3d c5 47 1d bd a9 e8 4c bd
       0.01398912 0.052562755 -0.038398523 -0.05002657
000010 c3 90 e9 bd 35 65 fd bc 2e ba 2c be b0 ab 28 be
       -0.11404564 -0.030932048 -0.16867897 -0.16471744
000020 20 e1 c3 3c 05 c0 c0 3d 40 26 47 3e 79 66 9e 3d
       0.023911059 0.09411625 0.19448185 0.07734389
000030 0a f5 94 3d 56 c2 22 be ed 5b 24 bc 9b 03 fd bd
       0.072733 -0.15894446 -0.010031682 -0.12354203
000040 38 1d 14 3d a1 33 0c 3d a0 9c b1 bc 74 8d 1f bd
       0.036160678 0.034228925 -0.02168113 -0.03895326
000050 cf e3 ee 3c e6 b3 75 3e b9 81 b1 3c e1 2e 28 bd
       0.029161362 0.23994407 0.021668302 -0.041060332
000060 f7 41 0c 3e ec 8d 18 3e 51 76 74 3d 66 2f 82 3d
       0.13697039 0.14897889 0.059683148 0.06356697
000070 19 7a c2 3d a9 d4 ed bd cb cf af 3c 1d 34 9e 3d
       0.094959445 -0.11612827 0.021461388 0.077247836
000080 ec f0 12 be 2f c3 89 3c 56 21 e8 3d a5 80 b4 3d
       -0.14349717 0.016816704 0.11334483 0.088135995
000090 a1 ea 15 3e 01 fc 18 3d 34 49 2a 3d e3 05 b7 3c
       0.14640285 0.037349705 0.04157372 0.022341674
0000a0 01 30 1d bd a8 95 7e 3d 85 05 c3 3d 8a 69 31 3d
       -0.03837586 0.062154442 0.09522537 0.04331354
0000b0 0f 5f f1 3d 4a 11 15 bd 91 91 44 3e 44 66 29 3d
       0.11785709 -0.03639344 0.19196154 0.041357294
0000c0 78 7a b5 bd b8 3d 5a 3d 91 35 43 3d 2d 58 86 3d
       -0.0886125 0.053281516 0.047658507 0.06559787
0000d0 37 a4 db bd ad d7 60 3d 3f e0 0a be 2e 0d 10 3e
       -0.10724681 0.054893184 -0.13562106 0.14067528
0000e0 4a 8b 92 3d c0 46 c7 bd ef 1c 10 be 7e 31 57 bc
       0.071554735 -0.09730291 -0.14073537 -0.013134358
0000f0 bf c0 99 bd 74 49 d5 3d e5 95 06 3e 45 51 ba 3d
       -0.075074665 0.10414401 0.13143118 0.09097532
000100 6a b6 53 3d 5c 31 1d be 7b 2e 8b bd 23 4b 9d bd
       0.051687635 -0.1535086 -0.06795975 -0.07680347
000110 03 12 dd bd 32 9f 0b 3d 83 19 0e 3c 41 3f 0a bd
       -0.10794451 0.034087367 0.008673075 -0.03375173
000120 a3 a5 9f 3d 13 55 40 39 1f 77 a6 3e 03 49 31 bc
       0.077952646 0.0001834224 0.32512757 -0.01082063
000130 f0 ac 43 3c bb 48 45 be 96 5f f6 3c f7 ad 38 be
       0.011943087 -0.19266026 0.030074876 -0.18035112
000140 db 95 50 3e ed 19 7e be 45 d8 83 3d e4 9d 65 3e
       0.20369665 -0.24814577 0.064377345 0.22423512
000150 30 f5 f7 3c a7 d6 c5 3d 10 0f 15 be 7c 00 ba 3c
       0.030268282 0.09660082 -0.14556527 0.02270531
000160 ae 65 26 3d fb 0b 0c 3e 7c 6e 8f 3d 53 f9 b7 3d
       0.040624313 0.13676445 0.07003495 0.08983102
000170 bd 1b 68 3d 16 13 14 be 4e 96 9e 3c db 0a 6c bd
       0.05666708 -0.14460406 0.01935878 -0.05762754
000180 67 8a 11 be bd d2 41 be f1 f7 af bc a7 b2 f2 bd
       -0.14212953 -0.18928047 -0.021480532 -0.118504815
000190 05 b7 4a 3e 83 52 2e 3e 71 59 e0 3d 49 f2 16 3c
       0.19796379 0.17023663 0.109545596 0.009213039
0001a0 35 ad 1f 3e 5a ab 98 3d 79 8e c8 bd 21 ae 58 3d
       0.15593417 0.07454558 -0.097927995 0.052900437
0001b0 4d 7b 98 3c 3a 99 2a 3e 1e 18 51 3d 2c dd e7 bd
       0.018613482 0.16660014 0.05104839 -0.11321482
0001c0 5b 86 5a bd 0b 33 81 3c b5 64 1c 3e ac 64 4c 3c
       -0.053350788 0.01577141 0.15272792 0.012475174
0001d0 22 c8 67 3d 6a ba af bb ba 56 50 bb 8c e3 97 3d
       0.056587346 -0.0053627985 -0.0031789974 0.07416448
0001e0 a4 d2 2a 3d d8 5a a4 3b f7 82 e6 bd ae 51 45 3e
       0.04170479 0.005015712 -0.11255448 0.1926944
0001f0 18 f0 00 bd f4 29 f6 3d 5f c1 32 3e 15 16 3f bd
       -0.03147897 0.12019721 0.17456578 -0.04665192
000200 65 38 7a 3d 1a 18 2e 3d c9 0b a7 bb 7b 97 07 be
       0.06108894 0.042503454 -0.0050978404 -0.13241379
000210 22 62 cf bd 6a 26 03 be 9c 15 26 be 24 a4 d7 3c
       -0.10126139 -0.12807623 -0.16219181 0.026323386
000220 5f 3a 1e bd b6 f4 94 b7 4f dd f2 3d 05 19 06 3d
       -0.038629886 -1.7756927e-05 0.118586175 0.032738704
000230 bf e5 11 bd ba 09 82 3d 4e de a2 3d 3d dc 19 be
       -0.035619494 0.063495114 0.079525575 -0.1502542
000240 39 bd ed bc df 99 4b be 8f c9 c3 3b 42 57 5a bd
       -0.029020892 -0.19882916 0.0059749554 -0.05330587
000250 1c 84 cb bd f1 29 75 3e 26 d7 e6 bd 95 c5 be 3d
       -0.09937307 0.2394178 -0.11271505 0.093150295
000260 b7 1b fa 3c a4 9a dd 3d 51 58 31 3d 5f 44 81 bd
       0.030530794 0.10820511 0.043297116 -0.06311869
000270 8f 83 2c 3e ef 20 1a be 0b 01 24 3e 06 1a 82 3d
       0.1684706 -0.15051626 0.16016023 0.0635262
000280 c3 03 35 be fd 21 52 3d 6e 37 24 3d b9 a7 fe 3b
       -0.17677216 0.051301945 0.040091924 0.007771459
000290 9d 93 97 3d 4e 45 ae bc 39 d2 b3 bd b3 dc 75 bd
       0.07401202 -0.021273281 -0.08780331 -0.06002493
0002a0 ce fb af bd 67 1e 09 3e 2a 9a 5c bd dd 55 69 bd
       -0.0859295 0.13390504 -0.05385796 -0.05696665
0002b0 a6 b6 91 bc 97 fa 00 be 7a 07 15 3e 3d 2b c8 3d
       -0.017787289 -0.12595592 0.14553633 0.09773872
0002c0 eb e3 e9 3d a2 5b 84 bd b7 73 1a be 8d af aa bc
       0.11420425 -0.0646279 -0.15083204 -0.020835662
0002d0 7e 0f d3 bd 1d 8d a1 bd 7c 89 7a bd 38 e7 b2 3c
       -0.10305689 -0.07888243 -0.06116627 0.02183877
0002e0 d6 91 7c 3d 7a fb 04 be 4b eb 90 bd a4 9c 03 3d
       0.061662517 -0.12986556 -0.070761286 0.032131806
0002f0 1d 3e 47 3e 8c 10 74 3c 59 8b 95 3d 43 56 f6 bd
       0.19457288 0.014896523 0.07301969 -0.12028172
000300 f4 2c 89 3d f2 67 e7 3c 36 21 b6 3b 19 2d c0 bd
       0.06698027 0.028247807 0.0055581583 -0.09383602
000310 fa 4f 29 3e fb ea 3a bd f9 2a 19 bd 3f 44 03 3e
       0.16534415 -0.04563425 -0.037394498 0.12819003
000320 eb c3 85 bd 2f 05 61 bc 88 cb 00 be e1 64 6a bd
       -0.06531509 -0.013734146 -0.12577641 -0.057225112
000330 44 f1 0d be 0f c0 a6 3b fc 1a 8d bd 18 14 56 3d
       -0.13861567 0.005088813 -0.068899125 0.052265257
000340 a1 62 f2 3b 4d d0 ae 3d 1d f0 ea bb 9a 96 a4 bc
       0.0073970114 0.08535824 -0.007169737 -0.020091344
000350 2a 13 ba bc 0a 80 46 bd a1 92 0c 3e ac 5d 75 bd
       -0.022714216 -0.04846195 0.1372781 -0.059903786
000360 a4 b2 85 3d b4 dc a6 3a 77 6c 3f bd 51 a0 1a 3e
       0.065282136 0.001273057 -0.0467343 0.15100218
000370 c1 47 18 be 58 47 b6 3d b6 4f fb bd d8 c2 84 3d
       -0.14871122 0.089003265 -0.12271063 0.06482476
000380 24 f8 f9 3d ae ed 5e bc cd 4c 3a be 19 db 06 3e
       0.12205532 -0.013606472 -0.1819336 0.13169517
000390 19 df 02 be c0 4d e8 bd d0 bf c9 3d df 84 50 bd
       -0.12780418 -0.11342955 0.098510385 -0.050907966
0003a0 c6 8c 1a be 25 f8 31 bd be c6 d9 3d 4f 84 8b 3d
       -0.15092763 -0.04344954 0.1063361 0.06812345
0003b0 f4 ea a2 bd 9f 34 89 3d db c5 29 be 39 39 b5 bd
       -0.0795497 0.0669949 -0.16579382 -0.08848805
0003c0 51 c1 55 3d 09 8a 30 bd 93 f1 0e 3e 91 98 01 3d
       0.052186314 -0.04310039 0.13959341 0.03163964
0003d0 19 06 cd 3d 04 74 86 3d 4c 59 bc bd 2c 4b 91 3c
       0.10010929 0.06565097 -0.091967195 0.01773604
0003e0 2d 96 5a 3d 67 d7 c1 3d 26 e1 87 bd 3f 47 50 3d
       0.053365875 0.09464913 -0.066347405 0.050849196
0003f0 e9 43 0f 3d 44 ec a6 bc e2 03 08 b9 12 2f d8 39
       0.034976874 -0.020376332 -0.00012971417 0.000412338

v.net.2.bias f4 [64]
000000 50 26 21 be 0f bd 04 be 19 d7 65 bd 8b 32 54 3e
       -0.15737271 -0.12962745 -0.056113336 0.20722406
000010 87 23 8b bd 60 7d 3b 3e 4d 00 c8 3d 0b 21 73 bc
       -0.06793886 0.18309546 0.09765682 -0.014839421
000020 fb 89 8c 3d 0d 78 88 bd 5e de 27 be f4 62 9a 3c
       0.06862255 -0.06663523 -0.1639342 0.018846013
000030 ea c9 d0 bd b6 10 2b bd 64 a2 b3 3c 42 06 3c 3e
       -0.10194762 -0.041763984 0.02192802 0.18361762
000040 1c fe 4c bd 07 07 62 3d f4 8c 07 3d 3a 11 38 bb
       -0.050047025 0.055182483 0.033093408 -0.002808644
000050 9f d2 14 bd a1 41 d8 bd e0 8f 54 3e 42 7f 40 3e
       -0.036333676 -0.10559393 0.20758009 0.18798545
000060 88 a3 5d 3d 73 ea f2 bd 90 7c a7 3d 31 4a d3 3c
       0.054111034 -0.11861124 0.08178055 0.025792213
000070 cd 84 00 be 93 55 fc 3d bd 24 3f bd 29 e1 97 3d
       -0.1255066 0.123210095 -0.046665896 0.07415993
000080 2c b8 1c 3e 0c 00 79 3d b7 d7 89 3d 44 56 39 3d
       0.15304631 0.06079106 0.067305975 0.045248285
000090 ab 13 9b bd aa a1 52 3e 7e 3c 26 bc 4c d9 78 be
       -0.07572111 0.20569482 -0.010146258 -0.24301642
0000a0 02 fc 91 bc 44 dc 14 be 16 6e 48 be 6e 1c d8 bd
       -0.017820362 -0.1453715 -0.19573244 -0.105522975
0000b0 e2 05 e7 3d 0b 38 04 be 32 f6 0a be 69 d6 3d 3d
       0.11280419 -0.12912004 -0.13570479 0.046347056
0000c0 b2 e0 cb bb 87 a0 aa 3d 21 3d 0c bd c3 96 f7 bc
       -0.006221854 0.083313994 -0.034237985 -0.030223256
0000d0 7b fa 4f 3d d9 11 a2 3d f5 67 1b 3e eb c7 37 be
       0.050775986 0.079135604 0.15176375 -0.17947356
0000e0 14 f3 93 3c a7 31 37 3d 03 80 49 3e 4a 0f 02 be
       0.018060245 0.044725087 0.19677739 -0.12701145
0000f0 c4 cd b4 3d 91 33 3d 3c 2f 52 3b 3e 8e eb 93 3c
       0.08828309 0.011547939 0.1829307 0.018056657

v.net.4.weight f4 [1, 64]
000000 39 6c 18 3e 9f 99 02 3e 3d 29 50 3e 94 4f 32 be
       0.14885034 0.12753914 0.20328231 -0.17413169
000010 cd 40 09 be ec 4a 01 be 23 2c 3f be a9 73 10 be
       -0.13403626 -0.12626237 -0.1866918 -0.14106621
000020 91 b8 09 be 52 72 03 3e 07 2b 18 3e 1a fd 2f be
       -0.13449313 0.12836578 0.14860164 -0.17186394
000030 13 30 13 3e 99 04 0d 3e ec 4e 20 3e ec cb 0f be
       0.14373808 0.13771285 0.15655106 -0.14042634
000040 30 a5 47 3e 29 8b 28 3e 06 36 30 be 7f 44 61 be
       0.19496608 0.16459335 -0.17208108 -0.21998785
000050 ac af 35 be 3f 29 4a 3e ba 7d 3d be 53 b4 16 be
       -0.17742795 0.19742297 -0.18504992 -0.14717226
000060 f2 f9 25 be a9 2a 61 3e ac ba 36 3e 20 eb 30 be
       -0.16208628 0.2198893 0.17844647 -0.17277193
000070 2a 9a 42 3e 6f 16 10 be 8b 52 70 be 2b a9 4c be
       0.19004121 -0.14071058 -0.23468988 -0.19986407
000080 07 c4 20 be b1 b5 e8 3d 61 0d 14 be 4a 0b 0c be
       -0.15699778 0.1136278 -0.14458229 -0.13676181
000090 0e ba 52 3e f7 9c 03 be 6d 1a 5b be 06 8a 00 3e
       0.20578787 -0.12852846 -0.213968 0.12552652
0000a0 e7 16 e4 3d 4a d1 fc 3d 25 77 33 3e 93 c8 06 be
       0.11137181 0.12344606 0.17525919 -0.1316245
0000b0 de f8 3f be 8a fe 5d 3e d8 92 19 3e 11 ac 00 be
       -0.18747279 0.2167913 0.14997423 -0.12565638
0000c0 66 3a 48 3e 9e b9 f9 bd 74 4f 1a be 98 ec 48 3e
       0.19553527 -0.12193607 -0.15069371 0.19621503
0000d0 19 77 01 be 25 b4 38 be 6c b6 67 be 69 1e 2d 3e
       -0.12643088 -0.1803747 -0.22628182 0.16906132
0000e0 60 98 3f be c5 c7 46 3e 1f d2 5c be 9b 9a 0c 3e
       -0.1871047 0.19412144 -0.2156453 0.13730852
0000f0 af fc 15 3e ca 73 18 be 5c 80 62 be b9 7a 20 be
       0.14647172 -0.1488792 -0.22119278 -0.15671815
