runs/original_ppo/no_distb/DroneHoverBulletEnvWithAdversary-v0/ppo/2023-08-23__22-56-22/seed_61702/torch_save/model.pt (torch, 49538 bytes, 14 tensors)

obs_oms.mean f4 [34]
00000000: c728 b33a bd12 ec3c 3200 6b3f 3ffa 303c
00000010: 1086 5b3c 8907 0c3c 39e0 1c3f 4cd7 843c
00000020: 4e8d 4d3d 2e18 02bf e5e2 363f 3628 0bbe
00000030: e422 b7be d703 0a3e f134 cc3d 6804 273e
00000040: cdd8 123e 0215 cb3a 1b30 f03c 49a9 693f
00000050: 5181 573c 0194 5d3c d11a 073c dc60 1c3f
00000060: f3d0 8d3c b0be 4d3d 90bb 07bf eb47 3e3f
00000070: a4cd 13be 27c9 b8be 6278 073e 4c9f c43d
00000080: 154b 253e aefb 123e
0.0013668769 0.028817529 0.91797173 0.010801851 0.013398662 0.008546718 0.61279637 0.016215943
0.050183587 -0.50818145 0.71439964 -0.13589558 -0.35768807 0.13478027 0.09971035 0.16310275
0.14340515 0.0015493932 0.029319813 0.91273934 0.01315339 0.013524056 0.00824614 0.61085296
0.017311549 0.050230682 -0.5302057 0.7432849 -0.14433914 -0.36090967 0.13229516 0.09600696
0.16141923 0.1435382

obs_oms.std f4 [34]
00000000: 88bf ee3e 2736 d73e 7efa cd3e 301d 523e
00000010: b871 5c3e f60a 2c3f daa5 953e 4880 683f
00000020: 98fd 5d3f c067 2e3f 218b 6e40 75a4 5b40
00000030: c55d f53f e481 093f 091b 093f cf86 053f
00000040: 9759 043f bce6 f13e 0f48 da3e 9d63 d03e
00000050: 06ff 563e fcfc 613e 30a8 2b3f 60b6 953e
00000060: d613 6c3f 6d80 613f 6aa9 313f 1e2f 7340
00000070: b8a1 5f40 c71b f73f af9f 093f 9233 093f
00000080: 9894 053f 5a58 043f
0.46630502 0.42033502 0.40230173 0.20518947 0.21527755 0.67204225 0.29228097 0.9082074
0.8671508 0.6812706 3.7272418 3.4319127 1.9169241 0.5371382 0.5355688 0.52158827
0.51699203 0.4724635 0.426331 0.40701 0.20995721 0.22069162 0.6705351 0.29240704
0.9221777 0.8808659 0.6939913 3.7997508 3.4942455 1.9305352 0.5375928 0.53594315
0.5217986 0.51697314

pi.log_std f4 [4]
00000000: 69bd 50bf 69bd 50bf 69bd 50bf 69bd 50bf
-0.81539017 -0.81539017 -0.81539017 -0.81539017

pi.net.0.weight f4 [50, 34]
00000000: 0cab db3d 91fa 693e e4c3 e13d d874 66be
00000010: 5c69 c3bd f20f 17bd 3f28 c83d f089 fc3d
00000020: a30c c33b c019 ca3d 3042 6c3d 9e45 1b3d
00000030: 2e95 efbd ecbf 093d 19c9 6fbd 5188 c1ba
00000040: a161 eabd b7c4 05be e2d1 893d 03f8 38be
00000050: d4d9 32bd ec61 983c f614 44be c507 c33d
00000060: 8f32 843e 52ac e23d f246 cdbb dc06 23be
00000070: 0f1d 70be 7a7f f3bd e8d3 073c 0107 31be
00000080: 8c11 063e eb39 6dbe b5a0 bb3d 781a e43d
00000090: ff88 f53d 1568 2e3e 7e66 8f3e 29ed 6dbd
000000a0: 86b0 ba3d 8b71 273e ea24 3fbe 0a8c f6bc
000000b0: ce70 ba3d 059a 1f3d 228f cb3d e47a 443e
000000c0: 30d7 a53c 7645 eebd 4285 d73d 1e47 f3bd
000000d0: 049c 1b3b 0406 8abd b253 843e 0b40 373e
000000e0: de5c ab3d a140 053d 1b4d 703d 32af 3dbe
000000f0: 2cef a2bc 3551 c1bd 93a3 8e3d 9099 fbbd
00000100: a2f9 0f3e 76dc 05be 268d e03d d07b 383c
00000110: 350a ce3c 3713 00be 3039 d6bd 720c 36be
00000120: 17e5 1b3e 593b 3abe f381 553d 48d7 bfbd
00000130: f2ad 31be 377d 3e3d f4e0 103e 8d81 4abd
00000140: b9c8 c83d 0bc1 2abe 3746 38bc 7718 023e
00000150: be8f ecbd 5a72 00be 8990 213e f994 f13c
00000160: 6f27 833d 1a7f 163e ddf5 69be b6ac 053e
00000170: bc43 4dbd 1cdd 82bc 5323 c53d eee1 1dbe
00000180: 7bc5 8dbb 0b00 053d 42a5 7f3e fb6f 503e
00000190: 0607 49be 97ba bdbd f06d 3e3e 630d 3b3e
000001a0: 4de3 cdba f2b7 4abb a3c0 bebd ad72 bfbd
000001b0: 7543 35be 5c65 443d 95b1 463e 25e0 f8bd
000001c0: f683 ec3d 6df7 31be d214 2ebc 74a9 453e
000001d0: c4b9 10bd 5969 a83b 67a1 38be b5af d6bd
000001e0: b0c4 b03d b654 96bd 2a21 0a3e 2c7a d9bd
000001f0: 73fe e83d 0e1c e3bd 49a2 b03d 53c9 c33b
00000200: 3af9 22be 3e81 383e 1bed 343d e9f8 963d
00000210: ee0a 2b3e 7728 7ebd 6b53 043c c5fa 3d3e
00000220: 93cd fbbc 966c 1cbe 1cb5 dfbc e9e1 8ab9
00000230: 9c0c 293e 67db 9ebe 2cff 663d af1d e43b
00000240: b658 083e 08cb 373d e7c3 bebd 4296 023c
00000250: 5a4e a23d 78cc febd bf74 d73d 164d cf3d
00000260: 9a06 983d 48b7 0abc 24ad d43d ddcd f83d
00000270: 0e8a 8cbe 2292 dabc daf0 75be f5bc b23d
00000280: 9996 ee3d 99e2 08be 5814 19bd 933f efbd
00000290: 8540 11bd 812f 7a3d ce71 143e ec1a 2abe
000002a0: 155d 943d c58f c43d 7b46 8a3d b842 753d
000002b0: 207a 0a3e 8793 ab3d 96e0 a4bd b875 5bbd
000002c0: 2b41 653d 18ab 53bc 9d5b fcbd ea66 3e3e
000002d0: 2b5b d73c 3cfe 8e3b cff2 aabd 8ff2 2d3e
000002e0: 7aee 0bbe 7210 1a3e 490c cf3d 4367 0bbe
000002f0: 1f22 e93c 59ea 2e3d 9a59 1b3e b294 78bd
00000300: 8628 2fbd 1e32 9a3d 74da 9f3d 744c 543d
00000310: 9f64 d83d df41 353d 8991 1c3e 5acc 06be
00000320: 96cc 63bc 4bd7 f83d 6761 b4ba ef7d c2bd
00000330: 29de 5d3e df4f e1bd e140 173d aece 64be
00000340: 468c e2bd 0bb9 663e 937a 673d 9df1 d03d
00000350: 55a8 6abd 14f7 a6bd f950 2bbd bc04 143e
00000360: df80 ca3d a502 a93d 96de 513e c1b9 0abe
00000370: e22b 0ebe 10dc 043e 50b8 2fbd e000 8bbd
00000380: f0f1 0cbe 99cb 37be 6c2f cb3d 4793 293d
00000390: 0526 47be 1817 90bc 24c1 0abe db1a b63d
000003a0: ab4b 2a3e 0c23 373e 157e c63d 27fc 32bd
000003b0: 8e27 22bd 8b7e ea3d bfe4 e3bd 516d 81bd
000003c0: fa71 113e 9f22 63be df7e 493b 5198 b8bd
000003d0: fc0f c9bc 3f83 85bd fecd 60bd 5e26 d43d
000003e0: 3051 94be 16d9 1e3d 8a03 15bd 8cea 283e
000003f0: d37f 71bd 2e0a 6bbd ee05 47bd 6d55 b43d
0.10725984 0.2284949 0.11023691 -0.2250551 -0.0954158 -0.03688044 0.09773301 0.12330997
0.005952434 0.09868193 0.05768031 0.03790819 -0.11698376 0.033630297 -0.05854139 -0.0014765357
-0.114444025 -0.13063322 0.06729485 -0.18063359 -0.04366477 0.01860138 -0.19148621 0.09522966
0.25819823 0.11068024 -0.006264561 -0.15920585 -0.23448585 -0.118895486 0.0082902685 -0.17287828
0.13092631 -0.23166625 0.09161512 0.11137861 0.119890206 0.17031892 0.28007883 -0.0580875
0.091157004 0.16351907 -0.18666425 -0.030096073 0.09103547 0.038965244 0.0993941 0.19187504
0.020244211 -0.11634342 0.10523464 -0.11878799 0.0023744116 -0.06739429 0.25845104 0.17895524
0.083673224 0.032532338 0.058667284 -0.18523863 -0.019889437 -0.09439317 0.06964793 -0.12285149
0.14060071 -0.1307238 0.10964422 0.011259988 0.025151351 -0.1250733 -0.104601264 -0.17778185
0.1522411 -0.18186702 0.052125882 -0.093672335 -0.17351511 0.046506133 0.14148313 -0.049439956
0.0980391 -0.16675203 -0.011247209 0.12704645 -0.11550854 -0.12543622 0.15777792 0.029489981
0.06404006 0.14696923 -0.22847696 0.13054165 -0.050113425 -0.015974574 0.09625878 -0.15418217
-0.00432652 0.032470744 0.24965385 0.20355217 -0.19631585 -0.09264105 0.18596625 0.18266825
-0.0015708 -0.0030932394 -0.09314086 -0.093480445 -0.17701514 0.047948226 0.1940368 -0.12152127
0.11548607 -0.17379542 -0.010625081 0.19302922 -0.03533341 0.0051395115 -0.1803032 -0.10482732
0.08631265 -0.07340376 0.13489214 -0.106190056 0.11376657 -0.110893354 0.086247034 0.0059749275
-0.15915385 0.18018052 0.044171434 0.073716946 0.16703388 -0.06205031 0.008076529 0.18552692
-0.030737674 -0.15275797 -0.02730804 -0.00026489727 0.16508716 -0.31026766 0.056395695 0.0069615464
0.1331509 0.04487136 -0.09314709 0.007970395 0.079251006 -0.12441343 0.105203144 0.10122125
0.07423134 -0.008466549 0.103845865 0.1214864 -0.27449077 -0.02668101 -0.24017659 0.08727447
0.11649818 -0.1336769 -0.037372917 -0.11682048 -0.03546192 0.06108046 0.14496538 -0.16611832
0.072443165 0.09597734 0.06751724 0.05987808 0.1352315 0.08377748 -0.08050649 -0.053579062
0.055970352 -0.01291921 -0.12322161 0.18593946 0.02628859 0.004363803 -0.08347093 0.1698706
-0.1366519 0.15045336 0.10109765 -0.1361361 0.028458653 0.04270396 0.15170899 -0.060688682
-0.042763256 0.0752909 0.078053385 0.051830724 0.10566067 0.044252273 0.15289892 -0.13163891
-0.013903758 0.12150439 -0.0013761938 -0.09496676 0.21666779 -0.11001562 0.036927108 -0.22344467
-0.11061911 0.22531526 0.05651338 0.10202334 -0.05728944 -0.08152595 -0.04182527 0.14454931
0.098878615 0.082524575 0.20495066 -0.13547422 -0.13883927 0.12974572 -0.042900383 -0.06787276
-0.13764167 -0.1794876 0.099211544 0.04140022 -0.19448097 -0.017589137 -0.1355024 0.08891841
0.16630428 0.17884463 0.09692017 -0.043697502 -0.039588504 0.114499174 -0.11127614 -0.063196786
0.14203635 -0.22181176 0.0030745787 -0.09013427 -0.024543755 -0.06519174 -0.05488395 0.103588805
-0.2896819 0.038781248 -0.03638033 0.16495723 -0.058959793 -0.057382755 -0.04858964 0.08805356

pi.net.0.bias f4 [50]
00000000: 82e0 0fbe c666 ef3d 42ed 913c 04da f9bd
00000010: 5f37 0e3e 0e91 6cbd dd49 5dbd 4ed8 9f3d
00000020: debc ebbd b6e9 19bd 0979 e63d b3b9 cb3d
00000030: c230 833e 02be 32be 5cdc 91be 620e 78be
00000040: be5d 6e3e d050 3c3e ab7c 5bbd 5b3d 1f3e
00000050: faf8 373e 627a fd3b 2a55 c53d b7a8 083e
00000060: 0d3d 47bd 1960 063e afd3 c43d 7b62 0e3e
00000070: 2251 983d ee02 40be c9ae 053e b1ee 813c
00000080: bc44 463e 93c1 77bd 8019 663e 854a d53d
00000090: 070e a13d 23ea 533e e859 653e 6e1d 093e
000000a0: 8fce 3e3e 74d7 5d3d 42e5 703e 0c2a 1fbc
000000b0: 62d8 a5bd 7e09 f03c c209 4ebd a154 5a3d
000000c0: 11df dd3b 2160 453e
-0.14050487 0.11689524 0.017813329 -0.12199786 0.1388831 -0.057755522 -0.05402552 0.07804929
-0.11510633 -0.0375764 0.112535544 0.09947529 0.25623137 -0.17455295 -0.28488433 -0.24224237
0.23277947 0.18390203 -0.05358569 0.15550749 0.17966071 0.0077355364 0.096353844 0.1334561
-0.048642207 0.13122596 0.09610688 0.13904755 0.0743735 -0.18751118 0.13054956 0.015860887
0.19362158 -0.06048734 0.22470665 0.10414604 0.07864004 0.20694785 0.22397578 0.13390133
0.18633483 0.05416055 0.23524955 -0.009714615 -0.08097912 0.029301401 -0.050302275 0.053303365
0.0067709764 0.19274952

pi.net.2.weight f4 [50, 50]
00000000: c114 6a3e b5d0 91be 2ab8 4fbe 8860 2dbe
00000010: 8489 bdbd 8106 4cbe 04f0 c3bd 4136 77be
00000020: 9ab0 e03d 9d91 9bbe e582 ba3d ea76 f03b
00000030: 8600 34bd 03c6 023e 759c ecbd f020 bdbd
00000040: 2497 f93c 0c4c 1c3d 51f0 12be b364 d8bd
00000050: aebb df3d 3662 853d 91dc ac3d bcf0 763c
00000060: f83c ddbd c19f 8bbd 59ab aa3c 7537 f03c
00000070: 4364 4f3d d893 013c 49fe 3a3e fc61 223e
00000080: 5d6a bcbc cacf a3bd 4d0a 44be a9fd 52be
00000090: 3383 0bbe 911d 3abe 754b 90bd fd7b 75be
000000a0: 796c a5be cb4f 293d afb6 8fbe 6668 fcbd
000000b0: 4b62 ec3d 6d1b 90be 503b fabd f828 4e3e
000000c0: a14f e43d 0d9b 973d 2c1c ef3c 0fec 153e
000000d0: 1e4a 0a3e 8e00 06bd 4374 c1bd c049 883c
000000e0: 332a 1c3d d89c 023e ac17 7d3d b0eb 17bd
000000f0: da84 3fbd 631a 03bd aa06 b63d 9671 ee3d
00000100: 4ed6 88bd cbf0 a43d 8f72 303d b9b7 e5bd
00000110: d5fc 32bd 420b fa3d d72b 10be d353 fabc
00000120: b927 debd 8d18 aa3d cab3 923d 2d06 a43d
00000130: f470 42be 729f 9ebc 13a0 8ebd d056 193e
00000140: 33f0 a13d 8052 11be b342 243d 4e42 d63d
00000150: 1ca7 c53c 50cf e8bd c279 32bd 4f3e 823d
00000160: 4e35 1f3d 7498 c83d 37e2 a1bd 77d8 063e
00000170: c158 0a3d d636 07bd dd4d 833d be26 c5bd
00000180: d75f 5c3c 5275 983d d292 3abc aa36 cf3d
00000190: eda4 9f3d 3c5b 663d b73f 4b3c 759e 8b3d
000001a0: 8547 273c 2ef4 4f3e 57ff 23be 36f9 633c
000001b0: 1bdc 4e3c 2679 bd3d 4c73 b73d fc2e ebbd
000001c0: 20ef f53d aba8 393d 32db 213d 4d71 6bbd
000001d0: 1250 7c3e 1643 febc a57e cfbd e1ab a7bd
000001e0: d0ae 89bd b7c8 1abd 3d05 22be 9e48 92bc
000001f0: 4e49 41bd 5d0b cebd bf25 573e 2632 563b
00000200: d72b ad3d 146a 8fbd 462b eb3d bbf8 47be
00000210: 1e9b bc3c a5b5 4b3d 5d10 703a d5c8 9cb9
00000220: 539c 4abd c097 17be 1224 15be 5717 a63c
00000230: 29bf 713d 7573 f33d b296 3cbd 4179 07bd
00000240: d044 193d 0105 c13d 0139 db3d 11ee f33d
00000250: b9ba 193e 4c2b 31be 55e2 25be 4f67 2dbd
00000260: 2325 d33d 0fc2 8d3b d358 70bd df09 233e
00000270: 3803 273e fb31 6dbe 920d c1bd d4a0 0f3e
00000280: 5933 6cbd ee48 4fbe a046 873b 7eff ddbd
00000290: 9876 aabd 404f f8bd 8920 0d3e f598 14bd
000002a0: e0ea 8dbd 813b 143c a4c7 013e 4e65 233e
000002b0: add1 4ebb 006c b0bd 3065 8e3d 9a39 cdbc
000002c0: 5230 673d 0d07 e7bd 971d 1fbe 5f92 94bd
000002d0: e997 7a3d 1ea4 f2bc 4f26 a93d 3f8b 04bd
000002e0: c239 8fbd a7d4 b5bd c649 203e 5d1c c13d
000002f0: 9532 9f3c 80d7 143d 297b 263e a1e0 07be
00000300: 4e43 0fbe 557b 693b b0ec 52bd 9282 3c3e
00000310: a5d5 0f3e ba42 9fbd 0c10 eabd be1a 01be
00000320: 3665 f2bd e433 223e 53cc a6bb d254 6d3d
00000330: 1b03 cb3c cc67 92bc e08e 8ebd 298e 82bb
00000340: be9c 8f3d 6926 bdbd 64de cd3d 328a 87bd
00000350: 7560 e83d 1518 be3b 5279 cfbd c4cf 13be
00000360: 617a fd3d 63d4 23bd 2d12 793d 9d01 a23d
00000370: 4c0a a5bd 9946 debd b093 7e3b 75a0 193e
00000380: 2572 a7ba d84b a73c f1e0 233e 592c 553d
00000390: 8488 17bd bfa0 a23c c760 00bc 829b 2ebe
000003a0: b8fd 853d 588c 86bd 79b0 9cbc e3c4 cebc
000003b0: 2674 3d3d cde6 b03d a658 d2bd 7bb2 c9bc
000003c0: dfc4 95bc 7756 bb3d 7861 723d 1675 c33d
000003d0: 68cc e83d 8cf6 bb3d e038 543d bb7a 35bc
000003e0: b8d7 5ebe 185d 73bd 7cb3 1dbd d5b5 7abc
000003f0: 72ab e4bd 9f6d c0bd 9a39 20be 943a 35be
0.2285948 -0.28479543 -0.20285097 -0.16931355 -0.09254745 -0.19924356 -0.09567264 -0.2414179
0.10971184 -0.30384532 0.091069974 0.0073383944 -0.04394581 0.12770848 -0.11553279 -0.09234798
0.030467577 0.03815846 -0.14349486 -0.10566082 0.10924469 0.06512873 0.08440507 0.015072044
-0.108026445 -0.0681758 0.020833658 0.029323319 0.050632726 0.007908784 0.18261065 0.1585769
-0.022999937 -0.07998617 -0.19144554 -0.20604576 -0.13624267 -0.18175341 -0.07045642 -0.23973079
-0.3230932 0.041335862 -0.28069064 -0.123246 0.115421854 -0.28145924 -0.12218344 0.20132816
0.111480005 0.074026205 0.029188238 0.1464083 0.13504836 -0.032715373 -0.09446003 0.01663673
0.03812618 0.12755144 0.061790153 -0.037090003 -0.046757556 -0.032007586 0.0888799 0.116427585
-0.066815004 0.0805374 0.043078 -0.11216683 -0.04369815 0.122091785 -0.14079224 -0.030557549
-0.1084742 0.08305464 0.07163198 0.080089904 -0.189884 -0.019363139 -0.069641255 0.14974523
0.079071425 -0.14191628 0.04010267 0.10461865 0.024127536 -0.11367667 -0.04357315 0.06359541
0.038869195 0.09794703 -0.07904475 0.13168512 0.03377605 -0.03301128 0.064113356 -0.0962653
0.013450584 0.07444252 -0.011387544 0.10117848 0.07795129 0.05623935 0.0124053275 0.06817333
0.010209923 0.20307991 -0.16015373 0.013914397 0.012625719 0.09251623 0.08957538 -0.11483571
0.120085 0.04532687 0.03951568 -0.0574811 0.2463992 -0.031037848 -0.101315774 -0.0818708
-0.06722796 -0.037789073 -0.15822311 -0.017856892 -0.04718905 -0.10060761 0.21010493 0.00326837
0.084556274 -0.07002655 0.11482863 -0.19528477 0.023023184 0.049733777 0.0009157712 -0.0002990427
-0.04946549 -0.14803982 -0.14564541 0.020274801 0.059020195 0.11887256 -0.04604215 -0.03307462
0.03741914 0.094247825 0.10704232 0.11910642 0.15012635 -0.17301673 -0.1619962 -0.04233485
0.10309818 0.004326112 -0.05867846 0.15921734 0.16309822 -0.23163597 -0.094264165 0.14026195
-0.057666156 -0.20242664 0.004128292 -0.10839747 -0.08323401 -0.12124491 0.13781942 -0.036278684
-0.069295645 0.00904739 0.12673813 0.15956613 -0.0031558082 -0.08614349 0.06952894 -0.02505188
0.056442566 -0.11280642 -0.15538631 -0.072544806 0.06118003 -0.029619273 0.0825926 -0.032359358
-0.06993438 -0.08878451 0.15653142 0.09429238 0.0194333 0.03633833 0.1625792 -0.13269283
-0.13990518 0.003562649 -0.051495254 0.18409184 0.14046343 -0.07776399 -0.11428842 -0.12607858
-0.11835711 0.15840107 -0.0050902753 0.05794222 0.024781754 -0.01787176 -0.06960845 -0.003984232
0.07012318 -0.09235842 0.10052183 -0.066181555 0.11346523 0.0058012106 -0.10130562 -0.14434725
0.123768575 -0.03999747 0.06080835 0.07910464 -0.080586046 -0.10853309 0.0038845353 0.15002616
-0.0012775107 0.020421907 0.16003777 0.052044246 -0.036995426 0.01985204 -0.0078355735 -0.17051509
0.06542534 -0.06569737 -0.019127117 -0.025240367 0.046253346 0.08637772 -0.102708146 -0.024621239
-0.018282352 0.09147351 0.059174985 0.09543817 0.113671124 0.091778845 0.051812053 -0.0110766245
-0.21761978 -0.059414953 -0.038501248 -0.015302141 -0.11165513 -0.093959086 -0.15646973 -0.17698127

pi.net.2.bias f4 [50]
00000000: 437b b0bd 1511 5e3c fb5f 80bc 3888 7d3e
00000010: d032 1a3e e96c 3e3c 053f 8cbd 7985 18be
00000020: 5756 163e 8ce0 06be 1732 8bbd c8dc be3b
00000030: 2843 14bd 339d 193e dd24 89bb d930 963d
00000040: ebc5 d2bd 9411 853c fcbc 483e 2060 04be
00000050: 3d61 33be d3c2 bb3d cab5 873d 0905 023d
00000060: cd49 353d c372 533e a992 343e 7798 c53d
00000070: 8e12 d43d bfcb e4bd c0c7 073d b1eb ccbc
00000080: 909f cf3c f2fa 933c a90c b8bc 1ea7 fbbd
00000090: 3342 183e 5220 ee3d 5824 083e afc8 7fbc
000000a0: b0e2 55ba eb5b d8bd 1474 28bd 630e 143e
000000b0: 190e e7ba c02f f4bd ae85 d3bd 8dcd fbbd
000000c0: f5c5 fcbd eacd 8d3c
-0.0861726 0.013553877 -0.015670767 0.24758995 0.15058446 0.011622646 -0.068479575 -0.14894666
0.14681374 -0.13171595 -0.06796663 0.005824659 -0.036196858 0.15001373 -0.0041853026 0.07333536
-0.10291656 0.016243733 0.19603342 -0.12927294 -0.17517562 0.09168019 0.066264704 0.031743083
0.044259835 0.20649247 0.17634071 0.09648221 0.103551015 -0.11171674 0.03314948 -0.02501473
0.02534464 0.018063996 -0.022466974 -0.122877344 0.14869003 0.11627258 0.13295114 -0.015611812
-0.0008159084 -0.10564407 -0.041126326 0.14458613 -0.0017628103 -0.1192317 -0.10328232 -0.12295065
-0.12342445 0.017310102

pi.net.4.weight f4 [4, 50]
00000000: d2ff df3e 88a5 d3bd 6cdc e23d 3192 513e
00000010: d140 ea3d 5fe5 5d3e 050a f1bc 0a52 91bb
00000020: 1f5d 503e 4350 e7bd 4e8a 953b 71e4 bebd
00000030: a31a 953e 6d52 dbbd 6b81 35be c8d0 62be
00000040: f11c 033e cbe8 cf3d 3be3 c6bd 4d67 633e
00000050: 174e 0cbe 8c87 97bd 43de 833d 5e2b df3d
00000060: 2f5c a93d e256 7b3e 310b 243e 9409 813d
00000070: d42e d33d 3004 dbbd e129 12be a059 a03d
00000080: fa1b 5dbe 461f 4e3e 86d3 10be fbc7 cabd
00000090: 6490 1a3e 99ca b63e 43f7 dabd 87a9 cbbd
000000a0: 8f63 f7bd 6185 1dbd 248b 4c3b f065 0abe
000000b0: 585d 533d 3fe7 dcbd 2fae 023e 2d22 b6be
000000c0: 2559 13be 9ce5 0dbd 6883 b4be e5ff 75bd
000000d0: 6577 aa3c a6fb 953e 9c53 303c f480 023e
000000e0: 78d4 213e 53b9 33be fe45 423e 84d9 d1bb
000000f0: 6385 6b3e c6ef 293d af67 473d f4fb 5a3e
00000100: 6409 0c3e e302 833e 6965 003e 91dc 813d
00000110: f608 683e 5f4f 7bbe 537c d2bb 647f 4bbb
00000120: 210e 94bc e4a4 203e d607 bbbd 41a3 263e
00000130: 9b32 83be 848e 1dbe 5a0d 853d 6d5d d8bd
00000140: 8fa9 10be 4258 a13c a6f7 6cbd 9394 0ebe
00000150: 9bcb 793d 8d43 ecbd 04ec 10bc 94b4 313e
00000160: ee80 833d e65a 18bd 5e8f 9fbd 53f8 6fbd
00000170: 57da df3b 1b99 0b3e 5428 183e 1cd1 95bd
00000180: 677e 07be dbd7 2ebc e0f0 88be 14a5 0dbe
00000190: 1c4e 2f3c c4fa 06be 87a8 6cbe 7713 50be
000001a0: 1ffe 0e3c 278d 23bd f4f8 43be c2e8 66bd
000001b0: efb9 6b3d 7af4 0fbe f1e7 4d3d 27b0 163e
000001c0: 8425 7dbe f53f 0fbe 0671 e0bd 11d8 313e
000001d0: f823 cf3c 125f 6e3d c0ce 4d3d fe46 abbe
000001e0: f769 5b3d 9cac 3c3e 6d52 203e d30d 513e
000001f0: 7aa0 09be fcf7 d23d fc7a 95be 9dd5 093c
00000200: 729c 383e 3959 473e 7234 24be 4b78 c4bd
00000210: 94ad f2bd 6a2c 643e ea12 e3bc 65b1 1cbd
00000220: 3aab cabd 66fe 10be af18 01be 7387 db3d
00000230: a5b0 b13d b945 58bd 4aee e7bd f663 ef3c
00000240: 9c68 0a3e 1a80 b8bd e183 3ebe 39bb df3d
00000250: 9351 c33c bef9 23be b835 9e3e 0fe6 d23d
00000260: 2f1e 43be 68d2 3dbe 11a8 bebd b21f 723e
00000270: f39a 7bbd 2eea 493e 5574 1f3e 2428 c73d
00000280: 72e6 20be e959 0abd 7a68 5abe a423 1e3d
00000290: fd82 2c3b b09c 7cbd e242 143e 1c76 02be
000002a0: 82c1 64be 879e 703e 947a 47bc b2f5 89bc
000002b0: 2bd2 d53d 5330 d53d 7d5b ccbd 9940 1c3e
000002c0: 13ef 953e e40e 13bd fe7c f13d 801c fb3d
000002d0: 17f9 2e3e 787d febd 5ac5 7d3b 4a04 85bd
000002e0: 801b a7bd 355e 253e c802 cb3b fa4c 87bd
000002f0: 2124 48be d5f3 babc b7a1 1dbe 9bc9 debd
00000300: 1fd8 c43d ff67 d1bd 9ea6 98bd ff78 13be
00000310: d282 273e e74b 7e3c 1a6f 1a3e 36ba 053e
0.43749863 -0.10334307 0.110771984 0.20465924 0.11438144 0.2166953 -0.029423723 -0.0044348286
0.20348023 -0.112946056 0.0045636063 -0.093209155 0.29121885 -0.10709081 -0.1772515 -0.22149956
0.12804009 0.101518236 -0.097113095 0.22207375 -0.13701664 -0.073989004 0.064388774 0.108969435
0.08269536 0.24544862 0.16019894 0.06300655 0.10311666 -0.10694158 -0.14273788 0.078295946
-0.21592703 0.20129117 -0.1414319 -0.099014245 0.15094143 0.35701445 -0.10691693 -0.09944444
-0.12079536 -0.03845728 0.0031210864 -0.13515449 0.05160269 -0.10786294 0.12761758 -0.3557295
-0.14389475 -0.0346428 -0.35256505 -0.060058493 0.020808885 0.29293555 0.0107621215 0.12744504
0.15803707 -0.17551164 0.18972012 -0.0064041037 0.23000102 0.04148843 0.048682865 0.21385175
0.13675457 0.2558814 0.12538685 0.06340898 0.22659668 -0.24541996 -0.006423512 -0.0031051273
-0.018073143 0.15687901 -0.09132354 0.16273214 -0.25624546 -0.15386397 0.06496687 -0.105646946
-0.14127181 0.019695405 -0.057853363 -0.13923864 0.06098519 -0.11536322 -0.008845333 0.17354041
0.06421076 -0.037196063 -0.07791017 -0.05858643 0.006831448 0.13632624 0.14859134 -0.07315275
-0.13231812 -0.010671581 -0.26746273 -0.13832504 0.010699775 -0.13181597 -0.23111163 -0.20319925
0.008727579 -0.039929535 -0.19137937 -0.05637432 0.057550367 -0.14058104 0.050270025 0.14715634
-0.24721342 -0.13989241 -0.109590575 0.17367579 0.025285706 0.058196135 0.050246 -0.334526
0.053567853 0.1842522 0.15656443 0.2041543 -0.13440123 0.103012055 -0.29195392 0.008412746
0.18028429 0.1946763 -0.16035631 -0.095932566 -0.11849514 0.22282568 -0.02771898 -0.038255114
-0.0989594 -0.14159545 -0.12607072 0.10719194 0.086762704 -0.052800868 -0.11324747 0.02922247
0.13516468 -0.090088084 -0.18604995 0.10924382 0.023842609 -0.16013238 0.3090036 0.102977864
-0.19054483 -0.18537295 -0.093094 0.23644903 -0.061427068 0.19718239 0.15571721 0.09724453
-0.15712908 -0.03377715 -0.21328917 0.03860821 0.0026323192 -0.061672866 0.14478639 -0.12740368
-0.22339442 0.23497973 -0.012175221 -0.01684079 0.10440477 0.10409608 -0.099783875 0.15259017
0.29283962 -0.035902873 0.117914185 0.12261295 0.17087208 -0.12426275 0.0038722367 -0.06494959
-0.08159542 0.16149218 0.0061954 -0.06606479 -0.19545032 -0.022821346 -0.1539372 -0.10878297
0.09611534 -0.10224914 -0.07453655 -0.14401625 0.16358498 0.015521026 0.15081444 0.13059315

pi.net.4.bias f4 [4]
00000000: 6ea5 283d 62af 6cbb fe77 db3d 8c35 cf3d
0.04117339 -0.0036115278 0.10716246 0.10117635

v.net.0.weight f4 [64, 34]
00000000: c62c 7d3e 8ee9 23be 5901 e9bd 2d1f 19be
00000010: bc98 99bd 5a13 a73e 2243 41be d816 023e
00000020: 901f 15be f3e6 e4bc a463 1cbe 10e5 b8bd
00000030: 80f2 bc3d b9f0 babd 6041 71bd e70a a4bc
00000040: 812c b73d 16d4 d33d 8fc0 c8be 593b e7bd
00000050: 21da e53d ea63 d53c 3b82 3b3e dfdd afbc
00000060: 2615 9e3e c630 d8bd 8e2e b5bd bfbb 063d
00000070: 7ac7 f3bd 8b74 02bd e083 4dbd f5f7 0bbd
00000080: 435f a43c 4872 5abd dd58 b03d 86a9 c13c
00000090: d0db 283d 3149 25bd ad21 203e d3d0 47bd
000000a0: 64ef a2bd 4ca9 8bbd d474 09be bbdc bebd
000000b0: f764 07be 5b7d 2bbc 0cba 32bc 65d8 4abc
000000c0: 8a37 cebb 5a22 743b c80b 9d3d 57c4 3f3d
000000d0: 57cc 4f3c 14c1 82be 89db 7fbd a6b6 823c
000000e0: e05d d73c 706a 5ebe 534e 0ebe f797 303e
000000f0: 9aff 46be b386 ab3d d4f6 1f3c c9ae 12bd
00000100: d454 3e3d e950 98bd cf77 973c 6d00 033d
00000110: 70d3 e03c 87df f13b b845 02bd f106 1ebe
00000120: 53f1 4a3e 9a5e b7bd 8571 203e b3a9 193e
00000130: 46ad 823d 679d 873d 3bd9 89bd 51d3 cebd
00000140: d3fa a2bd 017e 33bc 8168 3fbd 9c04 2f3e
00000150: 412c 973d 7c8f 92bd 29e2 5cbd 3b25 4e3e
00000160: 38c3 c5bd 751c 6039 ecb5 38bc 12e5 3d3e
00000170: 18e0 373e 783c 2bbd 4f93 253d 23c4 183e
00000180: 1e16 da3d d90b b8bd 457a 15bc f2e1 acbd
00000190: e1f7 d73d 6e14 bcbc 4296 ac3e 32c8 2fbe
000001a0: 4b7c 7dbd a920 c9bc f216 803e ebf0 6ebe
000001b0: 5112 ed3d 95af d93e 6971 87be dbb5 613e
000001c0: c543 32be dbc9 003e f2c6 0f3e a5ae f63d
000001d0: 9614 8d3d bda9 3abd a53f 8c3d be71 913e
000001e0: 9c8c cfbd ae5d f4bd 0eaa c9bd 3656 803d
000001f0: 9f31 86be c909 76bb 58db 313e bca7 0abe
00000200: 7380 ce3d 4410 5ebd 1a5a eabd c061 4a3d
00000210: f879 88bd 7da1 0c3d d8d7 e4bc 4b97 b73c
00000220: e21f b13e 72f3 02bd e87c 6dbe 7b09 213e
00000230: 3f86 583c 0d44 babe 5f5a 76be 3332 b63c
00000240: 842a 7d3d 0c1f c7be fae3 6e3d 08c6 2e3d
00000250: d345 783c af26 9a3c 5bbb 5ebd 9705 5ebc
00000260: 7b54 ba3d 7b01 933e 3096 683d efb0 cdbd
00000270: b6eb 493e 2e12 bcbd 4e50 8bbe 1ec5 2fbd
00000280: 17eb c73d 1703 13be a57a 9ebd 43a8 03ba
00000290: f1c8 64bc 9369 6e3d 5648 263d 4442 03bd
000002a0: 8370 80bb 1c7f 2abd 1590 753d 649c 81bd
000002b0: 48fa b2bc fb39 0dbd 51c3 3b3d cf53 5abe
000002c0: d59a 60bd ec5c 08bd cc60 48bb 3d34 73bd
000002d0: ddb9 223d eb39 d7bd b724 323e d736 74bd
000002e0: 9ac6 cb3d e1cc 6abb 5908 553d 5bb3 b1bd
000002f0: 43df 383c 6fcd 65bc 4b09 1bbe 06b1 f1bd
00000300: ebe1 51be eb77 e9bd 3dec 3abe 1e9c a13d
00000310: 191f 7fbd afc0 39bc ff84 46bc d2e0 12bd
00000320: 74b1 ca3d c07f b23d 11ee 343b 6794 d03d
00000330: 36a4 083d b9b1 9fbd 2016 e8bc 39db 15bd
00000340: 5076 37bb 9f88 06bf 6c09 1d3e 416c a3bd
00000350: 31f3 ff3c 6854 48bd 6af8 f0bd 9d23 86bd
00000360: 1f72 ad3d 8cb2 703d 8aa9 1b3d 416c 0dbd
00000370: 79e0 03bd aed7 75bc 71c2 6bbd 18ac 063d
00000380: dbd5 a53d e658 3fbc 73c4 c6be 81a5 adbd
00000390: f0cb dcba 95ac cdbd 74e4 dbbd 2104 2fbd
000003a0: 7dbf f0bd 4657 4bbe 6dfe b33d b98f 1a3d
000003b0: 4903 02bd 757f 70bb 8463 1c3e 2990 d7bc
000003c0: 371a c3bc a669 70bd 7454 e33d 0851 fbbd
000003d0: f806 2cbe b755 ccbd 250b 1bbe 7f25 033e
000003e0: 3436 03bd 92d7 1fbe 959b f13d b377 2fbd
000003f0: feb4 0f3d 2ac4 e73a b24d 2b3e 8fe7 afbd
0.24724111 -0.16007063 -0.1137721 -0.14953299 -0.07499835 0.32631952 -0.18873265 0.12704027
-0.14562821 -0.027942156 -0.15272385 -0.09028065 0.09225941 -0.091279455 -0.058900237 -0.02002473
0.08944035 0.103431866 -0.3920941 -0.112906165 0.112232454 0.02604862 0.18311398 -0.021468101
0.3087551 -0.10556178 -0.0884677 0.032893892 -0.119032815 -0.031849425 -0.050174594 -0.034172017
0.020064956 -0.053331643 0.08610699 0.023640405 0.041225255 -0.040353004 0.15637846 -0.048783135
-0.079558164 -0.068194 -0.13423473 -0.09319445 -0.13222109 -0.010466899 -0.010908615 -0.012380694
-0.006293242 0.003725192 0.07668263 0.046818104 0.012682996 -0.25537932 -0.062465224 0.015956234
0.02628988 -0.2172029 -0.13897066 0.1724547 -0.19433442 0.08375301 0.009763438 -0.03581122
0.046467617 -0.074373074 0.018489746 0.031982828 0.027444571 0.007381383 -0.03180477 -0.15432335
0.1981862 -0.08953591 0.15668304 0.15006141 0.063807055 0.06621819 -0.067308865 -0.10098899
-0.07957997 -0.010955335 -0.046730522 0.17091602 0.07381488 -0.07156274 -0.05392662 0.2013139
-0.09656376 0.00021372906 -0.011273842 0.18544415 0.17956579 -0.041805714 0.040423688 0.1491857
0.1064875 -0.08986635 -0.00912339 -0.08441533 0.10545326 -0.02295896 0.33708388 -0.17166212
-0.061886113 -0.024551706 0.25017506 -0.2333409 0.11575759 0.4251677 -0.26453713 0.22042029
-0.17408665 0.12577002 0.14040735 0.120450296 0.06888692 -0.04557203 0.06848077 0.2840709
-0.10134241 -0.119319305 -0.098468885 0.062664434 -0.26209733 -0.0037542454 0.17368829 -0.13540548
0.100830935 -0.05421473 -0.11442967 0.049409628 -0.06663889 0.034333695 -0.027934954 0.02241101
0.34594637 -0.03197045 -0.23192179 0.15726273 0.0132156005 -0.36380044 -0.24057911 0.022240734
0.061808124 -0.38890874 0.058322884 0.042669326 0.015153366 0.018817274 -0.054377895 -0.013551137
0.090981446 0.28712067 0.056783855 -0.10043513 0.19718823 -0.09183155 -0.27209705 -0.042912595
0.09761637 -0.14356647 -0.07738236 -0.00050223264 -0.013963924 0.058206152 0.04059633 -0.032045618
-0.0039196624 -0.041625127 0.05995186 -0.06328657 -0.021847859 -0.034479123 0.045840565 -0.21321033
-0.05483516 -0.033291742 -0.0030575274 -0.05937599 0.039728034 -0.10509094 0.17396818 -0.05962261
0.099499896 -0.0035827684 0.052009914 -0.086767875 0.0112836985 -0.01402603 -0.15140264 -0.11801343
-0.20496337 -0.11399826 -0.1825418 0.07891105 -0.062285516 -0.011337443 -0.01211667 -0.035858937
0.09897128 0.08715773 0.002760772 0.101845555 0.03335973 -0.0779757 -0.028330863 -0.03658602
-0.0027994104 -0.5255222 0.15335625 -0.07979632 0.031243892 -0.04890862 -0.11766131 -0.065497614
0.084690325 0.058764026 0.038003482 -0.034527067 -0.032196496 -0.015005035 -0.05755848 0.032878965
0.0809743 -0.01167891 -0.38821754 -0.08478833 -0.0016845446 -0.10042683 -0.10736933 -0.042728547
-0.117552735 -0.19857511 0.08788762 0.03773472 -0.031741414 -0.0036697064 0.15272337 -0.026313858
-0.023816211 -0.058694504 0.111000925 -0.12271315 -0.16799533 -0.09977286 -0.1514097 0.12807272
-0.032034114 -0.15609577 0.11797253 -0.042838763 0.035084717 0.0017682363 0.16728857 -0.08589088

v.net.0.bias f4 [64]
00000000: 4efc 4e3c a0e5 8f3e 124d 12bd 5203 35bb
00000010: 91e0 4bbd 1b01 24be 5500 6bbe 9c50 1cbe
00000020: 0d59 7cbe 9801 f4bd ba5d 70be 66b9 22be
00000030: 4a9b 0dbe dac4 be3d 156f 093d 46a7 04be
00000040: 9d16 ccbc e38d 9b3d 01b5 66be 8deb b03d
00000050: d674 34bd 0717 97be cbf8 18be f011 01be
00000060: c4b7 d23d 64af 93be eca4 44be f21b c1bd
00000070: 9288 963b 3889 9c3d a962 76be a5a5 4e3e
00000080: 27ea a4bd 58ee 65be d236 493e cee3 4f3e
00000090: 29b5 453e f05e a23d 0273 80bc 5b57 333e
000000a0: ea29 49be 6e96 98bd 84ac a33d bb87 413e
000000b0: 06e9 963d 348f c7be efce 7a3e 4738 693e
000000c0: eab3 883e 39bf ba3e 90e2 573e effc ffbd
000000d0: 844b 413d 2d66 443e cff2 f8bc b28a 8fbe
000000e0: 8af4 25be 90fa b7bd cff5 3ebe 2c16 fc3d
000000f0: 0574 2f3e b461 3e3e 47b0 4d3d 52d5 98bd
0.012633396 0.28104877 -0.03571803 -0.0027620387 -0.04977471 -0.16016047 -0.22949345 -0.15265125
-0.24643345 -0.119143665 -0.23473254 -0.15891036 -0.1382877 0.0931489 0.0335532 -0.12954435
-0.024913127 0.07595422 -0.22529985 0.08638678 -0.044056736 -0.29509756 -0.14938657 -0.12604499
0.10288957 -0.2884475 -0.19203538 -0.09429158 0.004593917 0.0764336 -0.24061073 0.20180376
-0.080524735 -0.22454202 0.19649819 0.20301744 0.19307388 0.07928264 -0.01567984 0.17513792
-0.19644895 -0.07450567 0.07991889 0.18899433 0.073686644 -0.38976443 0.24493001 0.22775374
0.26699764 0.36474016 0.2108252 -0.12499415 0.047191158 0.19179602 -0.030389218 -0.28035504
-0.16206565 -0.08983338 -0.18648456 0.123089164 0.17134102 0.18591958 0.05021694 -0.074625626

v.net.2.weight f4 [64, 64]
00000000: e8a8 313e 5997 f33d 6c0b 85bd 52ec 1abe
00000010: 89ea d33c 771b 823d ada4 7a3d cce7 10be
00000020: a8c6 943d 4186 5ebd e2a1 cbbd 8e1b 38bd
00000030: 0655 40bd 3a3d e03d 00f7 8dbd 0b9f e23b
00000040: 7750 a3bd c9c9 b7bc 2dea c4bd 9149 4bbe
00000050: d967 843d 32e6 683d b017 4abd f8da 48bd
00000060: 1c04 453c eb36 453e a9bb 49bd 0bf1 593e
00000070: 671d 123e 1637 8cbe f423 023d f7e9 253b
00000080: c8cd d73d 95c1 d03d b989 3a3d 816c 88bd
00000090: 52dd 213d 3488 57bd bd10 0cbe e69d 78bd
000000a0: f52e 8b3d 6987 02be 4697 443d ca34 773c
000000b0: 5c0e 48be afd1 083e 7692 a1bc 417f d8bc
000000c0: e25e b2bd 0b00 41bd 4581 92bc eec6 2a3e
000000d0: b5f7 dbbd dbf7 203d 9f2d c6bd 2466 333e
000000e0: 25c2 c4bd 4eb2 053d 149b 77be 81dd 323e
000000f0: 7c91 f5bd 8f17 3fbd de82 7bbd 8938 f33d
00000100: 8854 513d f751 bf3c 437a a4bc 11d2 733d
00000110: 3963 013e 4441 183d a564 3d3d 33ce db3d
00000120: c85f 11be 7a75 abbd fd9d cabd 4ce0 bbbd
00000130: b282 acbd b057 a33d 1e9d 293e 8ae4 883d
00000140: dc55 e6bb e4c6 cfbd be48 1e3d 6d5f 313e
00000150: e065 22be 670a 39be 0d02 d5bd 0350 033e
00000160: 9bd4 59bc 06c6 60be 437a 0abe f0fa 2cbe
00000170: 6eb5 70be abfa 243e 080c cfbd 4a92 933e
00000180: 24e7 4bbd a633 2d3d ab9e 243e c259 c63d
00000190: 7ff7 e5bd a0e6 e83d 1ed8 2a3e 0dbc 523d
000001a0: 8c46 30be 3713 433e 8f7c c23b 64b5 2fbc
000001b0: 3382 273e fd64 933c 89c4 3c3e 367e 4c3e
000001c0: f035 733d fd6f d5bd 7f60 f83d 32d0 42bd
000001d0: 5727 a23d 900a be3d b9f1 143e d411 64bd
000001e0: 21dd cd3d a834 57ba 16cc 883e 34d2 0fbe
000001f0: b57f 6abb 7c3e 3e3e 293d cdbd 2947 afbd
00000200: 983a 753d 2885 d43d ea59 6dbd 4c90 fb3b
00000210: 455d e83b 867a d13d 776c c03d 5b37 ac3b
00000220: 9922 213d 6b5e a93d d449 313e d3bd 033e
00000230: d47d dc3d 46e0 fb3b 7971 123d c596 cb3b
00000240: ee27 e1bd 2c94 d7bd 1e48 ae3c 9f46 543c
00000250: 8f47 c8bc 297a d33d 9f95 383e 7428 f53a
00000260: 5089 51bc 5e4a 433d e30c 6bbd aa56 fdbd
00000270: d9fa 22be d0ad 2a3e 50d0 093d 6d18 41bb
00000280: 6ad1 a83d d458 7cbb 707f a73c 3cbb 8d3b
00000290: d134 20be 29fb 1abd e504 90bc fab7 353e
000002a0: 8ba5 373d 044b 1b3e 4d76 02be 6751 9ebd
000002b0: a185 833c 59d0 d1bd dbb4 0bbe 34f2 e5bc
000002c0: 84bb febc 240e 453d 2914 b03d 4d92 5e3c
000002d0: 9916 babd e119 b3bb ded4 e73d 6329 903d
000002e0: ca4b c8bd 2417 04bd cddd b33c a116 e9bb
000002f0: 4c05 46be 3b53 23bd d3db 1e3d 9750 90bd
00000300: db3b 493d 1f86 ab3d 64ba d2bc 242a 003e
00000310: 650a 4bbd 5f54 edbb a8a4 41bb 7a5f 853c
00000320: db5f d13d 10a3 1dbd c6c1 2f3c 3dc1 bdbd
00000330: 0e97 b73d 9763 3abe e11f d43d af13 023e
00000340: 962c eabc 4bd4 72bd e3b6 8a3d 3b0b 9b3b
00000350: da5d 853c a7db cabc 78ee 763e 18e2 9a3d
00000360: 0134 583d f990 393e 08d7 823b 86c3 db3d
00000370: 53f0 1e3d 389f a93d 907b 5bbd 19b8 813a
00000380: b5c6 7bbd f66d 273d 5448 d13d 4343 603d
00000390: 22e0 073d 15d7 0bbe c7ff a23c b4d3 eabd
000003a0: 8a4e c93d a343 a1bd 2b84 afbb 1b9a 34bd
000003b0: c33c 5c3b e5fe 38be 1992 26be 17b8 02be
000003c0: dfd2 bbbc 6ad6 563e cfb8 04bd f2a4 b2bc
000003d0: ee27 95bd 2c97 31bd 783a a63d b829 213c
000003e0: 4d2c 4d3c 8878 103e 4a59 61bd 9a1a c93b
000003f0: c51b b9bd 94e0 4dbd e4e6 743d 485f 423d
0.17349589 0.11894102 -0.06496319 -0.15129212 0.025868671 0.06352895 0.061192203 -0.14150923
0.07264453 -0.054327253 -0.09942986 -0.044948153 -0.046956085 0.10949178 -0.06931877 0.006915932
-0.07974332 -0.022435086 -0.09614978 -0.19852282 0.0646512 0.056860156 -0.049338996 -0.04903695
0.0120249055 0.19259231 -0.049251232 0.21283357 0.14269029 -0.27385777 0.03177257 0.0025316456
0.105372965 0.10193173 0.0455415 -0.066613205 0.039517708 -0.052620128 -0.1367826 -0.06069746
0.06796066 -0.12746967 0.047995828 0.0150882695 -0.19536728 0.13361238 -0.019723158 -0.026427867
-0.08709504 -0.04711918 -0.017883906 0.16677448 -0.10740606 0.039298873 -0.0967667 0.17519432
-0.09607343 0.032640748 -0.24180251 0.1746731 -0.119906396 -0.046653327 -0.0614041 0.118760176
0.051106006 0.023354514 -0.02007783 0.059526507 0.12635507 0.037171617 0.04623856 0.10732689
-0.14196694 -0.08372016 -0.09893415 -0.091736406 -0.08423366 0.079757094 0.16563842 0.06684215
-0.007029278 -0.10145357 0.03864359 0.17321558 -0.15859175 -0.18070374 -0.10400782 0.12823491
-0.013295318 -0.2195054 -0.13523202 -0.168926 -0.2350671 0.16111247 -0.10109717 0.28822547
-0.04978098 0.042285584 0.16076152 0.09685089 -0.11228847 0.11372113 0.16684005 0.05144887
-0.17214411 0.19050299 0.0059352587 -0.010724399 0.16358261 0.01799249 0.18434347 0.1997002
0.05937761 -0.10421751 0.1212778 -0.04756183 0.0791766 0.092793584 0.14545335 -0.055681065
0.100519426 -0.00082094455 0.26718205 -0.1404503 -0.0035781686 0.18578523 -0.10021431 -0.085584946
0.059870332 0.1037696 -0.057947077 0.0076771136 0.0070911967 0.102284476 0.09395688 0.0052556223
0.039339636 0.08269962 0.1731332 0.12865381 0.10766187 0.0076866476 0.035752747 0.0062130415
-0.10993944 -0.105263084 0.021274623 0.0129562905 -0.024448184 0.103260346 0.18025826 0.0018704073
-0.0127890855 0.047678344 -0.057385337 -0.123700455 -0.15916003 0.16667867 0.033645928 -0.0029464022
0.082430676 -0.0038505094 0.02044651 0.0043252986 -0.15645148 -0.03783718 -0.017580459 0.17745963
0.04483561 0.15165335 -0.1274044 -0.0773037 0.01605493 -0.10244817 -0.1364321 -0.028069593
-0.031095274 0.04810919 0.08597595 0.0135846855 -0.090863414 -0.0054657315 0.11319898 0.07039144
-0.097800806 -0.03224863 0.021956349 -0.0071132933 -0.19337958 -0.039874297 0.03878386 -0.07046621
0.04912935 0.08375191 -0.025723644 0.12516075 -0.04957046 -0.007242724 -0.0029547606 0.016280878
0.10223361 -0.038485587 0.0107273515 -0.09265373 0.08964358 -0.18202053 0.10357643 0.12702821
-0.028585713 -0.05928449 0.06773164 0.0047315634 0.016280103 -0.024762942 0.24114406 0.07562655
0.05278397 0.18121709 0.003992919 0.107306525 0.03880341 0.08282322 -0.053584635 0.0009896784
-0.0614688 0.04087635 0.102188736 0.054751646 0.033172734 -0.13656266 0.019897355 -0.114661604
0.09829433 -0.07874229 -0.005356332 -0.04409228 0.0033605553 -0.18065985 -0.1626667 -0.12765537
-0.0229277 0.2098023 -0.03240281 -0.021807168 -0.072830066 -0.04335706 0.08116621 0.009836607
0.012522769 0.14108479 -0.055016793 0.0061372044 -0.090385 -0.050263003 0.059790507 0.04745415

v.net.2.bias f4 [64]
00000000: afec 81bd 9be4 cc3c 7ed7 07be 0330 a6bc
00000010: f7fa 3b3c fc75 213e fbc5 15be b624 433e
00000020: dabd 433d 2549 dabd 2e3e 8ebd aeda 553e
00000030: b3e1 78be 59dc a8bd 6f5f 09be e653 553e
00000040: e969 2dbe 5164 053e 2982 73be 6efe 32bd
00000050: d599 eabd 8235 5b3e 0c5c 4d3d 39a8 6ebb
00000060: 089e 223d 958f 4a3e 1e14 c43c cfd5 bdbc
00000070: c104 483e 2879 853c 8484 f5bd 07b5 9dbd
00000080: a06a 2cbe 756a 6a3e f847 0b3e 8800 52be
00000090: 25c4 56be 8a94 3e3e a444 003e 39e3 60be
000000a0: 273f 02bd 9ed2 a63d 2d94 83be 6713 823e
000000b0: d87e 373e a68b 023e c6f1 373e 2ffc a4bc
000000c0: 9d45 e83d 7a24 0f3e 80e6 a23d c63f ddbd
000000d0: 22f4 7f3d 3d37 133e d2c8 fd3d c913 113e
000000e0: 8e3b 25be 74b7 483e eecd 7b3d e3f6 0cbe
000000f0: f58b 50be 7e64 07be b105 0abe 6c6d 28bd
-0.06343972 0.025011351 -0.13265797 -0.020286566 0.011473409 0.15767664 -0.14626305 0.19056973
0.04778848 -0.106584825 -0.069454536 0.20884201 -0.24304847 -0.08245153 -0.13415311 0.20832786
-0.16934933 0.13026549 -0.23780121 -0.043699674 -0.114551224 0.2140713 0.05013661 -0.0036416186
0.03970149 0.19781335 0.023935374 -0.023173241 0.19533063 0.016293123 -0.11988166 -0.07700544
-0.16837549 0.22892173 0.13601673 -0.20508015 -0.2097326 0.1861135 0.12526184 -0.21961679
-0.031798508 0.08145641 -0.25698987 0.25405428 0.17919481 0.12748584 0.17963323 -0.020139782
0.11341403 0.13978758 0.07954121 -0.108031794 0.062488683 0.1437654 0.12391819 0.14167704
-0.16136 0.19601232 0.061475687 -0.13766055 -0.2036589 -0.13221928 -0.13478734 -0.041119978

v.net.4.weight f4 [1, 64]
00000000: eca0 2b3e 6002 19be 5347 3e3e fb84 1a3e
00000010: 31dc 01be 24ee 2dbe 9ee0 443e 4b20 10be
00000020: cb74 35be 871f 543e ca15 023e 73cd 51be
00000030: bf14 f43d 1a83 463e e8f9 1e3e ed23 54be
00000040: 9ed3 713e 84f2 2abe 8d44 1c3e 0b4d 633e
00000050: ae81 ec3d fdf0 5ebe a5f2 0dbe a102 de3d
00000060: 05a9 c7bd aea3 6dbe 3a26 6dbe c8c3 2cbe
00000070: bd31 3cbe b2e6 3ebe c79e 1f3e fd8a 623e
00000080: 6848 333e ead4 f7bd e860 6dbe 8c3f 2c3e
00000090: d701 5b3e b2a1 43be 1751 64be 0d8e f23d
000000a0: 554b 223e a8d1 10be 4c05 ec3d b2e7 0bbe
000000b0: ac91 60be 972b 22be 265e 3fbe 9d52 113e
000000c0: fcc2 1bbe 1212 24be 028d 2cbe 7f81 003e
000000d0: 2abe 1dbe 4ac6 6dbe 678e 3dbe 2dc1 65be
000000e0: 932d 583e c5e2 2bbe ee34 67be 0f39 443e
000000f0: a4f9 133e eab0 003e 7664 4b3e c39e 073e
0.16760606 -0.14942312 0.18581896 0.1508979 -0.12681653 -0.16985375 0.1922631 -0.14074819
-0.17720334 0.20715152 0.12703624 -0.20488529 0.119180195 0.19385949 0.15525019 -0.2071683
0.23615882 -0.16694075 0.15260525 0.22197358 0.11548172 -0.21771617 -0.13862093 0.10840345
-0.09749035 -0.2320697 -0.23159114 -0.1687156 -0.18378349 -0.18642691 0.15587912 0.22123332
0.1750809 -0.12101157 -0.23181498 0.16821116 0.2138742 -0.1910465 -0.22296558 0.118435
0.1584905 -0.14142478 0.11524448 -0.13662603 -0.2193057 -0.1583694 -0.18688259 0.1419167
-0.152111 -0.16022518 -0.16850665 0.12549399 -0.15404573 -0.23220173 -0.18511353 -0.22436972
0.21111135 -0.16785724 -0.22578785 0.19162391 0.14450699 0.12567487 0.19862542 0.13244157
