runs/original_ppo/no_distb/DroneHoverBulletEnvWithAdversary-v0/ppo/2023-08-23__22-56-22/seed_61702/torch_save/model.pt (torch, 49538 bytes, 14 tensors)

obs_oms.mean f4 [34]
0.0009914627 0.0021384405 0.98771334 0.0031122349 0.0018975046 0.31009924 0.6276326 0.0019539976
0.004415583 -0.097757116 0.1063929 -0.030360864 -1.0408113 0.2635247 0.23097473 0.26374024
0.23185076 0.0010129607 0.0021816888 0.98670983 0.0034845395 0.0019127276 0.31088093 0.627316
0.0020848291 0.0043163965 -0.101550356 0.11065972 -0.03159465 -1.042408 0.26248395 0.23002495
0.26295552 0.23153004
00000000: f8f3 813a 1425 0c3b c8da 7c3f a3f6 4b3b
00000010: b0b5 f83a 54c5 9e3e 88ac 203f a40e 003b
00000020: 98b0 903b e234 c8bd 85e4 d93d 59b7 f8bc
00000030: 4e39 85bf b6ec 863e a484 6c3e f608 873e
00000040: 496a 6d3e 52c5 843a aafa 0e3b 0499 7c3f
00000050: df5c 643b 7db4 fa3a c92b 9f3e c897 203f
00000060: a1a1 083b 8f70 8d3b a2f9 cfbd 90a1 e23d
00000070: 6469 01bd a06d 85bf 4c64 863e a98b 6b3e
00000080: 1ba2 863e 3616 6d3e

obs_oms.std f4 [34]
0.21088608 0.19579358 0.20759776 0.1069373 0.10782479 0.67775005 0.25126448 0.41590315
0.4015892 0.42143527 2.2522318 2.3879719 2.3846102 0.50280935 0.4785823 0.4839314
0.45412952 0.21309122 0.19795753 0.21006478 0.10827856 0.10933514 0.67745006 0.25117463
0.42075315 0.406365 0.43215796 2.273321 2.4030762 2.3882463 0.50217634 0.4784686
0.48348132 0.4536866
00000000: 85f2 573e 1d7e 483e 8294 543e f101 db3d
00000010: 3ed3 dc3d 0781 2d3f bda5 803e 42f1 d43e
00000020: 1a9d cd3e 5dc6 d73e 9124 1040 88d4 1840
00000030: 749d 1840 1db8 003f bd08 f53e dbc5 f73e
00000040: aa83 e83e 9634 5a3e 61b5 4a3e 391b 573e
00000050: 26c1 dd3d 1aeb df3d 5e6d 2d3f f699 803e
00000060: f56c d73e 130f d03e cf43 dd3e 177e 1140
00000070: 00cc 1940 07d9 1840 a18e 003f d6f9 f43e
00000080: dd8a f73e 9c49 e83e

pi.log_std f4 [4]
-4.4513054 -4.4513054 -4.4513054 -4.4513054
00000000: 1871 8ec0 1871 8ec0 1871 8ec0 1871 8ec0

pi.net.0.weight f4 [50, 34]
0.23989363 0.33577782 0.06522406 -0.21347561 -0.060953215 -0.20826866 0.20539138 0.035014983
0.196969 0.084266886 0.15277536 0.14186895 -0.061492067 0.0029724983 -0.04205822 0.030811705
0.025245322 -0.0026384948 0.17849748 -0.22715332 -0.049123347 0.09683607 -0.33405647 0.21301816
0.16922286 0.30279204 -0.013963679 -0.27404124 -0.31679 -0.06189817 0.08314013 -0.11152288
0.06523347 -0.13100868 0.15425576 0.030165225 0.078274906 0.121113725 0.21886082 -0.13196474
0.14492518 0.2544262 -0.25918213 -0.040183943 -0.015265647 -0.09864454 0.091034696 0.19541343
0.01815865 0.05364921 0.13490926 -0.05633071 -0.081481814 -0.10944833 0.18834442 0.11109421
-0.042343218 0.08371867 0.14463037 -0.25718713 -0.02912143 -0.13604572 0.100407116 -0.13979454
0.1848278 -0.053952068 0.18243843 0.06374349 0.006507906 -0.20745152 -0.010854438 -0.17747833
0.109322496 -0.33590215 0.12260667 -0.16146733 -0.23045942 0.13090353 0.1480225 -0.0130122425
0.089499936 -0.2448474 -0.09544184 0.0055846754 -0.098516054 -0.1419293 0.07396976 0.12650901
0.10561901 0.13410988 -0.31700644 0.18991853 -0.11872592 -0.07967819 0.20096979 -0.050158698
-0.11139136 0.021471133 0.2659809 0.15982641 -0.18397358 0.05172744 0.15613674 0.17763002
-0.035010044 0.0028064956 0.07934317 -0.013461852 -0.22229685 0.0490489 0.29061675 -0.09329328
0.100014694 -0.26474798 0.055217285 0.17723988 0.03701361 -0.0791056 -0.04632217 -0.13517319
0.083569705 -0.10621156 0.16061689 0.042787958 0.27341104 -0.16918099 0.09826841 0.110945694
-0.1297968 0.31220412 -0.12634747 0.1383803 0.21114647 0.0038534403 0.06535475 0.23437846
0.047848213 -0.14407824 -0.016731473 -0.07789771 0.08489364 -0.4356821 0.078779414 0.14064203
0.07570844 0.019037694 -0.027440742 -0.10964912 0.082963295 -0.1105957 0.119181216 0.15612498
0.091727905 0.070768446 0.11168518 0.13047202 -0.40324825 -0.0731636 -0.36847213 0.10968227
0.24225938 -0.19195968 -0.06539496 -0.17951192 -0.1340743 0.06449247 0.16335154 -0.16789904
0.111159325 0.15078618 0.09939895 0.06528748 0.25722155 0.047852695 0.017425878 0.08540482
-0.024817526 0.045764506 -0.10387027 0.34417462 -0.053552844 -0.07799546 -0.06783037 0.15472081
-0.10029595 0.10324265 0.049643546 -0.1026562 0.034686923 0.16688772 0.04942851 -0.025622714
0.06428151 0.0027704446 0.14166084 0.06692164 0.30470407 0.108000726 0.028695619 -0.12791269
-0.00048672128 0.042682666 -0.03100067 -0.10823444 0.25063506 -0.0595781 0.022650583 -0.30639315
-0.040716223 0.08579831 0.17162903 0.11991221 -0.029915191 -0.12775938 0.022842746 0.03410143
0.06999071 0.09738557 0.29359454 -0.002601411 -0.12191981 0.16130702 0.008468273 -0.08345743
-0.17119561 -0.11840304 0.013562505 0.16897538 -0.17284964 0.011552952 -0.18416376 0.11232926
0.2263617 0.14965554 -0.012855461 0.030164326 0.14853495 0.07638447 -0.11829637 -0.055878688
0.17751846 -0.23694392 0.027143486 -0.006793423 -0.073949344 -0.0182877 0.0038654371 0.14449528
-0.07143799 -0.07094911 -0.05090293 0.22120947 -0.15639971 -0.03905485 -0.07733278 0.08013763
00000000: ada6 753e 12eb ab3e 3194 853d 5a99 5abe
00000010: 14aa 79bd 6144 55be 1e52 523e df6b 0f3d
00000020: 3eb2 493e 1e94 ac3d 2571 1c3e 1846 113e
00000030: 1bdf 7bbd 3fce 423b 3d45 2cbd d468 fc3c
00000040: 47cf ce3c 99ea 2cbb 0bc8 363e e19a 68be
00000050: 9035 49bd fd51 c63d 7309 abbe 6f21 5a3e
00000060: c248 2d3e 8f07 9b3e eac7 64bc 224f 8cbe
00000070: 4d32 a2be ef88 7dbd 5f45 aa3d 1c66 e4bd
00000080: 2099 853d 2427 06be 39f5 1d3e 101d f73c
00000090: 984e a03d 790a f83d 0d1d 603e c421 07be
000000a0: 4467 143e 2744 823e 85b3 84be eb97 24bd
000000b0: c41c 7abc 2606 cabd 6670 ba3d 751a 483e
000000c0: 73c1 943c 46bf 5b3d a725 0a3e 08bb 66bd
000000d0: f0df a6bd 7226 e0bd 5cdd 403e 5c85 e33d
000000e0: 1570 2dbd b274 ab3d fc19 143e 08ae 83be
000000f0: 1190 eebc 924f 0bbe 3fa2 cd3d 4d26 0fbe
00000100: 8043 3d3e d8fc 5cbd 24d1 3a3e f28b 823d
00000110: 4640 d53b 2c6e 54be d0d6 31bc e1bc 35be
00000120: 79e4 df3d 5efb abbe 3519 fb3d b157 25be
00000130: 8efd 6bbe 930b 063e 3693 173e 4d31 55bc
00000140: be4b b73d 47b9 7abe 0377 c3bd a7ff b63b
00000150: c9c2 c9bd ea55 11be 757d 973d 948b 013e
00000160: c84e d83d 1a54 093e ab4e a2be 017a 423e
00000170: 9326 f3bd 522e a3bd 06cb 4d3e 3573 4dbd
00000180: 2721 e4bd 3be4 af3c a62e 883e 89a9 233e
00000190: 9263 3cbe 27e0 533d 4fe2 1f3e a5e4 353e
000001a0: b166 0fbd 2fed 373b ac7e a23d 1a8f 5cbc
000001b0: c9a1 63be 80e7 483d b8cb 943e 8c10 bfbd
000001c0: 81d4 cc3d 0c8d 87be 852b 623d 5f7e 353e
000001d0: 959b 173d 1e02 a2bd 51bc 3dbd d76a 0abe
000001e0: 9826 ab3d 7285 d9bd c178 243e 6d42 2f3d
000001f0: 88fc 8b3e c83d 2dbe f340 c93d 7f37 e33d
00000200: 74e9 04be 38d9 9f3e 3b61 01be 91b3 0d3e
00000210: c836 583e 008a 7c3b b6d8 853d e800 703e
00000220: 7dfc 433d 3f89 13be 7110 89bc d688 9fbd
00000230: b7dc ad3d b911 dfbe 1a57 a13d 7704 103e
00000240: 070d 9b3d f0f4 9b3c 68cb e0bc b88f e0bd
00000250: a9e8 a93d 0080 e2bd 4815 f43d 3adf 1f3e
00000260: d7db bb3d 0cef 903d 33bb e43d 759a 053e
00000270: 8e76 cebe ccd6 95bd 61a8 bcbe 19a1 e03d
00000280: d812 783e 1491 44be cbed 85bd f9d1 37be
00000290: c64a 09be a114 843d a045 273e baed 2bbe
000002a0: 80a7 e33d b167 1a3e ad91 cb3d 71b5 853d
000002b0: 8bb2 833e 3001 443d b7c0 8e3c b9e8 ae3d
000002c0: 204e cbbc 9073 3b3d f0b9 d4bd a837 b03e
000002d0: 3a5a 5bbd 15bc 9fbd a6ea 8abd 226f 1e3e
000002e0: f767 cdbd e270 d33d 0857 4b3d 6a3d d2bd
000002f0: e013 0e3d 9de4 2a3e 8d75 4a3d bae6 d1bc
00000300: 06a6 833d 5990 353b 8a0f 113e 360e 893d
00000310: 2c02 9c3e 7c2f dd3d 1313 eb3c 8bfb 02be
00000320: a02e ffb9 05d4 2e3d 1ef5 fdbc 05aa ddbd
00000330: 3d53 803e 2a08 74bd b78d b93c 90df 9cbe
00000340: 0ec6 26bd 06b7 af3d 85bf 2f3e 8894 f53d
00000350: b410 f5bc 5bd3 02be b620 bb3c f1ad 0b3d
00000360: 4a57 8f3d 1672 c73d 0652 963e 6f7c 2abb
00000370: 18b1 f9bd ab2d 253e 83be 0a3c bbeb aabd
00000380: e74d 2fbe 4b7d f2bd 4535 5e3c e207 2d3e
00000390: 7fff 30be 9848 3d3c 6d95 3cbe e20c e63d
000003a0: 5dcb 673e 4d3f 193e b69f 52bc 2d1b f73c
000003b0: 8c19 183e 766f 9c3d 5e45 f2bd 0de1 64bd
000003c0: 66c7 353e 6da1 72be 045c de3c 5d9b debb
000003d0: c172 97bd 16d0 95bc 4653 7d3b 92f6 133e
000003e0: 154e 92bd c44d 91bd 977f 50bd bc84 623e
000003f0: 3f27 20be faf7 1fbd a660 9ebd 331f a43d

pi.net.0.bias f4 [50]
-0.16221458 0.22712487 0.082985826 -0.090735815 0.2253333 0.008061534 -0.033490703 0.09959542
0.0015893457 -0.017926762 0.06151043 0.07566878 0.39064142 -0.32883987 -0.3299464 -0.112342484
0.2479086 0.48358864 -0.16321032 0.17901951 0.28590468 0.048659652 0.07084205 0.19597414
0.023056801 0.35208294 0.3155321 0.271294 -0.12643991 -0.04601675 0.0856446 0.08901464
0.071914986 -0.010360331 0.32641453 0.115042485 0.08004187 0.54546386 0.26047426 0.20499733
0.28653952 0.08298627 0.19588299 0.14319608 0.028941184 0.05701886 0.031787656 0.21318609
0.16965862 0.2722394
00000000: 941b 26be 6c93 683e 79f4 a93d b3d3 b9bd
00000010: c6bd 663e 8614 043c 8c2d 09bd aff8 cb3d
00000020: 9851 d03a 25db 92bc 5cf2 7b3d 3cf8 9a3d
00000030: 2702 c83e b35d a8be bcee a8be d113 e6bd
00000040: c1db 7d3e ee98 f73e 9b20 27be e450 373e
00000050: 1962 923e 584f 473d a315 913d 72ad 483e
00000060: 9ee1 bc3c 3744 b43e 6c8d a13e 0ce7 8a3e
00000070: 7779 01be 0f7c 3cbd 7066 af3d 4f4d b63d
00000080: 2a48 933d 61be 29bc ce1f a73e 659b eb3d
00000090: feec a33d 85a3 0b3f e25c 853e d2ea 513e
000000a0: 4fb5 923e b5f4 a93d 8d95 483e fea1 123e
000000b0: 1016 ed3c 9c8c 693d c633 023d 744d 5a3e
000000c0: fdba 2d3e f662 8b3e

pi.net.2.weight f4 [50, 50]
0.3721068 -0.30262116 -0.3588547 -0.16338407 0.029511107 -0.112183474 -0.10768766 -0.2201018
0.12359286 -0.2613291 0.03665696 -0.06449944 -0.05983035 0.15114485 -0.22045927 0.10097583
-0.07536974 -0.07386691 0.022854581 -0.076023445 0.19988817 -0.004755814 0.21730328 0.10829479
-0.13302371 0.02170432 0.07098767 0.1796057 0.07064489 0.04655127 0.19178057 0.16264941
-0.013916498 0.07722757 -0.09602292 -0.047005966 -0.038622808 -0.27440703 -0.11140455 -0.09975833
-0.37937376 0.009490799 -0.184357 -0.049319077 0.1332078 -0.25881758 -0.014986089 0.22892216
0.10930485 0.12999533 0.012194779 0.15004542 0.1370744 -0.10738673 -0.06314723 0.1044625
0.022251645 0.16181877 0.07018802 -0.08212193 -0.055577558 -0.018610362 0.1312236 0.117164016
-0.098140866 0.08165156 0.0071911816 -0.17270054 -0.038236838 0.12534422 -0.18545415 0.0057738274
-0.11008797 0.06830191 0.027099699 0.08419609 -0.22211005 0.050206438 -0.10761147 0.1661013
0.07466529 -0.14193304 0.0730769 -0.008666445 0.09595841 -0.07859413 -0.055920683 -0.015563351
0.061010066 0.11464038 -0.13527028 0.09510723 0.0529753 -0.043616995 0.08958775 -0.16392256
-0.002537093 0.092525 -0.078153 0.0656736 -0.10365789 0.046033975 0.0882361 0.11164893
-0.005243328 0.3278002 -0.18562602 0.00795941 0.09088978 0.074977554 0.07736064 -0.24219528
0.21058339 -0.03404191 0.028598316 -0.06340081 0.29525462 -0.07637626 -0.07526959 0.021051163
-0.1409866 0.011440256 -0.103090145 -0.016543608 -0.05416722 -0.21432896 0.22846568 0.05274159
0.0139768375 -0.11495104 0.14721286 -0.17997018 0.06801337 -0.02969511 0.08475937 -0.06984226
-0.112733826 -0.27689734 -0.03798427 0.056828897 0.0932495 0.1449833 -0.021104781 -0.051469456
0.061801735 0.14622992 0.07537583 0.1369325 0.1515584 -0.25242925 -0.28482416 -0.040356893
0.19512902 0.13604662 -0.10264513 0.16572559 0.17735402 -0.2962228 -0.16124435 0.128168
-0.14901388 -0.24918665 0.036846336 -0.13507591 -0.109834865 -0.12379056 0.15407959 0.14345065
-0.09592466 -0.0076546553 0.16630606 0.26403457 0.005758245 -0.09295271 0.009559005 9.832299e-05
0.1711427 -0.11382155 -0.17428401 -0.11066953 0.15742353 -0.0059744385 0.12797058 0.05116512
-0.09910737 -0.2103509 0.20306408 0.16954963 -0.00056953315 0.012630789 0.23888981 -0.12984227
-0.13243501 0.17184475 -0.0874905 0.20755464 0.12454858 0.02743063 -0.0947557 -0.24800292
-0.17856747 0.15318239 0.02789807 0.089914724 -0.0051900633 -0.027412992 -0.021942796 -0.010377329
0.0067121596 -0.08232924 0.109557085 -0.13851872 0.12435381 -0.0042398516 -0.074509956 -0.16309711
0.13578826 0.069579065 0.080234244 0.12092643 -0.08556663 -0.08171522 0.0038414819 0.14105241
0.019462908 0.009651203 0.15005593 0.020488938 -0.019375991 0.03179175 0.022417543 -0.13475612
0.07075272 -0.096317545 0.021179806 -0.0744699 0.020778365 0.090015255 -0.12947327 -0.068197824
-0.048189484 0.13501747 0.044216484 0.13375732 0.12848938 0.109736286 0.05072787 0.030710038
-0.17961936 -0.13149524 -0.0795272 -0.14481048 -0.010042694 -0.043638267 -0.23471439 -0.21462221
00000000: c884 be3e 29f1 9abe cebb b7be 274e 27be
00000010: 47c1 f13c 73c0 e5bd 598b dcbd 5e62 61be
00000020: 411e fd3d eecc 85be 9c25 163d 4818 84bd
00000030: ab10 75bd b7c5 1a3e 13c0 61be 6acc ce3d
00000040: 735b 9abd 8947 97bd 8839 bb3c 2eb2 9bbd
00000050: 7caf 4c3e a9d6 9bbb c084 5e3e a9c9 dd3d
00000060: 5e37 08be 42cd b13c fc61 913d 8eea 373e
00000070: 45ae 903d 8bac 3e3d 2062 443e 918d 263e
00000080: 0602 64bc 7d29 9e3d aaa7 c4bd 5489 40bd
00000090: f332 1ebd 147f 8cbe 1228 e4bd 184e ccbd
000000a0: 473d c2be 4c7f 1b3c 15c8 3cbe cd02 4abd
000000b0: a067 083e bd83 84be 3788 75bc 926a 6a3e
000000c0: 39db df3d 7f1d 053e 9ccc 473c 82a5 193e
000000d0: 3b5d 0c3e 93ed dbbd 5653 81bd 6ff0 d53d
000000e0: 1549 b63c d2b3 253e bdbe 8f3d 8b2f a8bd
000000f0: 4ba5 63bd c274 98bc 7b5f 063e b0f3 ef3d
00000100: 14fe c8bd ef38 a73d 01a4 eb3b 69d8 30be
00000110: 3b9e 1cbd 3c5a 003e b1e7 3dbe 6032 bd3b
00000120: cd75 e1bd dfe1 8b3d 3000 de3c 006f ac3d
00000130: d170 63be 44a5 4d3d 6763 dcbd 7616 2a3e
00000140: 1eea 983d e556 11be 57a9 953d b4fd 0dbc
00000150: d885 c43d f6f5 a0bd 160d 65bd 6dfd 7ebc
00000160: b1e5 793d 93c8 ea3d 4b84 0abe 94c7 c23d
00000170: a1fc 583d bca7 32bd c879 b73d 51db 27be
00000180: 5b45 26bb bf7d bd3d ae0e a0bd e17f 863d
00000190: 964a d4bd 1f8e 3c3d 21b5 b43d 32a8 e43d
000001a0: 39d0 abbb 6ed5 a73e bf14 3ebe 2f68 023c
000001b0: 6c24 ba3d d58d 993d 416f 9e3d 0a02 78be
000001c0: 2ca3 573e 886f 0bbd 0447 ea3c 49d8 81bd
000001d0: 9d2b 973e 286b 9cbd f126 9abd 7d73 ac3c
000001e0: cb5e 10be e96f 3b3c ed20 d3bd 7686 87bc
000001f0: 72de 5dbd 0d79 5bbe e8f2 693e 9107 583d
00000200: 1bff 643c 736b ebbd f8be 163e 1a4a 38be
00000210: 984a 8b3d 2943 f3bc 5296 ad3d 7509 8fbd
00000220: fee0 e6bd 7dc5 8dbe 6595 1bbd 6bc5 683d
00000230: 98f9 be3d 8176 143e efe3 acbc a3d1 52bd
00000240: d123 7d3d 4cbd 153e a55e 9a3d 0938 0c3e
00000250: 2032 1b3e 683e 81be 79d4 91be 454d 25bd
00000260: e7cf 473e ce4f 0b3e 9c37 d2bd f8b3 293e
00000270: 4b9c 353e 84aa 97be 3d1d 25be 793e 033e
00000280: 1897 18be c92a 7fbe 2fec 163d 5751 0abe
00000290: 1af1 e0bd e885 fdbd 0ac7 1d3e bae4 123e
000002a0: 2674 c4bd e7d3 fabb 234c 2a3e 8a2f 873e
000002b0: a9af bc3b fe5d bebd 5f9d 1c3c c132 ce38
000002c0: 0840 2f3e 461b e9bd 8277 32be b5a6 e2bd
000002d0: a233 213e 39c5 c3bb b80a 033e 8492 513d
000002e0: cef8 cabd 3a66 57be 08f0 4f3e 6b9e 2d3e
000002f0: b94c 15ba 5ef1 4e3c 889f 743e 5ff5 04be
00000300: 0b9d 07be 12f8 2f3e 382e b3bd 3489 543e
00000310: 5313 ff3d 33b6 e03c 470f c2bd 7af4 7dbe
00000320: 64da 36be d8db 1c3e 7e8a e43c 3625 b83d
00000330: 6811 aabb 3691 e0bc 61c1 b3bc ac05 2abc
00000340: adf1 db3b 3c9c a8bd 775f e03d dad7 0dbe
00000350: 36ad fe3d 74ee 8abb ad98 98bd ee02 27be
00000360: 140c 0b3e 787f 8e3d da51 a43d 47a8 f73d
00000370: 8f3d afbd 4f5a a7bd 5fc1 7b3b 0b70 103e
00000380: ad70 9f3c 1420 1e3c 43a8 193e 6bd8 a73c
00000390: 66ba 9ebc 1138 023d ffa4 b73c 82fd 09be
000003a0: cde6 903d 2242 c5bd 4681 ad3c ad83 98bd
000003b0: 6437 aa3c eb59 b83d a494 04be 4dab 8bbd
000003c0: 5662 45bd 0542 0a3e 581c 353d aef7 083e
000003d0: b892 033e 6bbd e03d 07c8 4f3d 9e93 fb3c
000003e0: 23ee 37be b0a6 06be 28df a2bd 3349 14be
000003f0: 1d8a 24bc 0abe 32bd f858 70be edc5 5bbe

pi.net.2.bias f4 [50]
-0.06912677 0.004365459 0.008007503 0.33268246 0.15373021 0.12350869 -0.08764798 -0.14235173
0.2087889 -0.17463411 -0.055794336 -0.011647148 -0.06254517 0.18234164 0.050913107 0.14269122
-0.08446468 0.020119375 0.22861466 -0.14702424 -0.19820656 0.12858053 0.121472724 0.04935937
0.09061572 0.38931498 0.25366962 0.13490002 0.1806771 -0.0685744 0.024526305 -0.04631645
-0.038693003 0.04913556 -0.06239032 -0.102697685 0.14967795 0.16059715 0.18074352 0.012074759
-0.021997008 -0.23847628 -0.0382779 0.1441413 0.049581327 -0.15083763 -0.059793886 -0.11865474
-0.07711094 -0.008506437
00000000: 5692 8dbd 200c 8f3b e731 033c 5b55 aa3e
00000010: 746b 1d3e 20f2 fc3d c980 b3bd a7c4 11be
00000020: c2cc 553e 49d3 32be 9a88 64bd aed3 3ebc
00000030: af17 80bd c4b7 3a3e 438a 503d a61d 123e
00000040: d1fb acbd 63d1 a43c f619 6a3e 868d 16be
00000050: a9f6 4abe 9daa 033e b1c6 f83d 0d2d 4a3d
00000060: bc94 b93d 4b54 c73e fce0 813e 3b23 0a3e
00000070: 6b03 393e bc70 8cbd 64eb c83c 51b6 3dbd
00000080: 8e7c 1ebd 5e42 493d fe8c 7fbd 2a53 d2bd
00000090: 2d45 193e 9473 243e d414 393e 36d5 453c
000000a0: 1233 b4bc 2033 74be 4ac9 1cbd c799 133e
000000b0: ca15 4b3d 2e75 1abe 6fea 74bd 4201 f3bd
000000c0: 57ec 9dbd 955e 0bbc

pi.net.4.weight f4 [4, 50]
0.5800101 -0.12440364 0.04338985 0.28726414 0.13601907 0.357215 -0.107648835 -0.012016064
0.29472136 -0.12517996 -0.07903917 -0.19279526 0.30135742 -0.17253292 -0.5463164 -0.35878897
0.15863563 0.13501287 -0.1196644 0.3083452 -0.19288075 -0.101606674 0.057586968 0.101412244
0.09984117 0.4564823 0.41223 0.18200879 0.12240034 -0.20145993 -0.24971992 0.070722096
-0.27234754 0.18199247 -0.14915858 -0.10082997 0.22010972 0.48676896 -0.066124655 -0.21532293
-0.18220906 -0.021440484 -0.022440258 -0.33771914 0.06112344 -0.16536473 0.19308092 -0.41879314
-0.22019786 -0.10956688 -0.36840904 -0.13743874 0.00898567 0.58089423 0.050646532 0.16630188
0.22461705 -0.38155553 0.23755157 -0.005720221 0.33831558 0.025695039 -0.05918009 0.23940967
0.1279511 0.30883604 0.13527185 0.10414306 0.40359727 -0.32927307 -0.0044894386 0.0077288477
0.016627215 0.18537693 -0.35268798 0.37133488 -0.4539787 -0.2600592 0.06880558 -0.16886811
-0.3326365 0.13081357 -0.051095195 -0.19578013 0.16098061 -0.23311855 0.024442323 0.19619265
0.091443725 -0.1763693 -0.09903796 -0.055807322 0.0029439381 0.08169461 0.25939646 -0.124998905
-0.1613043 -0.15371102 -0.42077112 -0.26159054 0.07990417 -0.15152021 -0.44400546 -0.28739738
-0.009793652 -0.05813249 -0.3145851 -0.0654156 0.035855945 -0.15402009 0.026651373 0.25418958
-0.38972554 -0.15375896 -0.41607732 0.23215716 0.0071274335 0.054076 0.22112043 -0.48121345
0.09799733 0.26005995 0.22223084 0.23672028 -0.24732558 0.30104643 -0.36959887 -0.05063386
0.19437672 0.30747035 -0.09273643 -0.1823081 -0.13089235 0.24631703 -0.06310341 -0.06398384
-0.14325917 -0.19621412 -0.15301135 0.18325907 0.17071494 -0.050123427 -0.1373414 0.054656867
0.12349306 -0.14970589 -0.25453377 0.15916705 0.07593673 -0.21462628 0.32728887 0.109635465
-0.331752 -0.2860897 -0.11596587 0.33666265 -0.05589828 0.37301946 0.1790447 0.12742426
-0.43154934 -0.005927509 -0.32070804 0.03267318 -0.18486112 -0.13580312 0.1920075 -0.2131294
-0.28393787 0.25762555 -0.04596933 0.026784526 0.16426636 0.088236965 -0.28643426 0.33834612
0.4766 0.025270794 0.12469768 0.12671143 0.30819544 -0.25710163 0.14686564 -0.07611164
-0.17888093 0.20294277 -0.0011642219 -0.10086156 -0.32899588 -0.08575205 -0.17111458 -0.16971457
0.10844469 -0.2034393 -0.12256264 -0.2231143 0.18049353 0.17025253 0.16310656 0.070027865
00000000: 8b7b 143f 56c7 febd 8eb9 313d 4914 933e
00000010: 9548 0b3e e2e4 b63e fe76 dcbd 06df 44bc
00000020: b8e5 963e 2d2f 00be 4adf a1bd 1f6c 45be
00000030: 854b 9a3e 78ac 30be 64db 0bbf 30b3 b7be
00000040: 6171 223e d040 0a3e 9c12 f5bd 6cdf 9d3e
00000050: 8882 45be 2917 d0bd 50e0 6b3d 39b1 cf3d
00000060: 8779 cc3d 0cb8 e93e d00f d33e 8360 3a3e
00000070: 08ad fa3d 834b 4ebe 94b6 7fbe bfd6 903d
00000080: 2371 8bbe 3c5c 3a3e 07bd 18be f17f cebd
00000090: 7164 613e c839 f93e 5d6c 87bd 9d7d 5cbe
000000a0: 0395 3abe f4a3 afbc a2d4 b7bc 86e9 acbe
000000b0: 925c 7a3d 5f55 29be 01b7 453e 0e6c d6be
000000c0: 8c7b 61be 9a64 e0bd 1ca0 bcbe bebc 0cbe
000000d0: a238 133c 7cb5 143f bd72 4f3d 0a4b 2a3e
000000e0: 0302 663e 3f5b c3be b840 733e b170 bbbb
000000f0: b337 ad3e 677e d23c d266 72bd cf27 753e
00000100: 9d05 033e c21f 9e3e b484 0a3e f548 d53d
00000110: 4da4 ce3e 7b96 a8be 241c 93bb 4642 fd3b
00000120: cc35 883c 73d3 3d3e 8593 b4be 9b1f be3e
00000130: e56f e8be 7b26 85be f1e9 8c3d c3eb 2cbe
00000140: 554f aabe fef3 053e 3249 51bd 967a 48be
00000150: 1ad8 243e a1b6 6ebe 443b c83c bae6 483e
00000160: d946 bb3d 279a 34be 6ad4 cabd 3896 64bd
00000170: 16ef 403b 814f a73d 9dcf 843e 6dff ffbd
00000180: f42c 25be 6c66 1dbe 506f d7be 32ef 85be
00000190: cca4 a33d 1d28 1bbe af54 e3be c025 93be
000001a0: 8e75 20bc 551c 6ebd 4c11 a1be 9df8 85bd
000001b0: afdd 123d 71b7 1dbe fb53 da3c 2325 823e
000001c0: 1b8a c7be fd72 1dbe 1608 d5be 9bba 6d3e
000001d0: 3f8d e93b cc7e 5d3d 656d 623e 9c61 f6be
000001e0: d3b2 c83d 9426 853e 7b90 633e cd66 723e
000001f0: eb42 7dbe c222 9a3e 103c bdbe 7365 4fbd
00000200: b10a 473e c16c 9d3e 99ec bdbd f9ae 3abe
00000210: a508 06be 883a 7c3e 5c3c 81bd f609 83bd
00000220: 88b2 12be 5bec 48be 02af 1cbe 44a8 3b3e
00000230: e6cf 2e3e 394e 4dbd 39a3 0cbe e1df 5f3d
00000240: eee9 fc3d 804c 19be 4052 82be b0fc 223e
00000250: b784 9b3d fec6 5bbe 6892 a73e 8f88 e03d
00000260: 66db a9be 597a 92be 847f edbd 0c5f ac3e
00000270: 98f5 64bd 68fc be3e 7e57 373e 817b 023e
00000280: 09f4 dcbe 8d3b c2bb d833 a4be 50d4 053d
00000290: 3c4c 3dbe f90f 0bbe 9d9d 443e 983e 5abe
000002a0: 4e60 91be 7fe7 833e 564a 3cbd 396b db3c
000002b0: 7135 283e 95b5 b43d 83a7 92be b43b ad3e
000002c0: ea04 f43e b204 cf3c 7f61 ff3d a4c0 013e
000002d0: cbcb 9d3e d3a2 83be f263 163e 6be0 9bbd
000002e0: 902c 37be 3bd0 4f3e ce98 98ba 8190 cebd
000002f0: 2672 a8be c59e afbd a938 2fbe a8c9 2dbe
00000300: 4018 de3d 6452 50be 1f02 fbbd 1378 64be
00000310: 4cd3 383e ae56 2e3e 6805 273e c56a 8f3d

pi.net.4.bias f4 [4]
0.071914904 0.014239356 0.15286215 0.121410444
00000000: 1f48 933d 304c 693c e587 1c3e 0aa6 f83d

v.net.0.weight f4 [64, 34]
0.18614781 -0.1817277 -0.37254024 -0.10319622 0.28993657 0.63978696 -0.2966758 0.19079806
-0.08666986 -0.1719938 -0.22506556 -0.0688036 0.04793637 0.010537586 0.09335751 0.022805035
0.08019288 0.02855005 -0.39333662 -0.3703329 0.19587189 0.4093432 0.565622 -0.10071297
0.43611458 -0.17206015 -0.30123988 -0.19703718 -0.10505636 -0.012280968 0.10600885 0.11089586
-0.0007885071 0.05541157 0.112906836 -0.074889526 -0.2208533 -0.035861697 0.15779755 -0.017752327
-0.013720538 0.040123004 -0.15496625 -0.15109043 -0.13149454 -0.036721468 -0.011389766 0.004824052
0.0047173467 -0.039297104 0.004582853 0.015074168 -0.064464934 -0.4976139 -0.09982553 0.09714353
0.030972416 -0.1708675 -0.05832631 0.10865663 -0.29981077 0.03939663 0.049583104 -0.012012261
0.0049956315 -0.019178484 -0.03294034 0.014243597 -0.050291896 -0.104789354 0.15418768 -0.10631963
0.15093453 -0.12786858 0.06408099 0.051173955 0.05932405 0.14488971 -0.11631687 -0.06526479
0.0043319603 0.06031995 0.03924237 0.03517263 0.04688114 -0.10608977 -0.18107492 0.38087085
-0.06763778 0.04639795 -0.038379826 0.09302207 0.11326323 -0.04586977 0.1443655 0.13151197
0.14321057 -0.022065394 0.05199178 0.029613504 0.018429661 0.028947918 0.5785609 0.09988854
0.064120054 0.115061365 0.009939605 -0.50394213 0.12947729 0.4030345 -0.17972156 0.28561372
-0.11057318 0.19017684 0.051247083 0.03051705 0.031072399 0.038775 -0.0540849 0.52089775
0.16675432 -0.0007142631 0.058978 -0.082686275 -0.47506076 -0.031839933 0.19934246 -0.08017236
0.15343593 0.036571443 -0.060029984 -0.00024041529 0.017066412 0.038885344 0.08808358 -0.08412209
0.44070232 0.22229496 -0.34718132 0.009520206 0.09178588 -0.62908894 -0.22014241 -0.018437253
0.15000284 -0.38593736 -0.025445119 0.086961545 -0.008151026 -0.0067163734 0.008375248 -0.06941126
0.02677332 0.425788 0.297535 -0.21064577 0.21655357 0.024892233 -0.32324472 -0.05637902
0.061411664 0.005260196 -0.093711674 0.0034249898 -0.09020423 0.027212285 -0.028663697 -0.020078348
-0.06709229 0.004129026 0.05704287 0.04284594 -0.13639595 -0.017989023 0.033722337 -0.34664276
-0.14251876 0.03723525 0.05518239 -0.061510656 0.00757408 -0.13475761 0.0528399 -0.044611987
-0.022783166 -0.021868141 0.030427253 -0.10671232 0.10993401 -0.14398189 -0.07489049 -0.102086715
-0.38199556 -0.20618986 -0.08424368 0.11149545 -0.09800818 0.04715247 -0.063043945 -0.14648102
-0.019228237 -0.032585103 -0.01591677 0.050641928 0.2278153 -0.22182012 0.0151629085 -0.055015974
0.07545394 -0.5552712 0.22522093 0.08927424 -0.13143188 -0.07198731 -0.044258427 0.0124061145
0.097905576 0.041603647 0.0059778905 0.07290649 -0.033144765 0.17151766 -0.20234947 0.08306464
0.12524202 0.12988847 -0.3122543 -0.02253244 0.16946793 -0.28815144 -0.098228194 -0.03234071
-0.0036745602 -0.19219203 0.06549254 -0.0063059474 0.026077662 -0.038791183 -0.063882604 -0.15375268
-0.09682559 0.030813087 0.1733267 -0.1855717 -0.11721229 -0.1338017 -0.13451965 0.07283542
-0.09057088 -0.121999 0.08559849 -0.014360986 0.025041874 -0.011911456 0.042159908 -0.28244796
00000000: 889d 3e3e d416 3abe 98bd bebe 8a58 d3bd
00000010: 9172 943e 14c9 233f e4e5 97be 9160 433e
00000020: f87f b1bd 251f 30be 9677 66be e7e8 8cbd
00000030: ed58 443d d7a5 2c3c 3932 bf3d a0d1 ba3c
00000040: 2a3c a43d cbe1 e93c 6b63 c9be 469c bdbe
00000050: a492 483e 6f95 d13e 9acc 103f 9a42 cebd
00000060: 694a df3e 8930 30be 1d3c 9abe 1dc4 49be
00000070: ca27 d7bd 1d36 49bc 2b1b d93d 5e1d e33d
00000080: d1b3 4eba 3ef7 623d b33b e73d ae5f 99bd
00000090: 5e27 62be b7e3 12bd ae95 213e 546d 91bc
000000a0: 1bcc 60bc 0558 243d 79af 1ebe 73b7 1abe
000000b0: 81a6 06be 4069 16bd 249c 3abc 1513 9e3b
000000c0: f993 9a3b 00f6 20bd c22b 963b a5f9 763c
000000d0: 3106 84bd 40c7 febe 5471 ccbd 30f3 c63d
000000e0: ddb9 fd3c e4f7 2ebe 92e7 6ebd 5e87 de3d
000000f0: cc80 99be 5c5e 213d a717 4b3d 13cf 44bc
00000100: 65b2 a33b 321c 9dbc 73ec 06bd fa5d 693c
00000110: e0fe 4dbd cd9b d6bd 60e3 1d3e 1bbe d9bd
00000120: 958e 1a3e fbef 02be e53c 833d c89b 513d
00000130: c6fd 723d f85d 143e 8a37 eebd 8ca9 85bd
00000140: 1ef3 8d3b 0d12 773d 9bbc 203d 2d11 103d
00000150: 7006 403d 9845 d9bd b46b 39be 8101 c33e
00000160: ad85 8abd c70b 3e3d 2a34 1dbd 5b82 be3d
00000170: 8df6 e73d f1e1 3bbd 8dd4 133e 13ab 063e
00000180: cba5 123e 7cc2 b4bc 55f5 543d 0598 f23c
00000190: cdf9 963c 2f24 ed3c 911c 143f 5d92 cc3d
000001a0: 6051 833d 4ba5 eb3d bad9 223c 5a02 01bf
000001b0: b295 043e 8a5a ce3e ee08 38be f63b 923e
000001c0: 3174 e2bd b8bd 423e 76e8 513d e4fe f93c
000001d0: 8b8b fe3c 89d2 1e3d 2188 5dbd 8e59 053f
000001e0: a5c1 2a3e 633d 3bba ea92 713d 6c57 a9bd
000001f0: 2a3b f3be 976a 02bd 6e20 4c3e 6831 a4bd
00000200: 4f1e 1d3e f0cb 153d 00e2 75bd fd17 7cb9
00000210: dcce 8b3c 3d46 1f3d 2a65 b43d 3448 acbd
00000220: bca3 e13e 4aa1 633e c0c1 b1be a3fa 1b3c
00000230: 3cfa bb3d f90b 21bf 036d 61be b909 97bc
00000240: 589a 193e 9599 c5be 4872 d0bc e518 b23d
00000250: e28b 05bc 0615 dcbb 5638 093c 7e27 8ebd
00000260: b953 db3c e200 da3e 8256 983e 86b3 57be
00000270: 38c0 5d3e ccea cb3c 5580 a5be b0ed 66bd
00000280: cc8a 7b3d b95d ac3b e8eb bfbd cb75 603b
00000290: ffbc b8bd 4cec de3c 21d0 eabc 597b a4bc
000002a0: af67 89bd c84c 873b c9a5 693d 397f 2f3d
000002b0: 61ab 0bbe b75d 93bc 6f20 0a3d 297b b1be
000002c0: 70f0 11be fd83 183d ee06 623d 99f2 7bbd
000002d0: fd2f f83b e6fd 09be a76e 583d 0fbb 36bd
000002e0: c3a3 babc d124 b3bc 9342 f93c fd8b dabd
000002f0: 1525 e13d fd6f 13be 2f60 99bd d712 d1bd
00000300: ec94 c3be 6f23 53be f387 acbd ba57 e43d
00000310: 83b8 c8bd f322 413d 2f1d 81bd 1fff 15be
00000320: 8984 9dbc f577 05bd e363 82bc e96d 4f3d
00000330: 6a48 693e d024 63be d96d 783c 6e58 61bd
00000340: 9887 9a3d 4126 0ebf 51a0 663e 6ad5 b63d
00000350: 1496 06be 156e 93bd 5348 35bd 0443 4b3c
00000360: b882 c83d 9668 2a3d 2ee2 c33b ff4f 953d
00000370: cec2 07bd 53a2 2f3e b334 4fbe cb1d aa3d
00000380: 723f 003e 7c01 053e ccdf 9fbe f495 b8bc
00000390: 0089 2d3e 9688 93be dd2b c9bd b177 04bd
000003a0: e4d0 70bb fdcd 44be f420 863d 1fa2 cebb
000003b0: d2a0 d53c 81e3 1ebd e2d4 82bd 5871 1dbe
000003c0: 7f4c c6bd ba6b fc3c 8e7c 313e 8206 3ebe
000003d0: ff0c f0bd 5003 09be 85bf 09be bd2a 953d
000003e0: 3a7d b9bd 9dda f9bd 434e af3d 574a 6bbc
000003f0: 9e24 cd3c 4428 43bc deaf 2c3d 059d 90be

v.net.0.bias f4 [64]
0.06472796 0.28283292 -0.07478403 0.015481276 -0.37648118 -0.2143969 -0.21760187 -0.16271105
-0.26636192 -0.09739215 -0.23584644 -0.108230665 -0.17293003 0.09196623 -0.42794308 -0.07726298
0.058126383 0.011898142 -0.23212092 0.019655606 0.27493402 -0.31985 -0.15866779 -0.31053612
0.44005567 -0.289094 -0.17935154 -0.005149399 0.28620833 -0.1369018 -0.18642585 0.1718743
-0.0068338057 -0.22333431 0.20790222 0.21750286 0.26633096 0.09964347 -0.06995288 0.27044353
-0.19798997 -0.5337338 0.10176393 0.15011413 0.025659952 -0.551706 0.27483833 0.2006158
0.34759197 0.67348176 0.17512527 0.084322006 -0.050597496 0.276318 -0.21211533 -0.2852945
-0.23199035 0.014773841 -0.411874 0.21185288 0.16514921 0.16509287 0.1366664 -0.034494743
00000000: 1890 843d 7acf 903e 5f28 99bd 2ea5 7d3c
00000010: 24c2 c0be dc8a 5bbe 06d3 5ebe ba9d 26be
00000020: 9760 88be 8975 c7bd bb81 71be 0aa8 ddbd
00000030: 9214 31be ca58 bc3d 5b1b dbbe 0e3c 9ebd
00000040: ee15 6e3d 6df0 423c 1bb1 6dbe cb04 a13c
00000050: 27c4 8c3e 61c3 a3be cf79 22be 97fe 9ebe
00000060: fa4e e13e 2104 94be eea7 37be 4abc a8bb
00000070: e689 923e fc2f 0cbe 6be6 3ebe d1ff 2f3e
00000080: 1eee dfbb c0b1 64be 52e4 543e 12b9 5e3e
00000090: 885c 883e e011 cc3d 7543 8fbd 9377 8a3e
000000a0: e2bd 4abe c7a2 08bf 9b69 d03d 85b7 193e
000000b0: d234 d23c 9b3c 0dbf 9cb7 8c3e 3a6e 4d3e
000000c0: 93f7 b13e 4d69 2c3f 0a54 333e 04b1 ac3d
000000d0: 523f 4fbd 8e79 8d3e c334 59be 1f12 92be
000000e0: e18e 6dbe fb0d 723c 26e1 d2be f6ef 583e
000000f0: e01c 293e 1b0e 293e 47f2 0b3e 5c4a 0dbd

v.net.2.weight f4 [64, 64]
0.16803528 0.067663975 -0.027141446 -0.20238605 -0.015633322 0.032691706 0.030278075 -0.09854781
-0.029033193 -0.115218796 -0.18980254 -0.06085163 -0.032202534 0.124999195 -0.07249783 -0.019169556
-0.14042848 -0.028569493 -0.09131445 -0.2956775 0.07147136 -0.041382436 -0.11743439 -0.13099518
-0.039737042 0.14756903 -0.15905505 0.019839704 0.19512947 -0.2788188 -0.053717177 -0.0043667336
0.030688321 0.06938627 0.06980602 -0.0062354193 0.10485583 -0.074218765 -0.11062509 -0.051429436
0.06310591 -0.13253644 0.09355589 0.020947982 -0.032052238 0.13288634 0.109917864 0.12046841
-0.055548243 -0.05556713 0.08175182 0.19500509 -0.005151205 0.08750009 -0.0810971 0.015914133
-0.05733398 -0.07771384 -0.24117208 0.11825886 -0.009027137 -0.06027615 -0.082044266 0.13153291
0.021174144 0.04690079 -0.03621872 0.09320628 0.23972498 0.14581563 0.16517209 0.094339214
-0.027225455 0.035536926 0.002537443 -0.11007218 0.05087591 0.006983445 0.21206799 0.073823124
-0.025684614 -0.12956749 0.02702664 0.29007646 -0.10157377 -0.1428245 0.03177502 0.13242234
0.052733287 -0.251648 -0.028540067 -0.1846488 -0.36938584 0.22449166 -0.064856045 0.27137667
-0.0010596407 -0.04479698 0.1946603 -0.021944087 -0.24825004 0.17416212 0.24702787 0.11870487
-0.16196062 0.2338377 -0.076721124 -0.021275885 0.06341657 -0.040708132 0.08974979 0.109702885
0.07213484 -0.11411702 0.14396574 -0.10643897 0.07071976 0.018313622 0.19484131 -0.007033777
-0.039758194 0.026538655 0.26058647 -0.21200417 -0.14048453 0.1963792 -0.085528746 -0.12131445
0.028137239 0.12543325 -0.055523764 0.043984823 0.11157918 0.073274106 0.11255383 0.043640573
0.00064739655 0.04059561 0.15917952 0.08359681 0.09391898 -0.018095985 0.10373063 -0.036890212
-0.11847883 -0.07612467 0.00093838567 0.010925947 -0.08296299 0.11667198 0.1683272 0.026400141
-0.06306982 0.024657654 -0.08140348 -0.19242808 -0.26241142 0.2594431 -0.039491422 0.08009097
0.047994453 -0.06837299 0.067493096 -0.011841732 -0.1551143 -0.01095494 0.03678364 0.16442184
0.028611716 0.25271448 -0.11850376 -0.055270173 0.10191167 0.0071781836 -0.10721523 0.02331271
-0.006336104 0.0040174555 0.16320734 -0.08678414 -0.037353992 -0.04115068 0.20926192 0.00027225385
-0.13554323 -0.04384936 0.096115574 -0.07238384 -0.13756503 -0.02091702 0.005578066 -0.09192715
0.03580042 0.13779783 -0.05602027 0.07901331 -0.026612887 -0.038684662 -0.052799977 -0.033708446
-0.019102598 -0.039773356 -0.044512715 -0.18411636 0.109913945 -0.21038923 0.10056152 0.114181
-0.06225058 -0.047942277 0.058990356 -0.03233631 -0.013957597 -0.09319625 0.18976799 0.09958933
0.006867575 0.11549735 -0.03483919 0.049872123 0.024833428 0.06968625 -0.09473664 0.07326108
-0.09697785 0.047895312 0.1519701 0.08771745 0.10587195 -0.18476728 -0.015646556 -0.16793871
0.06762952 -0.045214266 0.046219725 -0.033437025 0.0034826784 -0.21548964 -0.057908222 -0.014809292
0.032737907 0.2716136 -0.02988372 -0.08579789 -0.03842946 0.0045731436 0.07356075 -0.100729376
0.009504161 0.07247917 -0.008837459 -0.031496964 0.010336831 -0.028283747 0.0516055 0.025282215
00000000: 7111 2c3e 6993 8a3d bd57 debc 4a3e 4fbe
00000010: 7411 80bc bde7 053d ba09 f83c 6fd3 c9bd
00000020: 05d7 edbc d5f7 ebbd 995b 42be 8f3f 79bd
00000030: cee6 03bd 94ff ff3d be79 94bd 7909 9dbc
00000040: 7ccc 0fbe 920a eabc 1203 bbbd 0b63 97be
00000050: 945f 923d a180 29bd 7181 f0bd 9a23 06be
00000060: 4fc3 22bd 561c 173e 54df 22be e086 a23c
00000070: 05d0 473e 56c1 8ebe 8b06 5cbd d116 8fbb
00000080: 1366 fb3c 641a 8e3d 75f6 8e3d 7d52 ccbb
00000090: a7be d63d 0200 98bd 688f e2bd aca7 52bd
000000a0: ac3d 813d a2b7 07be 3b9a bf3d 1a9b ab3c
000000b0: 3549 03bd 5b13 083e 9e1c e13d 24b8 f63d
000000c0: 8e86 63bd 5c9a 63bd 806d a73d 6aaf 473e
000000d0: 71cb a8bb 3f33 b33d 3d16 a6bd 5b5e 823c
000000e0: 09d7 6abd 6f28 9fbd d0f5 76be b431 f23d
000000f0: 8fe6 13bc 20e4 76bd d306 a8bd 90b0 063e
00000100: 6675 ad3c 0b1b 403d 155a 14bd efe2 be3d
00000110: 777a 753e b150 153e df22 293e eb34 c13d
00000120: eb07 dfbc 2b8f 113d 3b4b 263b 866d e1bd
00000130: 4263 503d 62d5 e43b 5a28 593e 9430 973d
00000140: 8a68 d2bc 57ad 04be f966 dd3c e784 943e
00000150: e905 d0bd 9640 12be 8626 023d b999 073e
00000160: dcfe 573d 02d8 80be dccc e9bc 9314 3dbe
00000170: 2420 bdbe 24e1 653e 3fd3 84bd e2f1 8a3e
00000180: a4e3 8aba 0a7d 37bd 0855 473e 16c4 b3bc
00000190: 4235 7ebe 8e57 323e e0f4 7c3e 8a1b f33d
000001a0: 01d9 25be 2673 6f3e f71f 9dbd c44a aebc
000001b0: 8ce0 813d 92bd 26bd bdce b73d e8ab e03d
000001c0: 6ebb 933d 2fb6 e9bd c16b 133e adfc d9bd
000001d0: 86d5 903d 7306 963c 7b84 473e 997b e6bb
000001e0: 7dd9 22bd 9867 d93c 976b 853e 9f17 59be
000001f0: 2ddb 0fbe a117 493e b229 afbd b673 f8bd
00000200: 1180 e63c 9371 003e e36c 63bd 6e29 343d
00000210: a083 e43d bc10 963d 9f82 e63d 75c0 323d
00000220: 0cb6 293a 9547 263d f5ff 223e ce34 ab3d
00000230: 9858 c03d 083e 94bc b970 d43d 311a 17bd
00000240: 07a5 f2bd 40e7 9bbd fffd 753a be02 333c
00000250: 80e8 a9bd b8f1 ee3d f75d 2c3e 1c45 d83c
00000260: c02a 81bd d9fe c93c deb6 a6bd de0b 45be
00000270: ca5a 86be bad5 843e c2c1 21bd bc06 a43d
00000280: d595 443d 2307 8cbd d239 8a3d d303 42bc
00000290: 48d6 1ebe 597c 33bc 71aa 163d 335e 283e
000002a0: 1e63 ea3c cb63 813e 19b2 f2bd fa62 62bd
000002b0: 11b7 d03d f836 eb3b a993 dbbd 4cfa be3c
000002c0: 189f cfbb dca4 833b d31f 273e e2bb b1bd
000002d0: 8000 19bd 9e8d 28bd c248 563e 4bbd 8e39
000002e0: d8cb 0abe 639b 33bd 3ed8 c43d fb3d 94bd
000002f0: d9dd 0cbe 2c5a abbc 36c8 b63b 4d44 bcbd
00000300: 76a3 123d e01a 0d3e 8375 65bd bbd1 a13d
00000310: 4503 dabc cf73 1ebd ca44 58bd de11 0abd
00000320: 0d7d 9cbc 63e9 22bd f752 36bd 0089 3cbe
00000330: 901a e13d 4670 57be 33f3 cd3d bad7 e93d
00000340: 77fa 7ebd 1f5f 44bd df9f 713d 1473 04bd
00000350: 68ae 64bc addd bebd 8a52 423e 7ef5 cb3d
00000360: 6509 e13b e089 ec3d 8ab3 0ebd b646 4c3d
00000370: 796f cb3c aab7 8e3d 4905 c2bd e809 963d
00000380: 539c c6bd e02d 443d 0d9e 1b3e 35a5 b33d
00000390: 65d3 d83d a233 3dbe 352d 80bc 20f8 2bbe
000003a0: 5981 8a3d 9832 39bd e550 3d3d 43f5 08bd
000003b0: a63d 643b 51a9 5cbe 2c31 6dbd aca2 72bc
000003c0: 2f18 063d f010 8b3e b4ce f4bc ceb6 afbd
000003d0: 3668 1dbd 4fda 953b 05a7 963d 344b cebd
000003e0: 57b7 1b3c f66f 943d fdca 10bc f602 01bd
000003f0: d05b 293c 51b3 e7bc 4a60 533d a61c cf3c

v.net.2.bias f4 [64]
-0.063389525 0.08899705 -0.2217981 -0.0093287295 0.11500582 0.1911091 -0.16837569 0.24429598
0.083704405 -0.15712494 0.00063780847 0.20117235 -0.3026944 -0.09170152 -0.23259299 0.24105188
-0.18682508 0.14536317 -0.25218737 -0.07993221 -0.09098073 0.24744286 0.08091294 0.070560805
0.049320403 0.19788113 0.011696488 -0.023342751 0.2797225 0.069070816 -0.13965687 -0.08402641
-0.12742354 0.21637316 0.12584035 -0.189685 -0.30492827 0.18902908 0.20202462 -0.1291452
-0.067606464 0.09358093 -0.34258524 0.3176935 0.19189249 0.14095184 0.18497954 -0.060363226
0.05084279 0.15561807 0.10532949 -0.18325223 0.07565344 0.208764 0.16461913 0.16024376
-0.17727944 0.26865795 0.054150272 -0.14317925 -0.22875515 -0.12709871 -0.14717315 -0.045167472
00000000: 5ed2 81bd 1644 b63d 0b1f 63be 87d7 18bc
00000010: 2c88 eb3d 1bb2 433e ad6a 2cbe ba28 7a3e
00000020: 376d ab3d 5ce5 20be 9a32 273a 2000 4e3e
00000030: c3fa 9abe 02ce bbbd db2c 6ebe 4ed6 763e
00000040: 134f 3fbe 15da 143e b41e 81be 80b3 a3bd
00000050: 1b54 babd a961 7d3e afb5 a53d 2f82 903d
00000060: 3104 4a3d 5aa1 4a3e a0a2 3f3c 4c39 bfbc
00000070: ca37 8f3e 0075 8d3d 3602 0fbe 0a16 acbd
00000080: 517b 02be ed90 5d3e 4bdc 003e c93c 42be
00000090: 8f1f 9cbe d790 413e 8bdf 4e3e a43e 04be
000000a0: 4275 8abd 5ca7 bf3d 5567 afbe b9a8 a23e
000000b0: 777f 443e ae55 103e 476b 3d3e 6e3f 77bd
000000c0: 8840 503d 585a 1f3e fdb6 d73d 79a6 3bbe
000000d0: 31f0 9a3d 3bc6 553e eb91 283e f116 243e
000000e0: be88 35be 898d 893e adcc 5d3d 959d 12be
000000f0: ca3e 6abe 2a26 02be 8fb4 16be 8701 39bd

v.net.4.weight f4 [1, 64]
0.14777364 -0.12966569 0.18247326 0.029076692 -0.13217883 -0.15186504 0.17870215 -0.11760236
-0.17419153 0.19164617 0.11584731 -0.12569182 0.109278016 0.15978713 0.15602688 -0.18849622
0.20619117 -0.11513785 0.108454525 0.20390218 0.098181896 -0.13929081 -0.13027893 0.11225192
-0.0009575281 -0.21565227 -0.2196937 -0.1685936 -0.18860589 -0.18106596 0.1387659 0.20876315
0.12653537 -0.09000368 -0.19975105 0.13864607 0.20114936 -0.11536889 -0.22055654 0.11527159
0.15240178 -0.10410212 0.098512754 -0.13583967 -0.18483526 -0.13956967 -0.1311077 0.11433628
-0.12663527 -0.1478048 -0.14489172 0.10222486 -0.12532786 -0.22071826 -0.12961815 -0.21830904
0.1899886 -0.1641889 -0.15785903 0.16401927 0.13408421 0.10176157 0.15717658 0.12411535
00000000: f951 173e 15c7 04be 45da 3a3e 3e32 ee3c
00000010: e359 07be 8282 1bbe b2fd 363e 82d9 f0bd
00000020: 445f 32be e53e 443e 5b41 ed3d 5bb5 00be
00000030: 27cd df3d 3d9f 233e 83c5 1f3e 2705 41be
00000040: c723 533e 65cd ebbd 681d de3d bccb 503e
00000050: 9713 c93d 40a2 0ebe d767 05be 56e4 e53d
00000060: 9f02 7bba f3d3 5cbe 63f7 60be cda3 2cbe
00000070: e721 41be 5b69 39be a618 0e3e 02c6 553e
00000080: 7d92 013e d953 b8bd 8a8b 4cbe 3cf9 0d3e
00000090: 19fa 4d3e 8646 ecbd 93d9 61be 8313 ec3d
000000a0: 360f 1c3e 7e33 d5bd 0ec1 c93d 8e19 0bbe
000000b0: 7445 3dbe 5aeb 0ebe 1941 06be 2429 ea3d
000000c0: adac 01be 245a 17be 7f5e 14be 445b d13d
000000d0: f255 00be f803 62be 9fba 04be 688c 5fbe
000000e0: 5f8c 423e 2321 28be cca5 21be abf4 273e
000000f0: 5f4d 093e 5f68 d03d e6f2 203e 3030 fe3d
