runs/phoenix/DroneHoverBulletEnvWithAdversary-v0/ppo/2023-08-16__13-43-30/seed_13554/torch_save/model.pt (torch, 49538 bytes, 14 tensors)

obs_oms.mean f4 [34]
0.0 0.0 0.0 0.0 0.0 0.0 0.0 0.0
0.0 0.0 0.0 0.0 0.0 0.0 0.0 0.0
0.0 0.0 0.0 0.0 0.0 0.0 0.0 0.0
0.0 0.0 0.0 0.0 0.0 0.0 0.0 0.0
0.0 0.0
00000000: 0000 0000 0000 0000 0000 0000 0000 0000
00000010: 0000 0000 0000 0000 0000 0000 0000 0000
00000020: 0000 0000 0000 0000 0000 0000 0000 0000
00000030: 0000 0000 0000 0000 0000 0000 0000 0000
00000040: 0000 0000 0000 0000 0000 0000 0000 0000
00000050: 0000 0000 0000 0000 0000 0000 0000 0000
00000060: 0000 0000 0000 0000 0000 0000 0000 0000
00000070: 0000 0000 0000 0000 0000 0000 0000 0000
00000080: 0000 0000 0000 0000

obs_oms.std f4 [34]
1.0 1.0 1.0 1.0 1.0 1.0 1.0 1.0
1.0 1.0 1.0 1.0 1.0 1.0 1.0 1.0
1.0 1.0 1.0 1.0 1.0 1.0 1.0 1.0
1.0 1.0 1.0 1.0 1.0 1.0 1.0 1.0
1.0 1.0
00000000: 0000 803f 0000 803f 0000 803f 0000 803f
00000010: 0000 803f 0000 803f 0000 803f 0000 803f
00000020: 0000 803f 0000 803f 0000 803f 0000 803f
00000030: 0000 803f 0000 803f 0000 803f 0000 803f
00000040: 0000 803f 0000 803f 0000 803f 0000 803f
00000050: 0000 803f 0000 803f 0000 803f 0000 803f
00000060: 0000 803f 0000 803f 0000 803f 0000 803f
00000070: 0000 803f 0000 803f 0000 803f 0000 803f
00000080: 0000 803f 0000 803f

pi.log_std f4 [4]
-0.6931472 -0.6931472 -0.6931472 -0.6931472
00000000: 1872 31bf 1872 31bf 1872 31bf 1872 31bf

pi.net.0.weight f4 [50, 34]
-0.05749646 -0.08834485 -0.013274762 0.13385643 0.024156487 -0.1000966 0.11170505 -0.060142104
0.15209982 -0.16841547 0.16976018 -0.0824305 -0.15120377 -0.016244674 -0.050134063 -0.06376617
-0.10871065 -0.023648487 0.16426846 0.12108276 -0.1291368 0.03954745 0.14698246 0.12527773
0.14473961 0.019198496 -0.14881888 0.14759181 0.034721736 -0.12219531 0.04928536 0.11850268
-0.061641503 -0.017774863 -0.014959366 -0.016665885 -0.17116927 0.0005623593 0.15547454 0.08448737
-0.15928206 0.16800876 -0.030330867 0.16892277 -0.0031358986 -0.053627532 0.058018826 -0.168039
-0.028649043 -0.14775881 0.0056261076 0.04019232 -0.009907823 0.058813393 -0.037702255 0.13100593
-0.16080119 0.019313965 -0.04107087 -0.16918133 0.07407231 0.054890227 0.08425862 0.12924635
-0.14691435 -0.051475532 -0.016201599 -0.17127275 0.016352333 0.021234475 0.110891946 -0.10000174
-0.10942203 0.15168858 -0.09969127 0.021711644 -0.14441307 0.054145772 0.12443226 0.0725799
-0.045760654 -0.08567332 -0.08030162 -0.008716579 0.1398865 0.011179372 0.07513367 0.024039157
-0.1458037 0.091447584 0.012150432 0.075165115 -0.054261956 -0.022069642 0.0028269659 0.03699591
-0.050894078 0.090719715 0.15356907 0.09153425 -0.1478916 -0.1133403 0.090212636 0.05772537
0.030056648 -0.055193454 -0.08514549 0.014090855 -0.09762904 -0.10306671 0.024091493 0.020038692
-0.1378502 0.06272204 -0.020777628 0.041157495 -0.113030106 -0.1581278 -0.16208692 0.015912987
0.11829711 0.08595621 0.011318147 -0.03260081 -0.09316517 0.12994888 0.046706956 -0.039745677
-0.14722905 0.021083454 -0.17132264 0.11529655 0.005605152 0.08023827 -0.112724096 -0.116905406
-0.10181201 -0.11664421 -0.08648725 -0.034338772 0.16725849 -0.14976251 -0.16874044 0.08946362
0.050907344 0.028168134 0.061463658 0.043527104 0.12979135 -0.050017163 -0.11213647 0.006551127
0.16643761 0.005445421 0.030697636 0.08917799 0.00024056718 -0.08210266 -0.071043395 -0.00010138291
-0.03559781 -0.0626049 -0.091742985 -0.016178394 0.10024326 -0.015740806 0.099175155 -0.13896841
0.13842882 -0.011854175 -0.025079645 0.15649298 -0.11386725 0.07984197 0.1099913 0.12762362
-0.0714194 0.108898796 0.14797129 -0.1494975 0.14607862 0.14618403 -0.007984287 -0.07739345
-0.038267437 -0.1507321 0.1452985 -0.036970027 -0.07508321 0.15939754 -0.021120152 0.117288224
0.14783192 0.052606832 -0.0713216 0.009622851 0.030322792 -0.07382951 0.14171311 0.16244063
0.13131295 -0.081871204 0.13595632 -0.13711311 0.12818383 0.1430577 -0.15435365 0.14840475
0.06778189 0.061249588 0.04558007 -0.17112628 -0.07945161 -0.15105769 0.031034147 0.060966678
-0.08734831 -0.16515155 0.045412734 -0.12592635 -0.11422789 0.113658234 -0.061044306 -0.14243782
0.080031 -0.13139218 -0.018850148 -0.078795 -0.032041334 0.1598405 -0.021753492 -0.012659698
-0.1434875 -0.13563393 0.10858287 0.06358315 0.11779257 -0.006411411 -0.1690758 -0.015727783
-0.16054668 0.013439951 0.045605034 0.079783194 -0.054256067 -0.16074915 -0.077201396 -0.13530464
-0.13017878 -0.06602552 -0.079164654 -0.11457771 -0.16281606 0.16670953 0.13415848 -0.083243445
00000000: 6881 6bbd 25ee b4bd 637e 59bc a911 093e
00000010: d3e3 c53c 72ff ccbd 9ec5 e43d 9157 76bd
00000020: 0ec0 1b3e 1b75 2cbe 9dd5 2d3e 52d1 a8bd
00000030: 29d5 1abe 8d13 85bc 6059 4dbd d697 82bd
00000040: b0a3 debd 79ba c1bc fe35 283e 3dfa f73d
00000050: 703c 04be 82fc 213d 9282 163e ce48 003e
00000060: 9f36 143e 2a46 9d3c fa63 18be 4f22 173e
00000070: 6138 0e3d 8941 fabd 72df 493d 88b1 f23d
00000080: cd7b 7cbd 979c 91bc 2118 75bc e586 88bc
00000090: ff46 2fbe 4b6b 133a b834 1f3e b707 ad3d
000000a0: d61a 23be 7d0a 2c3e 7078 f8bc 17fa 2c3e
000000b0: a683 4dbb 8ba8 5bbd 26a5 6d3d 6a12 2cbe
000000c0: 66b1 eabc 164e 17be 365b b83b b4a0 243d
000000d0: 6c54 22bc 50e6 703d ae6d 1abd 6b26 063e
000000e0: 11a9 24be 5238 9e3c ee39 28bd df3d 2dbe
000000f0: 39b3 973d 93d4 603d c98f ac3d 2859 043e
00000100: b770 16be 02d8 52bd 37b9 84bc 2062 2fbe
00000110: 54f5 853c ecf3 ad3c 511b e33d b6cd ccbd
00000120: a818 e0bd 4054 1b3e f02a ccbd 9edc b13c
00000130: 05e1 13be f5c7 5d3d 57d6 fe3d c5a4 943d
00000140: 866f 3bbd 7e75 afbd 2d75 a4bd fbcf 0ebc
00000150: 683e 0f3e af29 373c aedf 993d c4ed c43c
00000160: 914d 15be df48 bb3d 9b12 473c 2bf0 993d
00000170: c941 5ebd 65cb b4bc 9e44 393b 0689 173d
00000180: 4f76 50bd 42cb b93d 3641 1d3e 4f76 bb3d
00000190: e570 17be f61e e8bd 67c1 b83d 7071 6c3d
000001a0: 5c39 f63c 8812 62bd c260 aebd 54dd 663c
000001b0: bcf1 c7bd a414 d3bd 865b c53c 2f28 a43c
000001c0: 9a28 0dbe 6a74 803d d835 aabc c394 283d
000001d0: 547c e7bd 41ec 21be 1dfa 25be f45b 823c
000001e0: c145 f23d cf09 b03d c06f 393c 6d88 05bd
000001f0: 61cd bebd 5211 053e cb4f 3f3d 5dcc 22bd
00000200: 36c3 16be 35b7 ac3c 346f 2fbe 9920 ec3d
00000210: 6cab b73b f653 a43d e4db e6bd 1a6c efbd
00000220: d182 d0bd 29e3 eebd 3a20 b1bd d0a6 0cbd
00000230: cf45 2b3e 585b 19be 4bca 2cbe b438 b73d
00000240: 3884 503d dcc0 e63c 51c1 7b3d 7a49 323d
00000250: 06e8 043e ccde 4cbd cea7 e5bd d6aa d63b
00000260: 9f6e 2a3e 816f b23b 9c79 fb3c f3a2 b63d
00000270: c340 7c39 7025 a8bd 337f 91bd 899d d4b8
00000280: 02cf 11bd ff36 80bd bfe3 bbbd 8d88 84bc
00000290: 574c cd3d ddf2 80bc 581c cb3d bc4d 0ebe
000002a0: 49c0 0d3e 0338 42bc d473 cdbc b23f 203e
000002b0: 3c33 e9bd 3084 a33d 1e43 e13d c4af 023e
000002c0: 5644 92bd 5506 df3d c985 173e df15 19be
000002d0: a295 153e 44b1 153e 87d0 02bc 7580 9ebd
000002e0: 51be 1cbd 8459 1abe 21c9 143e e26d 17bd
000002f0: 3ac5 99bd 1c39 233e 2b04 adbc cf34 f03d
00000300: 4061 173e 437a 573d 0f11 92bd 2aa9 1d3c
00000310: 8167 f83c ed33 97bd 3e1d 113e d656 263e
00000320: e776 063e 17ac a7bd 2238 0b3e 6167 0cbe
00000330: 9f42 033e b87d 123e e20e 1ebe 6af7 173e
00000340: 3bd1 8a3d d9e0 7a3d 2bb2 3a3d ba3b 2fbe
00000350: 87b7 a2bd deae 1abe 533b fe3c 32b8 793d
00000360: ace3 b2bd 7d1d 29be b402 3a3d d6f2 00be
00000370: 50f0 e9bd a6c5 e83d 9809 7abd 38db 11be
00000380: 4be7 a33d ac8b 06be a06b 9abc 465f a1bd
00000390: c63d 03bd 3aad 233e 6134 b2bc 9f6a 4fbc
000003a0: 63ee 12be 9fe3 0abe b260 de3d e237 823d
000003b0: 3b3d f13d d016 d2bb 3522 2dbe 8dd7 80bc
000003c0: 5966 24be 3e33 5c3c 58cc 3a3d 5f65 a33d
000003d0: 9c3b 5ebd 6d9b 24be c41b 9ebd 4d8d 0abe
000003e0: 964d 05be 6338 87bd 1421 a2bd b8a7 eabd
000003f0: 41b9 26be e7b5 2a3e d760 093e 8a7b aabd

pi.net.0.bias f4 [50]
0.13992663 0.07538628 -0.020889152 -0.055085264 0.058557592 0.11509957 -0.11331035 0.12237068
-0.004115402 -0.14371517 -0.1464389 0.12679154 0.017087895 -0.0062096263 0.14395344 0.10939463
0.057232503 -0.16684233 0.051222656 -0.10611846 -0.06852855 -0.11317317 -0.11677199 0.09357475
-0.07434996 0.035038948 -0.051514823 0.037932254 0.11512364 -0.14641535 0.028626105 0.0034271062
-0.12072102 -0.030486591 0.033694107 0.12653826 -0.037427977 -0.031828057 -0.09845096 -0.12313695
-0.07683772 -0.044904653 -0.13701142 -0.12208847 -0.024024395 -0.11883837 -0.0075808614 0.10623283
-0.07746791 0.07981306
00000000: ed48 0f3e 1f64 9a3d ba1f abbc 16a1 61bd
00000010: 16da 6f3d 53b9 eb3d 420f e8bd 7b9d fa3d
00000020: 7eda 86bb 122a 13be 14f4 15be a4d5 013e
00000030: eafb 8b3c 1f7a cbbb 8868 133e 4b0a e03d
00000040: a16c 6a3d b7d8 2abe d9ce 513d a354 d9bd
00000050: b258 8cbd 56c7 e7bd 2726 efbd 1ea4 bf3d
00000060: cb44 98bd 0085 0f3d 3501 53bd da5e 1b3d
00000070: f1c5 eb3d e8ed 15be 4b81 ea3c 4d99 603b
00000080: 953c f7bd 04bf f9bc d502 0a3d 3f93 013e
00000090: 144e 19bd 235e 02bd a8a0 c9bd 3a2f fcbd
000000a0: 185d 9dbd f1ed 37bd b94c 0cbe 8509 fabd
000000b0: cfce c4bc 8861 f3bd e068 f8bb 9990 d93d
000000c0: 7fa7 9ebd 0875 a33d

pi.net.2.weight f4 [50, 50]
-0.0023965205 -0.10515376 0.052975137 0.0129084 0.028529573 -0.07456801 -0.011024605 0.019296868
-0.019882794 0.063257515 -0.015660757 -0.11262606 0.019797135 0.07357891 0.12110068 -0.062217567
0.037151117 -0.13593566 0.07308183 0.019618213 -0.12950303 -0.061705552 0.07754533 0.028596891
-0.06399606 -0.1304085 -0.12921323 -0.030913096 0.064559296 -0.054854024 0.05978716 0.045199007
-0.0040658056 0.06832159 -0.02374412 -0.11167413 -0.008795862 -0.04393268 -0.0970158 -0.12322392
-0.07892018 -0.08869914 0.087051116 0.09921168 0.056362174 -0.06037801 0.02001505 -0.12832534
0.06871727 -0.13548757 0.049111012 -0.12464569 -0.13279927 -0.122965746 0.105021894 0.13794883
0.108078584 -0.10062773 -0.139695 -0.065877214 -0.06998331 0.06444412 -0.06912438 -0.04294651
-0.005080651 -0.1333958 0.056981478 0.073879555 -0.059139147 0.05190983 -0.13884816 -0.009944904
-0.13957775 0.10973216 -0.08619319 0.029409027 -0.0820143 -0.12984483 0.03204698 0.035572432
-0.058206387 -0.108454466 0.08836403 -0.03295324 0.07614423 -0.11945296 -0.0032812166 -0.05813841
0.020089177 0.09390603 0.12428636 -0.10754583 0.10107995 0.123022005 -0.119792424 0.044317987
-0.057346202 -0.060818866 0.13172944 -0.059363198 -0.01247916 -0.00034471066 -0.0004105272 -0.08208817
-0.11406047 0.11320855 0.07662816 -0.04909941 0.04640594 0.09875493 0.07860991 -0.107918546
-0.07582635 0.081740394 0.07874999 -0.029324194 -0.13207647 0.06487606 -0.13419765 -0.07535103
0.07234554 -0.07266655 -0.012847236 0.013413134 0.04606418 0.042847097 0.0030615977 -0.06675807
0.1126718 0.020228077 0.083113015 -0.13767743 0.09695298 -0.042143192 0.05132259 -0.07465642
0.11428823 0.09862692 -0.08690084 -0.055176347 0.062154096 0.13476291 -0.06434413 -0.101740174
-0.03530205 0.107264206 -0.019938882 -0.026486447 0.0044471165 0.118128434 0.10548386 0.109721534
-0.05095008 0.13440277 -0.12845908 -0.031813674 -0.03551206 0.10563393 0.12665048 -0.0886063
0.124254145 0.015040357 0.0072947433 0.0600744 0.08558149 -0.06442601 0.0833122 0.0853671
0.008827405 -0.113328785 0.08863587 -0.0898232 -0.053372867 0.06815874 -0.06704271 0.12190467
-0.06910298 -0.068976 -0.025211116 -0.06383028 0.112933226 0.09912197 -0.07377371 -0.019490609
0.08387085 0.098933525 -0.04204804 -0.10694723 -0.036113985 -0.0017216145 -0.007421234 0.1379873
-0.1191505 0.094749674 -0.05906768 -0.0623504 -0.002446709 0.10656565 0.049117737 -0.12646224
-0.031277902 0.0033186767 -0.050160687 -0.091370694 0.05808131 -0.09327181 0.084942915 0.04333588
-0.018576916 -0.03888738 -0.051345147 0.059591785 -0.10697476 0.005447413 0.035423096 0.1384457
-0.014418387 -0.023711076 0.07955513 -0.05760429 6.4248656e-05 -0.09078548 -0.082245804 0.00092015
0.08449356 0.08267417 0.1026039 -0.1310631 0.07490273 0.04569612 -0.0227214 0.037324205
-0.13921846 0.08287099 -0.08855424 -0.12992047 0.030856771 -0.10411454 -0.041431196 0.050448213
0.1186944 -0.11761943 0.1093333 0.13149714 0.08207204 0.044764556 -0.04144723 0.047537517
0.12715308 -0.01987069 0.032533895 0.11350297 0.03403429 -0.06566142 -0.06350033 0.0154251745
00000000: f10e 1dbb db5a d7bd 75fc 583d c17d 533c
00000010: dab6 e93c 1db7 98bd 8ba0 34bc 7714 9e3c
00000020: 3ee1 a2bc 288d 813d fd4a 80bc 7ea8 e6bd
00000030: 9a2d a23c 8ab0 963d a203 f83d d9d7 7ebd
00000040: c52b 183d b832 0bbe edab 953d 60b6 a03c
00000050: 719c 04be f6be 7cbd 16d0 9e3d 0744 ea3c
00000060: 5e10 83bd ce89 05be 7950 04be 763d fdbc
00000070: aa37 843d 9dae 60bd 62e3 743d 9822 393d
00000080: 733a 85bb 31ec 8b3d 0783 c2bc 68b5 e4bd
00000090: 851c 10bc c1f2 33bd 38b0 c6bd d35c fcbd
000000a0: e7a0 a1bd e5a7 b5bd db47 b23d 7e2f cb3d
000000b0: 06dc 663d ef4e 77bd 9af6 a33c b867 03be
000000c0: a4bb 8c3d 41bd 0abe a128 493d 3d46 ffbd
000000d0: 88fc 07be 77d5 fbbd b815 d73d 7542 0d3e
000000e0: 4e58 dd3d e915 cebd 350c 0fbe a2ea 86bd
000000f0: 6953 8fbd 47fb 833d 1591 8dbd aee8 2fbd
00000100: 977b a6bb e998 08be 6965 693d 2a4e 973d
00000110: e43b 72bd 679f 543d 362e 0ebe f3ef 22bc
00000120: 78ed 0ebe 41bb e03d 0e86 b0bd 33eb f03c
00000130: 1df7 a7bd 0bf6 04be b243 033d 66b4 113d
00000140: d269 6ebd 601d debd 33f8 b43d faf9 06bd
00000150: 82f1 9b3d c1a3 f4bd ae09 57bb 8b22 6ebd
00000160: 0f92 a43c ce51 c03d d989 fe3d fd40 dcbd
00000170: 0103 cf3d f6f2 fb3d bb55 f5bd c786 353d
00000180: dae3 6abd 341d 79bd 15e4 063e d326 73bd
00000190: 6475 4cbc 48ba b4b9 073c d7b9 d81d a8bd
000001a0: 8998 e9bd e2d9 e73d 3aef 9c3d 771c 49bd
000001b0: 2814 3e3d 0640 ca3d 3cfe a03d 6604 ddbd
000001c0: d84a 9bbd 8267 a73d ad47 a13d 4b39 f0bc
000001d0: 0e3f 07be bddd 843d 1c6b 09be a451 9abd
000001e0: e629 943d 33d2 94bd 377d 52bc c3c2 5b3c
000001f0: cbad 3c3d 7080 2f3d 16a5 483b 74b8 88bd
00000200: 79c0 e63d 5ab5 a53c 2837 aa3d 50fb 0cbe
00000210: 498f c63d 579e 2cbd a337 523d 77e5 98bd
00000220: f30f ea3d e9fc c93d 11f9 b1bd 9800 62bd
00000230: 4b95 7e3d 4aff 093e dbc6 83bd 275d d0bd
00000240: e298 10bd 56ad db3d de56 a3bc 1bfa d8bc
00000250: 1eb9 913b 52ed f13d ec07 d83d afb5 e03d
00000260: 08b1 50bd e1a0 093e c78a 03be 0e4f 02bd
00000270: 1875 11bd 9a56 d83d aab0 013e 3877 b5bd
00000280: f578 fe3d d46b 763c be08 ef3b 9310 763d
00000290: 5945 af3d c9f1 83bd 969f aa3d f2d4 ae3d
000002a0: d2a0 103c ec18 e8bd b986 b53d 3af5 b7bd
000002b0: 829d 5abd cf96 8b3d b04d 89bd 28a9 f93d
000002c0: dd85 8dbd 4a43 8dbd 8b87 cebc 73b9 82bd
000002d0: 8949 e73d 7600 cb3d ac16 97bd c5aa 9fbc
000002e0: 7bc4 ab3d a99d ca3d 913a 2cbd 2607 dbbd
000002f0: 42ec 13bd cca7 e1ba d32d f3bb 8b4c 0d3e
00000300: 2d05 f4bd 1e0c c23d f4f0 71bd 2263 7fbd
00000310: f758 20bb 173f da3d ae2f 493d 517f 01be
00000320: 421d 00bd 287e 593b 4b75 4dbd 8f20 bbbd
00000330: abe6 6d3d 4a05 bfbd 8df6 ad3d f780 313d
00000340: 9e2e 98bc 6048 1fbd 4a4f 52bd 8416 743d
00000350: 9515 dbbd 3680 b23b cf17 113d b6c4 0d3e
00000360: 193b 6cbc bb3d c2bc cded a23d 7af2 6bbd
00000370: 3cbd 8638 bded b9bd 7d70 a8bd 3936 713a
00000380: f60a ad3d 1351 a93d fe21 d23d 6835 06be
00000390: 9a66 993d db2b 3b3d 3b22 babc 44e1 183d
000003a0: 498f 0ebe 44b8 a93d ed5b b5bd df09 05be
000003b0: 57c7 fc3c 013a d5bd c2b3 29bd c9a2 4e3d
000003c0: 0d16 f33d 75e2 f0bd 23ea df3d 30a7 063e
000003d0: 6315 a83d 0a5b 373d 92c4 29bd b3b6 423d
000003e0: 6b34 023e dbc7 a2bc 4342 053d 3f74 e83d
000003f0: 8a67 0b3d 7f79 86bd 760c 82bd dfb9 7c3c

pi.net.2.bias f4 [50]
-0.04856354 0.084984876 0.08651241 0.063514106 0.1107348 -0.055783648 0.021246497 0.026864436
0.10393585 -0.065120876 -0.11319486 -0.010049563 0.11322293 -0.12136245 -0.037445337 -0.103990085
0.11687119 0.050063226 0.01832631 -0.10715346 -0.064844444 -0.10796469 0.114487566 0.02852047
-0.019987706 -0.13647111 -0.0649546 -0.028378807 0.02731674 -0.12834413 -0.04480227 0.09603566
0.10083125 -0.049085993 -0.114077516 -0.087620676 0.081011206 -0.0562285 -0.04868548 -0.08593345
-0.1289181 -0.10670495 0.004735249 0.05137241 0.10968588 -0.04013744 0.13459009 0.057255503
-0.025540149 0.12612562
00000000: 90ea 46bd 8d0c ae3d 6b2d b13d af13 823d
00000010: edc8 e23d 657d 64bd 220d ae3c ce12 dc3c
00000020: 52dc d43d 185e 85bd b5d2 e7bd eca6 24bc
00000030: 6ce1 e73d e08c f8bd 4860 19bd c1f8 d4bd
00000040: 2a5a ef3d 190f 4d3d 0f21 963c 4673 dbbd
00000050: 2acd 84bd 971c ddbd 7578 ea3d c3a3 e93c
00000060: 42bd a3bc 15bf 0bbe eb06 85bd ac7a e8bc
00000070: 5bc7 df3c a56c 03be 9682 37bd 58ae c43d
00000080: 9d80 ce3d 650e 49bd 79a1 e9bd 7872 b3bd
00000090: 34e9 a53d db4f 66bd 6d6a 47bd e0fd afbd
000000a0: 1b03 04be 2088 dabd 262a 9b3b e06b 523d
000000b0: fea2 e03d 2867 24bd fcd1 093e bf84 6a3d
000000c0: 9339 d1bc 1327 013e

pi.net.4.weight f4 [4, 50]
0.027492307 -0.09371061 -0.05049727 0.115183316 -0.03294043 0.059293874 -0.035428304 -0.09344004
-0.057288293 0.13826083 -0.0874064 -0.0833341 -0.094684295 0.01986622 0.10355326 0.0361654
-0.04888979 0.12702343 -0.06137441 0.062003464 0.07387084 -0.076680966 0.0062424713 0.024612715
-0.030856334 0.030559603 0.038449086 -0.13690266 -0.12764524 -0.043147568 0.09829519 0.0915103
0.0748683 0.06817398 0.110532776 0.06528669 -0.06922016 0.06605202 -0.03769046 -0.14126444
-0.064979434 0.018582057 0.13866691 -0.015649885 0.019592049 -0.03913389 -0.062297177 -0.008239018
-0.053404175 -0.005293189 0.04549906 0.03371151 -0.008347672 -0.0869007 0.0047488203 0.06419918
-0.055566106 -0.087127015 0.12179821 0.028716048 0.03582887 -0.13208513 0.14140832 0.12177267
-0.13559793 0.089426465 0.12553737 -0.017972969 -0.13075696 -0.11971676 -0.10849916 -0.032568876
-0.054494176 0.11235903 0.06877599 -0.13343327 -0.0147705665 0.049000215 -0.043613847 0.11010286
-0.13285165 0.027309928 0.035202835 0.12684806 0.13823712 0.06688666 -0.13893789 -0.06016126
-0.05276157 -0.04043498 -0.07249098 -0.08665819 -0.027176693 0.07704411 -0.0933093 -0.018270036
-0.050433055 0.09394145 0.13062784 0.14005092 -0.024218507 -0.07778726 -0.05051317 0.063765876
-0.121866606 -0.13032772 -0.13382861 0.012297591 -0.043760214 0.10177286 0.08886051 0.13633117
0.08504132 -0.101956435 -0.073535345 0.08058908 0.02278956 0.11584726 0.020798678 0.05222969
-0.101215914 0.03717428 -0.09409086 0.047886442 0.095746316 -0.0826068 -0.033315502 0.06275956
0.10801741 0.1081081 0.1266567 0.0191036 0.073119 -0.086978085 -0.05777239 0.022176627
0.13345648 0.061905835 -0.06394881 0.008644117 0.12277468 0.08595204 -0.12566186 -0.1054236
-0.12703097 0.13392588 0.048292838 -0.0035097706 0.021168947 -0.11513682 0.13174659 0.13353273
-0.12596154 0.032453142 0.12950853 0.03743893 0.14082749 0.12732923 0.12077939 0.11377436
-0.11939697 0.13596077 0.12667975 0.09812689 0.03448115 -0.08071415 0.062359605 -0.01082847
0.12528813 0.089770146 -0.05583655 -0.01977262 -0.0018826998 0.041505747 0.055612534 -0.016295237
-0.10400976 -0.0021295792 -0.1048933 0.048429023 -0.023868453 -0.0012134078 -0.02184773 0.13882005
0.076340996 -0.07534904 0.02463834 0.11283185 0.039137885 -0.04529787 -0.036336552 -0.05989263
0.101609245 -0.005063405 0.0024533006 -0.069361985 -0.063405134 0.08576058 -0.032233912 -0.092998594
00000000: 8c37 e13c 59eb bfbd 3ad6 4ebd 3be5 eb3d
00000010: 8bec 06bd 22de 723d 451d 11bd 7e5d bfbd
00000020: 21a7 6abd 3f94 0d3e 2002 b3bd 12ab aabd
00000030: d7e9 c1bd 7cbe a23c bb13 d43d 2c22 143d
00000040: a940 48bd 6e12 023e bc63 7bbd 58f7 7d3d
00000050: 9849 973d e90a 9dbd a58d cc3b 9ba0 c93c
00000060: 6cc6 fcbc 2258 fa3c ca7c 1d3d 3630 0cbe
00000070: 6fb5 02be 81bb 30bd fd4e c93d c169 bb3d
00000080: 8d54 993d cd9e 8b3d 025f e23d 07b5 853d
00000090: 4dc3 8dbd 4846 873d 5061 1abd a0a7 10be
000000a0: f013 85bd 6639 983c b3fe 0d3e 3034 80bc
000000b0: 817f a03c dc4a 20bd 532b 7fbd f2fc 06bc
000000c0: 56be 5abd 7d72 adbb 395d 3a3d 1515 0a3d
000000d0: adc4 08bc fff8 b1bd fe9b 9b3b dc7a 833d
000000e0: 4999 63bd a66f b2bd 5771 f93d eb3d eb3c
000000f0: 4bc1 123d 5341 07be 58cd 103e f363 f93d
00000100: 2fda 0abe 3925 b73d de8c 003e 0c3c 93bc
00000110: 27e5 05be 102e f5bd cf34 debd f166 05bd
00000120: 4935 5fbd 7e1c e63d 6dda 8c3d bba2 08be
00000130: 3f00 72bc 73b4 483d 6fa4 32bd 9c7d e13d
00000140: 430a 08be 12b9 df3c d930 103d 75e4 013e
00000150: 088e 0d3e e0fb 883d bc45 0ebe a76b 76bd
00000160: 841c 58bd 269f 25bd 2776 94bd d979 b1bd
00000170: a8a1 debc 4dc9 9d3d f218 bfbd 0bab 95bc
00000180: e492 4ebd 6064 c03d 4ec3 053e 8269 0f3e
00000190: e465 c6bc ed4e 9fbd e6e6 4ebd af97 823d
000001a0: 3395 f9bd a174 05be 5e0a 09be d67b 493c
000001b0: e93d 33bd 4a6e d03d 80fc b53d 669a 0b3e
000001c0: 252a ae3d 89ce d0bd b399 96bd e30b a53d
000001d0: 2cb1 ba3c 5441 ed3d fd61 aa3c cdee 553d
000001e0: 4a4a cfbd 0f44 183d b5b2 c0bd 9324 443d
000001f0: a516 c43d c12d a9bd d675 08bd 1688 803d
00000200: 3b38 dd3d c867 dd3d 4bb2 013e 277f 9c3c
00000210: 6abf 953d 9121 b2bd bea2 6cbd c2ab b53c
00000220: d1a8 083e f990 7d3d 98f7 82bd 0ea0 0d3c
00000230: 4b71 fb3d a007 b03d 81ad 00be 54e8 d7bd
00000240: 6814 02be de23 093e b6ce 453d 2e04 66bb
00000250: 806a ad3c dacc ebbd 94e8 063e cebc 083e
00000260: 10fc 00be 96ed 043d e29d 043e 9059 193d
00000270: 1535 103e 9862 023e 2f5b f73d 8802 e93d
00000280: 6686 f4bd 4d39 0b3e 56b8 013e c0f6 c83d
00000290: 1b3c 0d3d 764d a5bd c96c 7f3d e569 31bc
000002a0: 884b 003e 69d9 b73d deb4 64bd 31fa a1bc
000002b0: ecc4 f6ba ee01 2a3d f8c9 633d 977d 85bc
000002c0: 1203 d5bd 6990 0bbb 4cd2 d6bd 835d 463d
000002d0: c687 c3bc 360b 9fba 03fa b2bc d826 0e3e
000002e0: ab58 9c3d 9950 9abd 58d6 c93c 6314 e73d
000002f0: 0c4f 203d 428a 39bd a3d5 14bd f951 75bd
00000300: 8218 d03d ebea a5bb 8ec7 203b a80d 8ebd
00000310: 8dda 81bd 3ea3 af3d b507 04bd 0c76 bebd

pi.net.4.bias f4 [4]
0.09052432 -0.019104104 0.00018330508 0.06655568
00000000: d164 b93d 3680 9cbc 9535 4039 584e 883d

v.net.0.weight f4 [64, 34]
-0.022757713 -0.041647032 0.0834562 0.15165026 -0.13540359 -0.10719986 0.09078018 0.11015164
0.057630386 -0.018252889 -0.01869796 -0.11880341 -0.16432129 -0.06656858 0.16927734 -0.012662723
0.024365058 0.09648159 0.17044093 0.012039092 -0.023952268 0.12849788 0.15360518 -0.16641293
0.16100967 0.05695628 0.026777517 -0.049580004 -0.07786966 -0.112195104 0.16705938 -0.07231437
0.059049726 0.15037687 0.032569 0.059754726 0.0005980549 -0.16870056 0.11252229 -0.096189134
0.0525704 0.063818485 -0.039235555 0.13052388 0.06631209 -0.13491113 0.077536784 0.10814167
-0.09557389 0.025044072 -0.05640132 0.089631505 -0.17096415 0.090066314 0.15758553 -0.06617452
-0.047114633 0.061096787 -0.062212612 0.15228537 -0.111782804 0.15637924 -0.10693765 -0.019781832
0.17078762 0.14046834 0.082750164 0.13905726 -0.13320455 -0.16060553 0.09622279 -0.112604275
-0.11637318 0.071799055 0.08319243 -0.14264965 -0.11553219 0.15311587 -0.11323113 0.0020242236
0.16318889 0.12638032 -0.029358417 -0.10524488 0.09900931 -0.1164769 -0.17061946 0.1354174
-0.16551681 -0.031441968 -0.14302056 0.07523497 -0.14462048 0.056485735 0.079504706 0.12316226
-0.14980166 0.00945531 -0.12232975 0.050196867 0.12105579 -0.10235814 -0.10993814 0.018506275
0.14103237 -0.08402915 0.07397822 0.09457306 0.1086065 0.088586375 0.07339063 -0.07664983
0.13823977 -0.019504465 -0.12770803 -0.03975091 0.11697807 -0.16777058 -0.13875219 -0.16488996
0.07185891 0.0661855 0.033185657 -0.08647275 -0.08329511 0.12925182 -0.042350743 -0.102130674
-0.16050534 0.06063348 0.0327872 0.088619374 0.10921329 0.049410664 -0.0746022 -0.090208486
-0.15350801 0.11070347 -0.09102613 0.07885707 -0.09104919 -0.1124925 -0.087860994 -0.09658753
0.08589185 0.009448442 -0.07301391 -0.1663601 -0.10560599 0.16668417 -0.06855202 -0.08555256
-0.1259423 -0.10960057 0.11438895 0.029128317 -0.14659885 0.16205767 -0.03722787 -0.0079670325
-0.024310963 -0.16712125 0.09350814 -0.11140718 -0.10740968 0.14767626 0.11440653 -0.061643075
0.034323234 -0.13300374 0.103383295 0.12501316 -0.12934197 -0.023485139 -0.033997867 0.11281951
0.08140052 -0.023386557 -0.08535071 0.02538316 0.06854184 0.13709544 -0.11685827 -0.038111713
0.16016401 -0.020075982 0.06446687 0.07768897 -0.14417933 0.13590455 0.124601595 -0.1120792
-0.10384582 -0.15461123 -0.03729693 0.16135289 0.16664277 -0.12575269 -0.047057413 0.018624606
0.13197917 0.10594747 -0.09006108 0.12233486 0.009950633 -0.045948252 -0.13377376 -0.11551555
-0.034395404 0.07054535 0.119175576 0.007196694 0.16945109 0.13710088 0.017193675 -0.15286289
0.044573907 0.15462448 0.14106342 -0.105526604 0.033440944 0.015187462 0.024860075 0.032182336
-0.10508258 0.12655196 0.1489851 0.06743225 0.096413486 0.13195896 0.051810633 -0.057341754
-0.092654735 -0.065600626 -0.015348276 -0.14109829 0.11050528 -0.15816553 0.14983408 -0.020927506
0.13729206 -0.06529104 -0.08327607 0.028639331 -0.10386903 0.1626426 -0.10417005 0.040524192
-0.028183488 -0.08136566 0.049898524 -0.0933091 0.1452933 0.14900069 0.10596364 0.101540186
00000000: 626e babc 1496 2abd 16eb aa3d 354a 1b3e
00000010: 3da7 0abe 9a8b dbbd f6ea b93d 2f97 e13d
00000020: d70d 6c3d 1587 95bc 772c 99bc 344f f3bd
00000030: d743 28be 1c55 88bd 0a57 2d3e 4f77 4fbc
00000040: 3b99 c73c 2498 c53d 1188 2e3e 9d3f 453c
00000050: 8c37 c4bc f394 033e ad4a 1d3e 2768 2abe
00000060: b8df 243e fd4a 693d 865c db3c 6714 4bbd
00000070: 217a 9fbd 8cc6 e5bd 9d11 2b3e 8e19 94bd
00000080: 20de 713d 65fc 193e 1267 053d 5fc1 743d
00000090: c9c6 1c3a d7bf 2cbe 1672 e63d cffe c4bd
000000a0: 0f54 573d 44b3 823d 76b5 20bd 0da8 053e
000000b0: a2ce 873d 2526 0abe 9bcb 9e3d 6179 dd3d
000000c0: 3ebc c3bd 3a29 cd3c 1205 67bd b990 b73d
000000d0: 3a11 2fbe b074 b83d 1a5e 213e 8286 87bd
000000e0: 46fb 40bd a040 7a3d a7d2 7ebd b2f0 1b3e
000000f0: 62ee e4bd e121 203e 2002 dbbd 820d a2bc
00000100: f3e2 2e3e efd6 0f3e eb78 a93d 0765 0e3e
00000110: c666 08be c775 24be 7410 c53d 129d e6bd
00000120: 1055 eebd 620b 933d cb60 aa3d c012 12be
00000130: 249c ecbd 68ca 1c3e b9e5 e7bd d6a8 043b
00000140: fd1a 273e d869 013e 1081 f0bc a18a d7bd
00000150: 65c5 ca3d 718b eebd deb6 2ebe dcaa 0a3e
00000160: 3d7d 29be 4bc9 00bd fb73 12be cb14 9a3d
00000170: 6417 14be 965d 673d 5dd3 a23d 7f3c fc3d
00000180: 9b65 19be 72ea 1a3c 0588 fabd 3b9b 4d3d
00000190: 19ec f73d 25a1 d1bd 3f27 e1bd 799a 973c
000001a0: ca6a 103e 7a17 acbd e581 973d 85af c13d
000001b0: 166d de3d c66c b53d d44d 963d 96fa 9cbd
000001c0: ba8e 0d3e d4c7 9fbc e5c5 02be dad1 22bd
000001d0: 3392 ef3d 0dcc 2bbe 0e15 0ebe ead8 28be
000001e0: c42a 933d 438c 873d afed 073d a018 b1bd
000001f0: a096 aabd 975a 043e f977 2dbd e329 d1bd
00000200: 835b 24be d05a 783d df4b 063d 137e b53d
00000210: 38ab df3d d662 4a3d 0ac9 98bd 3abf b8bd
00000220: 3431 1dbe 80b8 e23d e86b babd d17f a13d
00000230: ff77 babd 7862 e6bd 77f0 b3bd afcf c5bd
00000240: 11e8 af3d a3cd 1a3c 5188 95bd 4d5a 2abe
00000250: f447 d8bd 41af 2a3e 0065 8cbd 2e36 afbd
00000260: 05f7 00be 4376 e0bd c144 ea3d 829e ee3c
00000270: 021e 16be 72f2 253e 407c 18bd 2888 02bc
00000280: c927 c7bc d521 2bbe 3281 bf3d 7329 e4bd
00000290: 9bf9 dbbd 7238 173e f94d ea3d 737d 7cbd
000002a0: 8596 0c3d 2232 08be 9fba d33d 7303 003e
000002b0: 3972 04be e863 c0bc 5941 0bbd ea0d e73d
000002c0: 51b5 a63d 2a95 bfbc 5acc aebd 58f0 cf3c
000002d0: aa5f 8c3d bf62 0c3e 6353 efbd 071b 1cbd
000002e0: 0902 243e 6376 a4bc 3507 843d 651b 9f3d
000002f0: bfa3 13be 902a 0b3e 1f2f ff3d c889 e5bd
00000300: 1ead d4bd 6852 1ebe aac4 18bd b139 253e
00000310: 67a4 2a3e 50c5 00be 46bf 40bd a192 983c
00000320: 8c25 073e fdfa d83d f271 b8bd b38a fa3d
00000330: fb07 233c 3c34 3cbd fdfb 08be 6b93 ecbd
00000340: 32e2 0cbd 157a 903d 5312 f43d 3fd2 eb3b
00000350: 9684 2d3e 2c64 0c3e c0d9 8c3c 1788 1cbe
00000360: 2193 363d e155 1e3e ee72 103e 551e d8bd
00000370: 5ff9 083d d5d4 783c 5ba7 cb3c a0d1 033d
00000380: 8935 d7bd d696 013e 8d8f 183e eb19 8a3d
00000390: 6f74 c53d 4020 073e 6337 543d 30df 6abd
000003a0: c4c1 bdbd 9f59 86bd 5677 7bbc 127c 10be
000003b0: 9850 e23d 25f6 21be 1b6e 193e 2970 abbc
000003c0: 4a96 0c3e 4fb7 85bd a58c aabd 089d ea3c
000003d0: 49b9 d4bd c88b 263e 1b57 d5bd b2fc 253d
000003e0: 0fe1 e6bc 0aa3 a6bd 6562 4c3d d718 bfbd
000003f0: c4c7 143e a393 183e 7703 d93d 4df4 cf3d

v.net.0.bias f4 [64]
0.10879942 0.13203108 0.09171344 0.011457005 -0.14411126 0.13180438 -0.14680317 -0.05035451
-0.09428523 0.10473506 -0.05889615 -0.02260019 -0.009980032 -0.00091359107 -0.13587178 0.14497119
-0.016060082 -0.11297499 0.013407956 -0.010297244 0.16745825 -0.0045242454 -0.021187412 -0.10220061
0.13090803 -0.13495398 0.14107467 -0.09582879 0.16553299 0.026566882 0.00043666817 0.044227276
0.045117907 0.13762434 -0.16991141 0.09972768 -0.1703375 -0.12803674 -0.16556558 -0.05779801
-0.016419042 -0.09207312 -0.08406794 -0.08765261 -0.16497998 -0.11039266 -0.103848666 -0.006203493
-0.093280844 0.067790225 0.16341545 -0.12569371 0.053854585 0.09206584 -0.028050436 0.038912043
-0.034668088 -0.040030055 -0.12198273 -0.12475617 0.1302424 0.011722146 0.11043328 0.016937979
00000000: 3bd2 de3d 2833 073e 42d4 bb3d 29b6 3b3c
00000010: e791 13be baf7 063e 9253 16be 8840 4ebd
00000020: 9d18 c1bd 567f d63d 173d 71bd 0924 b9bc
00000030: 4a83 23bc 0f7e 6fba f921 0bbe 5473 143e
00000040: 6f90 83bc 6e5f e7bd 0bad 5b3c c6b5 28bc
00000050: 2d7a 2b3e 1f40 94bb 3991 adbc 8e4e d1bd
00000060: c10c 063e 6031 0abe e175 103e e241 c4bd
00000070: 7b81 293e caa2 d93c 9cf0 e439 a927 353d
00000080: 8ecd 383d 65ed 0c3e 42fd 2dbe 073e cc3d
00000090: f46c 2ebe 101c 03be 068a 29be 9bbd 6cbd
000000a0: 3a81 86bc d590 bcbd d02b acbd 3683 b3bd
000000b0: 83f0 28be 8c15 e2bd 9cae d4bd ac46 cbbb
000000c0: 070a bfbd 9ad5 8a3d 6156 273e dab5 00be
000000d0: a096 5c3d 048d bc3d 07ca e5bc 3c62 1f3d
000000e0: 2000 0ebd 8ef6 23bd 15d2 f9bd 2a80 ffbd
000000f0: 445e 053e 3e0e 403c d82a e23d 84c1 8a3c

v.net.2.weight f4 [64, 64]
-0.041584104 -0.09355286 0.113858745 0.00830397 0.117777616 0.087708265 0.013689429 -0.058749646
-0.111585915 -0.01975356 0.08583811 -0.01013878 0.12158719 0.08195627 -0.02795437 0.019551888
0.0713152 0.11949439 0.09862271 0.09360488 -0.022659197 -0.11440508 0.0066759884 -0.024000123
-0.054501355 -0.026857719 0.07758278 -0.115299925 0.03501734 -0.12172556 0.07500975 0.042129114
-0.036782175 0.06240709 -0.10088597 -0.039141595 -0.08829419 -0.0030753613 -0.07517262 -0.06755796
0.067126155 -0.110896856 -0.116174325 -0.07225129 -0.015826702 -0.10823417 -0.039820522 -0.116800815
0.021371529 0.087901086 -0.055391997 -0.09596072 -0.09202871 0.10650587 0.0052148253 -0.093718916
0.07587291 -0.10356882 -0.077418104 -0.09261465 0.06835477 0.08195597 0.10927197 -0.013322592
-0.1026071 -0.09775251 -0.0082959235 -0.07461159 -0.029541433 -0.108574346 -0.10129535 0.0709863
0.026339516 -0.044603124 0.115097865 0.109288886 0.09491344 0.046912655 -0.0033034235 -0.01971002
-0.122039765 0.07858278 0.06646103 -0.023253128 -0.034261882 -0.06607135 0.063624755 -0.1004214
0.08551262 0.06606047 0.081465796 -0.07655558 0.05390531 0.00563927 -0.11163165 0.05575201
0.05486542 0.07481906 -0.05497913 0.12373094 0.05859661 -0.016979098 -0.00936912 0.0061321557
0.110526696 -0.10091022 0.12150116 -0.01275216 0.033088177 0.008883148 -0.044959188 0.10864003
0.030125082 0.07125707 0.04737164 -0.019782439 0.045813948 -0.07560642 -0.07497518 0.0070816875
0.07255298 0.03965448 0.10914622 -0.05382085 0.123903975 -0.02877684 -0.07878706 0.12275617
-0.022230595 0.09237674 -0.07751815 0.0061962903 0.0824676 0.08440152 -0.07553239 0.05702813
-0.008266106 -0.105544135 0.06995723 -0.10615493 -0.08144657 -0.018327981 -0.10240318 0.08660416
0.06589982 0.05167526 0.0631433 -0.07332507 -0.094994485 -0.05948715 -0.067226395 0.081912324
-0.017406017 0.0005247891 -0.1005401 -0.08611366 -0.09394869 -0.07903561 -0.03555323 -0.014921188
-0.1014912 0.019146398 0.06274721 -0.019147024 0.062377915 -0.0034502298 0.028400019 -0.082415074
0.11444242 0.10845119 -0.00705342 0.07734755 -0.030340716 -0.11199324 0.018186897 0.12175602
0.019133553 -0.07463308 0.014333174 0.087168604 0.059839964 0.03586504 0.11150265 -0.062311888
0.016430333 -0.11058198 -0.09766123 -0.081090584 -0.035292193 0.058867335 -0.07227121 0.012733728
-0.057296425 0.06405708 -0.07674518 -0.05359304 -0.009229407 0.10219483 0.08571608 0.08277699
0.06727776 0.007921591 0.10380627 0.04327798 0.08681154 0.019612998 -0.0577102 0.033255517
0.12433787 0.06400025 -0.05201614 0.075715095 -0.016332418 -0.063204736 -0.09698269 0.093823195
-0.112840444 -0.010968372 0.043707877 -0.036597 0.0993664 0.0637338 -0.086749166 -0.0035973191
0.04649496 -0.053477168 -0.0054773986 0.031129897 0.12102853 0.0814057 -0.08367868 0.012972474
-0.010728061 -0.016409948 0.11130296 -0.011166707 -0.041798875 0.11994529 0.020891488 0.10065575
0.010670245 -0.05546917 -0.07221645 -0.071934134 -0.058458537 0.10481906 -0.032955557 -0.018473625
-0.07353903 -0.036644965 0.0009729713 0.10999036 -0.082975596 -0.069061875 -0.021236733 -0.0812505
00000000: 1854 2abd a498 bfbd c62e e93d 600d 083c
00000010: 6435 f13d 64a0 b33d a049 603c 78a3 70bd
00000020: 2887 e4bd 38d2 a1bc e4cb af3d 201d 26bc
00000030: b402 f93d b0d8 a73d 9000 e5bc 482b a03c
00000040: b40d 923d 7ab9 f43d b4fa c93d eab3 bf3d
00000050: c89f b9bc 364d eabd 40c2 da3b e89b c4bc
00000060: d03c 5fbd b804 dcbc b8e3 9e3d 5e22 ecbd
00000070: 586e 0f3d 404b f9bd b69e 993d 948f 2c3d
00000080: e8a8 16bd 949e 7f3d 4e9d cebd f052 20bd
00000090: 96d3 b4bd 008c 49bb 1af4 99bd d45b 8abd
000000a0: 7079 893d e41d e3bd ceec edbd 7cf8 93bd
000000b0: 00a7 81bc e0a9 ddbd d81a 23bd 4435 efbd
000000c0: 5813 af3c 7c05 b43d b8e2 62bd 0e87 c4bd
000000d0: 8c79 bcbd c01f da3d 20e1 aa3b b4ef bfbd
000000e0: 4263 9b3d e41b d4bd 628d 9ebd c0ac bdbd
000000f0: 96fd 8b3d 88d8 a73d fcc9 df3d 0047 5abc
00000100: ac23 d2bd 7832 c8bd a0eb 07bc f6cd 98bd
00000110: e000 f2bc 3a5c debd f073 cfbd 4461 913d
00000120: f8c5 d73c c4b1 36bd 6eb8 eb3d dad2 df3d
00000130: fa61 c23d 7c27 403d 407e 58bb e876 a1bc
00000140: fcef f9bd 02f0 a03d b81c 883d 587d bebc
00000150: 3056 0cbd 6a50 87bd b24d 823d bca9 cdbd
00000160: 3e21 af3d b64a 873d 8ad7 a63d 2cc9 9cbd
00000170: d0cb 5c3d a0c9 b83b 229f e4bd 385c 643d
00000180: 90ba 603d bc3a 993d cc31 61bd a666 fd3d
00000190: 0003 703d c017 8bbc f080 19bc 40f0 c83b
000001a0: d25b e23d 04aa cebd 9ad5 f83d 70ee 50bc
000001b0: 7887 073d a08a 113c 2027 38bd aa7e de3d
000001c0: e0c8 f63c 3aef 913d c408 423d c80e a2bc
000001d0: 68a7 3b3d 8ad7 9abd 968c 99bd 800d e83b
000001e0: a896 943d bc6c 223d 0e88 df3d 4073 5cbd
000001f0: 5ec1 fd3d 68bd ebbc 1c5b a1bd 9667 fb3d
00000200: f01c b6bc 0430 bd3d d6c1 9ebd 400a cb3b
00000210: c6e4 a83d b4da ac3d bab0 9abd 5496 693d
00000220: 906e 07bc 8627 d8bd bc45 8f3d c267 d9bd
00000230: 76cd a6bd 9024 96bc c2b8 d1bd 865d b13d
00000240: 7cf6 863d 70a9 533d 4651 813d 742b 96bd
00000250: 788c c2bd cca8 73bd fead 89bd a6c1 a73d
00000260: 1097 8ebc 0092 093a f8e7 cdbd 5c5c b0bd
00000270: 2c68 c0bd 6cdd a1bd 44a0 11bd 0078 74bc
00000280: 9eda cfbd e8d8 9c3c 9c81 803d 38da 9cbc
00000290: fc7f 7f3d 401d 62bb 28a7 e83c 3cc9 a8bd
000002a0: ca60 ea3d a81b de3d 6020 e7bb 6468 9e3d
000002b0: 188d f8bc b65c e5bd b0fc 943c 385b f93d
000002c0: f8bd 9c3c 3ad9 98bd b0d5 6a3c 7485 b23d
000002d0: c01a 753d 38e7 123d 805b e43d c03a 7fbd
000002e0: e898 863c ce78 e2bd 9c02 c8bd d212 a6bd
000002f0: 8c8e 10bd e01e 713d ee02 94bd 20a1 503c
00000300: a8af 6abd 5c30 833d 942c 9dbd 6084 5bbd
00000310: f036 17bc 864b d13d ea8b af3d fc86 a93d
00000320: ecc8 893d 90c9 013c 6298 d43d 4044 313d
00000330: 40ca b13d 70ab a03c 8861 6cbd f036 083d
00000340: daa4 fe3d 9012 833d e00e 55bd 8410 9b3d
00000350: 90cb 85bc 7c71 81bd dc9e c6bd 6026 c03d
00000360: e418 e7bd b0b4 33bc 0807 333d bce6 15bd
00000370: 9c80 cb3d de86 823d 8ca9 b1bd 00c1 6bbb
00000380: 8071 3e3d e00a 5bbd c07b b3bb 2004 ff3c
00000390: cedd f73d 08b8 a63d ba5f abbd 808a 543c
000003a0: c0c4 2fbc 286e 86bc cef2 e33d 90f4 36bc
000003b0: 4c35 2bbd e0a5 f53d a024 ab3c 9a24 ce3d
000003c0: 40d2 2e3c a433 63bd 38e6 93bd 3452 93bd
000003d0: 3872 6fbd 60ab d63d 68fc 06bd 0056 97bc
000003e0: a29b 96bd 0819 16bd 000f 7f3a a042 e13d
000003f0: 1cef a9bd 5070 8dbd a8f8 adbc aa66 a6bd

v.net.2.bias f4 [64]
-0.06964566 -0.025379822 -0.008656815 0.073609054 -0.089218885 -0.017467245 0.098649606 -0.080139875
0.084674776 -0.022816926 -0.08505629 -0.07834068 -0.10927206 0.03338462 -0.07458897 -0.08083232
-0.051182047 -0.09810366 -0.0761289 -0.0657157 -0.014287323 0.028993472 0.014155075 -0.04269512
-0.01530695 0.02597557 -0.030403405 -0.04004854 0.05762148 -0.022828057 0.10541999 0.10108797
0.027051404 0.07820319 0.077246115 -0.09951651 0.09842701 -0.03232473 -0.108884856 -0.09127043
-0.060579017 0.11971268 0.10541487 -0.098784015 -0.091059715 -0.05686234 0.029531896 0.022939384
0.06531164 -0.054262698 -0.042482525 0.05006911 0.119872466 0.07341753 -0.05229026 0.023012102
-0.06642102 0.075157166 -0.031605676 -0.1108378 0.08971384 0.09891054 0.06548758 -0.08234705
00000000: 62a2 8ebd 58e9 cfbc 50d5 0dbc 58c0 963d
00000010: 64b8 b6bd 7817 8fbc ce08 ca3d 6020 a4bd
00000020: f869 ad3d 90ea babc fe31 aebd 1471 a0bd
00000030: 08ca dfbd 50be 083d 1ac2 98bd 6a8b a5bd
00000040: 44a4 51bd 92ea c8bd 78e9 9bbd f495 86bd
00000050: 6015 6abc b883 ed3c b0ea 673c 14e1 2ebd
00000060: 00ca 7abc b8ca d43c 9010 f9bc f009 24bd
00000070: 8004 6c3d e801 bbbc 70e6 d73d 3607 cf3d
00000080: e89a dd3c fe28 a03d 3633 9e3d 50cf cbbd
00000090: 1a94 c93d f066 04bd 06ff debd feeb babd
000000a0: b421 78bd ec2b f53d c0e3 d73d 464f cabd
000000b0: 847d babd 7ce8 68bd e0ec f13c 60eb bb3c
000000c0: 1cc2 853d 9042 5ebd 2802 2ebd 4415 4d3d
000000d0: b27f f53d ee5b 963d 502e 56bd e083 bc3c
000000e0: be07 88bd 00ec 993d f474 01bd eefe e2bd
000000f0: e4bb b73d 9c91 ca3d 5a1e 863d 92a5 a8bd

v.net.4.weight f4 [1, 64]
-0.11217287 -0.08840874 0.018011168 -0.11940919 0.048115313 -0.06461704 0.11482702 0.053795666
-0.09337665 0.11600208 -0.01447098 -0.09454249 -0.041611314 -0.10754515 -0.003178537 -0.08064689
2.5182962e-06 -0.0052256286 -0.08293836 0.052346945 -0.08452423 -0.006347254 0.078327954 0.017517611
0.060145393 -0.09085332 -0.049355403 0.038612828 -0.11495966 -0.008996591 0.013339266 -0.0060778856
-0.06508304 -0.12412082 0.06676555 0.07561864 0.050797433 0.02269794 -0.059255853 0.034411818
-0.008815348 0.064868465 0.0009991527 -0.046534747 0.09638937 0.02942045 0.11832754 -0.06590372
-0.030062959 0.060848042 0.039869532 0.1048401 -0.122526586 -0.11907351 0.027049556 -0.067570776
0.063939765 -0.036392882 -0.08007075 0.07121369 -0.020564556 -0.046450004 -0.029820427 -0.0033763796
00000000: e4ba e5bd a40f b5bd 288c 933c ce8c f4bd
00000010: 9014 453d f055 84bd 6e2a eb3d d858 5c3d
00000020: 423c bfbd 8092 ed3d b017 6dbc 7e9f c1bd
00000030: a070 2abd a240 dcbd 004f 50bb 322a a5bd
00000040: 0000 2936 c03b abbb 96db a9bd c069 563d
00000050: 0a1b adbd a0fc cfbb 686a a03d 1881 8f3c
00000060: 045b 763d 4e11 babd e428 4abd 7c28 1e3d
00000070: f86f ebbd 7066 13bc f08c 5a3c 0029 c7bb
00000080: 424a 85bd 0e33 febd 60bc 883d f2dd 9a3d
00000090: f810 503d 08f1 b93c 44b6 72bd 68f3 0c3d
000000a0: 406e 10bc c2d9 843d 00f6 823a 389b 3ebd
000000b0: ca67 c53d 2803 f13c b655 f23d 88f8 86bd
000000c0: 9846 f6bc cc3b 793d 3c4e 233d 68b6 d63d
000000d0: 38ef fabd d0dc f3bd 0897 dd3c 8c62 8abd
000000e0: daf2 823d b410 15bd 22fc a3bd 7cd8 913d
000000f0: 0077 a8bc 5c42 3ebd f849 f4bc 4046 5dbb
