runs/phoenix/DroneHoverBulletEnvWithAdversary-v0/ppo/2023-07-17__20-39-02/seed_02390/torch_save/model.pt (torch, 49538 bytes, 14 tensors)

obs_oms.mean f4 [34]
000000 06 4b 9c 3b 4e 2c 9f bc da 1a 6b 3f 47 4f 34 3c
       0.0047696857 -0.019430306 0.9183785 0.011005229
000010 25 91 d3 3a 53 6c 18 bc 68 b8 18 3f ca b3 43 3c
       0.0016141279 -0.00930317 0.5965638 0.0119447205
000020 ec 50 7c bc 40 0b e6 be d5 81 6c 3d 6a f8 34 3d
       -0.015400153 -0.44930458 0.057741005 0.04418222
000030 5e 14 92 3f c8 f5 fe 3d b7 06 23 3e cf 42 fc 3d
       1.1412466 0.12449223 0.1592053 0.1231743
000040 9b ba 21 3e ce 37 a0 3b c0 63 a0 bc 89 ed 69 3f
       0.1579384 0.004889465 -0.019578815 0.91378075
000050 68 4b 32 3c e4 1a da 3a 0f dd 16 bc f9 5f 18 3f
       0.010882236 0.0016640094 -0.009207978 0.5952144
000060 41 a4 44 3c 2c 34 72 bc a6 32 ee be 83 f8 64 3d
       0.012002052 -0.014782947 -0.46523017 0.05590106
000070 7e 70 3b 3d 6d 9a 92 3f a2 e7 fc 3d 35 03 21 3e
       0.045761578 1.1453377 0.12348868 0.1572388
000080 63 e6 f9 3d 0f 7d 1f 3e
       0.12202146 0.1557505

obs_oms.std f4 [34]
000000 25 90 ba 3e 72 07 bc 3e 20 9a bd 3e b3 29 41 3e
       0.364381 0.3672443 0.3703165 0.18863563
000010 bd 5a 41 3e 61 a0 31 3f eb 90 9c 3e d0 10 39 3f
       0.1888227 0.69385344 0.30579314 0.7229128
000020 f0 59 3a 3f 28 db 34 3f a5 4e 6d 40 37 b6 6e 40
       0.72793484 0.70646906 3.707925 3.7298715
000030 c0 44 29 40 71 ee d1 3e 86 86 ce 3e 74 7d be 3e
       2.6448212 0.4100223 0.40337008 0.37205088
000040 d1 f7 cc 3e 03 cc bc 3e d8 3e be 3e ba 07 c0 3e
       0.4003282 0.368744 0.3715732 0.37505895
000050 41 17 44 3e 5a 64 44 3e 0c 82 31 3f 26 9f 9c 3e
       0.19149496 0.19178906 0.6933906 0.3059017
000060 d4 8a 3b 3f 89 b0 3c 3f f0 4d 38 3f aa 76 6f 40
       0.7325871 0.7370687 0.71993923 3.7416177
000070 4a 92 70 40 32 3f 2a 40 76 12 d2 3e 08 b5 ce 3e
       3.7589288 2.6601071 0.4102971 0.4037249
000080 5c 7c be 3e 0a 43 cd 3e
       0.37204254 0.4009021

pi.log_std f4 [4]
000000 72 69 86 c0 72 69 86 c0 72 69 86 c0 72 69 86 c0
       -4.2003717 -4.2003717 -4.2003717 -4.2003717

pi.net.0.weight f4 [50, 34]
000000 ea 77 40 bd 26 ff 49 be cc e4 1a be 90 b2 95 3d
       -0.04698936 -0.19726238 -0.15126342 0.07309449
000010 4a 66 45 3e 60 87 a5 bd 35 93 27 be fe bb 5c 3e
       0.19277301 -0.08082461 -0.16364749 0.21556088
000020 9d 8d 23 3e 38 3c 6c bd 2e a7 7b bd 4c 88 14 be
       0.1597199 -0.057674617 -0.06143873 -0.14505118
000030 c0 48 85 bd c1 e2 7b bc c2 0f 7c be 0b 0a 2c bd
       -0.065080166 -0.015373887 -0.24615386 -0.042001765
000040 a5 fc a8 bc 09 b8 42 3e 41 f0 ae 3d ad b1 62 bd
       -0.020628283 0.19015516 0.085419185 -0.055345226
000050 25 e3 b0 bd c7 62 d0 3d 1e 8d 96 3c 1f 29 54 be
       -0.086370744 0.1017509 0.018377837 -0.20718811
000060 f4 42 1f 3e 46 e7 27 3d 6a 4b 58 bd e9 ed 04 3e
       0.15552884 0.040992044 -0.052806295 0.1298138
000070 d9 79 05 3c b2 a0 c2 3d 57 af 8c 3d 61 4e 33 3d
       0.0081467265 0.095033064 0.06869381 0.04377592
000080 b8 0e 03 bd 30 01 bb 3c 5e be 0a bd aa 22 c6 3d
       -0.03199646 0.022827715 -0.033872955 0.096745804
000090 20 50 75 bc 2e 49 4d be d6 fd 48 3e f0 d8 0f 3e
       -0.014972717 -0.20047447 0.1962808 0.14047599
0000a0 34 26 12 be 47 63 15 3e 42 fe 34 be 22 5d 56 be
       -0.14272386 0.14588653 -0.17675117 -0.20933965
0000b0 30 e6 f7 bb 44 e8 5e 3e 5d 77 c1 3d 76 79 d3 3d
       -0.0075652823 0.2176829 0.09446595 0.10325901
0000c0 93 4c 3f be cf 7a 1d 3d e3 40 85 bd fd 68 39 be
       -0.18681554 0.038447198 -0.06506517 -0.18106456
0000d0 b9 8b 6f 3d 66 40 00 be 9e 3b 34 be 53 5f aa bd
       0.05848286 -0.12524566 -0.17600867 -0.08318963
0000e0 94 8e b0 bd fc a6 af bd cd b6 65 3e 39 42 63 3d
       -0.086209446 -0.085767716 0.22433014 0.055483077
0000f0 77 8c 63 be bf 06 86 3d 82 d9 61 bb e2 e5 84 3b
       -0.22221552 0.065442555 -0.003446192 0.0040557245
000100 f5 50 83 3d 07 dd 9b 3d 25 68 65 3d 3c 8f d1 3d
       0.06411926 0.07610517 0.056007523 0.10232398
000110 63 79 2f be 72 5e 2a 3d e5 29 9b bd d4 7b 21 be
       -0.17136149 0.041593976 -0.0757635 -0.15769893
000120 fe e0 2e 3e 60 44 bb bd 82 83 8e 3d c3 55 56 3e
       0.17078015 -0.09143901 0.06958677 0.20931153
000130 87 7d b8 bd 10 cb 37 3e d1 0a f0 3d 71 8c 92 3d
       -0.090083174 0.17948556 0.11720813 0.07155693
000140 30 3e 81 3d 30 14 10 bd 3e cf 49 3e cc e0 6e 3d
       0.063106894 -0.035175502 0.19707963 0.05831985
000150 65 02 75 3d f3 00 d4 bd 19 6d 98 3c 5a 68 ca 3d
       0.059816737 -0.103517435 0.01860671 0.09883185
000160 79 cf b0 3d 63 1f c3 3c c9 27 a7 3c 23 5b 18 3c
       0.08633322 0.023818677 0.020404713 0.009299072
000170 75 58 bc bd f6 1b f1 3d 3c 36 33 3e e0 70 07 3e
       -0.09196559 0.11772911 0.17501158 0.13226652
000180 44 23 5c 3e d7 5a 12 be a7 7d 8c 3d 52 57 3b bd
       0.21497828 -0.14292465 0.06859904 -0.045737572
000190 fe e9 20 3d fd db ad 3d 6c 09 81 3d be 58 4f bc
       0.039285652 0.08489225 0.06300625 -0.012655435
0001a0 58 50 fb 3d b1 14 15 3e 47 db 62 be 04 72 49 3e
       0.12271184 0.14558674 -0.2215396 0.196724
0001b0 d0 4f 04 be bf 45 93 3d 4e c1 d2 3d 25 92 4c 3d
       -0.12921071 0.071910374 0.10290776 0.04994406
0001c0 07 12 ff bd 70 63 2b 3d 82 7d 04 be 8b dd 38 be
       -0.1245461 0.041842878 -0.12938502 -0.18053262
0001d0 18 44 8f 3d e0 3f 3b be fe da 85 3e a1 96 97 3d
       0.0699541 -0.18286085 0.2614364 0.07401777
0001e0 3c 46 8e bd 1c 4c 15 3d 52 58 dd bd f4 10 25 be
       -0.0694699 0.036449537 -0.108078614 -0.16119748
0001f0 fe 0c 3e 3e f3 19 cc bd 9b f2 5c be 8b b6 61 3d
       0.18559644 -0.09965887 -0.21576922 0.055105727
000200 9c 38 1b bd 3d bb 20 3d e8 8f 07 3d ec f9 70 3d
       -0.037895784 0.039241064 0.033096224 0.058832094
000210 f6 bb b0 bd 77 a9 5c bd d0 65 10 3d 02 44 0c 3e
       -0.08629601 -0.05387255 0.035253346 0.13697818
000220 69 2a 1a be 1f bb 97 bd 99 ff 71 3d b0 77 a1 3c
       -0.1505524 -0.074087374 0.059081648 0.019710392
000230 28 8f d7 bd f3 d8 09 3b 8d d6 5b bc 0f 3e 0b 3e
       -0.10525352 0.0021033853 -0.013417852 0.13597892
000240 e6 28 19 be 6d 7b 28 be 82 ea 96 bd e8 51 a6 bd
       -0.14957008 -0.16453333 -0.073689476 -0.08121091
000250 64 fe bc bd e8 9c d8 bc 25 b2 1e bd 02 b6 a5 bc
       -0.09228209 -0.026442006 -0.03874411 -0.02022839
000260 4f 59 4d be 4e 75 02 be f2 97 f7 bd 66 75 99 bd
       -0.200536 -0.1274006 -0.12089528 -0.07493095
000270 b1 c4 97 bd 7a 35 aa 3d 83 1f 4d bd 3b e5 83 be
       -0.07410563 0.08310981 -0.05007888 -0.25760826
000280 9e 4d 6c 3e d5 73 3d 3d d2 8e 3f 3c b0 f7 4b be
       0.23076484 0.046253044 0.011691766 -0.19918704
000290 a9 95 16 be aa b3 59 bd cb 3c d4 bd c1 a8 eb bd
       -0.14705528 -0.053149857 -0.10363158 -0.11506797
0002a0 a2 04 8b 3d fb 80 48 3e fb 8a 1e bd c5 c0 09 3d
       0.06787993 0.19580452 -0.03870676 0.033631105
0002b0 20 d4 14 be 8d ec 0a 3e 7b 29 88 3e 6e 64 4a be
       -0.14534044 0.135668 0.26594147 -0.19764873
0002c0 47 90 2f 3d a8 06 ed bc aa d4 58 ba 5d 3a 53 3e
       0.042862203 -0.028933838 -0.00082714355 0.20627733
0002d0 c7 14 16 be ea 8e d7 3d 90 0c d7 3d df 42 64 bb
       -0.14656363 0.105253056 0.10500443 -0.0034829897
0002e0 46 23 2e 3d ab 98 04 be 99 21 c4 bd 79 1a 75 bd
       0.042514108 -0.12948863 -0.09576721 -0.0598397
0002f0 c9 25 5d bd d6 31 1c be c0 e1 3a 3e 80 22 65 3d
       -0.053991113 -0.15253386 0.1825018 0.055941105
000300 b0 ff 52 be 02 cb 9d 3e 08 4a 1e 3d 56 43 16 be
       -0.2060535 0.30818945 0.03864482 -0.14674124
000310 72 ea 12 3e af b7 b4 bd cd e5 1c 3e 47 36 00 be
       0.14347246 -0.08824097 0.15322037 -0.12520705
000320 12 30 95 3d 2b 99 27 3d e8 e8 2f 3d 0b 23 f4 bd
       0.07284559 0.040917557 0.042946726 -0.119207464
000330 7e 2d 16 be af 72 11 3e ca b8 f4 3d 4d 96 f5 3c
       -0.14665791 0.14203905 0.11949308 0.029978896
000340 71 7a 04 be 7b f5 23 bd d4 b6 38 be da 0b b2 3d
       -0.12937333 -0.04002903 -0.18038493 0.08693667
000350 37 f5 e6 3d be 8e 07 be ac 04 41 bd 28 37 ab bd
       0.1127724 -0.13238046 -0.047123596 -0.083601296
000360 27 85 00 3e d0 83 77 be 51 67 a9 3c 41 2a 4b 3b
       0.12550794 -0.24171376 0.020679148 0.0031000527
000370 0a d3 33 be 6e bf 20 be 6d e1 ff bd 62 84 9f 3c
       -0.17560974 -0.15698025 -0.124941684 0.019472305
000380 47 a4 1c 3e a3 ac 5d be 5e 1f 1b 3e 1b 2e c4 bd
       0.15297042 -0.21647887 0.15148684 -0.095791064
000390 30 87 d9 3b 34 d2 51 3d df b8 18 bd 2e d2 0c be
       0.00663843 0.051225856 -0.03728568 -0.13752052
0003a0 b6 f9 8d b9 88 73 13 3e 84 5b 32 3e 1e 96 cb 3d
       -0.00027079665 0.1439954 0.17417723 0.09940742
0003b0 42 a4 a3 3d 72 a5 67 bd da 8a c8 3d 46 27 1e 3e
       0.07990314 -0.056554265 0.09792109 0.15444669
0003c0 58 8f 4a 3d b2 a9 17 be 79 32 b6 3d 7f e6 82 be
       0.04945311 -0.14810827 0.08896346 -0.2556648
0003d0 b3 95 9b 3c f0 67 29 3e c3 3a 13 bd c1 37 63 bd
       0.01899228 0.16543555 -0.03594471 -0.055473093
0003e0 2b a4 10 be 24 56 3c 3d f0 7a cd 3d fc ee e1 3d
       -0.14125125 0.045980588 0.10033214 0.11031911
0003f0 2d f9 1a 3e 4c ff 23 bd f9 7d f2 bd 30 06 ed 3d
       0.15134116 -0.040038392 -0.118404336 0.11573446

pi.net.0.bias f4 [50]
000000 9e 1c 38 3e 29 8d df bd 1d 12 b8 3e e0 40 0d 3d
       0.17979667 -0.10915596 0.3595132 0.034485698
000010 5c 50 7f 3e c7 d2 23 3e 30 8f c6 3d 9a a3 e2 bd
       0.24932998 0.15998374 0.096952796 -0.11066361
000020 14 e4 73 3d a4 47 02 3e ed b1 20 be bc bd 9c 3e
       0.059543684 0.12722641 -0.15692873 0.30613506
000030 e9 33 13 3e 1d 1b 09 be 09 e7 6a 3c c6 6b e4 bd
       0.14375271 -0.13389249 0.01433731 -0.11153369
000040 db 97 bc bd 78 5e b2 bc 01 b8 19 3e 4a 8d 41 3e
       -0.09208652 -0.021773562 0.15011598 0.18901554
000050 a0 47 3c 3c f9 26 ea 3d dd 5f 8f bd 52 a0 9b bc
       0.011491686 0.11433215 -0.07000706 -0.018997345
000060 e5 ab 7d 3d 1d 64 3c 3d 18 17 22 3e ca ed 84 bc
       0.06193151 0.045993913 0.15829122 -0.016226668
000070 57 b3 31 3e 13 d1 98 3d e6 0c 3a bd 5a 85 12 3e
       0.17353569 0.07461753 -0.045422457 0.14308682
000080 3f d3 2a 3c 79 0e 85 3d 32 97 f8 3d 20 a7 1a 3e
       0.010426342 0.06496901 0.12138213 0.15102816
000090 ab cc 06 bd 1a aa 78 3e da 15 3c be 6f 28 b6 bd
       -0.03291003 0.24283639 -0.1836771 -0.08894431
0000a0 f0 6f db bd ad fd fb bb 5b 8d 98 3d df 65 cc 3d
       -0.1071471 -0.0076901526 0.074488364 0.09980368
0000b0 93 cd 77 bd f8 44 80 3e 4d fe c8 3c 68 1c 4a bb
       -0.060498785 0.2505262 0.024535323 -0.0030839685
0000c0 ef af 21 3d 22 24 7c 3e
       0.039474424 0.24623159

pi.net.2.weight f4 [50, 50]
000000 93 03 f4 3c af 04 f2 bd fb e1 b2 3d 93 1a 80 3d
       0.02978686 -0.118172996 0.087345086 0.06255069
000010 3e ff 05 3e 13 9e 11 3a a8 a8 cd 3d d0 3a ee bd
       0.13085648 0.0005554866 0.10041934 -0.11632311
000020 c7 bf 9f 3d 7d dd 3b 3d 36 9f 3b bd a3 95 f9 3b
       0.078002505 0.045865525 -0.045806132 0.007616715
000030 ae 24 52 bc 26 c3 e8 3d 20 94 02 3c 8b dd d6 bd
       -0.012826128 0.113653466 0.007969886 -0.10491475
000040 b8 6b 23 bd 0d 85 07 be 9e 17 9e 3c 98 74 61 3d
       -0.03989765 -0.13234349 0.01929837 0.055042833
000050 cb b6 91 bd d0 32 6a be e1 59 84 3d 47 b7 19 3e
       -0.07114943 -0.22870946 0.064624555 0.15011321
000060 e0 33 4c be 2f e7 24 3e 3d 52 b6 bd 59 b3 1b 3e
       -0.19941664 0.16103815 -0.089024045 0.15205134
000070 d3 77 5b 3d ea f6 14 3e 37 c1 39 be 8c d0 28 3e
       0.05358107 0.14547315 -0.18140112 0.16485804
000080 05 be 93 bd 84 fe 3b 3e 94 b9 10 3e dc 6f c6 3d
       -0.07213978 0.18358809 0.14133292 0.09689304
000090 68 41 c2 bc 11 55 c9 bd 1d e8 35 bd 3a 61 f7 bc
       -0.023712829 -0.09830678 -0.044410814 -0.030197728
0000a0 cb ba 9d 3d 5a 8e 26 be 6c 3c da bd 95 d4 be 3d
       0.077016436 -0.1626524 -0.10656056 0.093178906
0000b0 ef 4b fa 3d cc 7e c3 bd 81 a2 fb bd 63 84 17 be
       0.122215144 -0.09545669 -0.122868545 -0.14796595
0000c0 25 86 d0 3d 80 48 b0 bd d5 0b 17 3e 36 28 a0 3d
       0.10181836 -0.08607578 0.14750607 0.0782017
0000d0 70 00 f7 bc e3 3c 9e 3c c8 2d cb bd f0 bf 71 ba
       -0.030151576 0.019316142 -0.099208415 -0.00092220213
0000e0 7d 9a 0f 3e 7d 04 c3 bc ed 6c a0 3d 7b 75 43 3c
       0.14023776 -0.023805851 0.07833276 0.011929865
0000f0 a3 48 55 bc 6c e1 ba bd 65 b8 37 be 84 f7 9d 3d
       -0.013017806 -0.09125027 -0.17941435 0.077132255
000100 1c c4 1a 3d de 66 1a bc e3 13 50 be ea 88 0c 3e
       0.03778468 -0.0094239395 -0.20320086 0.13724104
000110 21 d4 f1 3d 41 fd 89 bd 8b 61 80 3d a0 3a 8c bc
       0.118080385 -0.067377575 0.06268605 -0.017117798
000120 00 86 0d bd 9e 4e 46 3d 5b 7e fe 3b 57 3d 05 3d
       -0.03455162 0.04841482 0.0077665276 0.0325292
000130 f5 23 58 bd 94 28 0c bd 72 8d d9 bd fe c4 4d bd
       -0.052768666 -0.034218386 -0.10622682 -0.050236695
000140 14 e8 47 3e a0 c6 43 3e bc 90 13 be e7 bf 57 bc
       0.19522125 0.19118738 -0.1441068 -0.013168312
000150 0b 3b b4 3d cd f3 a2 bd cb b6 f4 bc 9b 7c a8 3d
       0.08800324 -0.079566576 -0.029872319 0.082268916
000160 d2 fe 03 be b8 0d 27 3d c6 e7 b4 bd ab 64 ac bd
       -0.12890175 0.040784568 -0.0883327 -0.084176384
000170 46 35 08 bd e1 6a 83 3e f0 8a e9 bd cf 3c 9f bd
       -0.03325393 0.2566748 -0.11403453 -0.0777527
000180 77 7a 1e 3e 82 f1 30 bc 68 c0 8a bd ee 8a 3e bd
       0.15476404 -0.010799767 -0.0677498 -0.046519212
000190 a9 d3 8a 3d 18 99 d9 bc 1e 53 db bd 3b f8 5c be
       0.06778652 -0.026562259 -0.10709213 -0.21579067
0001a0 17 42 fb bd c9 44 73 bd 5b 6e b8 bd 39 77 15 3e
       -0.12268465 -0.05939177 -0.09005424 0.14596261
0001b0 5c 62 8b bd 1e da 28 bd c1 31 07 3d 5e 10 33 be
       -0.0680587 -0.041223638 0.033006433 -0.17486712
0001c0 d0 de 7f 3d 0d 0d ec 3d 97 50 54 be a8 01 9b 3d
       0.06246835 0.11525927 -0.20733868 0.07568675
0001d0 ac d8 69 3d 2d 32 7d bb 99 75 1b 3e 9a a9 10 3e
       0.0570914 -0.0038634643 0.15181579 0.14127198
0001e0 fa 7b 54 be 87 14 97 3d 24 d7 9b bc 8f f1 11 3e
       -0.20750418 0.07376962 -0.019023485 0.14252304
0001f0 c1 4b 40 bd 2f 75 29 bd ba 7d 7b 3d 8b 97 96 3d
       -0.046947245 -0.04137152 0.0613992 0.07353123
000200 7d 55 13 bb 5c a1 b6 bc 7b 7e d0 3d 6a 01 ee 3d
       -0.0022481375 -0.022293739 0.10180374 0.116213635
000210 8f 58 09 3d e6 28 4f 3d 86 e9 c1 3c 59 b0 8a 3c
       0.03353172 0.050576113 0.023670923 0.016929792
000220 1f df 21 3e fe 23 dc bd fc 7c 27 bd 93 14 1d bc
       0.1580777 -0.107490525 -0.04089068 -0.009587425
000230 6f 19 bf bb db 51 ae bc d1 39 0e 3e bd f5 f1 3c
       -0.0058318893 -0.021279266 0.13889243 0.029536122
000240 a0 81 bb bd e4 9a 51 3e df 90 7b bd 71 b3 70 3d
       -0.091555834 0.20469242 -0.061417457 0.05876488
000250 f6 da c0 3d ae 61 30 3e c8 fc b9 bd d5 c1 4c be
       0.094167635 0.17224762 -0.09081417 -0.19995816
000260 4b 80 97 3b 61 db 9a bd 60 16 dc 3d cf 27 03 be
       0.004623448 -0.075613745 0.10746455 -0.12808155
000270 b7 52 65 3e b2 e1 32 3d 29 d4 86 3d da ba 24 bc
       0.22394834 0.04367227 0.06583435 -0.0100543145
000280 a2 6f 5f 3c bc 13 8d bd 0c 76 bd bd 13 c5 92 ba
       0.013637455 -0.0688853 -0.09251031 -0.0011197649
000290 e5 90 b1 3c cb ec c4 3d f3 d3 5f bc cb 9c 3c be
       0.021675536 0.09615477 -0.0136613725 -0.18419187
0002a0 28 8e 01 be 47 30 81 bd 17 60 10 bd 26 bc f5 bd
       -0.12651885 -0.06308036 -0.03524789 -0.11998777
0002b0 c4 aa d3 3d 51 2d 0f 3e 6c c5 46 bc d1 f9 12 bd
       0.10335305 0.1398213 -0.01213203 -0.035882775
0002c0 e2 fc 4c 3e a0 94 83 be 0f e1 d9 bd 91 78 0a 3d
       0.20018342 -0.2569933 -0.1063863 0.033806387
0002d0 ec 13 d1 bc ed 91 2c be f8 b5 27 bd e4 55 48 3d
       -0.025522195 -0.16852541 -0.040945023 0.048910037
0002e0 5b 1a 31 3e 0e 91 0b 3e b6 a2 de bc f0 06 07 3d
       0.1729521 0.13629553 -0.027177196 0.0329656
0002f0 df 82 04 be ff 8f 86 bc 89 7c c6 bd 08 39 8d bd
       -0.12940548 -0.016426085 -0.09691722 -0.068956435
000300 c9 df 3d 3d a1 52 9f 3d ad 0d 6b bd f1 f8 fe bd
       0.046355996 0.07779432 -0.05738609 -0.124498256
000310 e3 b7 24 be 12 7f cb 3d 9c 6d bb 3d b3 cc cf bd
       -0.16085772 0.09936346 0.09151766 -0.10146465
000320 2e 49 17 be 7c 2e 3a 3b 83 0a 36 be ef 47 a3 3d
       -0.1477401 0.0028409055 -0.17777447 0.079727046
000330 7b fc 5f 3d de db f8 3b 27 7e f6 3d 9c 79 bb bd
       0.054684144 0.0075945696 0.120357804 -0.091540545
000340 6b b0 05 bd 3d 49 44 be cd fd 55 3d dd a0 8f 3d
       -0.03263895 -0.19168563 0.052243996 0.07013104
000350 85 37 e4 3d bc 07 f0 bd e4 c0 90 bd 25 3b b9 bc
       0.11143402 -0.11720225 -0.07068041 -0.02261121
000360 be 55 b5 3c ab f5 17 3e 43 7d 03 3e f5 3c 04 be
       0.022135612 0.14839809 0.12840752 -0.12913878
000370 bd 53 23 3c a8 08 ca bc 82 4c 41 bd 0f 4c a5 3d
       0.009968695 -0.02466233 -0.047192104 0.08071148
000380 17 f6 3b be 78 89 18 3e 8b c6 32 bc a5 31 2f bd
       -0.18355595 0.1489619 -0.010911594 -0.042771954
000390 6f 3e 72 3d ba 94 d9 bd 81 bb 3d bd ee a7 6c 3d
       0.059141573 -0.106240705 -0.046321396 0.057777338
0003a0 8e 4c 44 3d eb 80 47 3c ab 0b cb 3d 5e 16 95 bd
       0.04792457 0.0121767325 0.09914335 -0.07279657
0003b0 86 61 0a 3d a9 45 0b 3e cf 1d a1 3c a6 de 72 3d
       0.03378441 0.13600792 0.019667534 0.059294365
0003c0 f0 43 e6 3b bc 8e a9 bd de 2c 88 bd 3d df 33 3d
       0.0070271417 -0.082791775 -0.06649183 0.04391407
0003d0 1f 1a 5d 3d 94 8f 26 be 1a bc 2e 3e be 79 a4 3d
       0.05397999 -0.16265708 0.17063943 0.08031033
0003e0 b6 1d 6b bd fd 3c f5 ba d7 7f a9 3d 59 01 2d 3d
       -0.05740138 -0.0018710193 0.08276337 0.042237613
0003f0 93 c3 18 3e a9 17 82 3c f5 bb 17 3d b1 a4 20 bd
       0.14918356 0.015880423 0.037044484 -0.039219562

pi.net.2.bias f4 [50]
000000 3c 64 ac bd 89 62 b4 3d 73 49 18 be a3 21 14 3e
       -0.08417556 0.088078566 -0.14871769 0.14465956
000010 01 58 17 be 7d 42 09 3e d5 e1 0a 3d 47 d3 bd bd
       -0.14779665 0.1340427 0.033906776 -0.092688136
000020 bb 25 3e 3e d1 5d 92 bc 6a 48 63 3c d2 29 ff bc
       0.1856908 -0.017867 0.013872245 -0.031147871
000030 d0 ae fa 3d 78 a3 9a 3d df 7d f6 bc c9 1b c7 3c
       0.12240374 0.075507104 -0.030089317 0.024305241
000040 2d 2c 96 bd da 2c c7 3d 0c b5 72 3c 98 dc fc bd
       -0.073326446 0.09725352 0.014813673 -0.123467624
000050 00 86 67 3d 86 2c bd bd ab 0a 3a 3c 77 68 ff bd
       0.056524277 -0.09237008 0.0113550825 -0.12471097
000060 f4 df c2 3d 72 6c ab 3d 2e 4b 1c be 55 1f dc 3c
       0.09515372 0.08370294 -0.15263054 0.026870409
000070 4e 36 b2 3d 1a f2 ae 3d ee 43 11 3d 8e f7 3d 3e
       0.08701764 0.08542271 0.035465173 0.18551466
000080 c4 c3 82 bd 99 a6 7c bd 82 49 54 bd 5f c4 d7 3c
       -0.063849956 -0.061682317 -0.051827915 0.026338754
000090 da 5e 81 bd d3 9a 6f 3d 95 52 61 bc 4f 0c d1 bd
       -0.063169196 0.05849726 -0.013752599 -0.10207426
0000a0 52 a0 49 3d 07 04 07 3e 09 96 1d be fa 66 85 bd
       0.04922516 0.1318513 -0.15389265 -0.06513782
0000b0 2f 57 23 3e 0f d8 af 3d 84 43 28 3d 41 d1 d4 bd
       0.15951227 0.08586132 0.041080013 -0.103914745
0000c0 25 3b 08 3e ca 67 24 3d
       0.13303812 0.040138043

pi.net.4.weight f4 [4, 50]
000000 51 f4 91 bb e2 10 ab 3d 15 8c bc bd a7 66 76 bd
       -0.0044541736 0.083528295 -0.09206406 -0.06015649
000010 57 a1 39 be 73 1b 40 be b6 4d 19 be bb b8 1b be
       -0.18127953 -0.18760471 -0.1497105 -0.15207188
000020 a6 9a 62 be 24 07 c5 bd 7b 02 10 be 4b e7 86 3d
       -0.22129306 -0.096205026 -0.14063446 0.065870844
000030 ae 02 41 be d6 22 e3 3c 6a a6 2a be 4a 38 64 3e
       -0.18848678 0.027726572 -0.16665044 0.22287098
000040 c3 d4 5a be 46 69 3b be 6e c0 9f 3d 0d 16 b2 bd
       -0.21370225 -0.18301877 0.07800375 -0.08695612
000050 94 bb 76 3d ad 4f 1e 3d fc 1f f8 3d 64 03 1b be
       0.060237482 0.038650203 0.121154755 -0.15138012
000060 a0 b3 da 3d 16 11 09 3e 4d 65 1c bd d9 4c 77 3e
       0.10678792 0.13385424 -0.038182545 0.24150409
000070 b4 8b ca bd 50 1e 84 3d a9 c9 84 3e a1 54 a7 3d
       -0.098899275 0.06451094 0.25935104 0.081704386
000080 f2 9d 1b be 66 30 2f bd 83 82 53 be c8 2d 96 3d
       -0.1519697 -0.042770766 -0.20655255 0.07332951
000090 b9 d8 af 3c 27 d3 0e 3e b4 b4 48 3e fc 18 6d 3b
       0.021465646 0.13947736 0.19600183 0.0036178222
0000a0 ee 44 fc 3d 7f a7 80 bd a8 86 2c 3e cd 83 15 be
       0.12317835 -0.06281947 0.16848242 -0.1460106
0000b0 3e 97 be 3d 00 48 8a 3e 3b d9 33 3e e5 64 3d 3e
       0.09306191 0.27008057 0.17563336 0.1849552
0000c0 e3 d6 09 be c9 9d 24 bd 33 75 08 be 8a cd 94 3e
       -0.13460879 -0.04018954 -0.13325958 0.29063064
0000d0 e8 eb af 3d bc 34 7c be 94 61 7c 3d 08 30 62 be
       0.085899174 -0.24629492 0.061616495 -0.22088635
0000e0 19 67 a1 be f9 8e 2f bd 10 10 55 3d 17 e8 43 bd
       -0.3152397 -0.04286096 0.05201727 -0.04782876
0000f0 5c 0f a1 bd 49 76 32 be d0 db a3 3e 9f 9b 18 be
       -0.07864258 -0.17427935 0.3200364 -0.14903115
000100 42 0b a2 3d 5f 1f 63 bc 80 fd 4a be e4 d6 bb 3d
       0.079123035 -0.01386246 -0.19823265 0.091718465
000110 8b 74 2c 3e c8 dc d4 3d aa 6b 65 3e 09 48 04 bd
       0.16841333 0.10393673 0.22404352 -0.03229526
000120 dc 4c b4 3c 14 1c 6b be 0d 66 39 3c 17 ac 18 3e
       0.022009306 -0.2295993 0.011315835 0.14909397
000130 ea 95 cd bd 24 5d 4d 3b 69 5f db be a6 56 76 bd
       -0.100383595 0.0031336034 -0.4284623 -0.06014123
000140 b7 96 10 3d 37 fd 3f be 77 79 da bd cd 57 04 bd
       0.035299983 -0.18748938 -0.10667699 -0.032310296
000150 3a 74 57 3d 09 81 65 3e 04 f2 61 be e7 f6 e2 3d
       0.052601077 0.22412504 -0.22064978 0.11082249
000160 d5 14 f4 bc f1 1a 0f be f8 76 30 3e 1f 73 11 be
       -0.02979509 -0.13975121 0.17232883 -0.14204071
000170 c5 bc 57 be a9 d7 2e 3e 0e f4 7c 3d 4b 83 60 3e
       -0.21068104 0.17074455 0.061756186 0.21925084
000180 04 6b dc bd b2 3f 10 3d 8c c6 39 3e f2 b8 cc 3d
       -0.10762599 0.035216995 0.18142146 0.09996213
000190 50 ef 43 3e 0d 89 8a 3b ef 5e 10 3e 0e da 99 3d
       0.19134259 0.0042277635 0.14098714 0.07512294
0001a0 e0 3d 00 be 90 d9 89 bc 36 94 6d 3e ff 78 fb bb
       -0.12523603 -0.016827375 0.23201069 -0.007674336
0001b0 f1 c3 99 3e 2b 90 9b bb 5e b6 bc 3d 52 9f 80 3d
       0.30032304 -0.004747411 0.09214471 0.06280388
0001c0 6a a9 36 bd 96 ae 77 3d ba a7 8f bd fb ef a0 bd
       -0.04459516 0.060469232 -0.07014413 -0.07858273
0001d0 e2 ad 01 3e 2c 4a 0f 3e 89 1a 57 bd 28 c7 45 3e
       0.12663987 0.13993138 -0.05251554 0.19314253
0001e0 61 a9 36 3d 3b cf 18 be 87 c7 d8 bd cf a9 d0 bb
       0.044595126 -0.14922802 -0.10584932 -0.006367899
0001f0 d3 b9 fb bd 77 92 a0 3d 2f 9c cb bd f9 cb 8e be
       -0.122913025 0.07840436 -0.09941899 -0.27889994
000200 fa a2 7e be c3 97 11 3e 7e 98 bf be 22 8b 55 3d
       -0.24866858 0.14218049 -0.3742103 0.05213464
000210 7a d0 dd bd 64 ad c4 bc 51 9e 0b be 9c 5c 02 3e
       -0.108307794 -0.02400846 -0.13634612 0.1273064
000220 3a 32 82 be 06 97 1c 3e 69 15 63 3d 89 ab 7c 3e
       -0.25428945 0.15291986 0.05544034 0.2467481
000230 03 8c 9f 3d c2 7d a0 3d 37 68 19 be 3b 68 f9 3d
       0.07790377 0.078364864 -0.14981161 0.121780835
000240 75 e5 72 3d b2 e4 66 bc ed e9 14 bd 7b c4 a2 bd
       0.05930086 -0.014092611 -0.0363559 -0.07947632
000250 af 3e f2 3c 65 4c 7c be 9b ea 3b be 91 07 6e bc
       0.029570905 -0.24638517 -0.18351214 -0.014528171
000260 d8 fc 0e bd fc 9d 03 3d a0 db 2e 3a 2b a2 40 3e
       -0.0349091 0.032133088 0.00066703 0.18811862
000270 11 79 94 3e 32 3f de be 5b 06 4d 3d 5e 28 28 be
       0.28998616 -0.4340759 0.05005489 -0.16421649
000280 f1 e7 a5 3d 5b e9 60 3c 04 69 89 bd 9f f7 47 be
       0.0810088 0.013727511 -0.06709483 -0.19528054
000290 23 c0 4e be 52 aa b0 bd 2d 70 84 bd 2e ee 3a 3d
       -0.20190482 -0.08626236 -0.06466708 0.045637302
0002a0 8a 3f 0f be 67 ed 8f 3b 26 7a 3b be 44 5c c9 3d
       -0.13989082 0.0043923142 -0.18308315 0.098320514
0002b0 bb 0e 62 be d7 f4 cf bd 1c ae 40 3e bc 50 84 3d
       -0.22075932 -0.10154121 0.18816417 0.06460711
0002c0 42 dc 21 be 5b 2e ae bc 38 99 cc 3e d5 0a 47 3e
       -0.15806678 -0.021262338 0.39960647 0.19437726
0002d0 b9 b6 9d bd eb 94 e7 3d dc 6a 4c 3e 31 58 f4 bd
       -0.07700867 0.11307701 0.19962639 -0.11930884
0002e0 af 0b 52 3e 93 05 96 3e 37 f8 bb 3d 74 2c ea 3d
       0.2051227 0.29301128 0.091782026 0.1143426
0002f0 ba 94 f8 3d 29 f1 fa 3c f5 3f ae bd 52 84 6c 3e
       0.12137742 0.030632572 -0.085082926 0.23097351
000300 43 dc 36 bd fa cf 5d be e4 ac 39 3c 9e 9d 26 3e
       -0.04464365 -0.21661368 0.011332724 0.16271064
000310 0d 77 9e bc 98 91 e2 bd 6f 05 4f bc df 48 e4 3d
       -0.019343877 -0.11062926 -0.012635573 0.111467116

pi.net.4.bias f4 [4]
000000 70 5a 0b 3d 34 f2 d1 3d 22 b4 b4 bc 71 90 6d 3d
       0.034021795 0.10251275 -0.02205855 0.05799908

v.net.0.weight f4 [64, 34]
000000 24 fe c6 3c 63 cb 3d 3d b6 e5 97 bd 04 ea e2 bd
       0.024291106 0.046336543 -0.07416861 -0.11079791
000010 da 1c 02 ba ba b5 c4 3d cd e9 c5 3d 1e 7f 09 3e
       -0.00049634057 0.09604974 0.096637346 0.13427398
000020 bf fe bb 3b 71 82 b3 bd bd c4 1f 3c 38 84 ca bd
       0.005737155 -0.08765114 0.009751496 -0.098885
000030 09 f0 b9 3b fa bc 78 3d 31 6d 64 bd 17 fe 54 bc
       0.0056743664 0.060727097 -0.055768196 -0.013000033
000040 09 01 d2 3c 47 da 06 be 82 6f 87 bc d3 49 c0 3d
       0.02563526 -0.13169204 -0.016532663 0.09389081
000050 d5 a7 fe 3d 85 e3 0b be d7 7d 3d 3e 10 e6 ee 3d
       0.12434355 -0.1366101 0.18505035 0.11664975
000060 0e 17 0a be 2b 3d b0 bb 8b 8c 16 3d 25 78 8b bc
       -0.13485357 -0.0053783855 0.036755126 -0.017025063
000070 bc 65 93 bc be e3 f2 3d c0 3f 8a 3d e4 2e 0e bd
       -0.017992847 0.118598446 0.067504406 -0.034712687
000080 d5 53 fc bc 51 8b 0c 3d 9f d3 3e bd f6 c3 b7 bd
       -0.030801693 0.03431255 -0.046588536 -0.089729235
000090 ce 97 43 3d f1 fa 08 bd 31 d6 85 bc bf 13 29 be
       0.047752194 -0.03344244 -0.016337486 -0.16511439
0000a0 a1 66 9b be 0e fb a0 bd b0 9b 42 be e6 ab 13 3e
       -0.30351737 -0.07860385 -0.19004703 0.14421043
0000b0 09 03 87 3d 1e f5 98 3b ed b8 7c 3d b0 2d 29 3d
       0.06592376 0.004667892 0.061699796 0.041303337
0000c0 89 4d 3d bd 1b c4 d8 bc 31 b1 00 3e ee d9 39 be
       -0.04621652 -0.026460698 0.12567593 -0.1814954
0000d0 c5 de a4 be e8 90 6c 3d c3 0a 7e 3e 98 da e2 bd
       -0.3220121 0.05775538 0.24808793 -0.1107685
0000e0 bf e9 df be 35 89 b8 be db 09 41 be 17 49 96 be
       -0.43733022 -0.3604218 -0.18851416 -0.29352638
0000f0 3d 7e 98 3d 08 b1 57 3e 6f d2 af be 8d f1 0f bd
       0.07445953 0.21063626 -0.34340236 -0.03514247
000100 0e dd 66 3d 8e 79 92 bc 79 f3 23 bd 81 9a e1 3d
       0.056363158 -0.017880227 -0.040027115 0.110157974
000110 2d 7a 02 be f0 87 ba 3e 8e b5 c2 3e 73 d6 de bd
       -0.12741919 0.36431837 0.3802914 -0.10880747
000120 35 fc 42 3c 37 e5 0f 3f d3 cb b8 3c 8b 95 3b be
       0.011900951 0.5620913 0.022558128 -0.18318765
000130 99 c1 20 3e 10 10 8e 3d e4 9b 90 3b 34 d0 e4 3b
       0.15698852 0.069366574 0.004413115 0.0069828276
000140 10 0d f6 bc d6 27 d5 bc af e8 16 bd ef 6a 45 3d
       -0.030035526 -0.026019972 -0.036842998 0.048197683
000150 7c 4e e3 bc 71 29 d6 be 28 fd 67 3e 46 8d 2b 3e
       -0.027747385 -0.41828492 0.22655165 0.1675311
000160 92 39 5e bd f3 d3 2d bc 91 e7 55 bd 6c cb 47 3e
       -0.054254122 -0.010609615 -0.052222792 0.19511193
000170 ec 3d 96 bd 83 0f 58 3e 4e 57 90 3e 05 6e 36 bd
       -0.073360294 0.21099667 0.28191608 -0.044538517
000180 f5 8b bc 3d dd 73 26 3c 93 18 25 3c 58 92 0a bd
       0.09206382 0.01015946 0.01007666 -0.03383097
000190 b2 a4 82 3d 0a 11 88 bc 71 ed 21 be 2c 08 a0 be
       0.063790694 -0.016609687 -0.15813233 -0.31256235
0001a0 29 37 5d 3e 47 2d 36 bd 42 b2 68 bd c8 db c0 3e
       0.21603073 -0.044476774 -0.056810625 0.3766768
0001b0 57 cb 8c bb 16 a4 1a be c3 8c fa bd 60 8c c6 bd
       -0.004296701 -0.15101656 -0.122338794 -0.09694743
0001c0 b2 fc 83 3d 02 a1 6e bd 19 c8 81 3c 6b f0 80 3d
       0.06444682 -0.058259018 0.015842484 0.06295856
0001d0 76 33 9f 3c 8d 46 c7 bb 12 c9 80 3c d6 99 15 3e
       0.019433718 -0.0060814084 0.015720878 0.14609465
0001e0 bb 2e 2a be b7 42 71 3e 28 62 42 3e 5a 2e 1f bd
       -0.16619389 0.23560606 0.18982756 -0.038862564
0001f0 de 88 c1 3c f5 42 b9 3d f4 12 17 3d be 9c 29 3c
       0.023624834 0.09045974 0.03688331 0.010352312
000200 4d f9 25 3e a7 72 8f bc cd d6 36 bd 81 96 b7 bd
       0.16208382 -0.017510725 -0.044638444 -0.08964253
000210 77 ac 08 3d 68 80 74 3c 76 df 8b bc e4 76 ce bb
       0.0333676 0.014923193 -0.017074328 -0.006300794
000220 45 52 f5 bd 01 bd 27 3d 6f fa 14 be b6 fa c9 bd
       -0.11978582 0.040951733 -0.14548658 -0.098622724
000230 f0 82 db bd f0 34 e5 bd a3 3f a9 bd 5c 97 c0 bc
       -0.10718334 -0.11191738 -0.08264091 -0.023509674
000240 29 f0 02 3e c9 eb c0 3d 19 34 87 3d 05 d8 06 3d
       0.12786926 0.094199724 0.06601734 0.032920856
000250 31 11 c4 3b 72 ca 35 bd 13 d5 64 b9 a6 71 99 3d
       0.0059834947 -0.04438252 -0.00021823151 0.0749238
000260 24 dd 88 bd 9b 25 1d 3e 87 05 0c 3d 58 e2 be bd
       -0.06682804 0.15346377 0.03418496 -0.093205154
000270 4c 54 01 3d 69 53 73 be a4 bc 34 be ef 73 0d be
       0.031574532 -0.23762287 -0.17650086 -0.13813756
000280 4f a3 9f 3c af 0f db bc 0b 74 95 bc 66 a2 08 3d
       0.019487051 -0.026740877 -0.01824381 0.033358
000290 14 10 ec bc 6d ed 16 be e0 b4 10 3e e0 c7 af 3d
       -0.02881626 -0.14739008 0.14131498 0.08583045
0002a0 d4 11 67 bb 75 02 90 3d 03 0f 3c 3c 66 61 3c bd
       -0.003525843 0.07031719 0.011478188 -0.045991324
0002b0 19 89 53 be ee 89 37 3d c8 c8 05 3e 41 26 ad 3d
       -0.20657767 0.044809274 0.13064873 0.08454562
0002c0 02 15 e2 bd 43 94 a4 3d 34 08 04 3e 1f 55 2a 3c
       -0.11039163 0.08036091 0.12893754 0.010396271
0002d0 77 cc e7 bd 6d 26 3a bd 79 4e e6 bd 64 42 a5 3b
       -0.113182954 -0.045446802 -0.11245436 0.005043315
0002e0 ec be a6 3b 43 30 c0 3d 2a 15 6b 3d aa 44 67 bc
       0.0050886776 0.09384205 0.05739323 -0.014115492
0002f0 83 59 df 3d c8 04 3a bd dc 4a 07 3e 80 a0 09 3c
       0.10905745 -0.045414716 0.1321215 0.008400083
000300 9b f7 7a be fb fe c8 3d a8 8c 7a 3d e0 1b b6 bc
       -0.24508516 0.09814259 0.061169297 -0.022230089
000310 5d d0 3b 3e 14 ac 48 bd 9c 45 13 3d 2a 59 fd 3d
       0.18341203 -0.04899223 0.035955057 0.12370522
000320 36 51 b4 bd 31 3f ac bc 2a 5b 00 bd 0b 56 68 3d
       -0.08804552 -0.021026226 -0.03133694 0.056722682
000330 94 32 d5 bc b4 fc f2 3c f1 29 4e 3d cb 51 01 3e
       -0.026025094 0.029661514 0.050332967 0.12628858
000340 f5 5b a7 3d 84 68 55 bd d9 40 22 3e fc 16 65 be
       0.08171836 -0.052101627 0.1584505 -0.22372049
000350 04 81 0c 3e 40 17 15 3e b0 0e f4 bd 5d c2 ad bd
       0.1372109 0.1455965 -0.11916864 -0.084843375
000360 ba 13 86 bd 30 1a 96 3c e5 78 a6 3b bd dd f3 bd
       -0.06546731 0.018323034 0.0050803297 -0.119075276
000370 f3 37 66 3d 20 c4 a0 3b ad 92 5f 3d 81 2e c4 3d
       0.0562057 0.0049061924 0.05458324 0.095791824
000380 76 34 57 3e 40 6b 59 3c 11 18 2b bd ca 21 30 3e
       0.21016106 0.013270199 -0.041771 0.1720039
000390 92 76 1b be a9 1b 0f be 4b 50 c5 bc 56 c2 9d 3d
       -0.1518195 -0.13975395 -0.024086138 0.07703082
0003a0 a3 60 63 be e0 94 be bc b5 77 05 3d 00 3d 92 3c
       -0.22204833 -0.023264349 0.032584865 0.017851353
0003b0 80 0f a5 bd 0c 50 69 3d 8b 18 74 3d 5e 8e ba 3c
       -0.08059597 0.056961104 0.05959372 0.022772964
0003c0 89 0b d0 bc 4b 03 b2 3d 5c d2 9c 3b bf 64 9e bd
       -0.025396125 0.08692034 0.004785819 -0.077340595
0003d0 69 07 e4 3c 2a 55 58 bb a5 47 73 3c b9 3e 7a 3c
       0.027835565 -0.0033009746 0.014848624 0.015273743
0003e0 23 b9 05 bc 51 db d1 bd 4c 23 70 3c 98 48 db bc
       -0.008161816 -0.102469094 0.014656853 -0.026768014
0003f0 11 5b 64 bc ea 4b 27 bd 95 c8 fb 3b d0 52 90 bc
       -0.013937728 -0.04084388 0.0076838234 -0.017617613

v.net.0.bias f4 [64]
000000 fd 92 87 3e 72 9b 27 be b6 c2 80 3e 03 10 8d 3e
       0.2647933 -0.16367891 0.25148553 0.27551278
000010 69 9f 18 be 0c 8c bc bd 7b ae ae 3d 81 5c 24 be
       -0.1490456 -0.09206399 0.08529373 -0.16050912
000020 80 05 38 3e 8f 5c 9b 3d a3 6e bf 3e bb 6a f6 bb
       0.17970848 0.075860135 0.37389097 -0.0075200475
000030 26 3d 86 3e 27 c7 bb be 76 2b 58 be 2d 4f 23 3e
       0.26218528 -0.3667538 -0.21110329 0.15948172
000040 8b 82 a5 3e 90 93 ce 3b de 38 ff be 8e d1 d1 be
       0.3232616 0.006304212 -0.49848074 -0.4098019
000050 41 11 b6 3e c0 63 81 be ac 67 93 3c 4e e4 36 be
       0.3556004 -0.25271416 0.01799377 -0.17860529
000060 c0 d8 db bc ba cb 60 be f1 71 8c be b8 1e a8 be
       -0.026836753 -0.21952716 -0.2743068 -0.32835937
000070 cf 35 99 3e a0 d5 1d be da ff 01 be 28 da 46 be
       0.29923865 -0.15413523 -0.12695256 -0.19419158
000080 00 8b af 3e d5 2e b7 3d 5b 2a 09 bd 3e d1 27 be
       0.34285736 0.089444794 -0.03348766 -0.16388413
000090 32 6c 85 3e 39 11 0f bd 7a b6 28 be ce c6 2e 3e
       0.2605911 -0.034928534 -0.1647586 0.17068025
0000a0 70 5c 1e be 1c a0 39 be 18 59 ee 3c 7a 8f 94 be
       -0.1546495 -0.18127483 0.029095218 -0.29015714
0000b0 dd 21 32 3e c9 55 20 3d 3b fc 01 be ef fb 5b bd
       0.1739573 0.03914431 -0.12693875 -0.05370706
0000c0 54 aa cf bd 32 6d 00 3e fe b3 2d be a5 e0 c4 be
       -0.101399094 0.12541655 -0.16963193 -0.3845264
0000d0 33 60 e0 bb 3f dc 11 be 7a 6e 53 3e 54 32 ae 3d
       -0.0068474053 -0.14244173 0.20647612 0.08505693
0000e0 74 a4 2e bd 63 93 97 3e e4 4b 13 3e 70 38 1e 3d
       -0.042637303 0.29604635 0.14384419 0.03862804
0000f0 bf 02 51 be ae 80 a0 3e a4 f1 af be af c1 80 be
       -0.20411204 0.31348175 -0.34364045 -0.2514777

v.net.2.weight f4 [64, 64]
000000 ce 5a e5 bd 8b d6 2b 3e fa f4 83 bd ab a7 63 3c
       -0.1119896 0.1678106 -0.0644321 0.013894956
000010 e7 bf 81 bd 36 af cb 3d ab fa 5a bd 56 bb bc 3d
       -0.063354306 0.09945528 -0.05346171 0.09215419
000020 2c ae d6 bc 3d 4c d6 bc 17 da e6 3d 7d 8c bc bd
       -0.026206098 -0.0261594 0.11272066 -0.092064835
000030 58 33 e5 bd a3 72 91 bc 7e 98 be bd dd 5f 37 3e
       -0.11191434 -0.017754858 -0.09306429 0.17907663
000040 7e 74 77 bc e8 7d fb 3d 11 46 16 bb 4a 5a 13 3e
       -0.0151034575 0.12279874 -0.0022929946 0.14389911
000050 8f d8 fa bd 32 35 44 be 1c e2 34 3d fa a1 11 3e
       -0.122483365 -0.19160917 0.044160947 0.14221945
000060 73 dc a4 3c 6e 61 8f bd cb 77 36 3e b9 9a 83 bd
       0.02012465 -0.07001005 0.17819135 -0.064259954
000070 05 27 c1 bd f4 5c 75 3d 6d 20 1d 3e a4 01 9d 3d
       -0.094312705 0.0599031 0.153444 0.076663285
000080 89 ae 52 3c b4 1e 0e be 2a 5d 9c 3a fe d8 fd 3d
       0.012858995 -0.138789 0.001192962 0.123949036
000090 fd 1d dd bd 56 4a 50 3e 27 c2 4b bc c1 dc 51 3c
       -0.107967354 0.20340857 -0.012436426 0.0128089795
0000a0 2c 4e 44 3c 5d 44 b0 3d c9 ca aa 3d 7d f0 5b 3d
       0.011981528 0.08606789 0.083394594 0.053696144
0000b0 73 de 45 bd 0d 7d 46 be 93 a6 93 bd d4 25 17 be
       -0.048307847 -0.1938364 -0.07209506 -0.14760524
0000c0 90 01 de 3b 60 2f 83 3e 1e ae 6a 3d bc 4b b7 3d
       0.0067750886 0.25622082 0.057294957 0.08949992
0000d0 6a 08 a4 3d df 53 13 bc 30 78 b3 3d 80 13 3f be
       0.08009417 -0.008992164 0.08763158 -0.18659782
0000e0 39 29 38 be 0b b5 a4 bd 53 88 af 3c e5 d6 e5 3c
       -0.17984475 -0.08042344 0.02142731 0.028056571
0000f0 c7 e8 b2 bd ee b0 a1 bd fc 0d 84 3e 0c ec 79 bd
       -0.08735805 -0.07895075 0.2579192 -0.061016127
000100 23 88 6b bd e2 1a 74 3d 44 4d 13 be 6a 67 00 bd
       -0.057502877 0.05959595 -0.14384943 -0.031348623
000110 00 62 b1 3c cc 82 10 be 9f ff a9 3d 58 fb 70 3d
       0.021653175 -0.14112395 0.08300709 0.05883345
000120 69 10 73 be 3d e2 b2 3d af ab 83 3e fb 38 3f bd
       -0.23736729 0.08734558 0.25716922 -0.0466852
000130 b4 c2 df 3d 42 e1 4c 3e c0 d8 c2 be 1b b9 2b 3d
       0.109258085 0.20007804 -0.38055992 0.041924577
000140 b8 b8 1a bd 8f c8 45 3d 87 fd e8 3c ae 17 88 3e
       -0.037773818 0.04828697 0.028441204 0.26580566
000150 5b c9 00 be c9 16 90 bd b0 9a 7e bd d3 4e 0b 3d
       -0.12576811 -0.07035596 -0.06215924 0.03401072
000160 e3 4a be bd dd 8b 14 be a5 be 72 3d 80 e4 9f 3d
       -0.09291627 -0.14506479 0.059263844 0.07807255
000170 14 22 32 be 2a 3f b2 3e 08 39 cd 3d af 70 14 bd
       -0.17395812 0.34813815 0.100206435 -0.036240276
000180 b5 73 07 be 59 3f 34 bd 4e e6 11 3e 2f bf 3a 3d
       -0.13227732 -0.044005726 0.1424801 0.045592483
000190 21 35 b7 bc 46 8c 4e 3e ad d9 83 3d df d9 3a bd
       -0.022364201 0.20170698 0.06438003 -0.045617934
0001a0 33 b1 55 bd b8 db 3a 3d 95 bb 26 3d 85 29 81 bd
       -0.052170943 0.045619696 0.040706236 -0.06306747
0001b0 4b 26 8f bc 4c 16 12 be 42 07 45 be 07 78 42 be
       -0.017474314 -0.14266318 -0.1924105 -0.189911
0001c0 8c 86 bc 3d c1 79 81 3e 4a 1a c3 3c 57 0d 0b 3e
       0.0920535 0.25288203 0.023816247 0.13579307
0001d0 e7 06 33 be 31 27 16 3e ad 45 29 be 67 85 3e bd
       -0.17483102 0.14663388 -0.16530485 -0.04651394
0001e0 78 eb 50 be 0e 2d 42 3d c4 5a c9 3d 96 38 0b 3e
       -0.20402324 0.04740625 0.09831765 0.13595805
0001f0 90 e2 b0 3e 03 54 97 3d 04 ff 04 3e fb 01 41 3e
       0.34547853 0.07389071 0.12987906 0.18848412
000200 f8 d5 92 3d 81 6f b8 bc 2c 06 05 3e 63 9f 7e 3e
       0.071697176 -0.022514107 0.12990636 0.24865489
000210 7d fc 76 bd 12 0b 0c bd de ed 9a bd 02 24 82 bd
       -0.060299385 -0.034190245 -0.07564901 -0.06354524
000220 66 56 80 bd d0 aa 3c bd f5 20 60 be be 13 1a 3d
       -0.06266479 -0.046061337 -0.21887572 0.037616484
000230 02 c0 e6 3d 9b f6 66 bd b4 b0 98 3d 09 79 f1 bd
       0.11267091 -0.056387525 0.074555784 -0.11790664
000240 49 97 ff 3d aa 59 35 be dd f7 88 3d 24 66 2a be
       0.12480027 -0.17709985 0.06687901 -0.16640526
000250 40 55 55 3c 25 7d ec ba ce 13 40 bb 8b c2 7e 3d
       0.013020813 -0.0018042667 -0.002930868 0.06219725
000260 90 77 f8 bd dd 99 8c bd 46 3f 86 be 49 da f1 bd
       -0.1213218 -0.068652846 -0.2622015 -0.11809213
000270 e6 0d 3d 3e 60 96 e6 bd f4 51 ad 3d bf b6 92 3d
       0.18462333 -0.112591505 0.08462897 0.07163762
000280 de df 8e 3b 80 20 d4 3c 3f 49 23 be 6f 66 cb bd
       0.004360183 0.025894403 -0.1594591 -0.09931647
000290 6b 79 f6 bc 02 da d8 3c d7 14 d7 3b 6f 95 31 3d
       -0.030087193 0.026471142 0.0065637636 0.0433554
0002a0 05 eb dd 3d dd 53 02 3e 71 83 b3 3d 4e cd 24 bd
       0.10835842 0.12727304 0.08765305 -0.040234856
0002b0 11 a0 93 3b c6 b5 a8 3d c1 07 90 3e d1 62 a9 3b
       0.0045051654 0.082377955 0.28130916 0.0051692505
0002c0 42 64 84 bd 7c bf 03 be 73 2c 6a 3e ff 8d 4b be
       -0.06464435 -0.12866014 0.22868519 -0.19878386
0002d0 86 67 41 bd f3 14 25 be b6 81 3b 3d 9d 13 a0 bd
       -0.04721787 -0.16121273 0.045778 -0.07816241
0002e0 9b e4 27 3e da 26 e4 3d d7 8a db 3b 23 0f 28 be
       0.163958 0.11140223 0.0066999006 -0.16412024
0002f0 eb 8c c6 3c 5d 04 70 3d f0 21 e7 bd 13 e0 35 be
       0.024237117 0.05859791 -0.1128577 -0.17761259
000300 d8 1c 9b bd aa 30 40 bc 42 0d 4f 3e 57 22 8b 3d
       -0.07573861 -0.011730352 0.20219901 0.06793659
000310 12 95 98 3d c3 a5 c7 3d 41 77 cf bd eb af 11 3e
       0.07450308 0.097484134 -0.10130168 0.14227264
000320 d9 9b 08 be b1 95 ae bc dc ec 04 3d 70 74 89 3e
       -0.13340701 -0.021311613 0.03245245 0.26846647
000330 ac 3b da bd ff 9f 27 3e f7 0d 41 3a 74 7f 17 be
       -0.10655913 0.16369627 0.00073644466 -0.14794713
000340 8b a8 5b be 96 05 81 bd df 1f 50 be e6 ea 42 be
       -0.21451013 -0.062998936 -0.20324658 -0.19034919
000350 56 e9 36 be af cd 05 3d f9 a5 85 bd 1b d8 e5 bc
       -0.17862448 0.03266686 -0.065257974 -0.028057149
000360 2b 40 b1 bc 5b bd 76 3d d2 40 4e be cf 65 b5 3d
       -0.021637043 0.060239177 -0.20141914 0.08857309
000370 ae b5 4b be 64 47 d0 3c b1 5a 0b 3d 77 7f 3e bc
       -0.19893524 0.025424667 0.034022037 -0.01162707
000380 58 6f a0 bd 4f 37 d1 bc 11 e4 d4 bb 2a 1d 40 3d
       -0.07833737 -0.025539069 -0.006496914 0.046902813
000390 47 7b a9 bd dc fd 6a 3d 7f 9b 62 3e 12 d3 d3 bd
       -0.082754664 0.057371005 0.2212963 -0.10342993
0003a0 40 22 97 3d fa 25 a1 3d 77 1b 7a 3d 47 40 19 3e
       0.073795795 0.078685716 0.06106135 0.14965926
0003b0 ec dd 1c be 28 15 3b 3e 79 15 e2 3c a8 6e 5f bd
       -0.15319031 0.18269789 0.02759813 -0.05454889
0003c0 04 71 cc 3d e3 47 5f bd 94 b4 42 3e dc a4 93 3e
       0.099824935 -0.054511916 0.19014198 0.28836715
0003d0 8a d8 ba bd a0 c8 c1 3c 80 05 00 be a8 74 98 bd
       -0.09123333 0.023655236 -0.12502098 -0.074441254
0003e0 0f 43 e4 bd b2 96 44 be 49 67 1b be 7a 73 7a 3c
       -0.11145603 -0.1919811 -0.15176119 0.015286321
0003f0 85 10 d7 3b ff d3 23 be 3b 79 08 bd 78 91 e9 3d
       0.0065632486 -0.15998839 -0.03331874 0.11404699

v.net.2.bias f4 [64]
000000 8c 1f 4e bb 52 8f 4c be 54 65 50 3e 9d 6e b3 bd
       -0.003145191 -0.19976547 0.20351154 -0.08761332
000010 37 45 58 be 3f ed 24 be 31 96 05 3e d5 6a 9e be
       -0.21120153 -0.16106127 0.13045575 -0.3094088
000020 71 77 8f be 2f 54 63 bd b9 c7 85 3d ad 2b 56 3d
       -0.28020814 -0.055500206 0.06532235 0.052287746
000030 9c 37 4a be 02 fd 10 be b0 ec df 3d ae 53 69 be
       -0.19747776 -0.14159015 0.109338164 -0.22785828
000040 38 f3 85 be 2a ec 87 3e e9 9d 6e be f8 a9 3e 3e
       -0.26162124 0.26547366 -0.23302425 0.18619525
000050 a1 37 70 be 95 7e 1f be 4b 55 94 3d 38 a5 3c be
       -0.2345872 -0.15575631 0.07242831 -0.18422401
000060 32 37 54 3e 61 2a 43 be 52 19 cb 3c 9b 45 f7 3e
       0.2072418 -0.19059135 0.024792347 0.48295292
000070 cf 8b 82 3d c0 68 3e 3e 46 b8 64 3e 5a 4a a5 3d
       0.063743226 0.18594646 0.2233592 0.08070822
000080 2b 42 fa bd 02 fc 9d 3d eb 9e 46 3c 1b 0a 9b 3e
       -0.12219652 0.07714082 0.01212285 0.30281147
000090 9d e8 03 be 6a 5e 4d 3e 19 ca 8f 3e 46 26 7d 3e
       -0.12881704 0.20055547 0.28083876 0.24721631
0000a0 55 3a 52 be f9 0f 2c 3e 6b b5 eb 3d 94 37 8b 3e
       -0.20530064 0.16802968 0.11509212 0.2719084
0000b0 24 8a 5c bb 90 4f 1e be b0 c0 88 3e 49 91 0e 3e
       -0.0033651674 -0.15460038 0.2670951 0.1392261
0000c0 e1 77 75 3d 48 a8 39 3e 23 a9 80 be ae 69 70 be
       0.05992878 0.181306 -0.2512904 -0.23477814
0000d0 9c 53 46 bd e0 78 32 3e 21 d5 11 be 15 f6 21 be
       -0.04841958 0.17428923 -0.14241458 -0.15816529
0000e0 5e fe ee 3c 4b 83 3b be a6 ed 9a 3a ec c3 3e 3e
       0.029174026 -0.18311803 0.0011820092 0.18629426
0000f0 64 e8 d9 3d b9 e8 14 3e a7 c6 38 3d 85 42 96 bd
       0.10640028 0.14541902 0.045111325 -0.07336906

v.net.4.weight f4 [1, 64]
000000 5b f5 5e 3e 49 ad 5d 3e 05 b5 7d be 9d 10 22 3e
       0.21773283 0.21648134 -0.24776085 0.1582665
000010 81 ff 23 3e 3e 5c 34 3e a0 6f 2f be 0e ee 2b 3e
       0.16015436 0.17613313 -0.17132425 0.1679003
000020 f3 2a 4f 3e 7a 12 8b be 2c 06 39 be 31 5f 83 be
       0.20231228 -0.27162534 -0.1806876 -0.25658563
000030 04 f7 a0 3e ad 8f 83 3e 22 62 54 be ee fd 4c 3e
       0.31438458 0.25695553 -0.2074056 0.20018741
000040 8c 5a 5a 3e a9 25 21 be 1e 2b 25 3e 12 09 20 be
       0.21323603 -0.15737022 0.16129729 -0.1562846
000050 2a 78 41 3e 7d 06 35 3e cb 98 30 be a5 48 67 3e
       0.18893495 0.17678256 -0.17245786 0.22586305
000060 9f a8 21 be 6e 2a 6f 3e 5e 1c 3d 3e 88 c6 3d 3f
       -0.1578698 0.2335603 0.18467852 0.7413106
000070 85 0e 2c be 68 60 42 be b0 06 14 be 9a 0c 46 be
       -0.16802414 -0.18982089 -0.14455676 -0.19340745
000080 73 38 4e 3e 10 ab 66 be 3b 27 62 3e 55 8a 36 be
       0.20138721 -0.22526193 0.22085278 -0.17826207
000090 e4 d4 31 3e da ac 31 be 03 d8 47 be 24 e6 5a be
       0.17366368 -0.17351094 -0.19515996 -0.21376854
0000a0 6d a6 68 3e 5e cc 54 be 7c 49 a6 be 87 9a 39 be
       0.22719736 -0.20781085 -0.3247794 -0.18125354
0000b0 75 3d 14 be 60 6c 5d 3e f5 51 31 be 5c 4d 35 be
       -0.14476569 0.21623373 -0.1731642 -0.17705292
0000c0 b7 da a2 3e 1c 2c 43 be cf 62 7d 3e 78 23 36 3e
       0.3180749 -0.19059795 0.24744724 0.17786968
0000d0 d3 cd 61 3e cf b0 36 be cb dc 7b 3e c6 9f 56 3e
       0.22051172 -0.17840885 0.24595945 0.20959386
0000e0 f1 d1 53 be 04 2e 37 3e c0 e0 69 3e 19 39 2c be
       -0.20685555 0.17888647 0.22839642 -0.16818656
0000f0 58 96 29 be b7 48 30 be 0a 16 7b be 54 73 39 3e
       -0.16561258 -0.17215239 -0.24520126 0.181104
