runs/phoenix/DroneHoverBulletEnvWithAdversary-v0/ppo/2023-07-30__12-09-50/seed_02390/torch_save/model.pt (torch, 49538 bytes, 14 tensors)

obs_oms.mean f4 [34]
000000 00 00 00 00 00 00 00 00 00 00 00 00 00 00 00 00
       0.0 0.0 0.0 0.0
000010 00 00 00 00 00 00 00 00 00 00 00 00 00 00 00 00
       0.0 0.0 0.0 0.0
000020 00 00 00 00 00 00 00 00 00 00 00 00 00 00 00 00
       0.0 0.0 0.0 0.0
000030 00 00 00 00 00 00 00 00 00 00 00 00 00 00 00 00
       0.0 0.0 0.0 0.0
000040 00 00 00 00 00 00 00 00 00 00 00 00 00 00 00 00
       0.0 0.0 0.0 0.0
000050 00 00 00 00 00 00 00 00 00 00 00 00 00 00 00 00
       0.0 0.0 0.0 0.0
000060 00 00 00 00 00 00 00 00 00 00 00 00 00 00 00 00
       0.0 0.0 0.0 0.0
000070 00 00 00 00 00 00 00 00 00 00 00 00 00 00 00 00
       0.0 0.0 0.0 0.0
000080 00 00 00 00 00 00 00 00
       0.0 0.0

obs_oms.std f4 [34]
000000 00 00 80 3f 00 00 80 3f 00 00 80 3f 00 00 80 3f
       1.0 1.0 1.0 1.0
000010 00 00 80 3f 00 00 80 3f 00 00 80 3f 00 00 80 3f
       1.0 1.0 1.0 1.0
000020 00 00 80 3f 00 00 80 3f 00 00 80 3f 00 00 80 3f
       1.0 1.0 1.0 1.0
000030 00 00 80 3f 00 00 80 3f 00 00 80 3f 00 00 80 3f
       1.0 1.0 1.0 1.0
000040 00 00 80 3f 00 00 80 3f 00 00 80 3f 00 00 80 3f
       1.0 1.0 1.0 1.0
000050 00 00 80 3f 00 00 80 3f 00 00 80 3f 00 00 80 3f
       1.0 1.0 1.0 1.0
000060 00 00 80 3f 00 00 80 3f 00 00 80 3f 00 00 80 3f
       1.0 1.0 1.0 1.0
000070 00 00 80 3f 00 00 80 3f 00 00 80 3f 00 00 80 3f
       1.0 1.0 1.0 1.0
000080 00 00 80 3f 00 00 80 3f
       1.0 1.0

pi.log_std f4 [4]
000000 18 72 31 bf 18 72 31 bf 18 72 31 bf 18 72 31 bf
       -0.6931472 -0.6931472 -0.6931472 -0.6931472

pi.net.0.weight f4 [50, 34]
000000 8a c9 0b bd 46 9d 04 3e 18 31 01 3e 92 70 d2 bd
       -0.03412775 0.1295062 0.12616384 -0.10275377
000010 b1 c7 d7 bb b0 bd 4a bd 81 e5 bb bd 08 0d f7 bc
       -0.0065850844 -0.049497306 -0.09174634 -0.030157581
000020 65 bc 73 bd d7 51 c4 3d 19 30 ae bd 7d 26 d8 3c
       -0.05950584 0.09585922 -0.08505268 0.02638554
000030 21 34 c6 bd a2 3d 5b bd 7a 3f 0a 3e 5a 6e ac bd
       -0.096779115 -0.053525575 0.13500777 -0.084194854
000040 f9 f4 28 bc 70 b8 27 3e af 6d 70 3d 74 c6 b2 bd
       -0.010312312 0.16378951 0.058698352 -0.08729258
000050 08 e1 d2 bd 7c 55 76 bd 67 f9 5b bd a9 eb 98 3d
       -0.102968276 -0.060140118 -0.053704645 0.074668236
000060 85 2c 1c bd a0 1c 14 3e 84 b6 c0 bd 4b a9 5b bd
       -0.038128395 0.14464045 -0.09409812 -0.053628247
000070 4e c0 7f 3d 61 41 0c 3e dd fd 27 3e 33 de e0 3c
       0.062439255 0.13696815 0.16405435 0.027449703
000080 03 e0 ec 3b f4 5c 9d bd 77 73 c6 3d f2 96 cb bd
       0.0072288527 -0.07683745 0.09689992 -0.099409
000090 5e a3 38 bd 2f c7 12 be 6b d3 28 be f6 51 c4 3d
       -0.045077674 -0.14333795 -0.164869 0.09585945
0000a0 59 e4 3e 3c d7 fe 0b 3e ee bd 0b 3e 00 4f b8 3d
       0.011651122 0.13671432 0.13646671 0.08999443
0000b0 54 8f 8c 3d d1 4c 36 bd b9 8a ba 3d 0e e5 a8 3d
       0.06863275 -0.04450685 0.091084905 0.08246814
0000c0 f5 2c 73 3d e5 38 a2 bb 1a da d1 3c 0c 78 47 3a
       0.059369046 -0.00495063 0.025616694 0.0007609136
0000d0 5b e5 fe bd 54 11 23 3d 2b 1a 01 be b6 6a aa 3d
       -0.1244609 0.039811447 -0.12607639 0.08321135
0000e0 02 44 d1 bd 54 75 65 bd 4f 92 a6 bd 51 9d 0a 3e
       -0.102180496 -0.056020096 -0.08133375 0.13536574
0000f0 92 57 f7 bd a6 57 b3 3d eb 26 b0 3d 59 58 f8 3d
       -0.120772496 0.08756952 0.08601173 0.12126226
000100 f7 00 30 3d db 78 bf 3d c4 d2 0a 3e 17 5e 0a 3d
       0.04296967 0.09349223 0.13556963 0.033781137
000110 24 d9 6e 3d a9 51 09 be 95 6b 3c bd db c5 7e 3c
       0.05831255 -0.13410057 -0.046001036 0.015550102
000120 a5 37 aa 3c e7 2d 78 bd e5 17 2e be 76 ae 36 bd
       0.020778487 -0.06059065 -0.17001303 -0.044599973
000130 03 77 86 3d 6d 37 17 3e c7 95 1e be 5b b0 a7 3d
       0.065656684 0.14767237 -0.15486823 0.08187934
000140 d5 a2 26 be c5 f0 27 be 8f f4 db bd e5 90 b9 bc
       -0.16273053 -0.1640044 -0.10740005 -0.022652099
000150 3a 31 44 3d 8c 8e 05 be ec 4c 07 3e 17 cf 1e 3e
       0.04789851 -0.13042659 0.13212937 0.15508686
000160 ed e0 2c 3c 8a f2 0e 3e bf 01 9f bd c3 f1 8a bd
       0.010551673 0.13959709 -0.07764005 -0.06784394
000170 26 4c b5 bc 37 82 99 3c 3a 03 f5 bd 04 9f 0c be
       -0.022131037 0.01873885 -0.11963506 -0.13732535
000180 49 bf 8a 3d 98 89 4a 3d 5a cc 2b 3e 5e 33 8f bd
       0.06774766 0.049447626 0.16777173 -0.069922194
000190 fb 10 78 3d 05 bc 8d bd 52 62 ad 3d ab a6 1b bc
       0.06056307 -0.069206275 0.08466019 -0.009500186
0001a0 39 2f 02 3e c4 21 c3 3d 1f 2c 12 3e bc 7e b4 3d
       0.12713327 0.09527925 0.14274643 0.08813235
0001b0 52 21 d3 3b fb 56 17 3e 3b 4e ce bd 20 a3 25 3e
       0.006443181 0.14779274 -0.10073515 0.16175508
0001c0 b7 9b 2b 3e 49 c2 27 3e 03 11 a4 bd 04 1a ba bd
       0.16758619 0.16382708 -0.08011057 -0.09086993
0001d0 fa c5 31 3c 72 be 5a 3d a0 2f b0 3d 8c d8 8e 3d
       0.010850424 0.05340428 0.08602834 0.06974897
0001e0 b0 88 15 3e 75 fe 2f bd 3a 75 66 bd d1 76 6b 3d
       0.14602923 -0.04296728 -0.05626414 0.05748636
0001f0 87 c0 43 3d b3 e1 cc bd d8 e3 87 3c d7 55 05 be
       0.04779103 -0.10003986 0.016588137 -0.13021027
000200 5f 14 4e bd 15 d9 89 bd d7 f0 19 3e 66 15 1e be
       -0.050312396 -0.06730858 0.1503328 -0.1543785
000210 dc 5f cf bd 95 dc 2b be ea 29 31 3d 28 2b 07 be
       -0.101257056 -0.16783364 0.043252863 -0.13200057
000220 18 46 63 3d b6 f7 f3 bd 9b fd e0 bd 33 6f b3 bd
       0.05548677 -0.119124815 -0.109858714 -0.08761444
000230 9b d5 d2 3c 6c 5e 21 3e 14 80 24 3e 37 48 54 bc
       0.02573662 0.15758675 0.16064483 -0.0129566705
000240 8f 03 2c be 1e 13 68 bd 77 db 85 bd ec 68 15 bd
       -0.16798232 -0.056658857 -0.06536 -0.036477014
000250 5b 33 86 3d 32 c0 b0 3d e3 b9 9b 3d 85 ab 48 3d
       0.06552764 0.08630408 0.076038145 0.0489917
000260 f7 2f 8e bd 43 75 ee ba d8 cc b2 3c 89 67 b3 bd
       -0.06942742 -0.0018192906 0.021826193 -0.08759982
000270 78 5b 7b bc cd 5f af bc 41 ec 25 be 2c 1b ee 3d
       -0.015341632 -0.021407986 -0.16203405 0.116262764
000280 5f 0a 8e bc cc cf 17 be 0c f1 0a 3e bc fc bc bd
       -0.01733893 -0.14825362 0.13568515 -0.09227893
000290 7a b3 78 3d be 28 2e 3e 06 13 02 3c 8b 19 4a 3d
       0.060718037 0.1700773 0.007939106 0.049340766
0002a0 ac 8d 8b 3d 58 ba 04 3e b9 87 57 bd ae a4 c5 bd
       0.06814131 0.1296171 -0.05261967 -0.09650551
0002b0 7e e3 5b bc ed 56 09 3e 38 98 71 3c b8 09 f4 3d
       -0.013420938 0.13412066 0.014745764 0.11915916
0002c0 18 20 a7 ba 41 87 57 3d 98 68 c3 3b 24 8d 98 3b
       -0.0012750654 0.052619223 0.0059633963 0.004655497
0002d0 44 1e 27 be 3b 87 19 be ed 94 69 3c cb d5 ad 3d
       -0.16320139 -0.14992993 0.014256698 0.084880434
0002e0 65 f0 eb 3d 32 d5 f3 3b f9 0c 94 3d a4 e5 92 3d
       0.11520461 0.0074411863 0.07229037 0.07172707
0002f0 83 99 17 be 7f 5a 1a be 7c 29 08 be 14 3c 41 3b
       -0.14804654 -0.15073584 -0.13297075 0.0029485272
000300 83 16 de bd b9 cb 60 bd ff 31 d2 bc 42 09 89 3d
       -0.108441375 -0.054881785 -0.025658606 0.06691219
000310 09 df 22 3d d3 e9 22 3e 17 67 1e 3e a8 11 e0 bd
       0.039763484 0.1590951 0.15469013 -0.10940868
000320 8b a1 0d ba 0f 00 e8 3c ad 4f 19 3e e1 b4 59 bd
       -0.0005402795 0.02832034 0.149718 -0.053151015
000330 a6 08 8a bd ff 7c de bd 4e 67 01 3e 05 03 47 bd
       -0.06739931 -0.10863685 0.12637064 -0.048586864
000340 4d 8b 83 bd 88 8f ed 3d 18 98 21 3e f3 d1 ec bb
       -0.06423054 0.11599642 0.15780675 -0.0072271763
000350 62 95 f7 bd 8f 16 0f 3e 7a 3e 70 bd e7 da a1 bd
       -0.120890394 0.13973449 -0.058653332 -0.079030804
000360 26 ec f6 bd 1c eb a8 bd 02 89 09 be 04 bc ca bd
       -0.120567605 -0.082479686 -0.1343117 -0.098991424
000370 3d fa 1f be 17 95 0d bd 73 38 8d 3d 40 50 05 be
       -0.15622802 -0.03456601 0.068955325 -0.13018894
000380 63 23 7b b9 16 85 81 bd 8f e3 a9 3d 80 1a 18 3e
       -0.00023950408 -0.06324212 0.082953565 0.14853859
000390 6c 3d ba bc 04 c6 b0 bd 99 ef 06 be d1 5a ce bd
       -0.022734366 -0.086315185 -0.13177337 -0.100759156
0003a0 e0 d0 4a 3d a1 2c 21 3d b1 25 bd 3d 7d c1 d0 bc
       0.049515605 0.039349202 0.09235705 -0.025482887
0003b0 29 79 b4 3d 83 75 1c be 8c d5 3c 3d 48 7c 2a 3e
       0.08812172 -0.15279202 0.04610209 0.16648972
0003c0 31 ce 2d be 2a 55 b6 bd 98 d8 e0 3d 28 a8 db bc
       -0.16973187 -0.089029625 0.10978812 -0.026813582
0003d0 69 38 bb bd bf 45 d6 3d 5f 5a 3c 3c 0f 1b dc 3b
       -0.09141619 0.10462522 0.0114961555 0.006717093
0003e0 4e 5c 55 bd a0 50 04 3e 66 d3 c2 3d d5 ad fb 3c
       -0.05208998 0.12921381 0.09512977 0.030722538
0003f0 09 68 d6 3c 40 9e b5 3d b8 d1 da 3d 1e 13 90 bd
       0.026172655 0.088680744 0.10684532 -0.07034896

pi.net.0.bias f4 [50]
000000 d4 92 0b 3d 51 a4 18 be 53 eb aa 3d c6 db 85 bd
       0.034075573 -0.14906432 0.08345666 -0.06536059
000010 1e 11 7e bd c9 55 0b be b5 96 8f 3d 54 90 ff bd
       -0.062028043 -0.13606943 0.07011167 -0.124787
000020 cb 10 15 bd e9 06 9c 3d 6e 4c 04 3e f1 d7 1e 3d
       -0.03639297 0.076185055 0.1291978 0.038780157
000030 01 06 83 bd c2 c5 98 bd 8b 23 c5 3d 1d 55 02 3d
       -0.063976295 -0.07459594 0.0962592 0.03181945
000040 42 d5 13 3e 98 44 84 3d d2 78 0d 3e 00 83 0d be
       0.1443682 0.06458396 0.1381562 -0.13819504
000050 74 2e 0d 3e a9 5f a1 bd 88 09 3c bd 17 8b 86 3a
       0.13787252 -0.07879574 -0.045907527 0.0010264841
000060 b8 bb 03 bd 45 f3 0a 3d 54 7d 1c 3e ac da d1 bd
       -0.032161444 0.033923406 0.15282184 -0.102467865
000070 f1 0c 59 3d 65 24 0d be f4 97 dc 3c 5b ac 10 3e
       0.052990858 -0.13783415 0.026927926 0.14128248
000080 f1 d3 ec 3d c5 63 16 3e fb 20 be 3d ab 78 68 bc
       0.11563862 0.14686497 0.09283634 -0.014188926
000090 d1 68 37 3d 41 c3 92 bd ce 10 15 3e b1 dc af 3d
       0.044777695 -0.07166148 0.14557192 0.085870154
0000a0 2a 89 00 be a4 d8 17 3e 49 c8 26 bb 73 ce f9 bb
       -0.12552324 0.14828736 -0.002544897 -0.0076234876
0000b0 9f 40 40 bd 38 56 39 bd 19 a2 0c 3c 65 77 ab bd
       -0.046936627 -0.04524824 0.008583569 -0.08372382
0000c0 9d 5b 23 be 92 eb b4 bd
       -0.15952916 -0.08833994

pi.net.2.weight f4 [50, 50]
000000 78 66 09 3e fc 7a 82 bd 3f 0a b8 bd 79 e9 6a 3d
       0.13417995 -0.06371114 -0.08986329 0.057351563
000010 37 59 53 bd f9 1d 57 bc 64 77 10 3e 0f a6 b4 3d
       -0.051598754 -0.013129705 0.14108044 0.08820736
000020 04 56 10 be 6b 7e df 3b d1 d6 91 3b 4d a1 0d 3e
       -0.14095312 0.00682049 0.004450657 0.13831063
000030 78 66 fa bd 40 4c b2 3d 73 32 0e be 19 5c 0e be
       -0.122265756 0.0870595 -0.13886432 -0.1390232
000040 b3 77 94 bd a8 81 0a be ac 8a 0e bc f1 e2 e9 3d
       -0.07249393 -0.13526022 -0.008700054 0.11420239
000050 bd b3 20 bd 30 a5 db bd 91 55 47 bc 75 bb eb bd
       -0.03923391 -0.107248664 -0.012166397 -0.11510364
000060 c6 7e c4 3d 68 80 a7 3c 81 6f 00 3e d4 bb 75 3d
       0.095944926 0.020446971 0.12542535 0.05999358
000070 11 20 4f 3d d4 2f 43 3d a4 83 06 3e a7 2f b5 bd
       0.05056769 0.047653034 0.13136154 -0.088469796
000080 43 1d b1 bd d6 be de 3d 36 39 52 3d 99 cb 04 3e
       -0.08648159 0.10876243 0.05132409 0.12968291
000090 ec 02 07 3d 45 b8 51 3d 6c 81 b2 3d f1 b7 bc 3d
       0.03296177 0.051201124 0.087160915 0.092147715
0000a0 d5 ec 9e 3d 23 21 e3 bd 5e ae 27 3d a6 34 c6 bd
       0.07760016 -0.11090305 0.040937774 -0.09678011
0000b0 d5 8a 95 3c 22 8e 9e 3d a4 9d 41 bd d4 49 fb 3d
       0.018254677 0.077419534 -0.04726948 0.12269941
0000c0 ef ef 00 3e e0 c3 26 3d 7f 86 d1 bd d2 6f 41 3b
       0.12591527 0.040714145 -0.10230731 0.0029516113
0000d0 18 5b e1 3d 26 15 d0 3c 45 51 fc 3d a8 aa 27 3c
       0.11003703 0.02540071 0.123201884 0.010233559
0000e0 d2 22 86 bd 4e 00 bd 3d 56 b1 3f 3d 33 e9 9f 3d
       -0.0654961 0.09228574 0.04679998 0.07808151
0000f0 12 0f ad bd fa 9a db bd a9 fc c1 3d 24 a5 4a 3d
       -0.0845014 -0.10722919 0.09472019 0.049473897
000100 f7 e4 d3 3d d3 79 f1 bd 2b 46 85 bd 9b da 92 bb
       0.10346406 -0.11790814 -0.06507524 -0.004481626
000110 52 6e 96 bd 34 f3 b4 3d b5 07 e6 3d 79 09 fb 3d
       -0.07345261 0.0883545 0.11231939 0.12257666
000120 ac af a2 3c 21 81 03 be 06 c6 4f bd c3 62 06 3d
       0.019859158 -0.12842228 -0.05072596 0.03280903
000130 ee 53 1c bd 33 62 77 3d eb cc 1a bd 94 54 ef 3d
       -0.03816598 0.060396384 -0.03779308 0.11686054
000140 cb e2 fa 3d e4 7c 0f 3e 6f d7 3f 3d 11 12 c4 bd
       0.122502886 0.14012486 0.046836313 -0.095737584
000150 a7 eb 15 bd 76 90 9a bd 65 45 82 3d 00 4a 4b bc
       -0.03660169 -0.07547085 0.06360892 -0.01240778
000160 ce ee 67 3d 8b 24 28 3d 10 ca 31 bd 27 82 a0 3c
       0.056624226 0.041050475 -0.043405592 0.019593311
000170 f4 f0 b1 bc 09 95 c8 3c 21 bc bf bd a0 94 2b 3b
       -0.02172134 0.024485128 -0.093620546 0.0026181117
000180 6a c4 dc 3d 6b d9 95 3d 56 e7 b3 bd 00 a6 f1 3d
       0.107796505 0.0731686 -0.08784358 0.1179924
000190 01 76 5d bd d8 6f 01 3e 55 39 ec bc ff b1 0b 3e
       -0.054067615 0.12640321 -0.028835932 0.13642119
0001a0 ae 52 aa 3d 79 89 3f bc cc 24 c3 3d 29 01 f6 3d
       0.08316551 -0.011690491 0.09528503 0.1201194
0001b0 fc 89 e2 bd 00 40 d0 3c 6d 44 c6 3d b1 ee 6f bc
       -0.11061475 0.025421143 0.0968102 -0.014644311
0001c0 87 53 b7 3d 4d ec e1 3d 48 b6 e5 bd 2e ec 9d 3d
       0.089514785 0.11031399 -0.11216408 0.07711063
0001d0 34 0f 05 be 37 57 b5 3d 34 26 a0 bd 30 4a 34 bd
       -0.12994081 0.088545255 -0.07819787 -0.044016063
0001e0 e4 aa 0d 3d 8d 65 f9 bd 86 bf 9f bb bd a7 4a bd
       0.034586802 -0.121775724 -0.0048751263 -0.049476374
0001f0 da 46 37 3d 30 57 09 bc fd 9a 03 be 10 04 0f bd
       0.044745304 -0.0083826035 -0.12852092 -0.034915984
000200 3c b4 b4 3c 3a 96 9e 3d ca 5a a5 bd 6a 16 b0 bd
       0.022058599 0.07743497 -0.08073957 -0.08598025
000210 17 7c 82 3d fe da ad bd 0a f5 64 bd be be 10 be
       0.063713245 -0.08489035 -0.05589775 -0.14135262
000220 40 8b 0b bd 0d f2 e6 bd 28 81 b5 3c f8 8a ea 3d
       -0.034068346 -0.11276636 0.022156313 0.114522874
000230 62 9f 80 3d 75 75 f1 bd 33 d0 01 3e 78 6a 01 be
       0.062804 -0.11789981 0.12677078 -0.12638271
000240 0f 42 5e bd e4 7e a2 3d 10 6e 89 3d 06 9d 9f 3d
       -0.054262217 0.07934359 0.06710446 0.07793622
000250 a7 d9 09 bd 7f a3 fd bd 45 ca 0d be 33 db 3d 3c
       -0.033654835 -0.123847 -0.13846691 0.011587906
000260 4f 19 0c be 37 ec be bd d0 45 bd 3d 74 5a b2 bc
       -0.1368153 -0.09322398 0.09241831 -0.021771647
000270 a6 2c 4a 3d 34 db e3 bd db a3 b7 3c ad 7d 02 3e
       0.049358986 -0.11125794 0.022417 0.12743254
000280 16 9f d2 3c 12 59 cc 3c c9 bb b2 bd f2 6a d1 bd
       0.025710624 0.024944816 -0.087272234 -0.10225476
000290 44 d8 a8 3d 7e a6 01 be 2b f0 0d bc b3 13 e8 bd
       0.082443744 -0.12661168 -0.008663218 -0.11331882
0002a0 0a d9 22 3c 2c e7 0d be dd c3 3f 3d c1 54 7c 39
       0.009939441 -0.13857716 0.04681765 0.00024064166
0002b0 a4 73 be bd 07 b0 57 bd e2 7b 67 bd 26 03 82 bd
       -0.092994004 -0.052658107 -0.05651463 -0.06348257
0002c0 d3 72 10 bd 57 73 d5 3c 10 a5 a6 bd f9 30 12 3d
       -0.035265755 0.026055975 -0.08136952 0.035691235
0002d0 58 a9 ee bd f3 60 08 3e f1 97 ad bd ba 50 76 3d
       -0.116533935 0.13318233 -0.08476246 0.06013558
0002e0 1d 40 c6 bd 80 b0 c5 bd 0e 0e aa bc 5d fe a4 bd
       -0.096801974 -0.09652805 -0.020758655 -0.080563284
0002f0 75 11 22 bd 22 f7 7b bd 86 00 22 bd db e5 df bd
       -0.03956743 -0.06151498 -0.03955128 -0.10932513
000300 cc 3c 0d 3e 6e 5a a3 3d da ee 4e bd 8d 52 d2 3d
       0.13792723 0.079762325 -0.050520755 0.102696516
000310 2d 0a 81 bd a3 99 ec bd d9 89 39 3d ca 54 47 bd
       -0.06300769 -0.115527414 0.045297477 -0.048664846
000320 56 d3 d9 3d 44 e0 1b bd 45 d1 eb bd 6c 39 f4 3d
       0.10636012 -0.038055673 -0.11514524 0.11925015
000330 19 06 02 3d a2 cd 2f 3d 86 15 60 bc 84 4c e6 bd
       0.031744096 0.042920716 -0.013677007 -0.11245063
000340 ec 7a 3a 3d ae 40 c8 39 fb c2 bf bd be 0c a5 3d
       0.045527384 0.00038195163 -0.093633614 0.08059071
000350 83 9b 07 be d5 c0 b3 bd 17 10 07 bd ea bc 07 be
       -0.13242917 -0.08777014 -0.03297433 -0.13255659
000360 db 5e 02 be f4 07 2e bd f7 63 da bc af 75 d4 3d
       -0.12731497 -0.042488053 -0.026658995 0.10374009
000370 fc 27 87 3d 3e a5 06 3e 81 ed 33 3d 7a f1 9a 3c
       0.06599423 0.13148972 0.043927673 0.018913973
000380 84 43 df bc 60 5e 74 bd c7 bb 01 be db 45 04 be
       -0.027253874 -0.059660316 -0.12669288 -0.12917273
000390 55 79 76 3d 80 54 b7 bd b3 a0 6d bd 8d 5a 87 3d
       0.060174305 -0.08951664 -0.058014583 0.06609068
0003a0 88 0a b3 bd 30 2b 56 3d 9e 37 00 bc 7e 0f ef 3c
       -0.08742243 0.05228728 -0.00782576 0.029182192
0003b0 d1 ee 83 bd 04 30 d3 3d b0 e5 ec bd 4d 32 07 be
       -0.06442035 0.10311893 -0.11567247 -0.13202782
0003c0 a8 f9 e1 3d 96 ac c3 bd e3 03 0b 3e 1c a5 80 3d
       0.11033946 -0.095544025 0.13575701 0.06281492
0003d0 c4 90 5f 3d 7b 77 8f bc 7f e9 d9 3c 59 8c 14 3d
       0.05458142 -0.017513027 0.026600597 0.03626666
0003e0 0a 32 88 bd b0 2f d5 3d 32 03 b2 3d c8 3b 08 3c
       -0.06650169 0.10409486 0.08692016 0.008315034
0003f0 55 16 26 3d d4 9c 8c bc c4 3b 51 bd 37 41 df bd
       0.04054864 -0.017164625 -0.051082388 -0.109011106

pi.net.2.bias f4 [50]
000000 2b 0c d1 3d 7c 16 67 bd 0a 53 66 3d 97 96 9f bd
       0.10207399 -0.056417927 0.056231536 -0.077923946
000010 30 44 7c bd 02 b8 18 3d a7 2a c7 3d 81 38 3a bc
       -0.061588466 0.03728486 0.09724932 -0.011366011
000020 44 3b 59 3d 18 c3 9f bd 23 1b 37 3d f9 2a 82 bc
       0.053035036 -0.07800883 0.044703614 -0.015889632
000030 6e fa 03 bd f6 99 8e 3d 40 48 40 bd 58 e2 b0 bd
       -0.03222125 0.069629595 -0.046943903 -0.08636922
000040 6f 4f 24 bd 13 70 90 3d a0 a2 0a 3e e7 e8 02 3e
       -0.040114816 0.070526265 0.13538599 0.12784158
000050 2e 51 ca 3d 87 bd b2 bd a9 52 01 3e 2c d1 6b 3d
       0.09878765 -0.08727556 0.12629189 0.05757253
000060 e2 ea cd 3c 4a e7 a7 bd e3 e0 99 bd 63 70 15 3d
       0.025136415 -0.08198412 -0.07513597 0.036484133
000070 0f 70 4d bc e6 a4 23 bd 43 15 dd bd 93 dd f6 3d
       -0.012538924 -0.03995218 -0.10795071 0.12053981
000080 97 54 33 3d ca 39 98 3c fd b1 59 3c 41 da 9b 3d
       0.043781843 0.018582243 0.013287065 0.07609988
000090 4c a9 ae bd 9c 0d b9 bb ae a4 ff 3d 7f d5 b3 bc
       -0.085283846 -0.0056473743 0.12482582 -0.021952389
0000a0 c6 fc f7 bd e0 c7 ac bd c7 8f b3 3d 7c 86 98 3d
       -0.121087596 -0.08436561 0.08767658 0.07447526
0000b0 7e e8 c7 3d fd b8 4c bd 27 aa 86 bd 36 07 00 be
       0.09761141 -0.049981106 -0.06575423 -0.12502751
0000c0 4d dc 1f 3c 1e 6b fa bc
       0.009757114 -0.030568656

pi.net.4.weight f4 [4, 50]
000000 87 1c dc 3c 0c a0 e0 bc 85 44 6c 3d 3d 4e 10 be
       0.026869072 -0.027420066 0.057682533 -0.14092346
000010 af c3 6d bc 7a dd eb bc 40 cf dd bd c2 59 db bb
       -0.014511987 -0.028792132 -0.108305454 -0.0066940496
000020 dd b7 06 3d 0e c4 0c be ab 38 ed 3d 04 09 a4 3d
       0.03289019 -0.13746664 0.11583074 0.08009532
000030 40 e0 0e 3e cb fb 78 bd ca 48 cd bd ea c8 b0 3d
       0.13952732 -0.060787003 -0.10023649 0.08632071
000040 b3 1e 08 3e f9 cf a8 bd d5 ea a9 bd a9 ef 2a bc
       0.13292961 -0.08242793 -0.08296744 -0.010433116
000050 c2 46 f6 3d 35 26 b3 bc 4a b4 0a be 19 a7 6f bd
       0.12025215 -0.021868804 -0.13545337 -0.058508966
000060 f8 bf a5 bd 71 5d da 3d 3f d8 d3 bd 16 34 d8 3d
       -0.08093256 0.10662354 -0.1034398 0.105568096
000070 55 68 58 3d e5 df 4e bc a4 67 11 bd e6 fd 9f 3d
       0.052833874 -0.012626623 -0.03549923 0.07812099
000080 d0 ff a3 bd 90 c4 5f bd 63 8f ff 3d aa fb 5f bd
       -0.08007777 -0.054630816 0.12478521 -0.054683365
000090 a4 40 6b 3c 7c 3d eb 3d 23 27 e3 bd d0 95 bf 3c
       0.014358673 0.114863366 -0.11091449 0.023386866
0000a0 a9 87 80 3b 7a 9c 95 bd 94 d5 e9 3d be 78 c7 3d
       0.003922422 -0.07305236 0.1141769 0.097398266
0000b0 a2 d1 17 bc 92 36 79 bc d3 66 b4 3d d2 a6 3f bd
       -0.009266289 -0.0152107645 0.08808675 -0.04678995
0000c0 95 f8 a3 3d 5a 35 c1 bd 6a ea ed bd c3 60 c1 3d
       0.08006398 -0.09434004 -0.116169766 0.09442284
0000d0 c0 92 c5 3d f2 26 e1 bd 81 1f 00 bd 9e 11 76 3d
       0.09647131 -0.10993756 -0.031280044 0.060075395
0000e0 a4 b7 9a 3d 4b 93 ac 3d 9e fc ca 3d 64 8e 84 bd
       0.07554558 0.084265314 0.09911464 -0.06472471
0000f0 d9 dd f6 3c bd ca f8 3d 73 b0 ed bd 82 de bb 3d
       0.030135082 0.12148044 -0.11605921 0.09173299
000100 e8 8b 12 3d 32 95 ca 3b ed 75 0f 3e 33 9a 70 bd
       0.035777956 0.0061823362 0.14009829 -0.058740806
000110 a5 7e 1f bd be 3b d7 bd 89 db f3 3d bb b5 d3 bd
       -0.038939137 -0.10509442 0.119071074 -0.10337397
000120 83 82 01 3e 75 20 d5 bd d2 05 a6 3d 87 a0 90 bd
       0.12647443 -0.10406581 0.08106579 -0.07061868
000130 07 87 fe 3d 46 eb c1 bd 75 8c bb bd de 21 27 bd
       0.12428098 -0.09468703 -0.091576494 -0.040803783
000140 dd da e8 bd 66 a6 09 3e 42 2b 56 3d 87 4f 9d bd
       -0.1136987 0.13442382 0.052287348 -0.07681184
000150 55 f9 da bd c1 76 3f bd 90 02 ae 3c e4 69 82 bd
       -0.106920876 -0.046744112 0.021241456 -0.06367853
000160 e2 4d a8 3d 22 32 8e bd da 99 2c 3d fa 87 d0 3d
       0.0821798 -0.06943156 0.04213891 0.101821855
000170 61 58 cd bd 90 22 e2 bd 44 81 0a be 11 02 da 3c
       -0.100266226 -0.110417485 -0.13525873 0.026612313
000180 d1 63 e3 3d 6e c7 b8 bd bf 08 9c bc 59 4f b5 3d
       0.11103023 -0.09022413 -0.01904714 0.08853025
000190 70 bb e0 3d 0a d3 9e 3d b3 83 39 3d 1c 10 c9 3c
       0.10973251 0.07755096 0.045291614 0.024543814
0001a0 fb 1f 2a 3c 14 db fc 3d 17 69 a5 3b 9a 1e 61 3d
       0.010383601 0.12346473 0.005047928 0.054960825
0001b0 c9 19 29 bc 60 62 e5 3d c9 84 0f be c8 39 38 bd
       -0.010321089 0.11200404 -0.14015497 -0.04497698
0001c0 9f c8 0a be b6 08 08 3d 0e 89 04 bd 73 07 ee bd
       -0.13553093 0.033211432 -0.032357268 -0.116225146
0001d0 68 d7 dd bd e4 39 25 3d 84 7a d9 3d 04 ba f6 3d
       -0.10832101 0.040338412 0.10619071 0.120471984
0001e0 9e c4 c6 3d b2 d3 e9 bd 73 c4 f0 3d ab 0a 0a 3e
       0.097054705 -0.11417331 0.1175622 0.13480632
0001f0 ff 7a e0 3b cb 07 0b be e4 67 d1 bd 98 3a 00 be
       0.0068506 -0.13577192 -0.10224894 -0.12522352
000200 35 9c ba 3c 18 30 ee 3d 1e ca b9 3d c3 db 8c bd
       0.022779563 0.11630267 0.09071754 -0.06877854
000210 52 27 7c bd d9 fb 08 3d 65 6f 9b bd 1c 9b 5d bc
       -0.061560936 0.033443306 -0.07589606 -0.0135257505
000220 da 9a 27 3d 4e 1e 54 bd 09 8b 4f 3d f2 f1 a4 bc
       0.040919162 -0.051786713 0.050669704 -0.0201349
000230 61 43 05 3e 44 f7 ed bd 4f 78 f4 3d 97 52 c3 3d
       0.13013984 -0.11619428 0.119370095 0.09537237
000240 ea ae 01 be 9a 21 08 3d 78 52 94 bc 70 0f 88 3d
       -0.1266438 0.03323517 -0.01810573 0.066435695
000250 10 5c d1 3d 33 a1 9b bd 96 ba a4 bd 22 8e d2 bd
       0.10222638 -0.07599106 -0.08043401 -0.10281016
000260 49 3c d2 3d 51 97 f2 bd 5d 51 b4 bd 18 76 02 3e
       0.10265405 -0.118452676 -0.08804581 0.12740362
000270 7b 41 95 3d c8 cd c6 3d d1 89 f9 3d 69 b2 fc bd
       0.0728788 0.097072184 0.121844895 -0.123387165
000280 e2 1d 10 bd 36 59 43 bc c8 f3 05 3e 83 b0 23 bd
       -0.03518475 -0.011923125 0.13081276 -0.039963257
000290 81 23 1b bc 13 46 a4 3d 5e df 96 3d 75 07 bd bd
       -0.009468914 0.08021178 0.07366823 -0.09229938
0002a0 1a 95 fb bd 86 c2 5a bd c1 da 38 3d d3 ce 09 3e
       -0.12284298 -0.05340817 0.045130495 0.13457803
0002b0 46 98 82 3d b3 96 a7 3d fb 47 32 3d 7d 3c 13 bd
       0.063767 0.081830405 0.043525677 -0.035946358
0002c0 f8 31 bf bc e5 9d f3 3d 47 c5 f6 3c 01 7c e7 3c
       -0.023339257 0.1189535 0.030123366 0.028257372
0002d0 f0 7d a9 3d 2a c7 d0 3d c4 4b 25 3d 69 d4 69 bc
       0.08275974 0.101942375 0.04035546 -0.014271834
0002e0 b6 1a 80 bd 6f fd af bd 9a c9 90 bd 40 b7 eb 3d
       -0.06255095 -0.085932605 -0.070697024 0.115095615
0002f0 02 97 e6 3d aa 21 99 bd 73 54 f4 3d b4 a7 15 bd
       0.11259271 -0.07477124 0.1193017 -0.036536887
000300 27 60 12 bd c1 e0 37 3d d8 6d eb bd ce 5a ab bd
       -0.03573623 0.044892076 -0.114955604 -0.08366929
000310 4e 7a a9 bc 1c 0d 36 bd 94 3b 92 3d 97 fe 08 bd
       -0.020688202 -0.044446096 0.0714027 -0.03344592

pi.net.4.bias f4 [4]
000000 14 d7 df 3d d1 20 1b bc 71 37 86 3d a2 df d5 3d
       0.10929695 -0.009468273 0.06553543 0.10443045

v.net.0.weight f4 [64, 34]
000000 aa c5 2d be 4e f9 00 3e fb 7c 91 3d 81 37 b8 3d
       -0.16969934 0.12595102 0.07103916 0.089949615
000010 e2 e2 bc 3c 94 33 db bc 85 28 1e bd 22 f0 a0 3d
       0.023057405 -0.026757993 -0.03861286 0.07858302
000020 f3 94 35 bd 90 61 a2 bd bf db de bb fb 08 51 3d
       -0.044331502 -0.07928765 -0.006801098 0.051033955
000030 e4 3f 2c be bf 18 07 3c a5 2b a1 3d 3c 1f d1 bd
       -0.16821247 0.008245646 0.07869653 -0.102110356
000040 a1 39 e8 3d 97 f6 1c 3d 3a 3e c2 3d 72 c7 8f 3d
       0.11339117 0.038321104 0.09484525 0.07020463
000050 d3 ca 3b 3b ba e1 a7 3d af c6 10 be 0b a1 fd 3d
       0.0028654828 0.08197351 -0.14138292 0.12384232
000060 f4 1e d1 bc cb 94 c2 3a 4f dc 93 bd 65 c6 f1 bd
       -0.025527455 0.0014845369 -0.07219755 -0.11805419
000070 c3 fb d2 bd d9 73 ab 3d 26 8b 39 bd 91 b0 1a 3e
       -0.10301926 0.083717056 -0.045298718 0.15106417
000080 aa 08 0f bd 07 e2 2d be 69 3e bd bd 80 67 0f bc
       -0.034920372 -0.16980754 -0.092404194 -0.008752704
000090 4c 36 b9 bd b6 10 b7 bd 87 9b a2 3d 90 4b 97 3d
       -0.090435594 -0.08938734 0.07939821 0.07387459
0000a0 a9 e3 21 3a a1 f6 06 be 01 45 0f be 19 59 06 bc
       0.00061755866 -0.13180019 -0.13991167 -0.0081999535
0000b0 5d 5b 25 be ff e9 28 3d 05 c9 0a ba 58 38 ef 3c
       -0.16148134 0.04123878 -0.00052942365 0.029201671
0000c0 6a 15 69 bc 7f ca d8 3d 15 78 be bd 45 ae 17 be
       -0.014226297 0.10585498 -0.093002476 -0.14812572
0000d0 b9 a9 52 bd 41 4d 92 3d aa 00 13 be 52 68 c9 3c
       -0.05143139 0.07143641 -0.14355722 0.024585877
0000e0 90 c0 07 3e c7 b0 dc 3d c3 a0 9e 3d cb 5d 6f bd
       0.1325705 0.10775905 0.077455066 -0.058439057
0000f0 4b 68 22 3d 09 35 ab bb a7 e8 ff 3d cf ad b8 3d
       0.039650243 -0.005224828 0.12495547 0.09017526
000100 e3 8e 40 3d 79 f9 1e 3d a3 e7 66 3d c0 dd 2c 3d
       0.047011267 0.038812134 0.05637325 0.042203665
000110 f3 8b d3 bc c5 34 ee bd 6f 92 5a 3d c3 be ae 3c
       -0.025823569 -0.11631159 0.053362306 0.021331197
000120 d3 1d ef 3d e6 02 cb 3d d6 d5 0e be f1 84 b2 bc
       0.116756104 0.09912662 -0.1394876 -0.021791907
000130 a0 94 0f be 6d d4 13 3e 47 8c 96 3c 4d 93 f1 bd
       -0.1402154 0.14436503 0.018377436 -0.117956735
000140 de 1b 19 3e 22 de ee 3d f3 8e 19 bd a7 79 b1 3d
       0.14952037 0.11663462 -0.037489843 0.086657815
000150 97 20 23 bb 33 81 4c bc d9 c5 94 3d 3d 6b 70 bc
       -0.0024891251 -0.012481975 0.07264299 -0.014674005
000160 a3 e1 8e bd d5 83 50 3d fa c8 69 bd 45 29 cd 3d
       -0.069766305 0.050906975 -0.05707643 0.10017637
000170 dd ab 1c 3e 0c 63 ad bd ef 0c 40 3d 33 b4 00 3d
       0.15299936 -0.08466157 0.046887334 0.03142185
000180 5a 34 ae 3d 3d 74 90 3b a8 07 cd 3b f9 a5 31 3d
       0.08506079 0.004408388 0.006257016 0.043371174
000190 15 58 11 be ed b1 d0 3c d3 47 2d be 86 8b a4 bc
       -0.14193757 0.025475467 -0.1692193 -0.020086061
0001a0 36 4a cb 3d 7f 35 ad bd ac 54 bd bc 17 01 10 3e
       0.09926264 -0.08457469 -0.023111664 0.14062916
0001b0 fa de 79 3d 13 f2 ac 3a 57 b5 81 3c 86 a2 a3 bd
       0.061003663 0.0013194702 0.01583354 -0.07989983
0001c0 d8 68 cb 3c c4 b0 0c 3e 12 65 7f 3d 36 c1 2c 3e
       0.024830267 0.13739306 0.062352248 0.16870579
0001d0 db 11 c3 3d d4 02 05 bd f5 59 d3 bc 5f 5c a6 3d
       0.0952489 -0.0324734 -0.02579973 0.08123087
0001e0 2f 78 dc 3b 23 1a 49 3d f3 5f 22 be 19 25 11 3d
       0.006728194 0.04909719 -0.15856914 0.03543577
0001f0 b9 f1 b4 3c 9f cc 22 be 03 a4 f1 3c 32 ab 82 3d
       0.022087919 -0.15898369 0.029497152 0.06380309
000200 08 75 8b bb 93 38 22 be 73 48 19 3e 71 c0 12 be
       -0.0042558946 -0.15841894 0.14969043 -0.14331223
000210 b5 38 d0 3d 87 b2 e4 3b 7e 6d 3c bd 4d 91 f9 bd
       0.10167066 0.00697929 -0.046002857 -0.12185917
000220 ff 32 1a 3e 1a 46 0a 3e 47 ec e8 bd 3e b4 c7 bc
       0.15058516 0.13503304 -0.11373191 -0.024377938
000230 54 6a e9 bd 80 f0 b6 bd 65 70 93 bc 63 f4 1d 3e
       -0.113972336 -0.089325905 -0.01799793 0.15425257
000240 4f 61 0b bc df 62 2c 3e ca cd 2d be 4a d9 0f bd
       -0.008507087 0.16834591 -0.16973034 -0.035119332
000250 d8 4e c7 3c 4a 52 a2 bd c5 67 ae 3b a0 0a 8d ba
       0.024329588 -0.07925852 0.005322429 -0.0010760613
000260 e8 90 f5 3d eb 42 b3 bc a4 3c de bc 0d b1 c8 3d
       0.11990529 -0.021882495 -0.027128525 0.09799395
000270 2e da 7f bd 39 ef e3 3d 35 40 14 3e 99 4a ce bd
       -0.06246393 0.111296125 0.14477618 -0.10072822
000280 b6 b2 ad 3c e7 3b 31 bd f1 51 09 3e 95 82 b2 bc
       0.02120338 -0.043270018 0.13410164 -0.021790782
000290 02 7b 05 bd bb 02 e4 3d cb 17 da 3c 4c b7 e8 3d
       -0.032588013 0.11133333 0.026622673 0.11363086
0002a0 67 77 84 bd 22 5d 19 be a7 f1 e7 3c 6b 8b 12 3e
       -0.06468087 -0.14976934 0.028313471 0.14310996
0002b0 99 94 04 3e 31 83 97 bd 91 90 1b 3e ac 36 da bd
       0.1294731 -0.0739807 0.15191866 -0.10654959
0002c0 b3 5c 24 3e e0 ee 26 bc 6a ce b3 bd 93 ce 19 3d
       0.16050987 -0.010188788 -0.08779605 0.03755052
0002d0 e0 77 0f 3e 64 87 de 3d bf 16 b5 bd b3 e3 2e 3d
       0.14010572 0.108656675 -0.08842229 0.04269762
0002e0 30 43 88 3d ec f6 28 bd 62 37 9f 3c 6d d2 25 3e
       0.0665344 -0.041251108 0.019435588 0.16193552
0002f0 b3 62 3a bd e7 13 08 3e 77 77 15 be fe c1 82 bd
       -0.045504283 0.13288842 -0.14596353 -0.06384657
000300 77 cb 22 3d e5 44 8b bd 9a ab 03 be 82 ca e7 bc
       0.03974482 -0.0680025 -0.1285843 -0.028294805
000310 ed 58 a7 bd 1c ed 8d 3d 60 c0 a8 3d 51 0d f8 bd
       -0.08171258 0.06929991 0.082398176 -0.12111915
000320 9e 2b c1 3d ea 90 d1 3d 1c 00 e2 3d 7a a2 e0 bd
       0.094321474 0.10232718 0.11035177 -0.1096849
000330 64 42 0b be bd de bf bb 2e f2 73 3d cc de 9f 3d
       -0.13599545 -0.00585541 0.059557132 0.07806167
000340 8f ff 06 be c3 5d 10 3e 37 03 2a 3e f0 dc 5c bc
       -0.13183425 0.14098267 0.16602789 -0.01348041
000350 e1 9d de 3c 17 da f4 3c 10 3c 02 be 59 19 27 be
       0.027174892 0.02988915 -0.12718225 -0.16318263
000360 9f 52 d9 3d 51 a4 0d 3e 75 e6 90 bb 2a b4 18 be
       0.10611462 0.13832213 -0.004422004 -0.14912477
000370 ec ce e6 3b 26 f5 e5 bd ce 91 70 3d df 83 20 3e
       0.00704371 -0.11228399 0.0587328 0.15675305
000380 6e 6b 2f 3e 8a c0 10 3e 3c 4a 21 3d af 77 2c 3e
       0.17130825 0.14135948 0.039377436 0.1684253
000390 9a d4 07 bd b2 45 ba bb 31 42 f1 bd 64 18 92 3d
       -0.033161737 -0.005684578 -0.11780203 0.071335584
0003a0 40 3a 89 3d 96 44 8e 3d fe e1 fc 3d 70 e4 17 3e
       0.067005634 0.069466755 0.12347792 0.14833236
0003b0 7a ef 25 be 15 0e 47 bd 8f 62 0c be 14 75 05 3e
       -0.16204634 -0.048597414 -0.13709472 0.13032943
0003c0 06 03 b0 bb 9a 25 1c be b0 13 95 3d 10 49 d7 bd
       -0.005371454 -0.15248719 0.07279146 -0.105119824
0003d0 29 38 50 bb 4e 55 bb 3d 37 5b c3 3d 09 48 da 3d
       -0.0031771755 0.0914713 0.09538882 0.10658271
0003e0 df 47 4b bb 09 e3 88 bc 9f c9 01 bc 44 11 2d be
       -0.003101818 -0.016709821 -0.007921605 -0.16901118
0003f0 0e a8 79 bd c4 a4 05 3e ac b9 b3 3d ae ab 20 be
       -0.060951285 0.13051134 0.087756485 -0.1569049

v.net.0.bias f4 [64]
000000 e6 8d 03 be 20 14 8b 3d 62 26 cf 3d 71 80 1d be
       -0.12847099 0.06790948 0.10114743 -0.15381028
000010 76 9d 44 bb 62 ba 2d 38 4a 0b 16 bd fe 0b ce 3d
       -0.003000108 4.1419997e-05 -0.03663186 0.10060881
000020 1e a2 16 3e 05 92 75 bd ff 73 8e 3d 85 8f 02 3e
       0.1471028 -0.05995371 0.06955718 0.12750061
000030 c1 8a 5d bc 66 df bc 3d 3c 86 2a 3e 4c 99 4c bc
       -0.013521851 0.09222297 0.16652769 -0.012487721
000040 0f c6 23 be ce 31 1b be 11 b8 10 3e 4c 8d e3 bd
       -0.15993522 -0.15155718 0.14132716 -0.111109346
000050 cd ca 21 3e be 42 07 3d 07 57 08 be 55 2c 2b 3e
       0.15800019 0.033022635 -0.13314448 0.1671613
000060 d2 2b 06 3e dc 2f 4a bd 00 fd 00 bd f6 f8 c3 bd
       0.13102654 -0.04936205 -0.03149128 -0.0956897
000070 0b 60 b8 bd 45 8d 34 3d 98 6c 20 bc 3c b4 eb bd
       -0.09002694 0.044080038 -0.009791516 -0.11508986
000080 95 3f 18 bd 40 39 88 3d 17 de 30 3d 9b 4c 16 3d
       -0.03717001 0.066515446 0.04318055 0.03669415
000090 38 93 e1 bd 00 85 a0 bd 33 b7 42 3d c7 c0 e7 3d
       -0.11014408 -0.07837868 0.047537994 0.11316066
0000a0 5e 4d fc 3c 16 f9 05 be 5f c2 7c 3d 03 34 dc bd
       0.03079861 -0.130833 0.061708804 -0.10752108
0000b0 3c d3 23 be 65 51 f9 3d 26 2d cf 3d ac 03 ea bc
       -0.15998548 0.12173728 0.10116033 -0.028566204
0000c0 a4 dc da 3d 16 7f 84 bd ee 49 5e 3d b1 6e 2b be
       0.10686615 -0.06469552 0.054269724 -0.16741444
0000d0 2e 0d a8 bd 8a 3f 0a bd d1 23 12 3d 5c b3 a3 3d
       -0.08205639 -0.033752 0.03567869 0.079931945
0000e0 ed 76 e2 3c 71 01 af bd 0c c7 09 3e 8f 73 cd 3d
       0.027644599 -0.08545197 0.13454837 0.10031807
0000f0 8d ae c5 bd d4 30 e3 3b d7 9f 22 3e f3 0c 6e bd
       -0.096524335 0.006933311 0.15881287 -0.058117818

v.net.2.weight f4 [64, 64]
000000 7c 75 b4 bd fe 6a 95 bd 02 d1 c6 3d 64 32 47 bd
       -0.08811471 -0.07295798 0.09707834 -0.04863204
000010 ac a5 89 3d 40 99 21 3c 04 47 e4 bd 94 ea 89 3d
       0.067210525 0.009863198 -0.11146358 0.06734195
000020 c0 3e 5f 3c ee d0 9b bd 20 74 b3 3c 4c d7 41 bd
       0.013625801 -0.076082096 0.021905959 -0.047324464
000030 92 3d 91 bd a4 16 1f bd 82 5f d1 bd 20 db ed bd
       -0.07091822 -0.03883995 -0.10223295 -0.116140604
000040 00 ae 2b bb 12 f9 a6 bd 40 2e 2e 3d 44 32 ad 3d
       -0.0026196241 -0.08152975 0.042524576 0.08456853
000050 30 cd 6a bc c4 68 d8 bd f0 20 ea bd 46 81 86 3d
       -0.014331147 -0.105668575 -0.114320636 0.06567626
000060 a0 4b 06 3c 88 9a de bd 90 00 60 bd d8 02 20 3d
       0.008196741 -0.10869318 -0.054688036 0.039065212
000070 70 61 26 3c 14 4e 76 3d c6 fe f0 3d 20 b6 37 bd
       0.010155067 0.060133055 0.11767344 -0.044851422
000080 90 4e 1c bd 68 78 fd bd 48 74 ea 3d 60 fa 2f bc
       -0.03816086 -0.12376481 0.1144796 -0.010740846
000090 b0 35 14 bd d0 a1 39 bc a4 cc 5d bd d0 4f 54 3c
       -0.036184013 -0.011330083 -0.05415024 0.012958482
0000a0 84 0e be 3d 28 bb 32 3d 20 bc fd 3c 0c fe 6a bd
       0.092801124 0.043635517 0.030973494 -0.057371184
0000b0 e2 d1 8d 3d c6 bb fe 3d ba 8d da bd 9a fb 90 bd
       0.069247976 0.12438159 -0.106715634 -0.07079239
0000c0 24 c2 f8 3d 24 da c5 3d 68 bc 05 3d fe 31 ea 3d
       0.121464044 0.09660748 0.03265038 0.114353165
0000d0 80 71 29 bb 50 ef f1 3c 84 2c 74 3d 4e 11 ef 3d
       -0.0025855005 0.029533058 0.059612766 0.116732225
0000e0 5a 39 c0 bd 4c 2d 65 3d 10 58 50 3d c8 11 56 bd
       -0.09385939 0.0559514 0.050865233 -0.05226305
0000f0 d4 6c 5a bd 94 59 43 3d 56 77 98 bd 0a 18 8a 3d
       -0.053326443 0.04769285 -0.074446365 0.06742866
000100 d2 bf a7 3d 38 5a 7b 3d 74 80 8c bd 9c f0 f0 3d
       0.08190884 0.061365336 -0.06860438 0.117646426
000110 18 16 43 3d 6c 3b fb bd de 06 f7 bd b4 81 35 3d
       0.047628492 -0.12267193 -0.12061857 0.044313148
000120 5c 33 6c 3d 84 11 de 3d ac 25 c6 3d 78 f6 9e 3d
       0.057666168 0.108431846 0.09675154 0.07761854
000130 b8 0d 1a bd 00 f3 0a bc 12 57 a0 bd 00 86 88 3b
       -0.03761074 -0.008480787 -0.07829107 0.0041663647
000140 10 4a d8 3c 20 8d 69 3d a8 06 d3 3c 18 d3 b9 3c
       0.026402503 0.057019353 0.02576001 0.022683665
000150 00 58 dc 38 ae a9 c8 bd c4 26 5f bd 68 9a ed bc
       0.00010506809 -0.09797989 -0.05448033 -0.02900429
000160 50 de 08 3d 80 8e 9e 3b 54 07 90 bd 6c 20 6e bd
       0.03341514 0.0048387647 -0.07032648 -0.05813639
000170 38 f5 fc bc 8e 4e da 3d b0 c5 aa 3d 28 01 dc bd
       -0.030878648 0.10659514 0.08338487 -0.10742408
000180 aa bd 8a bd 3c 98 3e 3d 44 6c 30 bd d4 aa 1f bd
       -0.06774457 0.0465319 -0.043072 -0.038981274
000190 d2 83 d0 bd 60 55 51 bc 64 a1 30 3d c0 28 e3 3d
       -0.10181393 -0.012776703 0.043122664 0.11091757
0001a0 2c f2 0a bd a4 90 4a bd 38 47 bd 3c e0 5e 22 3c
       -0.03392236 -0.049454346 0.023105249 0.009910315
0001b0 20 49 78 3c 26 84 ed bd 5a e3 c7 3d 80 2e c1 ba
       0.015154153 -0.11597471 0.09760161 -0.001473859
0001c0 f0 c5 2f bc 3c 9b 25 bd a8 e9 eb bd d4 4c 29 bd
       -0.010728344 -0.040431246 -0.11519176 -0.041333035
0001d0 86 04 eb bd ac a8 52 3d bc 4d 86 bd ca 3b e8 bd
       -0.11475472 0.05143039 -0.065577954 -0.11339529
0001e0 e4 b0 81 bd 0c 4e 48 3d 70 79 8e bd 7e d8 c5 bd
       -0.06332567 0.048902556 -0.06956756 -0.09660433
0001f0 e0 5b 49 bd 9e a6 f0 3d 9a 78 8d 3d b0 f1 f4 3c
       -0.049159884 0.1175053 0.069077685 0.029900402
000200 14 d0 03 bd 4c eb 50 bd 10 fe d1 3c 68 18 b8 3d
       -0.03218086 -0.051005647 0.025633842 0.0898903
000210 70 80 c5 bd fa 3c c7 3d 12 68 f6 bd 30 6a e7 bd
       -0.09643638 0.09728427 -0.120315686 -0.112995505
000220 8c 2a f4 bd 4c b3 25 3d 80 31 a8 3b c0 53 ff 3c
       -0.11922178 0.040454194 0.005132854 0.031167865
000230 dc cc bb bd 04 9e 9a bd c0 e4 57 3d b6 9e b6 3d
       -0.09169933 -0.0754967 0.052708387 0.089169905
000240 4a c4 d6 bd a0 82 e3 3b 00 f7 07 bc d0 4a f9 bc
       -0.10486658 0.006943062 -0.0082986355 -0.030431181
000250 10 13 31 3d 42 29 c3 bd 5c 7c 7b 3d 4c 65 47 bd
       0.04323107 -0.09529354 0.061397895 -0.04868059
000260 c6 c9 ac 3d 88 e3 fd bc 22 74 b3 3d 28 ff aa bd
       0.08436923 -0.030992284 0.08762385 -0.083494484
000270 6a 6c e8 bd f8 ae fb 3d 7c e3 2d bd 80 ca 8a 3a
       -0.11348803 0.12289232 -0.042453274 0.0010588914
000280 30 70 bb 3d 9c a2 e4 3d 88 ee d6 3c 38 de ee bd
       0.091522574 0.11163828 0.026236787 -0.116634786
000290 c6 aa 9e bd 3e 57 9f 3d b4 67 22 3d d4 0c 8b 3d
       -0.07747416 0.07780312 0.03964968 0.06789556
0002a0 ec 30 40 bd 36 7c ed bd f0 23 a4 bc d0 bc 4c 3d
       -0.046921656 -0.11595957 -0.020036668 0.049984753
0002b0 3a ba b2 3d 14 03 aa bd 84 33 7b bd c4 93 d5 3d
       0.08726926 -0.08301368 -0.061328426 0.10428575
0002c0 86 10 d2 3d ec 54 f8 3d 18 ad b6 3d 8c 23 09 3d
       0.10257058 0.121255726 0.08919734 0.033481166
0002d0 00 d8 9a b9 b4 63 be bd 3c 13 38 bd 14 dd fa bd
       -0.00029534101 -0.092963606 -0.04494022 -0.122491986
0002e0 58 26 a7 3d 38 e6 9d 3d 20 da 66 3d 70 f9 b5 bc
       0.0816161 0.07709926 0.056360364 -0.022213668
0002f0 ec a6 d8 bd a2 40 df 3d 08 5d e8 3c 48 77 d8 3c
       -0.10578713 0.109009996 0.028364673 0.026424065
000300 a0 5a 02 bd 8e e7 b8 bd 60 23 62 3c a0 3b a1 bc
       -0.031824708 -0.090285406 0.013802379 -0.019681752
000310 9a 01 e7 3d 08 20 3e 3d 6c 41 2c 3d 38 f8 bb 3d
       0.11279602 0.046417266 0.04205458 0.09178203
000320 d8 a9 86 bd 80 19 ac 3d 00 28 3e 3a 30 4a eb bd
       -0.06575364 0.08403301 0.0007253885 -0.114887595
000330 d4 99 a0 3d d6 57 ac bd ea 02 9d 3d 2e 9c c6 3d
       0.078418404 -0.08415191 0.076665714 0.09697758
000340 f0 ba 16 bc 8c 85 28 bd 10 97 ac 3c f4 5a bf 3d
       -0.009199843 -0.041142985 0.021068126 0.0934352
000350 d4 eb 81 3d 54 4b c3 3d 40 d9 6d bb b4 72 c1 bd
       0.06343809 0.09535852 -0.0036292821 -0.09445706
000360 d8 73 63 3d 70 b7 16 3c 48 70 f4 3c 74 56 ee 3d
       0.0555304 0.009199008 0.029838696 0.116375834
000370 18 88 ea bc e4 cb e8 3d bc 2d 97 bd 0c aa a5 bd
       -0.028629348 0.11367014 -0.0738177 -0.080890745
000380 6e 68 a7 3d 4a a7 c2 3d 44 75 42 bd c8 d6 bb 3c
       0.08174215 0.09504564 -0.047475114 0.022929564
000390 50 69 6b 3c b8 7f 23 3d 98 c2 9a bc c2 6f f9 bd
       0.01436837 0.039916724 -0.018891618 -0.12179519
0003a0 2c f8 2a 3d e6 82 f8 bd 98 7a b0 bd e2 b3 c9 bd
       0.04174058 -0.12134342 -0.08617133 -0.09848763
0003b0 50 70 49 3d 24 be 5e 3d 30 21 95 bd 20 39 e5 3d
       0.049179375 0.05438055 -0.07281721 0.11192536
0003c0 b4 b3 b3 bd 50 ef ba 3d b8 00 60 3d 28 70 e0 bc
       -0.0877451 0.091276765 0.054688185 -0.02739723
0003d0 a6 80 ca 3d f0 72 bc 3d 20 0f d1 3d 76 f7 cf bd
       0.09887819 0.0920161 0.10207963 -0.10154621
0003e0 b8 83 3f bd 4c 37 b5 bd ce 71 cc 3d 00 73 e5 3c
       -0.046756476 -0.08848438 0.09982644 0.028008938
0003f0 aa 83 81 bd a8 80 86 bc 50 dd b0 3d 72 04 ef 3d
       -0.06323941 -0.01641877 0.08635962 0.1167077

v.net.2.bias f4 [64]
000000 1a a2 e9 bd 50 ea 1f bc 6a f4 93 3d 3a 23 aa 3d
       -0.114078715 -0.009760454 0.07224353 0.083075
000010 72 9e c8 bd 00 d0 11 b8 60 eb d2 bb d0 3e aa bc
       -0.09795846 -3.476441e-05 -0.0064367503 -0.020781904
000020 28 6a 5b 3d 88 48 56 3d 58 a5 e8 bd 70 d8 a3 3c
       0.053568035 0.052315265 -0.11359662 0.020000666
000030 c4 e3 89 bd 6c 10 84 3d c0 69 3b bb 30 e5 b1 3c
       -0.06732896 0.06448445 -0.0028596967 0.02171573
000040 00 09 8f bc 76 fb cb 3d 3e 39 d4 bd e0 86 5e 3d
       -0.017460346 0.09960072 -0.103624806 0.054327846
000050 26 22 f9 3d b4 42 4a bd 74 b6 03 3d 6c cc 7c bd
       0.121647164 -0.04938002 0.032156423 -0.06171839
000060 08 42 77 bd fe b8 8b bd f8 13 7d 3d 6a 1c a5 3d
       -0.060365707 -0.06822394 0.06178662 0.0806206
000070 c0 59 87 bc c0 17 79 bc b6 c6 b8 bd 66 33 8a 3d
       -0.016522288 -0.015203416 -0.09022276 0.06748085
000080 98 ed 68 3d e0 34 b9 bb 4e dc a0 bd ec 6d 80 3d
       0.056867212 -0.005652055 -0.0785452 0.06270966
000090 b6 27 a7 bd 78 ba a6 3d 34 a2 cb bd d0 b9 33 3d
       -0.08161871 0.08141035 -0.09943047 0.043878376
0000a0 d2 1d ad bd 90 a7 70 3c fc 7f f7 3d e2 fa b3 3d
       -0.084529534 0.0146883875 0.12084958 0.087880865
0000b0 92 3c bf bd 98 15 f4 bc 90 eb a9 3c 80 dd 2a bd
       -0.09337725 -0.029795453 0.020742208 -0.041715145
0000c0 60 8f bc bc f8 6e c1 3d c8 8d bf bd 1e ab c8 bd
       -0.023017585 0.09444994 -0.093532145 -0.09798263
0000d0 b6 2c d2 bd 80 0e 15 bb 68 28 af bc 00 09 05 3d
       -0.10262434 -0.0022744238 -0.021381572 0.032479286
0000e0 36 34 8c bd 5e 41 84 bd 08 d8 68 bd 40 e9 44 3d
       -0.06845896 -0.0645778 -0.05684665 0.048074007
0000f0 aa 3d f7 3d 6e 2d dd bd e8 d0 8c 3d d6 fc a8 3d
       0.12072308 -0.10799681 0.06875783 0.0825135

v.net.4.weight f4 [1, 64]
000000 2c f9 81 bd d0 94 fb 3c 5c 6b a9 bd 4a 48 8a 3d
       -0.06346354 0.030710608 -0.0827243 0.06752069
000010 54 f0 c6 3d f8 7b 45 3d 9e 49 89 3d de 9e a3 bd
       0.09713808 0.04821393 0.067034945 -0.07989286
000020 a0 85 5d 3d 78 a4 91 3c 78 d8 a3 bc 00 41 66 bc
       0.054082513 0.01777862 -0.020000681 -0.014053583
000030 00 8f 8c bd 90 66 49 3c 40 88 ee bd 24 45 a3 bd
       -0.068632126 0.012292519 -0.116470814 -0.07972172
000040 dc 3d 15 3d b0 f6 db 3c d0 d5 18 bc e4 bc f6 bd
       0.036435947 0.026851028 -0.009328321 -0.12047747
000050 06 4f ae bd c0 53 e0 bd 40 e2 ef 3d 66 ca bc bd
       -0.08511166 -0.10953474 0.11713076 -0.09218292
000060 74 12 c7 3d 54 72 00 3d 60 49 61 3c 28 28 15 3d
       0.097203165 0.03135903 0.013750404 0.03641525
000070 d6 cb b6 bd 24 ea 49 bd a6 07 87 3d fc 25 11 bd
       -0.08925597 -0.04929556 0.06593256 -0.035436615
000080 ae 70 d0 bd 8c fb 6e 3d c0 f0 5a bd 70 24 a2 bd
       -0.10177742 0.058345363 -0.053452253 -0.07917106
000090 0c b0 5b 3d ec e8 94 3d aa 15 92 3d 1e 5a c6 3d
       0.05363469 0.07270989 0.07133038 0.09685157
0000a0 60 a0 4a 3d c6 c4 aa bd 5c 8f 67 3d 00 c9 68 bd
       0.04946935 -0.08338313 0.056533203 -0.056832314
0000b0 80 5d cf 3b 00 9f a4 3d 92 c8 95 bd 82 7e cb bd
       0.0063282847 0.08038139 -0.073136464 -0.09936239
0000c0 be 1f e8 bd 38 34 a6 3c 6c 72 46 3d ac 8b b6 3d
       -0.11334179 0.020288572 0.048448965 0.08913359
0000d0 b4 20 ed 3d 54 db 18 3d c8 cb e6 3d 60 46 b0 bc
       0.11578503 0.037318543 0.11269337 -0.021517932
0000e0 6a dc 96 3d 9a 67 b7 bd 4e 1f a3 bd 6c 23 3d 3d
       0.073662594 -0.08955307 -0.07964955 0.04617636
0000f0 12 16 98 3d c8 d1 99 3c d8 42 0b 3d 60 05 ab 3d
       0.074260846 0.01877679 0.033999294 0.083506346
