runs/base/ppo/2023-08-23__15-58-26/seed_36626/torch_save/model.pt (torch, 49538 bytes, 14 tensors)

obs_oms.mean f4 [34]
0.0009960822 -0.0021458035 0.99171513 0.011971036 0.00020067248 0.25617668 0.6463811 0.0111896135
-0.010943262 -0.08177101 0.05719749 -0.049579605 -0.21657251 0.24444792 0.23248382 0.2493505
0.22915564 0.0011104862 -0.0022578763 0.9908781 0.012167729 0.00021604635 0.2569926 0.64633065
0.011662124 -0.011342253 -0.08494669 0.056616306 -0.04999607 -0.21763538 0.24395996 0.23191804
0.24859072 0.22871636
00000000: f98e 823a 9ca0 0cbb 0be1 7d3f 2a22 443c
00000010: 9c6b 5239 9729 833e 3b79 253f a454 373c
00000020: 5e4b 33bc 8f77 a7bd ea47 6a3d fc13 4bbd
00000030: 2fc5 5dbe 8e50 7a3e 3d10 6e3e bd55 7f3e
00000040: c7a7 6a3e bc8d 913a e1f8 13bb 30aa 7d3f
00000050: 285b 473c 808a 6239 8994 833e ed75 253f
00000060: 7e12 3f3c dbd4 39bc 88f8 adbd 80e6 673d
00000070: aec8 4cbd cfdb 5ebe a4d0 793e ec7b 6d3e
00000080: 918e 7e3e 9f34 6a3e

obs_oms.std f4 [34]
0.22003381 0.208343 0.15388435 0.08934464 0.08608376 0.64542115 0.3332757 0.48612148
0.48008525 0.36376154 1.1355474 1.1195284 1.1367693 0.47157815 0.47975197 0.48592836
0.46535155 0.22297893 0.21123911 0.15619895 0.09005118 0.08658813 0.6449822 0.33340946
0.49338323 0.4872634 0.3726583 1.1462733 1.1285002 1.143447 0.47087908 0.47905156
0.48549068 0.46505585
00000000: 8b50 613e de57 553e dc93 1d3e 53fa b63d
00000010: af4c b03d 523a 253f 1da3 aa3e eae4 f83e
00000020: bccd f53e f43e ba3e 9e59 913f b54c 8f3f
00000030: a881 913f b172 f13e 0da2 f53e 9acb f83e
00000040: 8f42 ee3e 9754 643e 114f 583e 9ef2 1f3e
00000050: c16c b83d 1e55 b13d 8e1d 253f a5b4 aa3e
00000060: ba9c fc3e 977a f93e 12cd be3e 15b9 923f
00000070: b272 903f 795c 923f 1017 f13e 3f46 f53e
00000080: 3c92 f83e cd1b ee3e

pi.log_std f4 [4]
-4.4513054 -4.4513054 -4.4513054 -4.4513054
00000000: 1871 8ec0 1871 8ec0 1871 8ec0 1871 8ec0

pi.net.0.weight f4 [50, 34]
-0.17813812 0.18031377 -0.10593675 -0.1188881 -0.21391408 -0.09479221 0.10413979 -0.09974001
0.025229163 0.047739606 0.0012738013 -0.09423041 0.12352711 -0.08805818 -0.090585046 -0.074920945
0.0675848 -0.09353423 0.24999449 0.08905719 0.10199974 0.030854898 -0.21268064 0.049263418
-0.086072914 0.17721558 0.2577849 0.045157216 -0.12489606 0.18140315 -0.20263606 -0.08976839
0.12615651 -0.20057456 0.18162164 -0.09528697 0.034121804 -0.1590863 0.14631113 -0.0044436096
-0.20447773 0.2854007 -0.17844161 0.06227885 0.063889 -0.13227147 -0.054892384 -0.045540534
0.033199955 -0.058802165 -0.07416491 0.20570996 -0.08291828 0.053735964 -0.07348683 0.004226658
-0.13996308 -0.2682246 0.06742752 -0.18455844 0.14909609 -0.26640964 -0.20843017 -0.09724469
0.16386138 -0.32045838 -0.06807719 0.26420465 -0.07018665 -0.0920306 -0.14898367 0.11851783
0.00813236 0.15063128 0.24778746 0.035911765 0.27212238 -0.15528892 -0.15016714 -0.0404053
-0.07867378 0.17612219 -0.11317746 0.22039537 -0.15337463 -0.096933074 0.061295383 -0.014528664
0.2262828 0.04023841 0.14213167 0.19873413 -0.092905365 -0.038409125 -0.27950004 -0.13145564
-0.14333883 0.19707748 0.1254172 -0.07508522 0.17547658 0.25278336 0.32463688 0.03805234
-0.26214966 -0.2331322 0.19712317 0.04331246 0.11975469 0.28154343 0.21807899 -0.2089368
0.09149666 -0.18342866 -0.06910567 0.12968367 0.20591109 -0.10649812 0.10032414 0.15843406
0.08356949 -0.19351739 -0.2524949 0.113094516 0.2756111 0.069489084 0.28827485 0.19538769
-0.035648555 -0.16473807 0.061683536 -0.15430449 0.1573579 0.0665357 0.041235838 -0.115423195
-0.004290411 -0.057273068 0.008693936 -0.11837924 -0.06107336 0.051405136 -0.2193168 0.25638574
0.028624566 0.09724209 -0.07556951 0.17262295 0.24281032 0.21092041 0.21684045 -0.023394288
-0.13684614 0.08733436 0.0074225888 0.17397016 -0.15902899 -0.198978 -0.12767224 -0.17267793
0.022403378 0.08059377 0.23739247 0.1373869 -0.33244947 -0.061674766 0.11840028 0.093739785
0.18943712 0.067302614 -0.040380597 -0.1874883 0.21150993 -0.16390014 0.042540077 0.049708113
0.062227108 -0.12650846 -0.09486992 0.18185861 0.087024264 0.10040601 -0.12357376 0.0398122
0.008228473 0.006292798 0.08002561 -0.06709733 -0.22712104 -0.032318674 -0.10733697 -0.07126774
0.021100307 -0.126235 0.0032881408 -0.3041881 0.109455615 -0.30989268 0.08387067 -0.27257127
0.13606957 0.008165924 -0.0026110264 -0.02547542 0.062107395 -0.19299929 0.0192015 0.036986127
0.102839485 0.34335253 0.24307118 0.04672081 -0.15424193 0.10099871 -0.17224516 0.052478235
-0.076949015 0.0013614226 0.039850175 0.102653064 0.06909344 -0.00052395853 -0.33710858 0.10600886
0.18307468 0.06398177 0.1364346 0.018192213 0.07016708 -0.2105761 0.04838598 0.4644623
-0.041089572 -0.106084965 -0.13127305 -0.060063552 0.05051837 0.07450857 -0.17275994 -0.008645907
0.17077702 0.20620932 -0.05520347 0.055378437 0.009133329 -0.1795284 -0.12973483 -0.022889642
0.08608559 -0.132589 0.13398376 -0.07423078 0.14554928 -0.21526669 -0.37713245 -0.010325455
00000000: d769 36be 2ca4 383e 5ef5 d8bd 9b7b f3bd
00000010: 4b0c 5bbe 6b22 c2bd 3e47 d53d 7e44 ccbd
00000020: 64ad ce3c 9b8a 433d aef5 a63a e0fb c0bd
00000030: c8fb fc3d d957 b4bd a784 b9bd 2770 99bd
00000040: e669 8a3d e08e bfbd 8efe 7f3e 9e63 b63d
00000050: 3de5 d03d 69c3 fc3c f4c8 59be 70c8 493d
00000060: ff46 b0bd 0078 353e 62fc 833e c6f6 383d
00000070: 81c9 ffbd bfc1 393e d47f 4fbe 7dd8 b7bd
00000080: 2c2f 013e 6b63 4dbe 06fb 393e d125 c3bd
00000090: 4ec3 0b3d 85e7 22be 96d2 153e b39b 91bb
000000a0: 9c62 51be 0a20 923e 66b9 36be 1b18 7f3d
000000b0: 3cd8 823d 2c72 07be d6d6 60bd b688 3abd
000000c0: adfc 073d 8ada 70bd c6e3 97bd a2a5 523e
000000d0: 0fd1 a9bd 3e1a 5c3d 4380 96bd c77f 8a3b
000000e0: 7b52 0fbe bc54 89be 7117 8a3d e3fc 3cbe
000000f0: a5ac 183e d866 88be b86e 55be 3928 c7bd
00000100: 47cb 273e 1f13 a4be 0e6c 8bbd d545 873e
00000110: 05be 8fbd 8a7a bcbd 2d8f 18be 7ab9 f23d
00000120: 973d 053c 163f 1a3e ffbb 7d3e 3718 133d
00000130: a053 8b3e 0f04 1fbe 6ac5 19be 0780 25bd
00000140: b81f a1bd 6059 343e 96c9 e7bd 53af 613e
00000150: 3d0e 1dbe d984 c6bd de10 7b3d a209 6ebc
00000160: aeb6 673e 08d1 243d f78a 113e f680 4b3e
00000170: 2b45 bebd e352 1dbd a11a 8fbe 4f9c 06be
00000180: 6ac7 12be aece 493e 5e6d 003e 48c6 99bd
00000190: 22b0 333e d26c 813e ce36 a63e c5dc 1b3d
000001a0: 7b38 86be 35ba 6ebe a8da 493e 6868 313d
000001b0: f241 f53d 7626 903e 1950 5f3e 87f3 55be
000001c0: 9a62 bb3d b9d4 3bbe 4687 8dbd cccb 043e
000001d0: 5bda 523e b01b dabd be76 cd3d 8a3c 223e
000001e0: 7b26 ab3d 6c29 46be 0347 81be 199e e73d
000001f0: e61c 8d3e 4b50 8e3d c398 933e b613 483e
00000200: 3804 12bd 19b1 28be e0a7 7c3d ff01 1ebe
00000210: 6e22 213e de43 883d e9e6 283d ff62 ecbd
00000220: 9396 8cbb 2a97 6abd 0371 0e3c d170 f2bd
00000230: 0f28 7abd 318e 523d 9594 60be fe44 833e
00000240: 117e ea3c dc26 c73d 30c4 9abd 12c4 303e
00000250: 45a3 783e 85fb 573e 6c0b 5e3e 61a5 bfbc
00000260: 6521 0cbe 5bdc b23d 3039 f33b 3c25 323e
00000270: 7fd8 22be e4c0 4bbe 83bc 02be 7cd2 30be
00000280: 4a87 b73c 590e a53d 0317 733e 27af 0c3e
00000290: d136 aabe ae9e 7cbd d97b f23d a5fa bf3d
000002a0: cefb 413e f4d5 893d 2066 25bd effc 3fbe
000002b0: 0f96 583e 70d5 27be 813e 2e3d bc9a 4b3d
000002c0: dae1 7e3d 6f8b 01be 294b c2bd 2539 3a3e
000002d0: c739 b23d aba1 cd3d 3d14 fdbd 1e12 233d
000002e0: b8d0 063c d133 ce3b 78e4 a33d 536a 89bd
000002f0: 6b92 68be 9660 04bd 7cd3 dbbd d2f4 91bd
00000300: 8dda ac3c bf43 01be d97d 573b 8bbe 9bbe
00000310: 442a e03d 41aa 9ebe 63c4 ab3d 768e 8bbe
00000320: d255 0b3e 5eca 053c c11d 2bbb d4b1 d0bc
00000330: 5364 7e3d 9ba1 45be 774c 9d3c c47e 173d
00000340: 829d d23d e7cb af3e a7e7 783e 525e 3f3d
00000350: 99f1 1dbe 69d8 ce3d 0961 30be 6bf3 563d
00000360: 7297 9dbd c371 b23a f039 233d c53b d23d
00000370: dd80 8d3d 435a 09ba 7f99 acbe 2c1b d93d
00000380: ee77 3b3e e008 833d 83b5 0b3e d607 953c
00000390: c2b3 8f3d 43a1 57be 6130 463d 01ce ed3e
000003a0: 8a4d 28bd 1343 d9bd 716c 06be 3305 76bd
000003b0: 5aec 4e3d f397 983d fbe7 30be 90a7 0dbc
000003c0: 2ce0 2e3e 8928 533e 091d 62bd 80d4 623d
000003d0: f5a3 153c 4bd6 37be 35d9 04be 0f83 bbbc
000003e0: a44d b03d 69c5 07be 0a33 093e 4f06 98bd
000003f0: df0a 153e df6e 5cbe 8117 c1be 192c 29bc

pi.net.0.bias f4 [50]
-0.05673576 0.028636497 0.16620466 0.16192836 0.2026763 0.21719852 0.26546898 -0.12979747
-0.1579987 0.18271808 0.100440264 0.11601963 -0.07495341 -0.06462124 0.12046892 -0.26445118
0.0008969442 0.041789602 -0.0775476 0.055310696 0.029810177 0.034204245 0.06973792 0.20412031
0.078208245 0.2993915 0.19981103 0.103767894 -0.029593116 0.3190849 0.14930686 0.29136774
-0.05580681 -0.069963425 0.3049366 0.20921269 -0.08934032 -0.047430668 -0.1029305 0.093103915
0.24205543 0.1839246 0.1723784 0.23970209 0.3852802 -0.02695075 0.10591393 0.16270082
0.2533375 -0.1398471
00000000: c263 68bd 1697 ea3c 8e31 2a3e 8cd0 253e
00000010: 608a 4f3e 4a69 5e3e 8deb 873e a1e9 04be
00000020: 69ca 21be 731a 3b3e a0b3 cd3d b39b ed3d
00000030: 2c81 99bd 2458 84bd 69b8 f63d 2566 87be
00000040: e820 6b3a 932b 2b3d 47d1 9ebd 788d 623d
00000050: 7934 f43c c019 0c3d c1d2 8e3d ea04 513e
00000060: a52b a03d d849 993e 439b 4c3e 4384 d43d
00000070: 436d f2bc 195f a33e e6e3 183e 272e 953e
00000080: ae95 64bd fc48 8fbd a620 9c3e da3b 563e
00000090: 0ff8 b6bd a946 42bd 3acd d2bd 44ad be3d
000000a0: 61dd 773e bb56 3c3e f783 303e 7774 753e
000000b0: 7243 c53e d2c7 dcbc 67e9 d83d 0b9b 263e
000000c0: 74b5 813e 1434 0fbe

pi.net.2.weight f4 [50, 50]
0.042125747 0.02089634 -0.068642296 -0.03375228 0.24066015 -0.20560583 -0.059796777 -0.00096652086
0.08925472 0.1266214 -0.094580114 -0.06693652 0.13490465 -0.04311518 -0.02471667 -0.021438511
-0.16635723 -0.0056092944 0.0168513 0.0034569765 -0.16411419 -0.11283761 0.06886756 0.08750324
-0.09101321 0.03965793 -0.075180046 -0.20004301 -0.03056026 0.143852 0.17813025 0.24865626
0.05479127 0.1530754 -0.16600017 -0.09163015 -0.016528478 0.006427979 0.044560175 -0.06509222
0.12780334 0.17116703 -0.23726052 0.036542796 0.16896942 0.2865243 -0.078026526 -0.03992515
0.16115062 0.032157596 -0.055525344 -0.26635468 0.0044930116 -0.01134047 -0.041307263 0.06630386
0.07098869 -0.21253254 0.1571769 0.03443751 0.16253673 -0.05675414 0.011171577 -0.306082
0.15671454 -0.017553225 -0.08925521 -0.062570944 -0.026602963 -0.018212829 0.08865465 0.15937354
-0.05963272 -0.05935246 -0.16301346 0.2064051 0.15043806 -0.061158966 0.1893021 0.11112481
-0.1594041 -0.10886108 -0.028060501 0.0010340464 0.05384078 -0.054708436 0.11677566 0.12782332
-0.07864545 0.10006146 -0.09631995 -0.30430856 0.14252493 0.14965817 0.05688656 -0.06182951
0.080648504 -0.0005502886 -0.16755617 0.033726983 0.15378825 0.12554772 -0.060127825 -0.33472756
0.09833913 -0.08943092 0.14564817 -0.03285968 0.061157458 0.122715786 -0.0589506 0.025014795
-0.1304283 -0.101945125 -0.046274792 -0.056424342 -0.00073113985 0.07485351 0.017547786 0.15551165
-0.045674942 0.14857322 -0.07254908 0.21796042 -0.22273616 -0.040814303 -0.19347383 -0.06852883
0.090384565 -0.01984057 -0.032698516 0.1792064 0.1520924 0.07472396 0.22473793 -0.009930128
0.032438867 -0.073514886 0.037747778 0.16911322 0.06660848 0.02435048 0.17106494 0.10766195
-0.26826945 -0.06968568 -0.010280786 -0.026141237 0.05142163 -0.0044918633 0.21300572 -0.2856165
0.08010185 -0.12175556 0.0033666554 0.04178124 0.17855239 0.10220172 -0.04077636 0.0796314
0.09082419 0.06364345 0.34659082 -0.0039403453 -0.1142883 0.10267943 -0.08855529 -0.20344977
-0.10690809 -0.25784984 0.004340132 0.0090761725 -0.038443454 0.17261522 0.14108166 0.15783595
-0.043853443 -0.20552565 -0.1069486 -0.018501261 0.19309753 -0.13647869 -0.11314236 -0.042659886
-0.017251039 -0.23419972 0.20733543 -0.107957415 0.11056596 -0.0013499225 -0.06942109 0.19981241
-0.051392753 -0.012889567 0.047518376 0.19900122 -0.11855453 -0.2096817 0.12449267 -0.11990062
0.020796716 -0.08693004 -0.033731285 -0.142469 0.18443157 0.011447296 0.19494076 -0.20495217
0.035511978 0.10711244 0.14875382 -0.036171384 0.18004726 0.18190746 0.03163849 0.21216835
-0.04596515 -0.072480544 0.18695886 -0.2218434 0.07717339 0.055757362 0.012069774 0.12520616
-0.051029164 0.04163065 0.106552936 -0.083405636 -0.0602083 -0.041217882 -0.035587136 0.09444092
-0.07617678 0.0110409595 -0.020954741 -0.12487186 0.0890864 0.11889862 -0.1691141 0.13820145
0.06846936 -0.008768993 -0.14373532 0.10141529 0.07233924 0.11051686 0.09005204 -0.13805556
0.11028373 -0.024634052 0.015094163 0.133123 -0.07044408 0.018095996 -0.08515371 -0.065366924
00000000: 0c8c 2c3d cd2e ab3c 5594 8cbd d53f 0abd
00000010: 9d6f 763e 568a 52be 77ed 74bd 1e5e 7dba
00000020: 2ecb b63d 0aa9 013e 38b3 c1bd 0416 89bd
00000030: 7224 0a3e 8b99 30bd 9d7a cabc d19f afbc
00000040: 8d59 2abe 2cce b7bb bd0b 8a3c 718e 623b
00000050: 8d0d 28be 6817 e7bd 6f0a 8d3d e634 b33d
00000060: 2265 babd 5b70 223d fff7 99bd 13d8 4cbe
00000070: 8359 fabc f04d 133e c767 363e bf9f 7e3e
00000080: d06c 603d ccbf 1c3e f3fb 29be 97a8 bbbd
00000090: bb66 87bc cca1 d23b bb84 363d 124f 85bd
000000a0: e1de 023e 6946 2f3e 6cf4 72be e6ad 153d
000000b0: 5206 2d3e 50b3 923e 5fcc 9fbd 8e88 23bd
000000c0: ab04 253e afb7 033d 8b6e 63bd a45f 88be
000000d0: 1d3a 933b 61cd 39bc ce31 29bd 51ca 873d
000000e0: 8562 913d 21a2 59be fbf2 203e 590e 0d3d
000000f0: 0770 263e 0777 68bd fd08 373c c8b6 9cbe
00000100: c779 203e c8cb 8fbc 6fcb b6bd 3225 80bd
00000110: 75ee d9bc 1233 95bc 9290 b53d d132 233e
00000120: 7041 74bd 911b 73bd 00ed 26be dc5b 533e
00000130: 6f0c 1a3e d381 7abd 69d8 413e 6895 e33d
00000140: d43a 23be 8ff2 debd 23df e5bc d788 873a
00000150: 2688 5c3d f415 60bd 1428 ef3d 1ee4 023e
00000160: de10 a1bd 06ed cc3d 6543 c5bd 55ce 9bbe
00000170: 0ef2 113e fe3f 193e e201 693d f140 7dbd
00000180: 0b2b a53d 3e41 10ba d893 2bbe 4e25 0a3d
00000190: ab7a 1d3e 958f 003e 9848 76bd 6961 abbe
000001a0: 0766 c93d 8f27 b7bd cb24 153e df97 06bd
000001b0: 3e80 7a3d 6a52 fb3d 2f76 71bd d4eb cc3c
000001c0: ff8e 05be 9bc8 d0bd a38a 3dbd 361d 67bd
000001d0: f7a9 3fba cc4c 993d 60c0 8f3c 723e 1f3e
000001e0: a615 3bbd 9423 183e 9d94 94bd 0431 5f3e
000001f0: f314 64be e62c 27bd 011e 46be d858 8cbd
00000200: 8b1b b93d b188 a2bc e1ee 05bd e281 373e
00000210: 1cbe 1b3e e008 993d b321 663e fab1 22bc
00000220: 9ede 043d f98e 96bd 6a9d 1a3d 042c 2d3e
00000230: 076a 883d a87a c73c a62b 2f3e de7d dc3d
00000240: 9d5a 89be 5eb7 8ebd be70 28bc 2626 d6bc
00000250: 7d9f 523d 7b30 93bb 2c1e 5a3e 533c 92be
00000260: 700c a43d fb5a f9bd 1ba3 5c3b ce22 2b3d
00000270: 70d6 363e 234f d13d 1d05 27bd ca15 a33d
00000280: 0802 ba3d 7f57 823d 5a74 b13e 031e 81bb
00000290: fc0f eabd 9849 d23d 7a5c b5bd 2355 50be
000002a0: a1f2 dabd e504 84be ab37 8e3b 3ab4 143c
000002b0: e276 1dbd 0bc2 303e b677 103e bf9f 213e
000002c0: ab9f 33bd 5175 52be de07 dbbd f58f 97bc
000002d0: 5cbb 453e 12c1 0bbe 2eb7 e7bd 22bc 2ebd
000002e0: 0d52 8dbc 0dd2 6fbe bd4f 543e c718 ddbd
000002f0: 6870 e23d e2ef b0ba a52c 8ebd a09b 4c3e
00000300: 3581 52bd c32e 53bc a1a2 423d fac6 4b3e
00000310: b8cc f2bd cdb6 56be 03f6 fe3d 758e f5bd
00000320: e05d aa3c 6008 b2bd d129 0abd 65e3 11be
00000330: a1db 3c3e 708d 3b3c 8d9e 473e fbde 51be
00000340: 0275 113d c45d db3d ec52 183e 7228 14bd
00000350: 4f5e 383e f345 3a3e 5c97 013d a942 593e
00000360: f445 3cbd ae70 94bd 2572 3f3e eb2a 63be
00000370: 150d 9e3d d561 643d 4dc0 453c 0b36 003e
00000380: f503 51bd e784 2a3d 6d38 da3d 93d0 aabd
00000390: fa9c 76bd 15d4 28bd d1c3 11bd 3e6a c13d
000003a0: 9202 9cbd 24e5 343c 47a9 abbc d1bc ffbd
000003b0: ee72 b63d 1f81 f33d 3f2c 2dbe ae84 0d3e
000003c0: aa39 8c3d d3ab 0fbc 5a2f 13be d2b2 cf3d
000003d0: 9826 943d aa56 e23d 346d b83d 705e 0dbe
000003e0: 70dc e13d 5acd c9bc 824d 773c 6551 083e
000003f0: fc44 90bd 0e3e 943c 1165 aebd 18df 85bd

pi.net.2.bias f4 [50]
-0.030741915 -0.042052016 -0.013262219 0.106708586 0.04583545 0.103788376 -0.05888842 0.27045727
-0.0963171 0.3286392 -0.113423005 0.09200697 -0.056064192 0.119083926 -0.061408307 0.06838296
0.0674457 0.19834161 0.1370869 -0.1066256 -0.13967565 0.26873618 -0.093805134 -0.06864018
-0.029236197 0.12816197 0.012828412 0.06630004 0.13916866 -0.07759945 0.24265802 -0.21693821
-0.014149098 0.21853542 -0.034841537 0.11895468 0.08874191 -0.24227716 0.03865358 0.060302414
-0.119041644 -0.1282143 -0.016041333 -0.19390117 0.15330686 0.021157995 0.11177124 -0.20158626
0.06240823 -0.009981883
00000000: 78d6 fbbc bc3e 2cbd c749 59bc 088a da3d
00000010: f4bd 3b3d 008f d43d fc34 71bd 6079 8a3e
00000020: e641 c5bd 6643 a83e 524a e8bd 266e bc3d
00000030: 91a3 65bd 46e2 f33d 4787 7bbd 5e0c 8c3d
00000040: f920 8a3d 101a 4b3e 8260 0c3e 865e dabd
00000050: 2207 0fbe ca97 893e e81c c0bd 3993 8cbd
00000060: c080 efbc e43c 033e 422e 523c 51c8 873d
00000070: 3b82 0e3e 76ec 9ebd 587b 783e 0d25 5ebe
00000080: 9ed1 67bc c0c7 5f3e 00b6 0ebd 839e f33d
00000090: 52be b53d 8117 78be 3753 1e3d aaff 763d
000000a0: 1bcc f3bd 9c4a 03be 1d69 83bc 078e 46be
000000b0: 79fc 1c3e 8853 ad3c 52e8 e43d a16c 4ebe
000000c0: c69f 7f3d 0d8b 23bc

pi.net.4.weight f4 [4, 50]
-0.07668143 0.27102643 -0.08860512 -0.2872422 -0.026522242 0.09471963 -0.1376022 0.28429374
-0.2533014 -0.014980266 0.021999206 0.12334985 0.22195883 0.324272 -0.0968529 -0.13367596
0.36116916 0.42214563 -0.17633666 0.03435684 -0.10358198 0.36554396 -0.58139235 0.4584715
-0.5170283 0.08501239 0.4820236 -0.18447785 -0.2405247 -0.055941373 0.11488975 -0.122414514
0.13369393 0.15370195 -0.5350973 -0.003769734 0.044793952 0.10979775 0.2450653 0.29908773
-0.32814658 -0.03714653 -0.22807838 -0.22664717 -0.3022527 0.028638016 0.16349395 -0.18118516
0.182581 -0.18556091 0.2923064 -0.00702754 -0.25378168 0.39500678 0.21309172 0.18805137
-0.113702476 -0.015867362 -0.25036436 0.1555943 -0.034389075 0.073921606 0.06610029 0.16337872
-0.22286119 0.18634655 0.20274028 -0.12030408 0.17053612 0.312792 -0.26334745 -0.3249454
-0.31679803 0.1435622 -0.13229835 -0.35480922 -0.16616385 -0.375945 0.06586937 -0.32566977
0.29959017 -0.25360268 0.3533923 -0.17478734 0.12915297 -0.15060714 -0.15177812 -0.3550388
0.13289197 -0.21763337 -0.06788731 -0.2987079 -0.2091295 0.061286595 -0.0154936565 -0.11033081
-0.009585073 -0.09663653 -0.43079734 -0.35120672 0.28067955 -0.29887202 0.036057945 -0.032090377
-0.13848214 -0.09885355 0.25755626 -0.24029103 0.09175461 0.026484774 0.3858527 -0.23708425
-0.25714085 0.12994109 -0.19078882 0.16259497 0.07478143 0.17215747 -0.10342136 -0.055667352
-0.24980119 -0.036601912 0.3436674 0.13957967 0.35727134 0.22838092 0.18830854 0.3505146
0.2551731 0.23783986 0.25105375 0.26073286 0.056342557 -0.29049295 -0.2111176 -0.4938281
0.08697033 -0.1438568 -0.25964454 -0.18696553 -0.40684295 0.18464595 -0.20284133 -0.44556257
0.28230873 0.08938495 -0.23511672 -0.2439886 0.09109385 -0.013483947 -0.06358544 -0.1438147
-0.19090472 -0.19704086 -0.19943996 -0.11803736 0.4274388 0.19259645 0.14864054 0.19368164
-0.28359917 0.22804484 -0.15045285 0.21353826 -0.24643658 -0.1679019 -0.31808457 0.051806256
-0.3244085 -0.16375425 0.33065563 0.051597554 -0.1635609 0.16133358 0.13706423 0.20924853
0.0068611135 -0.07157071 -0.11126431 -0.15377016 0.19003013 -0.15190178 -0.27204368 0.22014894
-0.073388085 0.16430475 0.12102606 0.12125768 -0.30698618 0.038033877 0.19640404 -0.21060841
-0.039478242 -0.31568724 0.1723381 0.35709065 -0.18946305 -0.21639068 0.34489584 0.16491319
00000000: 270b 9dbd fac3 8a3e 9a76 b5bd 6911 93be
00000010: 2c45 d9bc 5efc c13d 97e7 0cbe f38e 913e
00000020: b9b0 81be ca6f 75bc ae37 b43c d99e fc3d
00000030: 2d49 633e fb06 a63e d05a c6bd 5ae2 08be
00000040: 2aeb b83e 7923 d83e 9991 34be c2b9 0c3d
00000050: ca22 d4bd 9428 bb3e 21d6 14bf c7bc ea3e
00000060: f75b 04bf fa1a ae3d cccb f63e c3e7 3cbe
00000070: 1b4c 76be c822 65bd 514b eb3d 76b4 fabd
00000080: 10e7 083e 0b64 1d3e 23fc 08bf a40d 77bb
00000090: dd79 373d a5dd e03d 66f2 7a3e 0722 993e
000000a0: d402 a8be f626 18bd 618d 69be 3216 68be
000000b0: dec0 9abe 469a ea3c f56a 273e 9a88 39be
000000c0: 83f6 3a3e ae03 3ebe 2fa9 953e 4747 e6bb
000000d0: acef 81be 543e ca3e b734 5a3e 8a90 403e
000000e0: d8dc e8bd 45fc 81bc c22f 80be 1d54 1f3e
000000f0: 8fdb 0cbd 3664 973d 975f 873d c04c 273e
00000100: b935 64be a1d1 3e3e 269b 4f3e fc61 f6bd
00000110: 05a1 2e3e 4626 a03e 7ad5 86be 3e5f a6be
00000120: 5a33 a2be f801 133e 3879 07be 8ea9 b5be
00000130: db26 2abe dd7b c0be 85e6 863d 30be a6be
00000140: e263 993e 36d8 81be d6ef b43e 74fb 32be
00000150: ad40 043e c238 1abe b96b 1bbe a5c7 b5be
00000160: d514 083e 48db 5ebe 8108 8bbd 3ef0 98be
00000170: 0b26 56be a707 7b3d 1bd9 7dbc 1ff5 e1bd
00000180: b60a 1dbc 5fe9 c5bd 7891 dcbe 5ed1 b3be
00000190: 3bb5 8f3e c105 99be 7fb1 133d 3371 03bd
000001a0: 43ce 0dbe bb73 cabd 6ade 833e da0e 76be
000001b0: d7e9 bb3d 99f6 d83c 7c8e c53e 37c6 72be
000001c0: f7a7 83be 470f 053e 255e 43be 4c7f 263e
000001d0: 0227 993d 0c4a 303e 94ce d3bd 7303 64bd
000001e0: e2cb 7fbe e3eb 15bd 2cf5 af3e f9ed 0e3e
000001f0: 45ec b63e b0dc 693e f4d3 403e a676 b33e
00000200: 0ca6 823e 4b8c 733e 1e8a 803e c77e 853e
00000210: 74c7 663d 7ebb 94be 362f 58be 09d7 fcbe
00000220: 801d b23d 324f 13be 21f0 84be e473 3fbe
00000230: b84d d0be d413 3d3e a3b5 4fbe c720 e4be
00000240: c58a 903e 750f b73d 70c2 70be 26d8 79be
00000250: 6a8f ba3d c6eb 5cbc 1539 82bd 2944 13be
00000260: 877c 43be 14c5 49be fd39 4cbe 92bd f1bd
00000270: 42d9 da3e 0138 453e 3a35 183e 7b54 463e
00000280: e933 91be 9684 693e 5010 1abe c6a9 5a3e
00000290: df59 7cbe 7aee 2bbe fbdb a2be cc32 543d
000002a0: df18 a6be 32af 27be b24b a93e f557 533d
000002b0: 827c 27be a134 253e 915a 0c3e 3f45 563e
000002c0: 31d3 e03b aa93 92bd 8bde e3bd ed75 1dbe
000002d0: 4297 423e 248c 1bbe 4f49 8bbe b96e 613e
000002e0: 7e4c 96bd 813f 283e 83dc f73d f255 f83d
000002f0: 4b2d 9dbe 69c9 1b3d 241e 493e bba9 57be
00000300: f0b3 21bd c2a1 a1be 6679 303e 96d4 b63e
00000310: 9a02 42be 8595 5dbe 3096 b03e 01df 283e

pi.net.4.bias f4 [4]
0.05735316 0.06108784 -0.010633395 0.2166472
00000000: 26eb 6a3d 3e37 7a3d b137 2ebc c3d8 5d3e

v.net.0.weight f4 [64, 34]
0.54729027 0.24795882 -0.13072914 0.33879578 -0.06409463 -0.5164011 -0.03080405 0.05381771
0.027165527 0.13258208 0.15325484 0.061590105 0.13732146 -0.06437633 -0.005615091 -0.0317056
0.047952924 0.3218731 0.019290393 -0.22588159 0.3714634 -0.13968533 -0.36430553 0.044720817
0.14581728 -0.12338853 -0.20412444 -0.02135421 -0.012982213 0.048481636 -0.06332873 -0.0041765147
-0.04626329 0.015298425 0.060632486 0.02779697 0.042585082 0.009786633 -0.039358284 -0.17512116
0.068160005 0.03593353 0.0829831 -0.017155342 -0.168743 -0.075668074 -0.095225625 0.01096513
0.062857755 0.0049861856 0.014308069 -0.06388079 0.036366116 -0.029607838 -0.044059016 0.079785846
0.13832185 0.17255521 0.037307173 0.021485602 0.17380121 0.15529712 0.09400888 -0.00016659075
0.002928689 0.06675505 0.020566827 0.018962221 -0.073256716 0.18383296 0.24221121 0.03001172
-0.03729708 -0.40905815 -0.11484355 -0.035815254 0.09495411 0.15939894 0.09127486 0.061918702
-0.12465601 0.002166478 0.0032693718 -0.026416747 -0.04476074 0.15684816 -0.053020913 0.07098123
-0.24430607 0.117712244 -0.23525555 0.13696067 -0.020628663 0.29765683 0.18066324 0.04576885
0.0069389916 -0.008087944 -0.0077067404 -0.0039030185 -0.016696585 -0.020952484 -0.07832081 -0.08066366
-0.0680359 0.10264352 -0.053663347 -0.33053583 -0.03235196 -0.09734148 0.006943207 0.20580086
0.045574326 0.034056567 -0.15415269 0.019658953 0.07218649 0.03710256 0.08949657 0.12099824
-0.06928746 0.08047279 0.0030364117 -0.07391296 0.13169359 -0.065989606 -0.062213626 -0.14933172
0.00012455249 -0.013265748 -0.098860726 0.05537885 0.01579526 0.06256207 0.0038874187 0.05194551
-0.08009059 -0.008834866 0.021978734 -0.011686538 -0.14617647 0.40205407 -0.23190156 -0.003017213
-0.056250088 0.1762878 -0.18729772 0.04819977 0.24738589 -0.02828101 -0.02362226 -0.05741347
-0.064847425 0.043852873 0.010732887 0.1243079 -0.07254005 0.09735748 0.3839424 -0.14211719
-0.03615289 -0.04374714 -0.00011467421 0.07453779 0.12662172 -0.052893132 -0.05039159 -0.018475771
-0.065646596 -0.06607579 -0.19272295 -0.056757912 -0.13572012 0.20351616 0.024121832 0.020684103
0.33771998 0.09181212 -0.26093885 0.036642257 0.041426178 -0.077678256 -0.15970446 0.0803015
-0.022791779 0.07724292 -0.04085947 -0.055840455 -0.036275547 -0.038763493 -0.101451635 -0.07695587
-0.56167555 0.032607686 0.049335696 -0.19378357 -0.24988432 0.18968582 -0.020819258 -0.18039392
0.066128634 -0.06658326 0.09564 -0.027490828 -0.21483746 0.2392727 -0.1630107 -0.14100763
-0.04339496 0.10539881 0.07824765 -0.19477369 0.18345067 -0.08514541 0.009375849 0.041916117
-0.08584491 -0.0740576 -0.0870141 -0.039491203 -0.093731426 -0.28141573 0.43719286 -0.2376522
-0.07804936 -0.09918782 0.07872652 -0.15531561 -0.28470492 0.29787523 -0.3547752 -0.03320972
-0.015542239 -0.037504323 -0.08279957 -0.07476741 -0.06308398 -0.116203435 -0.082072034 -0.1181428
0.103452094 -0.03978974 -0.057798687 0.01105714 0.07667737 0.10086515 0.05691421 0.012694627
0.0580611 -0.039082903 0.054857206 -0.0031206277 -0.0008737892 -0.05499164 0.010564643 0.012539302
00000000: 371b 0c3f ebe8 7d3e dcdd 05be a476 ad3e
00000010: 0c44 83bd dd32 04bf c658 fcbc f66f 5c3d
00000020: 3d8a de3c 99c3 073e d6ee 1c3e e845 7c3d
00000030: ff9d 0c3e bdd7 83bd ccfe b7bb bbdd 01bd
00000040: 496a 443d 8dcc a43e e306 9e3c 814d 67be
00000050: 7330 be3e ac09 0fbe 4186 babe 2d2d 373d
00000060: 2051 153e 20b3 fcbd ff05 51be 06ef aebc
00000070: 59b3 54bc ae94 463d 7eb2 81bd 25db 88bb
00000080: 937e 3dbd 3fa6 7a3c c559 783d 79b6 e33c
00000090: b26d 2e3d 1d58 203c 2736 21bd f652 33be
000000a0: 7997 8b3d 0a2f 133d 0bf3 a93d 5c89 8cbc
000000b0: f7ca 2cbe ddf7 9abd a705 c3bd 17a7 333c
000000c0: 91bb 803d 2863 a33b 646c 6a3c eed3 82bd
000000d0: a3f4 143d 238c f2bc 3a77 34bd c366 a33d
000000e0: 3ea4 0d3e 50b2 303e 68cf 183d 9302 b03c
000000f0: f2f8 313e 3506 1f3e ba87 c03d ddae 2eb9
00000100: 3fef 3f3b dfb6 883d c37b a83c a956 9b3c
00000110: 9e07 96bd b53e 3c3e 3706 783e 23db f53c
00000120: d3c4 18bd 1270 d1be 1833 ebbd 04b3 12bd
00000130: 4d77 c23d 7a39 233e 50ee ba3d 779e 7d3d
00000140: a64b ffbd 78fb 0d3b f542 563b ef67 d8bc
00000150: 0a57 37bd ce9c 203e 752c 59bd 9b5e 913d
00000160: 5f2b 7abe 1e13 f13d d5e6 70be 6b3f 0c3e
00000170: 71fd a8bc 7a66 983e c9ff 383e 1e78 3b3d
00000180: 7b60 e33b 4c83 04bc d388 fcbb c9c9 7fbb
00000190: 47c7 88bc 8ba4 abbc a966 a0bd fd32 a5bd
000001a0: 6856 8bbd c436 d23d 19ce 5bbd fe3b a9be
000001b0: 7d83 04bd f85a c7bd d783 e33b 76bd 523e
000001c0: 25ac 3a3d e67e 0b3d 34da 1dbe d00b a13c
000001d0: 83d6 933d dbf8 173d fa49 b73d edcd f73d
000001e0: 95e6 8dbd ebce a43d 89fe 463b ae5f 97bd
000001f0: afda 063e 8f25 87bd b7d3 7ebd 6aea 18be
00000200: 4e9a 0239 9458 59bc 7e77 cabd efd4 623d
00000210: 1065 813c 8b20 803d 10c4 7e3b d1c4 543d
00000220: 8906 a4bd 1dc0 10bc bf0c b43c e578 3fbc
00000230: 49af 15be 08da cd3e 9a77 6dbe 6fbc 45bb
00000240: 7e66 66bd ca84 343e f9ca 3fbe 1f6d 453d
00000250: ba52 7d3e 94ad e7bc 7883 c1bc 632a 6bbd
00000260: bace 84bd 129f 333d fed8 2f3c 2495 fe3d
00000270: e18f 94bd 5c63 c73d 1994 c43e 2b87 11be
00000280: 0e15 14bd 3330 33bd 3f7d f0b8 45a7 983d
00000290: 20a9 013e 78a6 58bd 6967 4ebd 805a 97bc
000002a0: b971 86bd be52 87bd 2a59 45be fc7a 68bd
000002b0: 37fa 0abe 8a66 503e 269b c53c b571 a93c
000002c0: a2e9 ac3e fe07 bc3d c799 85be 3116 163d
000002d0: 7fae 293d c715 9fbd 9189 23be 1d75 a43d
000002e0: d3b5 babc 8931 9e3d 425c 27bd f6b8 64bd
000002f0: ab95 14bd 78c6 1ebd e0c5 cfbd 0a9b 9dbd
00000300: f8c9 0fbf a38f 053d 3a14 4a3d 336f 46be
00000310: ade1 7fbe 003d 423e 268d aabc 2fb9 38be
00000320: 736e 873d ce5c 88bd e8de c33d 7234 e1bc
00000330: 5afe 5bbe e703 753e 47ec 26be 4e64 10be
00000340: eabe 31bd 55db d73d 4e40 a03d c172 47be
00000350: 7eda 3b3e b760 aebd 299d 193c 3cb0 2b3d
00000360: 75cf afbd 83ab 97bd 7334 b2bd 87c1 21bd
00000370: 43f6 bfbd b915 90be bed7 df3e 195b 73be
00000380: 58d8 9fbd fc22 cbbd 5f3b a13d 0e0b 1fbe
00000390: d8c4 91be 1a83 983e 18a5 b5be ea06 08bd
000003a0: e0a4 7ebc 229e 19bd d292 a9bd a81f 99bd
000003b0: 2c32 81bd 11fc edbd 6215 a8bd daf4 f1bd
000003c0: b1de d33d 91fa 22bd 51be 6cbd 0229 353c
000003d0: 0609 9d3d 6392 ce3d e01e 693d 20fd 4f3c
000003e0: 7ad1 6d3d 6515 20bd f3b1 603d 7283 4cbb
000003f0: 000f 65ba ea3e 61bd 5317 2d3c a571 4d3c

v.net.0.bias f4 [64]
-0.010976742 0.46501663 -0.2546232 0.34918723 -0.19993158 0.23430538 -0.7468192 0.29318872
0.06210947 -0.39593518 -0.044057015 -0.24682002 0.75007945 0.25761777 0.94070953 -0.12813216
-0.03828235 0.3771333 -0.29821122 -0.39995003 0.42176613 0.13032183 0.10395233 0.41027114
-0.8637429 -0.024290431 0.4152118 -0.22243753 -0.22207919 -0.27276763 -0.2256751 0.75587356
0.29750633 -0.5963534 0.27540678 -0.1698492 -0.38600543 -0.23738968 -0.48499334 -0.20515765
0.5590526 0.43649086 0.90770876 -0.029274056 0.23003279 0.23137131 0.49174488 0.095240496
-0.40981486 0.6864181 0.16831496 0.31212446 -0.6977301 0.35007656 -0.544097 0.07391694
-0.060290016 0.0130908815 -0.38831043 0.4053179 0.4763961 0.13029957 0.6306762 0.15561968
00000000: cbd7 33bc a916 ee3e f95d 82be abc8 b23e
00000010: ddba 4cbe c0ed 6f3e 8b2f 3fbf d51c 963e
00000020: 8066 7e3d 04b8 cabe 2175 34bd 63be 7cbe
00000030: 3505 403f 7ae6 833e 57d2 703f 1435 03be
00000040: f4cd 1cbd 9e17 c13e 24af 98be 40c6 ccbe
00000050: bbf1 d73e 1673 053e f6e4 d43d 0f0f d23e
00000060: 411e 5dbf bafc c6bc a496 d43e aac6 63be
00000070: ba68 63be 33a8 8bbe 6017 67be ee80 413f
00000080: c052 983e 9eaa 18bf 1e02 8d3e f3ec 2dbe
00000090: 81a2 c5be 4816 73be 0c51 f8be d914 52be
000000a0: 121e 0f3f bb7b df3e 9a5f 683f 25d0 efbc
000000b0: b78d 6b3e 9aec 6c3e fcc5 fb3e 730d c33d
000000c0: 41d3 d1be 19b9 2f3f c25a 2c3e c7ce 9f3e
000000d0: 719e 32bf 3c3d b33e f149 0bbf c461 973d
000000e0: aaf2 76bd 237b 563c a0d0 c6be d485 cf3e
000000f0: 31ea f33e 406d 053e ff73 213f c45a 1f3e

v.net.2.weight f4 [64, 64]
0.113296576 0.040276147 -0.23408693 0.101986684 0.028177232 -0.02829661 -0.19355145 -0.1474309
0.16360487 -0.107583925 0.053834613 0.413179 0.15284522 0.09310503 0.57138085 -0.0655796
0.066075765 -0.070921764 0.071213834 -0.036277592 0.05042293 -0.08919226 0.07283918 0.070227034
-0.21299137 -0.009488446 -0.17075443 -0.021455325 -0.044604935 -0.0581218 0.12113587 0.36850256
0.066297285 -0.5477681 -0.046482373 0.04398917 0.15456457 -0.15009496 -0.1385852 0.08347069
-0.103014894 0.24168694 0.16306889 0.06399537 0.2749201 -0.20261931 0.1932336 -0.15772253
0.023831537 0.0017195538 -0.06554254 0.3783428 -0.18102568 0.19653578 -0.12994976 0.12113537
-0.04055649 -0.09703921 0.07515978 0.017485397 0.12906376 0.42747334 0.21236186 0.21955472
-0.11794314 -0.20354459 0.117330134 0.043610472 0.12086617 0.036041614 -0.34513935 -0.0694362
-0.16258834 0.1955115 0.7356391 -0.18982437 0.17446145 0.26015204 0.2568843 0.2898089
-0.043430537 -0.24807067 0.39791462 0.29540783 -0.40841076 -0.40922695 -0.24494211 -0.29971173
0.058502614 -0.2581782 -0.24983819 -0.1137749 0.06574146 0.16537756 0.37220964 0.31185582
-0.2570044 -0.47510442 -0.11287881 0.103133395 0.060970508 0.35206074 0.13635148 -0.37617418
0.4497647 0.066795096 0.12034608 -0.117052555 -0.13498308 -0.093367346 0.0307551 -0.24120559
0.4200295 0.067567684 -0.15599719 0.0985151 0.06985918 0.60221106 0.17380427 0.3605959
-0.507558 0.18012391 0.13085191 0.0622666 -0.1460929 0.117604 -0.14720146 0.0220962
0.043975472 -0.07242089 0.1181682 -0.18986379 0.13026609 0.08587285 -0.031241188 -0.055531655
0.14638574 0.17972055 0.27749044 0.031211626 -0.05555708 0.29736146 0.031672254 0.031319413
-0.123206444 0.048356052 0.11726692 -0.101419024 0.24552709 -0.13908271 -0.02585116 0.18497328
0.04594155 -0.026056057 0.29519802 0.008563292 -0.10210631 -0.08530534 0.23011857 0.21509925
-0.10899486 -0.20453075 0.021805175 0.13735852 0.1483103 0.16417886 -0.17181776 -0.20079322
0.20794058 -0.12127625 0.023139974 0.13474298 0.076763354 -0.1815132 0.01360188 -0.040894523
0.16260453 0.2072452 -0.118752554 -0.104575545 0.054882377 0.20663293 0.042305443 0.11758742
-0.08175786 0.03494079 -0.064634085 0.15801367 0.0012096306 0.04089683 -0.02169323 0.0387976
0.10434923 -0.03597221 -0.080947824 -0.09181713 0.08707186 -0.0594592 0.04165959 -0.006482594
0.038209938 0.16262712 -0.042519078 -0.10671578 -0.105334386 -0.012334536 -0.25863963 -0.061307665
-0.10319339 -0.07961385 0.053288277 0.13997917 -0.17542917 0.12570672 0.014391759 -0.06942918
0.17390056 -0.08108249 -0.06771542 0.034177296 0.075576715 -0.064536326 0.10940513 0.03486325
-0.1579267 0.18416047 0.0032806287 -0.032122925 -0.06533463 -0.030207558 0.042850744 0.12669484
-0.09554376 -0.14873612 0.010383078 -0.055690914 -0.13487819 -0.14890741 -0.039408196 0.08204
-0.039294787 -0.024304226 -0.115956806 0.009448103 0.059247695 0.03441617 0.087606505 0.052373685
0.0018518176 -0.014130247 0.08890763 -0.079628915 -0.14580113 0.32131588 -0.18147449 0.13937055
00000000: 0908 e83d 9af8 243d 7cb4 6fbe 65de d03d
00000010: f0d3 e63c 4bce e7bc 5a32 46be 20f8 16be
00000020: 0988 273e f654 dcbd af81 5c3d 338c d33e
00000030: 7583 1c3e daad be3d 0446 123f 994e 86bd
00000040: bb52 873d 6e3f 91bd 8fd8 913d d097 14bd
00000050: 4688 4e3d 6eaa b6bd b52c 953d 31d3 8f3d
00000060: 691a 5abe 6d75 1bbc 40da 2ebe 14c3 afbc
00000070: aab3 36bd 2011 6ebd 1516 f83d 5eac bc3e
00000080: dfc6 873d 883a 0cbf 4d64 3ebd fd2d 343d
00000090: 2d46 1e3e 7eb2 19be 47e9 0dbe aef2 aa3d
000000a0: 79f9 d2bd c87c 773e 88fb 263e 0110 833d
000000b0: 54c2 8c3e 707b 4fbe 07df 453e 0482 21be
000000c0: 5b3a c33c a762 e13a 2b3b 86bd 26b6 c13e
000000d0: cc5e 39be ad40 493e 8d11 05be d215 f83d
000000e0: 901e 26bd 7ebc c6bd 5fed 993d 893d 8f3c
000000f0: 4a29 043e c9dd da3e 6375 593e f4d2 603e
00000100: 2c8c f1bd fe6d 50be c84a f03d e5a0 323d
00000110: af88 f73d 5fa0 133d 1bb6 b0be 9134 8ebd
00000120: 8f7d 26be 2b34 483e d852 3c3f 5261 42be
00000130: 06a6 323e a632 853e 5786 833e d561 943e
00000140: 38e4 31bd 3d06 7ebe 77bb cb3e b23f 973e
00000150: 371b d1be 3286 d1be 1bd2 7abe d173 99be
00000160: 70a0 6f3d ef2f 84be 95d5 7fbe d102 e9bd
00000170: 75a3 863d bc58 293e 4392 be3e 91ab 9f3e
00000180: 1596 83be e340 f3be 012d e7bd 9a37 d33d
00000190: 36bc 793d 4e41 b43e b99f 0b3e e799 c0be
000001a0: 8f47 e63e decb 883d 0178 f63d 40b9 efbd
000001b0: 0139 0abe 6137 bfbd 1ff2 fb3c 99fe 76be
000001c0: 1b0e d73e ed60 8a3d babd 1fbe 49c2 c93d
000001d0: 5412 8f3d 812a 1a3f bff9 313e 07a0 b83e
000001e0: 52ef 01bf 6772 383e 0bfe 053e 430b 7f3d
000001f0: 6199 15be 5eda f03d fbbb 16be 1703 b53c
00000200: a01f 343d 6751 94bd 2b02 f23d a76b 42be
00000210: 7964 053e 1bde af3d 85ed ffbc 2975 63bd
00000220: 25e6 153e aa08 383e 3a13 8e3e 86af ff3c
00000230: d28f 63bd c33f 983e c4ba 013d c948 003d
00000240: a953 fcbd ff10 463d a429 f03d c7b4 cfbd
00000250: 746b 7b3e b36b 0ebe d0c5 d3bc a369 3d3e
00000260: 352d 3c3d 8373 d5bc 3224 973e 0d4d 0c3c
00000270: 1d1d d1bd 91b4 aebd 34a4 6b3e fa42 5c3e
00000280: b238 dfbd 8270 51be c4a0 b23c b6a7 0c3e
00000290: a8de 173e 811e 283e fff0 2fbe bd9c 4dbe
000002a0: 60ee 543e af5f f8bd 0b90 bd3c 10fa 093e
000002b0: 1b36 9d3d 99de 39be 6bda 5e3c 0481 27bd
000002c0: cd81 263e 1638 543e 8a34 f3bd b42b d6bd
000002d0: 58cc 603d 9597 533e 7948 2d3d acd1 f03d
000002e0: aa70 a7bd 131e 0f3d e05e 84bd 56ce 213e
000002f0: 788c 9e3a 6f83 273d 00b6 b1bc 3bea 1e3d
00000300: 0db5 d53d 9957 13bd f9c7 a5bd 9f0a bcbd
00000310: bb52 b23d 7d8b 73bd 3fa3 2a3d f16b d4bb
00000320: 0682 1c3d b987 263e 7c28 2ebd ce8d dabd
00000330: 8eb9 d7bd cb16 4abc 6a6c 84be bf1d 7bbd
00000340: 0e57 d3bd 960c a3bd cf44 5a3d b356 0f3e
00000350: b4a3 33be 43b9 003e 6acb 6b3c e330 8ebd
00000360: fd12 323e 940e a6bd 62ae 8abd 7efd 0b3d
00000370: f7c7 9a3d 9f2b 84bd cc0f e03d c4cc 0e3d
00000380: 89b7 21be 9094 3c3e d1ff 563b 5493 03bd
00000390: 2ace 85bd d775 f7bc 4384 2f3d 4bbc 013e
000003a0: 72ac c3bd 484e 18be c91d 2a3c 281c 64bd
000003b0: 821d 0abe 2f7b 18be 7d6a 21bd 9604 a83d
000003c0: 92f3 20bd a819 c7bc c37a edbd 37cc 1a3c
000003d0: b6ad 723d f8f7 0c3d 0a6b b33d ca85 563d
000003e0: b0b8 f23a 8d82 67bc 3415 b63d 7c14 a3bd
000003f0: e44c 15be 8483 a43e 73d4 39be 27b7 0e3e

v.net.2.bias f4 [64]
-0.09651592 -0.24537575 0.33386907 -0.36628264 -0.16482213 -0.09223987 0.050983716 -0.02210084
-0.33784178 -0.24856046 -0.14430071 0.3530471 -0.10562199 0.05675165 -0.32887378 0.11453738
-0.29046446 0.08179535 -0.24450418 0.238054 0.18113303 0.19172257 0.061661143 -0.07248709
0.11132976 0.08661442 0.43280646 -0.12317611 -0.15038767 0.20505333 0.3065234 -0.18859112
-0.29304814 -0.062312827 0.15509208 0.5468629 -0.10937828 0.20282458 -0.059989966 -0.27868155
0.31756634 0.16332483 0.14920639 0.26377308 0.25860935 0.23426864 0.29979864 0.12043934
0.5986501 0.08972711 0.10218226 0.35124597 -0.24747173 0.2756351 -0.20450048 -0.19719687
-0.27287358 0.23482923 -0.1579557 0.24659471 -0.29029194 0.122892395 0.12832192 0.35976517
00000000: 23aa c5bd c843 7bbe e3f0 aa3e 6689 bbbe
00000010: 22c7 28be 42e8 bcbd 4dd4 503d d20c b5bc
00000020: 99f9 acbe a286 7ebe 91c3 13be 97c2 b43e
00000030: 5850 d8bd 6b74 683d 2562 a8be 9392 ea3d
00000040: c2b7 94be 5284 a73d 4e5f 7abe 6ec4 733e
00000050: f07a 393e ec52 443e 6590 7c3d 1d74 94bd
00000060: db00 e43d e762 b13d cf98 dd3e c243 fcbd
00000070: 3aff 19be 80f9 513e a3f0 9c3e 081e 41be
00000080: 680a 96be bc3b 7fbd 75d0 1e3e 35ff 0b3f
00000090: b801 e0bd 3fb1 4f3e 0ab8 75bd 59af 8ebe
000000a0: 0e98 a23e a03e 273e 8fc9 183e 440d 873e
000000b0: 7268 843e 1ee4 6f3e 357f 993e e7a8 f63d
000000c0: 2241 193f d9c2 b73d ef44 d13d 83d6 b33e
000000d0: 3b69 7dbe 0b20 8d3e 9368 51be faed 49be
000000e0: 16b6 8bbe 1377 703e 24bf 21be 5383 7c3e
000000f0: 25a1 94be 02af fb3d d266 033e 2433 b83e

v.net.4.weight f4 [1, 64]
0.07746295 0.11329236 -0.12782563 0.1471619 0.15399384 0.06911943 -0.12602633 -0.11853819
0.117253356 0.1762716 0.1666931 -0.15958557 0.14843315 0.20104823 0.14512503 -0.032249425
0.09721775 -0.13684009 0.12573388 -0.17329215 -0.08007973 -0.17384505 -0.075714566 0.08287342
-0.15276459 -0.1300679 -0.18344902 0.19246233 0.09008366 -0.013905737 -0.23842554 0.084991865
0.13490126 0.09756217 -0.12124321 -0.23717938 0.07530973 -0.11380734 -0.1102847 0.11326525
-0.15893814 -0.041062046 -0.14222383 -0.043175727 -0.066143975 -0.09673488 -0.17102005 -0.05643035
-0.20366567 -0.17076625 -0.08747733 -0.106651284 0.08147978 -0.1102334 0.114105575 0.0973577
0.0934884 -0.09202084 0.102314636 -0.055255912 0.09564882 -0.10157844 -0.11851087 -0.14092596
00000000: e5a4 9e3d d305 e83d b9e4 02be 9cb1 163e
00000010: 90b0 1d3e 7d8e 8d3d 0c0d 01be 27c4 f2bd
00000020: 8722 f03d 8b80 343e 99b1 2a3e 666a 23be
00000030: dcfe 173e 96df 4d3e a89b 143e f917 04bd
00000040: 1a1a c73d cf1f 0cbe 62c0 003e 7f73 31be
00000050: d700 a4bd 7004 32be 3d10 9bbd 8ab9 a93d
00000060: 526e 1cbe 8530 05be 0fda 3bbe d814 453e
00000070: c87d b83d e3d4 63bc d325 74be 3710 ae3d
00000080: 8e23 0a3e adce c73d 5c4e f8bd 27df 72be
00000090: fd3b 9a3d d313 e9bd f2dc e1bd 9df7 e73d
000000a0: aec0 22be ad30 28bd 20a3 11be 08d9 30bd
000000b0: 7e76 87bd f01c c6bd e11f 2fbe 8323 67bd
000000c0: bc8d 50be 59dd 2ebe 5027 b3bd fd6b dabd
000000d0: dfde a63d 0cc2 e1bd 2fb0 e93d 7963 c73d
000000e0: d976 bf3d 6c75 bcbd 568a d13d 0654 62bd
000000f0: 87e3 c33d 5b08 d0bd d4b5 f2bd e54e 10be
