runs/phoenix/DroneHoverBulletEnvWithAdversary-v0/ppo/2023-07-14__13-01-03/seed_43391/torch_save/model.pt (torch, 49538 bytes, 14 tensors)

obs_oms.mean f4 [34]
0.0 0.0 0.0 0.0 0.0 0.0 0.0 0.0
0.0 0.0 0.0 0.0 0.0 0.0 0.0 0.0
0.0 0.0 0.0 0.0 0.0 0.0 0.0 0.0
0.0 0.0 0.0 0.0 0.0 0.0 0.0 0.0
0.0 0.0
00000000: 0000 0000 0000 0000 0000 0000 0000 0000
00000010: 0000 0000 0000 0000 0000 0000 0000 0000
00000020: 0000 0000 0000 0000 0000 0000 0000 0000
00000030: 0000 0000 0000 0000 0000 0000 0000 0000
00000040: 0000 0000 0000 0000 0000 0000 0000 0000
00000050: 0000 0000 0000 0000 0000 0000 0000 0000
00000060: 0000 0000 0000 0000 0000 0000 0000 0000
00000070: 0000 0000 0000 0000 0000 0000 0000 0000
00000080: 0000 0000 0000 0000

obs_oms.std f4 [34]
1.0 1.0 1.0 1.0 1.0 1.0 1.0 1.0
1.0 1.0 1.0 1.0 1.0 1.0 1.0 1.0
1.0 1.0 1.0 1.0 1.0 1.0 1.0 1.0
1.0 1.0 1.0 1.0 1.0 1.0 1.0 1.0
1.0 1.0
00000000: 0000 803f 0000 803f 0000 803f 0000 803f
00000010: 0000 803f 0000 803f 0000 803f 0000 803f
00000020: 0000 803f 0000 803f 0000 803f 0000 803f
00000030: 0000 803f 0000 803f 0000 803f 0000 803f
00000040: 0000 803f 0000 803f 0000 803f 0000 803f
00000050: 0000 803f 0000 803f 0000 803f 0000 803f
00000060: 0000 803f 0000 803f 0000 803f 0000 803f
00000070: 0000 803f 0000 803f 0000 803f 0000 803f
00000080: 0000 803f 0000 803f

pi.log_std f4 [4]
-0.6931472 -0.6931472 -0.6931472 -0.6931472
00000000: 1872 31bf 1872 31bf 1872 31bf 1872 31bf

pi.net.0.weight f4 [50, 34]
-0.15192637 -0.16882458 -0.0552249 -0.0029525752 -0.11309334 -0.16233632 0.1059212 -0.16655374
0.006764074 -0.14389992 0.027634028 0.13863908 -0.08085811 0.13183463 0.16593714 -0.16880795
-0.14936545 0.054592967 0.087635905 -0.09879976 0.16515991 -0.013523895 0.008402331 0.12168367
0.0033624207 0.11597499 -0.055651408 0.042513456 0.012492402 -0.14853796 -0.109258965 0.15193601
-0.11733249 -0.05982123 -0.16116779 0.1484262 0.031008756 -0.054630626 -0.14112496 0.1566072
-0.113432586 0.08395891 -0.020834709 -0.013171989 -0.011124009 -0.049702156 0.15416494 -0.117449775
0.1364271 -0.105408825 -0.11900346 -0.036339916 -0.09470595 0.037657462 -0.08928947 0.16525525
-0.03331 -0.15391193 -0.0056870105 -0.08731884 -0.014505791 -0.038355634 -0.069238044 0.054553144
0.020852925 0.11439439 0.10674706 0.06675474 -0.044906516 -0.12724802 -0.11272626 0.08558106
0.018562067 0.1392978 0.0015296778 -0.167959 0.05377242 -0.13285857 0.15475465 -0.0866159
0.11592305 -0.064918384 0.09147885 0.15349656 -0.08289912 -0.106856294 -0.1222475 0.02308942
-0.13576941 -0.14928176 0.08968378 0.026692184 -0.076314524 0.08373486 -0.026525155 -0.06778918
-0.08279929 0.06321508 -0.11137012 -0.05858926 0.14689524 -0.06369476 -0.03838544 0.04430631
0.13832884 -0.08332949 0.17013557 0.11046626 -0.002813432 -0.065096945 -0.16165295 0.14966238
0.045176584 0.067864604 0.093874805 0.12426153 0.076079644 -0.039500244 0.012282706 0.045632347
0.044350248 0.009561027 0.0024975277 0.08555051 0.08188519 0.0048625767 -0.13261719 0.15382577
-0.1443708 -0.15945691 0.09173969 -0.106101476 -0.12085254 -0.034205765 -0.12878768 -0.05863383
0.09626439 0.1143865 -0.08064553 0.064821295 -0.12213635 0.07435268 -0.078057416 -0.012016563
-0.0887568 -0.159726 -0.007954766 0.057848465 0.15207863 -0.031710975 0.11701548 -0.05862972
0.019285364 0.07243693 -0.06766711 -0.15536241 -0.06442527 0.034741484 -0.013144226 -0.14577222
0.05687982 0.049189497 -0.05256038 -0.03497694 -0.16654143 0.10035955 -0.035185184 0.1335769
0.058403198 -0.15255353 -0.114119865 -0.048443265 -0.03825793 -0.008619796 -0.028643522 0.055861697
0.023845203 -0.048809543 0.1294747 0.09017976 0.057290073 -0.048030537 0.004187754 0.080635376
-0.07772655 0.09298761 -0.06138319 0.10583204 0.005195102 0.1400195 -0.09994228 -0.07083815
0.13950503 0.047552712 0.09964942 0.03533279 -0.16602618 -0.15105413 0.14414355 -0.04742461
0.15569156 -0.061349783 -0.1192862 -0.12541187 -0.04817299 -0.15633681 0.12834406 0.14801112
-0.06731044 -0.02625617 -0.15250652 0.0021066954 -0.12130492 -0.030424215 0.14678076 0.041489877
0.1274594 -0.10287583 -0.06782817 0.16045937 -0.16599594 -0.01877387 0.15162727 0.08362775
-0.10279793 -0.07133922 0.011483725 -0.05515373 0.10708077 -0.14841865 0.016543834 0.16461569
0.09670862 0.024286553 -0.10267584 0.047607627 -0.024762698 -0.07868307 0.05297407 0.03551041
-0.061364666 -0.034560308 0.09497285 -0.16497073 0.063115574 0.11905714 0.014148323 -0.0636261
0.05851611 0.06996823 0.16952553 -0.0074982257 0.09083814 -0.023306906 -0.050765358 -0.108500786
00000000: 9692 1bbe 5ae0 2cbe 8133 62bd fe7f 41bb
00000010: 7b9d e7bd 7e3b 26be 37ed d83d 108d 2abe
00000020: 2aa5 dd3b 805a 13be c260 e23c 67f7 0d3e
00000030: f098 a5bd a8ff 063e 6deb 293e fedb 2cbe
00000040: 42f3 18be e09c 5f3d 747a b33d 8757 cabd
00000050: ae1f 293e 5493 5dbc eea9 093c 4a35 f93d
00000060: 0f5c 5c3b 4c84 ed3d bbf2 63bd 9722 2e3d
00000070: efac 4c3c 561a 18be 2ac3 dfbd 1d95 1b3e
00000080: 044c f0bd 1b07 75bd 2b09 25be 0afd 173e
00000090: 1306 fe3c 5dc4 5fbd 1083 10be a35d 203e
000000a0: 584f e8bd a6f2 ab3d 8dad aabc 53cf 57bc
000000b0: 7a41 36bc 7d94 4bbd 6add 1d3e 8289 f0bd
000000c0: 8cb3 0b3e 95e0 d7bd 16b8 f3bd 2ad9 14bd
000000d0: 31f5 c1bd b63e 1a3d 66dd b6bd ac38 293e
000000e0: 1170 08bd 179b 1dbe 1a5a babb 38d4 b2bd
000000f0: b2a9 6dbc cc1a 1dbd adcc 8dbd 1e73 5f3d
00000100: c1d3 aa3c 9b47 ea3d 349e da3d b6b6 883d
00000110: e5ef 37bd 4e4d 02be 07dd e6bd 1f45 af3d
00000120: 7a0f 983c 15a4 0e3e 787f c83a 72fd 2bbe
00000130: 7840 5c3d 140c 08be 0178 1e3e ad63 b1bd
00000140: 1069 ed3d eef3 84bd 4359 bb3d 342e 1d3e
00000150: 04c7 a9bd 79d7 dabd e65c fabd 0626 bd3c
00000160: 2307 0bbe 51dd 18be 21ac b73d 91a9 da3c
00000170: ca4a 9cbd 2f7d ab3d 484b d9bc 0ed5 8abd
00000180: ad92 a9bd e876 813d 0416 e4bd 4bfb 6fbd
00000190: b56b 163e 6672 82bd 0d3a 1dbd 897a 353d
000001a0: 13a6 0d3e a7a8 aabd 0538 2e3e 223c e23d
000001b0: 8e61 38bb 8c51 85bd 5a88 25be 1841 193e
000001c0: 150b 393d 99fc 8a3d 6f41 c03d d47c fe3d
000001d0: a5cf 9b3d 02cb 21bd 673d 493c fce8 3a3d
000001e0: 9ba8 353d dba5 1c3c 90ad 233b 1b35 af3d
000001f0: 6cb3 a73d 4056 9f3b cdcc 07be 8184 1d3e
00000200: f0d5 13be ac48 23be 05e2 bb3d bb4b d9bd
00000210: 8981 f7bd 581b 0cbd ebe0 03be 072a 70bd
00000220: 4426 c53d 7843 ea3d 7c29 a5bd 07c1 843d
00000230: 9f22 fabd 3846 983d 91dc 9fbd 1ee1 44bc
00000240: 20c6 b5bd 368f 23be b554 02bc 83f2 6c3d
00000250: 80ba 1b3e 5ee3 01bd d0a5 ef3d b825 70bd
00000260: 57fc 9d3c d059 943d 0e95 8abd 5317 1fbe
00000270: 65f1 83bd 164d 0e3d e15a 57bc 5045 15be
00000280: d0fa 683d ed7a 493d 8e49 57bd fb43 0fbd
00000290: d689 2abe 4f89 cd3d 571e 10bd 62c8 083e
000002a0: 3138 6f3d fe36 1cbe adb7 e9bd 726c 46bd
000002b0: 59b4 1cbd 0b3a 0dbc d2a5 eabc 3ccf 643d
000002c0: 0457 c33c 84ec 47bd 0495 043e 2ab0 b83d
000002d0: ffa8 6a3d abbb 44bd 6d39 893b 2924 a53d
000002e0: 192f 9fbd 4a70 be3d f16c 7bbd 78be d83d
000002f0: ad3b aa3b 4661 0f3e 8aae ccbd 9813 91bd
00000300: 68da 0e3e a2c6 423d ff14 cc3d 1eb9 103d
00000310: c402 2abe efad 1abe 5e9a 133e 4f40 42bd
00000320: 9c6d 1f3e e949 7bbd 534c f4bd f86b 00be
00000330: 0b51 45bd c216 20be a06c 033e 3a90 173e
00000340: 0eda 89bd 2e17 d7bc ab2a 1cbe 7c10 0a3b
00000350: b76e f8bd 343c f9bc b24d 163e 4af1 293d
00000360: b884 023e 90b0 d2bd 7fe9 8abd 764f 243e
00000370: d7fa 29be a9cb 99bc 2e44 1b3e 0745 ab3d
00000380: b987 d2bd 4c1a 92bd 3c26 3c3c e1e8 61bd
00000390: 2a4d db3d 0ffb 17be ef86 873c 0491 283e
000003a0: 2b0f c63d 98f4 c63c b647 d2bd 3700 433d
000003b0: 24db cabc 9724 a1bd 57fb 583d 5d73 113d
000003c0: 8459 7bbd 1c8f 0dbd 2081 c23d 16ee 28be
000003d0: bd42 813d 3bd4 f33d 5ece 673c 674e 82bd
000003e0: 97ae 6f3d 814b 8f3d 1a98 2d3e adb3 f5bb
000003f0: 5909 ba3d 20ee bebc 56ef 4fbd a935 debd

pi.net.0.bias f4 [50]
-0.118652575 -0.004377763 -0.16898504 0.11103127 -0.02199733 -0.14916664 0.044311896 0.17060198
-0.13664371 -0.06806128 0.019484859 -0.15514918 0.066015095 -0.07131677 -0.033162124 0.083067864
0.15767145 0.110554285 -0.11475415 0.13497761 -0.16012818 -0.05963938 -0.05031201 0.15177228
0.12638378 0.014969424 -0.1099151 0.09243418 -0.038564615 -0.1258553 -0.05276045 -0.013628978
0.15633565 -0.12612201 -0.031434692 0.119220085 -0.03685971 -0.067756265 0.040936187 0.0627413
0.1562341 0.049257763 -0.13984855 -0.02665565 0.0154265165 0.031779993 -0.083965346 -0.06908484
0.119886525 -0.10168258
00000000: 1f00 f3bd 5673 8fbb 6a0a 2dbe 5d64 e33d
00000010: bf33 b4bc 24bf 18be 6480 353d 49b2 2e3e
00000020: 54ec 0bbe b663 8bbd b69e 9f3c 6ddf 1ebe
00000030: ec32 873d 870e 92bd 02d5 07bd 7c1f aa3d
00000040: a074 213e 496a e23d 3904 ebbd 9237 0a3e
00000050: a4f8 23be 6c48 74bd f713 4ebd 316a 1b3e
00000060: c06a 013e 5142 753c 2b1b e1bd 224e bd3d
00000070: eef5 1dbd 36e0 00be 571b 58bd 144c 5fbc
00000080: 7416 203e 2126 01be aac1 00bd a929 f43d
00000090: 35fa 16bd ccc3 8abd b4ac 273d 837e 803d
000000a0: d5fb 1f3e 82c2 493d 7534 0fbe f35c dabc
000000b0: 80bf 7c3c bd2b 023d 06f6 abbd 5a7c 8dbd
000000c0: 1187 f53d f53e d0bd

pi.net.2.weight f4 [50, 50]
0.040943507 -0.09454105 0.13242543 -0.029488178 -0.11756798 0.0044558495 -0.10565517 -0.06483961
0.012729174 -0.014943099 -0.04120718 -0.11185896 0.13354857 0.013567138 0.09051122 -0.020112224
0.07322364 -0.07151501 0.13761497 0.05015588 0.06359803 0.100671865 -0.0032753667 0.040766206
-0.13380517 -0.02429149 0.05460686 -0.034069475 0.044254784 0.054914463 -0.022872018 0.09304534
-0.10006564 0.06669594 -0.0424978 0.095930785 0.056509096 0.031496882 -0.025057787 -0.10351949
0.07821646 -0.06942818 -0.03273831 -0.09459228 0.038654547 0.097344436 0.013443058 0.095830135
-0.08766599 0.09082321 0.021066396 -0.0812229 0.018329125 -0.07581856 -0.004973362 -0.0059391656
0.068758644 -0.07788296 -0.07469518 0.081320256 -0.12275188 0.04702007 0.12952907 -0.10549697
-0.12093196 0.005441917 -0.13514686 -0.06824986 0.05223234 0.06693075 0.103309214 -0.0064460402
-0.010730875 0.082730085 -0.12355248 0.09325512 -0.066367395 0.111719 0.09262222 0.06710099
0.11353802 -0.0075388746 0.10443583 0.06547024 0.03845465 0.10550402 -0.027413879 -0.0006476622
-4.481053e-05 0.05873897 0.09211634 0.124190986 0.047254056 0.040384844 0.004523065 0.080394946
0.06340048 0.077330165 0.11076376 -0.07168016 0.026050614 -0.047800936 -0.13063383 -0.13154252
0.09444568 -0.041315798 0.103575245 -0.100992836 0.10712706 -0.033257876 -0.03153279 0.14037555
0.006789689 0.090626165 0.061723404 0.04817911 0.09611496 -0.07484271 -0.046260923 0.0977254
-0.12727803 -0.11975233 -0.022280933 0.14034034 -0.030801222 0.0704962 -0.091280706 0.09357174
-0.015472462 -0.12864208 -0.11388956 0.00031541017 0.0058426326 -0.0045185303 0.11144772 0.036641646
-0.0061281016 0.14094293 -0.033844393 -0.004180327 -0.13442604 0.041181788 0.059250597 0.11271862
0.007981889 0.09455658 -0.060710195 -0.08023553 0.038952287 0.12032682 0.098947234 -0.067686476
-0.134057 0.005399905 0.050033253 0.1241844 0.047092058 0.10709114 0.10397672 0.13943277
0.01486806 0.04638269 -0.053686943 -0.13801524 0.05141425 0.04885818 -0.1283579 0.06589884
0.08423689 0.01949639 -0.11765922 -0.09757786 0.053246155 -0.084858246 0.11512215 -0.14033253
0.12908317 0.13462538 -0.107675664 0.10380918 -0.064563446 0.066462904 0.12741227 -0.029446522
0.015100424 0.07860527 -0.089653686 0.1246351 -0.10862756 -0.03257569 -0.104794465 0.07598549
-0.13344347 0.10441884 0.09320018 -0.12167811 0.13684179 -0.069345966 -0.11023885 0.027209012
-0.13823473 -0.12991126 -0.089658625 0.037699126 0.11466914 0.09107804 0.007052348 -0.105980635
-0.029707225 -0.1394261 -0.088281736 0.016834868 -0.09350103 0.11518586 0.0073936195 -0.0052456474
-0.04047814 0.062436834 -0.12369372 -0.13656068 0.025978947 0.03425512 0.08861854 0.048258938
-0.11872653 -0.13559058 -0.01971215 -0.01595147 -0.12274404 0.01607818 -0.06064404 -0.0217762
-0.061064716 0.13219644 -0.10152089 -0.025020072 -0.068856105 0.10301312 -0.10049232 -0.053791232
-7.945524e-05 -0.00015150949 0.08473813 -0.037934173 -0.02673228 0.033209138 0.0029547976 -0.120350145
0.11135372 -0.053163968 0.06352928 0.116556875 -0.036536667 -0.11633898 -0.02070948 0.035550583
00000000: 61b4 273d bd9e c1bd 889a 073e 3191 f1bc
00000010: 7bc7 f0bd 6002 923b bd61 d8bd a1ca 84bd
00000020: 078e 503c e6d3 74bc dcc8 28bd 4f16 e5bd
00000030: f5c0 083e b448 5e3c f25d b93d 64c2 a4bc
00000040: 47f6 953d 7676 92bd f0ea 0c3e 4170 4d3d
00000050: af3f 823d 0d2d ce3d 89a7 56bb 77fa 263d
00000060: 3904 09be f2fe c6bc 71ab 5f3d 6f8c 0bbd
00000070: 8144 353d fded 603d 195e bbbc 8e8e be3d
00000080: 37ef ccbd e297 883d 2c12 2ebd 5c77 c43d
00000090: 1576 673d e002 013d fd45 cdbc 0702 d4bd
000000a0: f42f a03d 5d30 8ebd 9b18 06bd 99b9 c1bd
000000b0: 3b54 1e3d 855c c73d 4640 5c3c 9742 c43d
000000c0: 3a8a b3bd 8501 ba3d 6f93 ac3c 3158 a6bd
000000d0: f626 963c c346 9bbd 96f7 a2bb 559d c2bb
000000e0: 55d1 8c3d 1a81 9fbd c9f9 98bd 3c8b a63d
000000f0: 5665 fbbd 1e98 403d 45a3 043e cc0e d8bd
00000100: 2dab f7bd 1c52 b23b f063 0abe 95c6 8bbd
00000110: 94f1 553d fd12 893d c893 d33d 4e39 d3bb
00000120: 8dd0 2fbc 646e a93d 1509 fdbd 8afc be3d
00000130: a1eb 87bd eecc e43d b8b0 bd3d 3e6c 893d
00000140: 9f86 e83d aa08 f7bb 74e2 d53d 4315 863d
00000150: a082 1d3d 7e12 d83d 1293 e0bc e0c7 29ba
00000160: f1f2 3bb8 4698 703d 7ea7 bc3d d857 fe3d
00000170: 788d 413d 946a 253d 3836 943b 1ba6 a43d
00000180: 1cd8 813d 475f 9e3d 1cd8 e23d 0ccd 92bd
00000190: 1968 d53c eaca 43bd e0c4 05be 15b3 06be
000001a0: bd6c c13d c13a 29bd 421f d43d 55d5 cebd
000001b0: 6f65 db3d 6939 08bd 8728 01bd 9cbe 0f3e
000001c0: 0a7c de3b 369a b93d aed1 7c3d 7557 453d
000001d0: ecd7 c43d 2247 99bd 187c 3dbd 4124 c83d
000001e0: 2c55 02be b640 f5bd 8186 b6bc 61b5 0f3e
000001f0: d852 fcbc 5060 903d 61f1 babd 8aa2 bf3d
00000200: 3680 7dbc c0ba 03be ee3e e9bd a35d a539
00000210: 8e73 bf3b 2e10 94bb b43e e43d 8d15 163d
00000220: 3ece c8bb 5853 103e 6ba0 0abd 20fb 88bb
00000230: fba6 09be 3cae 283d c1b0 723d 05d9 e63d
00000240: 78c6 023c e1a6 c13d 41ab 78bd 8752 a4bd
00000250: 6f8c 1f3d e86d f63d d9a4 ca3d 359f 8abd
00000260: 3d46 09be b0f1 b03b abef 4c3d 6454 fe3d
00000270: 9ae3 403d 9952 db3d bff1 d43d 77c7 0e3e
00000280: 2a99 733c c7fb 3d3d d7e6 5bbd de53 0dbe
00000290: c097 523d 841f 483d 4170 03be f9f5 863d
000002a0: 6484 ac3d e5b6 9f3c 51f7 f0bd e7d6 c7bd
000002b0: a418 5a3d 29ca adbd 29c5 eb3d 55b3 0fbe
000002c0: 612e 043e 3cdb 093e 0f85 dcbd e899 d43d
000002d0: d739 84bd b41d 883d 5d78 023e d539 f1bc
000002e0: c567 773c cdfb a03d 5a9c b7bd b040 ff3d
000002f0: 2078 debd 166e 05bd 7b9e d6bd 489e 9b3d
00000300: 68a5 08be 8bd9 d53d bcdf be3d 5f32 f9bd
00000310: 4120 0c3e 4205 8ebd e8c4 e1bd 6fe5 de3c
00000320: 688d 0dbe 7507 05be f19e b7bd 666a 1a3d
00000330: a7d7 ea3d 2087 ba3d 6217 e73b 600c d9bd
00000340: 915c f3bc b7c5 0ebe 0ecd b4bd 47e9 893c
00000350: 787d bfbd 90e6 eb3d 2d46 f23b aee3 abbb
00000360: 68cc 25bd c4bd 7f3d 2253 fdbd 90d6 0bbe
00000370: cdd1 d43c 194f 0c3d a37d b53d 2aab 453d
00000380: e526 f3bd 42d8 0abe 607b a1bc a8ac 82bc
00000390: 3a61 fbbd 63b6 833c e365 78bd 0064 b2bc
000003a0: ff1e 7abd 815e 073e 2fea cfbd e5f6 ccbc
000003b0: 6e04 8dbd 8bf8 d23d ebce cdbd 3254 5cbd
000003c0: 35a1 a6b8 85de 1eb9 2f8b ad3d dd60 1bbd
000003d0: a8fd dabc 4e06 083d 47a5 413b 237a f6bd
000003e0: 6b0d e43d 76c2 59bd a41b 823d 5fb5 ee3d
000003f0: 79a7 15bd 2243 eebd eda6 a9bc 7d9d 113d

pi.net.2.bias f4 [50]
-0.037966404 -0.052599777 -0.132744 0.044855796 0.0800473 0.13374074 -0.045654498 -0.029757194
0.03196424 0.014925683 0.06564254 0.086944334 0.05263437 -0.08639951 -0.031168506 0.034448
0.13039917 0.045369077 -0.013486554 0.002771105 -0.09619074 -0.0497611 -0.13319378 0.0028749378
-0.016349455 0.07116313 -0.03916582 -0.07778916 0.14075473 -0.048438516 -0.045846805 -0.13994119
-0.12181318 -0.008417805 -0.0573941 0.020146498 -0.0029874868 -0.086972184 -0.003336294 -0.048878193
0.13617988 -0.13237898 -0.08083909 0.002123898 -0.0023088045 -0.107069775 -0.082610674 0.13543722
-0.030718327 -0.09176349
00000000: a982 1bbd dd72 57bd 0bee 07be b6ba 373d
00000010: d7ef a33d 55f3 083e 3600 3bbd 5cc5 f3bc
00000020: efec 023d da8a 743c 996f 863d df0f b23d
00000030: 2397 573d 3af2 b0bd 1855 ffbc 5919 0d3d
00000040: 5c87 053e edd4 393d b5f6 5cbc 6d9b 353b
00000050: a7ff c4bd 4cd2 4bbd f363 08be 7469 3c3b
00000060: 4bef 85bc fabd 913d 576c 20bd ec4f 9fbd
00000070: 0222 103e 7767 46bd dcc9 3bbd be4c 0fbe
00000080: 3079 f9bd d5ea 09bc 1316 6bbd 450a a53c
00000090: b6c9 43bb 791e b2bd baa5 5abb 8034 48bd
000000a0: bd72 0b3e 5b8e 07be f78e a5bd 1831 0b3b
000000b0: 504f 17bb 6647 dbbd c92f a9bd 0eb0 0a3e
000000c0: 00a5 fbbc 7fee bbbd

pi.net.4.weight f4 [4, 50]
-0.013491746 -0.0874432 -0.09382489 0.04040261 0.079254135 -0.056891117 -0.04072323 -0.028526269
0.054975256 -0.13488413 0.0057006986 0.089518815 -0.029950766 0.0010292935 0.10105702 -0.05130135
-0.061187804 0.07744145 0.11894052 0.027515251 -0.09064314 0.026300006 -0.090460256 0.1400899
-0.03614472 0.0035990207 -0.042083092 -0.053031746 -0.116622426 0.10184378 0.13116108 -0.021605369
-0.09149173 -0.034412026 0.12581195 0.13294517 0.0868304 -0.06249525 -0.048253726 0.074929096
-0.1269303 -0.103615455 0.006357178 -0.028393894 0.073713794 -0.047377728 0.07281362 0.107843004
-0.0007450889 0.12563671 -0.013760626 0.07973855 -0.016074928 -0.13855441 -0.07130497 -0.080674216
0.013809348 -0.10938937 -0.07321029 -0.1411419 0.041029286 0.11644654 -0.041361757 0.13123333
-0.0545625 -0.110267155 0.010034677 0.09697395 -0.1036271 0.116734415 0.10261968 -0.1388064
0.12747929 -0.098082416 -0.041152015 -0.0052065523 -0.007962063 0.08667849 -0.104405135 -0.08157088
-0.031317674 0.02385908 0.021193106 -0.12415599 -0.05878914 -0.083865486 0.083572514 0.11432937
-0.10939401 0.08731492 0.123121366 0.12048336 -0.12003637 0.09130938 -0.061198257 -0.096289724
-0.03382354 -0.08431852 -0.09892847 -0.0027499134 0.037538093 0.1139113 -0.13459708 0.09560445
0.09216865 -0.055668354 0.1251999 0.058919713 0.059910215 0.07151809 0.09132494 -0.048965875
0.017035842 -0.124025315 0.04800459 -0.063503556 -0.10713601 -0.12060767 -0.124446385 0.09265382
-0.10288319 0.13039535 -0.11100081 0.08779157 0.075873636 0.02207057 -0.10003875 -0.079727896
-0.059864677 0.08604288 0.086201 -0.108620964 -0.056399886 -0.021221597 0.05732071 -0.05481427
-0.13411844 0.012895099 0.07836475 0.08392423 0.09788795 -0.021074537 -0.010856118 -0.11077583
-0.06317347 -0.10129896 -0.034382306 0.01517081 0.0053151054 -0.04826509 0.13402618 -0.043095544
0.04010204 0.001662727 -0.04129724 0.07935092 -0.10372753 0.059690155 0.080899276 0.082705945
0.039258055 -0.031980492 -0.1302905 -0.04042652 -0.074957654 0.07567947 -0.009457298 0.06778822
-0.09472265 0.048208345 0.06616383 0.039457105 0.04670574 -0.026336944 0.00922168 -0.111346364
0.1401949 -0.14060967 -0.10489693 0.08283375 0.123303406 0.10298588 -0.066612594 0.045897312
-0.033192534 0.117064916 0.023585428 0.108830296 -0.0007084717 0.12525046 0.13004035 -0.06554948
0.08334149 -0.075437285 -0.13291636 0.07295976 -0.081962086 -0.110930964 0.013356134 0.06620191
00000000: 7c0c 5dbc 6c15 b3bd 4427 c0bd 357d 253d
00000010: fe4f a23d a906 69bd 67cd 26bd ecaf e9bc
00000020: bc2d 613d 111f 0abe edcc ba3b a455 b73d
00000030: 4f5b f5bc 5ce9 863a fcf6 ce3d 5d21 52bd
00000040: 10a0 7abd 9f99 9e3d 1697 f33d aa67 e13c
00000050: 1ca3 b9bd 1c73 d73c 3a43 b9bd ba73 0f3e
00000060: 7c0c 14bd 8cdd 6b3b 525f 2cbd d137 59bd
00000070: bdd7 eebd 7993 d03d 174f 063e befd b0bc
00000080: 0460 bbbd a0f3 0cbd d9d4 003e c722 083e
00000090: 23d4 b13d 05fb 7fbd b3a5 45bd 6d74 993d
000000a0: 04fa 01be 5734 d4bd e04f d03b 509a e8bc
000000b0: 42f7 963d 260f 42bd 4f1f 953d cbdc dc3d
000000c0: 1252 43ba e9a6 003e 4074 61bc f74d a33d
000000d0: 91af 83bc 35e1 0dbe 5708 92bd 8638 a5bd
000000e0: 9b40 623c 8907 e0bd 47ef 95bd 8187 10be
000000f0: 530e 283d 867b ee3d f26a 29bd 0862 063e
00000100: ee7c 5fbd bfd3 e1bd 7c68 243c 479a c63d
00000110: 723a d4bd 7412 ef3d 442a d23d 4423 0ebe
00000120: ee89 023e 6fdf c8bd 048f 28bd ba9b aabb
00000130: 5073 02bc 7e84 b13d 5cd2 d5bd a20e a7bd
00000140: f646 00bd 1e74 c33c 2a9d ad3c 7f45 febd
00000150: e2cc 70bd abc1 abbd 1128 ab3d 8425 ea3d
00000160: f709 e0bd 2ad2 b23d 0e27 fc3d fbbf f63d
00000170: a1d5 f5bd 6a00 bb3d 06ab 7abd 8c33 c5bd
00000180: 8d8a 0abd 30af acbd 029b cabd e437 34bb
00000190: 8bc1 193d 544a e93d d1d3 09be 44cc c33d
000001a0: ebc2 bc3d 8004 64bd 6734 003e cc55 713d
000001b0: 6a64 753d 1478 923d 9208 bb3d 7190 48bd
000001c0: c08e 8b3c fc00 febd 76a0 443d 270e 82bd
000001d0: 206a dbbd 2701 f7bd bfdd febd 49c1 bd3d
000001e0: 6cb4 d2bd 5c86 053e 6554 e3bd 11cc b33d
000001f0: a363 9b3d 57cd b43c 1ee1 ccbd 6148 a3bd
00000200: aa34 75bd 4037 b03d 268a b03d ab74 debd
00000210: 9103 67bd ead8 adbc 1fc9 6a3d ee84 60bd
00000220: 5856 09be f745 533c b37d a03d 77e0 ab3d
00000230: 7a79 c83d 82a4 acbc dcdd 31bc 70de e2bd
00000240: 1861 81bd d475 cfbd 76d4 0cbd fd8e 783c
00000250: 562a ae3b 9db1 45bd 293e 093e f484 30bd
00000260: 0942 243d dcef d93a 4b27 29bd bc82 a23d
00000270: 196f d4bd aa7d 743d 85ae a53d bc61 a93d
00000280: 0ecd 203d fafd 02bd df6a 05be 4796 25bd
00000290: 6683 99bd d7fd 9a3d c8f2 1abc 8dd4 8a3d
000002a0: f3fd c1bd 1d76 453d e780 873d c69d 213d
000002b0: 854e 3f3d 93c0 d7bc 8816 173c 9009 e4bd
000002c0: 408f 0f3e fbfb 0fbe 34d4 d6bd bea4 a93d
000002d0: 7f86 fc3d 43ea d23d 2f6c 88bd d2fe 3b3d
000002e0: e5f4 07bd bbbf ef3d 3a36 c13c 6be2 de3d
000002f0: bbb8 39ba a841 003e 4c29 053e ce3e 86bd
00000300: f1ae aa3d dd7e 9abd 3a1b 08be ed6b 953d
00000310: bddb a7bd c62f e3bd b0d3 5a3c de94 873d

pi.net.4.bias f4 [4]
0.018368019 0.10172896 0.11068313 -0.098429926
00000000: 8778 963c 4657 d03d d6ad e23d a195 c9bd

v.net.0.weight f4 [64, 34]
-0.06346756 0.10365661 -0.114795506 0.005187763 0.093767926 -0.0049400195 -0.095943436 -0.05412218
0.0748765 -0.14506625 -0.05344895 -0.1198551 0.122218415 0.015942937 -0.030292984 -0.014000225
0.12704045 0.13897435 0.1563795 0.011097799 -0.06503819 0.057570424 -0.024285264 0.06508916
-0.09928645 0.08359868 0.059709013 -0.08173762 0.12600648 0.009874274 0.1669625 -0.1563235
0.14512166 0.15302536 0.12330188 0.1458947 -0.0012098892 0.047949493 0.07589908 -0.019392572
0.068723544 -0.049241714 -0.13864084 0.02764697 0.05093748 0.01472898 -0.01488409 -0.056989707
-0.009247781 0.0088460315 -0.0684912 -0.03490661 0.09674436 0.004653453 0.1523911 0.049812127
0.09265482 -0.041807886 0.07023619 0.117387585 -0.14933367 -0.09827649 -0.073714145 0.04132195
-0.15895963 -0.014867101 -0.080670334 0.12617022 -0.11934539 0.036037177 -0.15235518 0.0016852174
-0.039640043 0.056893494 0.120581076 0.060386535 -0.067883104 -0.07066385 -0.11724683 0.12602703
0.108351134 0.084704936 0.053860307 -0.14304283 0.023480846 0.12998475 -0.085924536 -0.026127126
-0.065227665 0.033969592 0.15628257 0.022962932 0.041120775 0.03823755 -0.015138846 -0.116384
0.07700239 0.10076535 0.1357218 0.15309887 -0.077144705 0.17074865 0.023655767 0.08847972
0.1322838 0.0070154765 -0.016005313 -0.0395912 -0.08650941 0.13717751 0.10583883 0.12423894
0.15845405 0.14616394 -0.00035010735 0.10932326 0.054884218 -0.17051719 0.09682589 0.03731899
0.16142079 -0.050401084 0.13984028 0.12331195 0.037288323 0.1557418 0.06184715 0.040860236
0.113978945 -0.0342295 -0.01396866 0.14565524 0.11904913 0.024804078 0.068938166 0.016637797
0.009451549 -0.0020219134 0.13259268 -0.011820114 -0.12951985 0.07528721 -0.07956113 0.057407115
-0.10869748 0.14368285 -0.16777192 0.011359895 -0.16452992 0.1462093 -0.12015189 -0.020062346
0.04316755 0.049995042 -0.04499596 -0.15198885 0.017750923 -0.13741817 -0.05689691 0.052909262
-0.034131672 -0.07555676 -0.16665328 0.11102101 0.018100211 0.08996055 -0.031433914 0.0707813
0.04614656 -0.08124197 0.020928323 -0.033673864 0.07265448 -0.041633703 0.10636069 0.15847218
-0.11595733 -0.1411289 0.07733032 -0.14109066 -0.10883364 0.0033797165 -0.04148041 0.10733089
0.06048221 -0.014821879 -0.01936614 -0.09101202 -0.13016734 0.101869315 -0.09566523 0.098976806
0.10020591 -0.017447878 -0.11484063 -0.07666359 0.15960875 0.01981865 0.03557019 0.1362227
0.071903564 -0.09914151 0.13526954 0.040922694 -0.08401525 0.12394483 0.09587971 -0.055906408
-0.123520605 -0.0007089035 0.047477704 0.13493226 -0.03280431 -0.09521088 -0.07887948 -0.07044632
-0.057829104 -0.16462581 0.12300357 0.10958511 0.078472026 -0.14035524 -0.002742511 -0.09739017
-0.16366053 -0.1221938 0.042709578 0.17127824 -0.086280555 0.11048167 -0.07778616 0.10812236
-0.08299727 -0.08728155 -0.018455 -0.13845317 -0.014499391 0.07744061 -0.14561957 -0.017467095
0.069041185 -0.01722246 -0.061302334 0.13838586 -0.12292204 -0.081858836 -0.060145415 0.114061415
0.13004436 0.0197602 -0.08216801 0.01557163 -0.17042647 0.15211709 -0.14471923 -0.11653185
00000000: 48fb 81bd eb49 d43d e819 ebbd 1cfe a93b
00000010: 6609 c03d e3df a1bb fe7d c4bd 38af 5dbd
00000020: da58 993d 3f8c 14be 49ed 5abd 9776 f5bd
00000030: a64d fa3d c39a 823c fe28 f8bc 3361 65bc
00000040: e416 023e 4b4f 0e3e f321 203e 8bd3 353c
00000050: be32 85bd f7ce 6b3d e4f1 c6bc 774d 853d
00000060: b256 cbbd c935 ab3d 7091 743d 0e66 a7bd
00000070: d807 013e b5c7 213c 38f8 2a3e 4513 20be
00000080: c69a 143e aeb2 1c3e b285 fc3d 6c65 153e
00000090: 2595 9eba b066 443d fa70 9b3d 2cdd 9ebc
000000a0: eebe 8c3d aeb1 49bd ddf7 0dbe e67b e23c
000000b0: d2a3 503d d251 713c 66dc 73bc 0a6e 69bd
000000c0: 0184 17bc f2ee 103c 1d45 8cbd 3cfa 0ebd
000000d0: e821 c63d fe7b 983b 6a0c 1c3e cd07 4c3d
000000e0: cfc1 bd3d bf3e 2bbd fed7 8f3d e768 f03d
000000f0: edea 18be 2f45 c9bd 71f7 96bd 3441 293d
00000100: 50c6 22be 2495 73bc 7d36 a5bd c432 013e
00000110: 5b6b f4bd b89b 133d ff02 1cbe 83e2 dc3a
00000120: 995d 22bd 2709 693d 36f3 f63d df57 773d
00000130: 4c06 8bbd 35b8 90bd 1b1f f0bd 3b0d 013e
00000140: 33e7 dd3d c879 ad3d a09c 5c3d d279 12be
00000150: e75a c03c b91a 053e 34f9 afbd 8e08 d6bc
00000160: 1596 85bd b323 0b3d 8a08 203e c21c bc3c
00000170: 426e 283d fa9e 1c3d ec08 78bc bc5a eebd
00000180: 6eb3 9d3d 105e ce3d a8fa 0a3e f3c5 1c3e
00000190: 0bfe 9dbd bcd8 2e3e bdc9 c13c db34 b53d
000001a0: 6875 073e 15e2 e53b 931d 83bc 622a 22bd
000001b0: d82b b1bd 4378 0c3e 07c2 d83d fc70 fe3d
000001c0: c741 223e 00ac 153e 9d8e b7b9 e0e4 df3d
000001d0: 46ce 603d 0f9c 2ebe a74c c63d ccdb 183d
000001e0: 7e4b 253e 5e71 4ebd 4a32 0f3e fa8a fc3d
000001f0: a4bb 183d c77a 1f3e 7053 7d3d 105d 273d
00000200: cb6d e93d 3b34 0cbd cedc 64bc a626 153e
00000210: 08d0 f33d ec31 cb3c 742f 8d3d fd4b 883c
00000220: abda 1a3c 1482 04bb 60c6 073e 27a9 41bc
00000230: daa0 04be 2e30 9a3d f2f0 a2bd b923 6b3d
00000240: c99c debd 9921 133e 67cc 2bbe da1e 3a3c
00000250: 887a 28be e4b7 153e 3212 f6bd ca59 a4bc
00000260: 75d0 303d 9ac7 4c3d af4d 38bd f7a2 1bbe
00000270: 626a 913c 59b7 0cbe bc0c 69bd 62b7 583d
00000280: a7cd 0bbd 81bd 9abd 28a7 2abe fc5e e33d
00000290: e546 943c 3d3d b83d d9c0 00bd c9f5 903d
000002a0: 2d04 3d3d 3162 a6bd e071 ab3c 9bed 09bd
000002b0: dfcb 943d 1a88 2abd a2d3 d93d 8846 223e
000002c0: 097b edbd 1884 10be 5c5f 9e3d 127a 10be
000002d0: 2ce4 debd 3c7e 5d3b 5de7 29bd 4cd0 db3d
000002e0: 32bc 773d 77d7 72bc bda5 9ebc 8364 babd
000002f0: 964a 05be dca0 d03d 22ec c3bd 5ab4 ca3d
00000300: c238 cd3d daee 8ebc 9031 ebbd cd01 9dbd
00000310: 7a70 233e b95a a23c 0cb2 113d f77d 0b3e
00000320: 2d42 933d b40a cbbd 1984 0a3e 8e9e 273d
00000330: 3010 acbd c9d6 fd3d 955c c43d 1efe 64bd
00000340: 5ff8 fcbd b5d5 39ba fb77 423d af2b 0a3e
00000350: d05d 06bd ecfd c2bd 918b a1bd 2946 90bd
00000360: 36de 6cbd ab93 28be 4ce9 fb3d 286e e03d
00000370: f1b5 a03d 49b9 0fbe b3bb 33bb 7f74 c7bd
00000380: a096 27be be40 fabd 3df0 2e3d 9063 2f3e
00000390: dcb3 b0bd 3744 e23d 5a4e 9fbd 426f dd3d
000003a0: 79fa a9bd abc0 b2bd f12e 97bc abc6 0dbe
000003b0: db8e 6dbc 2f99 9e3d 4c1d 15be 2717 8fbc
000003c0: 7765 8d3d 1e16 8dbc 2818 7bbd 06b5 0d3e
000003d0: 8dbe fbbd 9ba5 a7bd 0a5b 76bd 0899 e93d
000003e0: 592a 053e 25e0 a13c b447 a8bd 2620 7f3c
000003f0: 4784 2ebe 95c4 1b3e 4731 14be 40a8 eebd

v.net.0.bias f4 [64]
0.0098847 0.06731964 -0.04922593 -0.16511807 -0.095584884 0.10411644 0.044921543 -0.15835129
0.06392142 0.15741682 -0.09747203 0.15413812 0.0066574165 0.08818855 0.13659361 0.1705655
0.02292877 -0.13142236 0.0905792 -0.051605698 -0.14786911 -0.118235245 0.033768483 -0.057799663
-0.15495041 -0.078871444 0.127538 0.13509636 -0.06138689 0.07556899 -0.05309631 -0.14411654
-0.062688105 0.07073485 -0.16340277 0.15307707 0.14295682 0.07321367 0.13200057 -0.10946218
0.066485785 0.10587064 -0.04030456 0.10024586 -0.12255552 0.14487174 0.11527138 -0.09653826
0.045213383 -0.06425063 -0.086367935 0.02771742 -0.09994124 -0.14939727 0.16012268 0.034693215
-0.058553915 -0.057037074 0.070583805 -0.14253981 0.17135331 -0.09523065 0.0367157 0.10158105
00000000: 70f3 213c e1de 893d 21a1 49bd b614 29be
00000010: 02c2 c3bd 003b d53d a7ff 373d d726 22be
00000020: 3ce9 823d e031 213e 6a9f c7bd 62d6 1d3e
00000030: 7526 da3b 339c b43d 32df 0b3e b9a8 2e3e
00000040: 1ed5 bb3c 9593 06be 9681 b93d 7f60 53bd
00000050: 006b 17be 5225 f2bd d250 0a3d 57bf 6cbd
00000060: 52ab 1ebe 5a87 a1bd 5299 023e b356 0a3e
00000070: d270 7bbd eac3 9a3d 847b 59bd 4993 13be
00000080: 9f62 80bd 6fdd 903d 0e53 27be 3cc0 1c3e
00000090: 4663 123e 0cf1 953d 282b 073e b52d e0bd
000000a0: b329 883d b5d2 d83d 6516 25bd b44d cd3d
000000b0: 63fe fabd 4259 143e 6713 ec3d dab5 c5bd
000000c0: ab31 393d d695 83bd ace1 b0bd a50f e33c
000000d0: fead ccbd 99fb 18be 33f7 233e 791a 0e3d
000000e0: 3bd6 6fbd b59f 69bd 3e8e 903d f5f5 11be
000000f0: 3e77 2f3e 4908 c3bd 3463 163d ba09 d03d

v.net.2.weight f4 [64, 64]
-0.08208114 -0.11302708 0.082173824 -0.07657577 -0.10208121 0.029750198 -0.01448375 0.11610812
0.10945243 -0.031803414 -0.0071600378 -0.02784115 0.08226243 -0.0059426427 0.03869939 0.0915578
-0.11179754 -0.08947092 0.01232329 -0.010967553 0.09716724 -0.015157908 -0.09215993 -0.038090885
0.09883356 -0.014066115 0.015135109 0.06442411 -0.113327995 -0.023939282 -0.0744409 0.08753157
0.10140999 0.048764706 -0.028568491 0.09115781 6.978214e-05 -0.058118552 0.094255134 0.117673084
-0.07037167 0.0007183254 0.11477125 0.0932515 0.010043457 -0.11797759 -0.08942211 0.08072728
-0.068743885 -0.076030046 0.09772633 -0.033624023 -0.059822798 0.06442945 0.055796534 0.116513416
-0.061894953 0.12128875 -0.11610532 -0.00896351 0.07598005 0.06043212 -0.071784064 0.018524945
-0.0878406 0.08389954 -0.0009570122 0.06513257 0.007380381 0.094893664 0.10878113 0.10650593
0.016175807 0.025910854 0.024529502 -0.040496096 -0.09002708 -0.03633496 0.06340563 0.012933716
0.09237793 0.057502642 -0.09405807 -0.09862289 0.104628906 -0.09308125 0.092233226 0.10719785
-0.0789558 -0.017251357 -0.12097506 -0.042872757 0.0031526089 -0.11852904 -0.107396126 0.09494999
0.09127866 0.06806217 0.06649239 0.0226928 -0.1186775 0.04302761 -0.06250219 0.055222318
0.075795844 0.07318325 0.045443684 -0.11805272 -0.024563387 -0.08383834 -0.1056723 -0.04459825
0.029951781 0.03502193 0.002255708 -0.06447849 -0.112765566 -0.034576043 0.05634123 -0.045359164
-0.07379359 0.070253015 0.09120512 -0.11465305 -0.09339814 0.0014979839 0.070951656 0.11809343
-0.0736921 0.08154996 0.04756707 -0.025694802 0.034556866 0.08658844 0.11141501 -0.068091884
-0.017423287 0.026986137 -0.07358052 -0.089512154 0.0013967305 0.017471164 -0.07707684 -0.07980713
0.09022917 -0.031221077 -0.033794552 -0.012573242 0.12080859 -0.082987055 -0.109184325 0.056775436
-0.013513237 0.11461766 0.05300936 -0.093997344 -0.08199164 0.055478737 0.04518804 -0.05170998
-0.114654094 0.04299265 -0.08487269 0.06067875 -0.021552548 0.043718413 0.040079445 -0.031335846
0.07843447 0.12090793 -0.05781859 0.04306142 -0.039099842 -0.020345956 -0.0059697926 0.012458026
-0.09163067 -0.019366443 -0.0030397922 0.1205515 0.109804705 0.041514605 -0.01566653 0.021878347
0.120028704 0.109129876 -0.10168265 -0.06949878 0.026011571 0.009626985 0.049268395 -0.11572862
0.107943445 0.08550647 -0.02139914 -0.048907414 0.07380009 -0.07606447 -0.0033531785 0.085910365
0.11007708 0.092054635 0.071967125 -0.062224492 -0.0073619783 0.019073829 0.09740698 -0.046812654
-0.023044199 0.08648999 0.03861016 -0.06666878 0.0038780272 -0.020408973 0.0052735656 0.0035880804
-0.030176893 -0.10111585 0.08239184 0.03613405 0.0730094 0.016406402 -0.03767465 0.059223384
-0.02826795 0.09575643 0.029155627 0.095373705 -0.087312356 -0.0013524145 -0.12255415 -0.12354909
0.06975068 -0.056168005 0.032876432 0.06623687 0.0375569 -0.008614197 -0.036475778 -0.07779032
-0.100428015 -0.08534177 -0.06858213 -0.018792316 0.02336219 0.12476541 0.033847556 -0.0960623
-0.06329769 -0.05977516 -0.08498494 -0.058224082 -0.11207119 -0.042619035 0.08064009 0.082782134
00000000: 281a a8bd be7a e7bd c04a a83d c2d3 9cbd
00000010: f40f d1bd b0b6 f33c 404d 6dbc 18ca ed3d
00000020: 9828 e03d 4c44 02bd c09e eabb 2013 e4bc
00000030: 3479 a83d 80ba c2bb 4083 1e3d a882 bb3d
00000040: 1cf6 e4bd 883c b7bd a0e7 493c 40b1 33bc
00000050: 9eff c63d e058 78bc 58be bcbd 3005 1cbd
00000060: 4069 ca3d 9075 66bc 40f9 773c caf0 833d
00000070: 8218 e8bd 501c c4bc 7874 98bd c043 b33d
00000080: 0ab0 cf3d 80bd 473d 7808 eabc f2b0 ba3d
00000090: 0058 9238 b80d 6ebd d608 c13d 96fe f03d
000000a0: 061f 90bd 004e 3c3a 300d eb3d a4fa be3d
000000b0: 508d 243c 3c9e f1bd f022 b7bd 5854 a53d
000000c0: 98c9 8cbd a4b5 9bbd be24 c83d 58b9 09bd
000000d0: c008 75bd 96f3 833d e88a 643d 969e ee3d
000000e0: 9085 7dbd 3c66 f83d a0c8 edbd b0db 12bc
000000f0: 6e9b 9b3d ac87 773d 8603 93bd a0c1 973c
00000100: c6e5 b3bd 86d3 ab3d 00e0 7aba 3a64 853d
00000110: 20d7 f13b 9c57 c23d a4c8 de3d c81f da3d
00000120: 2083 843c 0043 d43c 18f2 c83c 3cdf 25bd
00000130: 1e60 b8bd f8d3 14bd d0da 813d f0e7 533c
00000140: a430 bd3d e487 6b3d 84a1 c0bd ccfa c9bd
00000150: ae47 d63d 62a1 bebd c6e4 bc3d 8c8a db3d
00000160: 94b3 a1bd b852 8dbc c6c1 f7bd 589b 2fbd
00000170: 009c 4e3b 5abf f2bd 80f2 dbbd 2475 c23d
00000180: 4ef0 ba3d 2e64 8b3d 2a2d 883d 40e6 b93c
00000190: 300d f3bd b83d 303d 2601 80bd cc30 623d
000001a0: da3a 9b3d 1ae1 953d 2823 3a3d a0c5 f1bd
000001b0: 2839 c9bc 70b3 abbd b86a d8bd a8ac 36bd
000001c0: 705d f53c 2873 0f3d 80d4 133b 4c0d 84bd
000001d0: a2f1 e6bd 9c9f 0dbd 10c6 663d 88ca 39bd
000001e0: 1821 97bd d0e0 8f3d c0c9 ba3d 38cf eabd
000001f0: 8647 bfbd 0058 c43a 1a4f 913d f8da f13d
00000200: e2eb 96bd aa03 a73d b0d5 423d e87d d2bc
00000210: 808b 0d3d 4855 b13d 8e2d e43d c273 8bbd
00000220: 48bb 8ebc 0812 dd3c 62b1 96bd 2652 b7bd
00000230: 8012 b73a b01f 8f3c 76da 9dbd ec71 a3bd
00000240: 12ca b83d 58c3 ffbc 286c 0abd 0000 4ebc
00000250: 7e6a f73d 1ef5 a9bd 089c dfbd 5c8d 683d
00000260: a066 5dbc aabc ea3d 5820 593d ae81 c0bd
00000270: 3ceb a7bd ac3d 633d 1817 393d d8cd 53bd
00000280: c4cf eabd 1019 303d bcd1 adbd 488a 783d
00000290: f88e b0bc 1412 333d 582a 243d 045a 00bd
000002a0: 40a2 a03d 949e f73d 30d3 6cbd 2c61 303d
000002b0: 2827 20bd 90ac a6bc 409e c3bb c01c 4c3c
000002c0: dca8 bbbd 60a6 9ebc 4037 47bb b4e3 f63d
000002d0: 4ae1 e03d 380b 2a3d 1857 80bc 383a b33c
000002e0: 9cd1 f53d 7c7f df3d fe3e d0bd 6055 8ebd
000002f0: 3816 d53c 80ba 1d3c a8cd 493d 2003 edbd
00000300: 7411 dd3d 041e af3d 404d afbc 2453 48bd
00000310: 8024 973d b0c7 9bbd 00c1 5bbb c6f1 af3d
00000320: 1870 e13d 2487 bc3d 8063 933d 1cdf 7ebd
00000330: c03c f1bb b840 9c3c 507d c73d a0be 3fbd
00000340: 30c7 bcbc aa21 b13d b025 1e3d a489 88bd
00000350: 8026 7e3b b830 a7bc e0cd ac3b 0026 6b3b
00000360: 8835 f7bc d415 cfbd 0ebd a83d 4c01 143d
00000370: f485 953d b866 863c bc50 1abd 3894 723d
00000380: 3092 e7bc f21b c43d c8d7 ee3c 4a53 c33d
00000390: d2d0 b2bd 8043 b1ba acfd fabd 4e07 fdbd
000003a0: 72d9 8e3d 6c10 66bd 70a9 063d 32a7 873d
000003b0: 44d5 193d 9022 0dbc a067 15bd 8850 9fbd
000003c0: 34ad cdbd aac7 aebd ca74 8cbd 58f2 99bc
000003d0: 1062 bf3c 0285 ff3d bca3 0a3d 50bc c4bd
000003e0: 38a2 81bd ccd6 74bd 960c aebd 607c 6ebd
000003f0: 9485 e5bd 4c91 2ebd a226 a53d ae89 a93d

v.net.2.bias f4 [64]
-0.02009286 0.12333357 -0.00079901516 -0.11472897 -0.030266896 0.109592184 0.0010412782 -0.07148649
0.055566147 0.016921878 0.008682236 -0.010687947 -0.09841165 0.05283566 0.023098618 0.060669065
-0.05373162 -0.1228257 0.024381384 0.11468215 0.009313688 0.029301777 -0.07470159 -0.0451141
-0.11925878 0.06865294 -0.066442356 -0.07043883 0.09568328 0.1080254 0.035550237 -0.025307626
0.05008194 -0.08361283 0.006743118 -0.083330825 -0.0011182427 -0.02913098 -0.047039747 0.014093652
-0.091706336 -0.10794811 -0.12187441 -0.11751948 -0.09265797 -0.089716166 -0.046216697 0.10975887
0.017541409 -0.00840342 0.0258428 0.054116666 -0.014111996 -0.02105324 0.0457322 0.08296664
0.07928024 -0.04214111 0.026850626 0.045724303 0.10392967 -0.08396447 -0.09124924 -0.0065758675
00000000: c899 a4bc 5096 fc3d 0075 51ba 06f7 eabd
00000010: 48f2 f7bc de71 e03d 807b 883a 8267 92bd
00000020: 5499 633d c09f 8a3c f03f 0e3c 801c 2fbc
00000030: 0c8c c9bd 346a 583d 5039 bd3c 2080 783d
00000040: b015 5cbd 0a8c fbbd 78bb c73c 7ade ea3d
00000050: 7098 183c 480a f03c 26fd 98bd 90c9 38bd
00000060: f23d f4bd ea99 8c3d ee12 88bd 3c42 90bd
00000070: 98f5 c33d 6c3c dd3d 209d 113d f051 cfbc
00000080: b822 4d3d 343d abbd 60f5 dc3b 5aa9 aabd
00000090: 0092 92ba 18a4 eebc c0ac 40bd 10e9 663c
000000a0: 88d0 bbbd e613 ddbd 4a99 f9bd 0eae f0bd
000000b0: 76c3 bdbd 1cbd b7bd b84d 3dbd 42c9 e03d
000000c0: 00b3 8f3c 80ae 09bc 48b4 d33c 70a9 5d3d
000000d0: 0036 67bc d877 acbc b051 3b3d 6aea a93d
000000e0: ae5d a23d 289c 2cbd d8f5 db3c 6849 3b3d
000000f0: 14d9 d43d 90f5 abbd e2e0 babd 607a d7bb

v.net.4.weight f4 [1, 64]
0.099738955 -0.07411714 -0.10827801 0.08863188 -0.056363046 -0.0458176 -0.0058692247 0.046546713
-0.0042754114 0.020127907 0.09679367 0.051093936 0.12187956 0.08320515 -0.000709936 0.04432866
0.04158929 0.028279513 0.09393616 -0.0075565875 0.10898578 -0.023034006 -0.00637044 0.105393484
0.029861495 -0.05863151 0.074554026 0.0026310086 -0.092529714 -0.08014424 -0.04829721 -0.007705331
0.0039001405 -0.08425374 0.079276875 0.043904766 0.06760341 0.04587795 0.046684086 -0.0643041
-0.045137465 0.10598403 -0.0074660927 -0.1000116 -0.015168339 0.032105953 0.074558005 0.062356785
-0.037762627 0.102507934 0.07168616 -0.059685558 -0.1056183 -0.0055149347 -0.023916692 -0.0046295077
-0.10691942 -0.079181656 0.05827485 -0.11642049 0.007146895 0.09623554 0.101778984 0.06564188
00000000: f043 cc3d baca 97bd dcc0 ddbd a284 b53d
00000010: f0dc 66bd 3cab 3bbd a052 c0bb c4a7 3e3d
00000020: c018 8cbb 48e3 a43c c23b c63d e047 513d
00000030: fe9b f93d 7667 aa3d 001b 3aba f891 353d
00000040: 8859 2a3d 70aa e73c 9a61 c03d 409d f7bb
00000050: f033 df3d d0b1 bcbc 20bf d0bb 8ad8 d73d
00000060: 18a0 f43c 9827 70bd c8af 983d 006d 2c3b
00000070: 3880 bdbd aa22 a4bd 4cd3 45bd 007d fcbb
00000080: 8099 7f3b 3a8d acbd ea5b a23d 7cd5 333d
00000090: a873 8a3d 84ea 3b3d d037 3f3d deb1 83bd
000000a0: 10e2 38bd 280e d93d 20a6 f4bb e2d2 ccbd
000000b0: a084 78bc 8881 033d deb1 983d d469 7f3d
000000c0: fcac 1abd aeef d13d 32d0 923d d878 74bd
000000d0: 684e d8bd a0b6 b4bb f0ec c3bc 20b3 97bb
000000e0: 92f8 dabd fe29 a2bd 9cb1 6e3d de6d eebd
000000f0: 8030 ea3b 2417 c53d 8071 d03d 406f 863d
