runs/phoenix/DroneHoverBulletEnvWithAdversary-v0/ppo/2023-08-16__13-53-09/seed_14133/torch_save/model.pt (torch, 49538 bytes, 14 tensors)

obs_oms.mean f4 [34]
00000000: 0000 0000 0000 0000 0000 0000 0000 0000
00000010: 0000 0000 0000 0000 0000 0000 0000 0000
00000020: 0000 0000 0000 0000 0000 0000 0000 0000
00000030: 0000 0000 0000 0000 0000 0000 0000 0000
00000040: 0000 0000 0000 0000 0000 0000 0000 0000
00000050: 0000 0000 0000 0000 0000 0000 0000 0000
00000060: 0000 0000 0000 0000 0000 0000 0000 0000
00000070: 0000 0000 0000 0000 0000 0000 0000 0000
00000080: 0000 0000 0000 0000
0.0 0.0 0.0 0.0 0.0 0.0 0.0 0.0
0.0 0.0 0.0 0.0 0.0 0.0 0.0 0.0
0.0 0.0 0.0 0.0 0.0 0.0 0.0 0.0
0.0 0.0 0.0 0.0 0.0 0.0 0.0 0.0
0.0 0.0

obs_oms.std f4 [34]
00000000: 0000 803f 0000 803f 0000 803f 0000 803f
00000010: 0000 803f 0000 803f 0000 803f 0000 803f
00000020: 0000 803f 0000 803f 0000 803f 0000 803f
00000030: 0000 803f 0000 803f 0000 803f 0000 803f
00000040: 0000 803f 0000 803f 0000 803f 0000 803f
00000050: 0000 803f 0000 803f 0000 803f 0000 803f
00000060: 0000 803f 0000 803f 0000 803f 0000 803f
00000070: 0000 803f 0000 803f 0000 803f 0000 803f
00000080: 0000 803f 0000 803f
1.0 1.0 1.0 1.0 1.0 1.0 1.0 1.0
1.0 1.0 1.0 1.0 1.0 1.0 1.0 1.0
1.0 1.0 1.0 1.0 1.0 1.0 1.0 1.0
1.0 1.0 1.0 1.0 1.0 1.0 1.0 1.0
1.0 1.0

pi.log_std f4 [4]
00000000: 1872 31bf 1872 31bf 1872 31bf 1872 31bf
-0.6931472 -0.6931472 -0.6931472 -0.6931472

pi.net.0.weight f4 [50, 34]
00000000: 533f 693d a8a7 1d3e c3d0 e3bd 1b18 b0bd
00000010: 5860 2d3e e04b 1fbe 5743 1ebe 1fab ad3b
00000020: f107 87bd fb57 b03d 58c2 713d 1c27 9c3d
00000030: fa8b 203b 06f2 01be f415 693d d408 1ebe
00000040: bcac 263e a615 9f3d a605 6bbd 8eb4 53bc
00000050: 6826 ecbd cb4b f8bd 8cff 25bd e56a 87bd
00000060: 66b0 1bbd 8d5b 673c 8214 0e3e 25ec f83d
00000070: 79cc 99bd ef80 79bb 83c4 093d 340d 123e
00000080: 5201 b33c 01bb 5cbd 3980 bb3c c455 bdbd
00000090: bd28 f93c 68a4 4d3d 7991 fcbd c219 673d
000000a0: d7f5 a13b 025e 8d3d 8db0 c63c cd59 a43d
000000b0: f4d7 e3bd 9050 a4bd 20db 5e3d b9c1 2dbe
000000c0: dd0a 1d3e 1bd5 0fbe 42f6 233d ff6e 8dbd
000000d0: d6be 02be aafe ddbd c6d9 333d b529 c8bd
000000e0: 6d3e bcbd bcdb 3f3d b900 d23d f815 16be
000000f0: f0be 1cbd 6423 133d a8a5 2b3e fc01 203d
00000100: c296 e7bc 6852 a93d 4e56 773d 12b3 6f3d
00000110: c8d7 04be 9980 b8bd 310a 82bc 3c0c 76bd
00000120: d87b abbd f320 f7bd fdac dbbd 3120 76bd
00000130: ca2c 0f3e 5f57 11be e6f6 063d 72ea 6fbd
00000140: fc46 743c ba16 18be 5c7b 2e3e 69ea 6c3d
00000150: ce24 fbbc f25c 503d fa34 573d d3cc 913d
00000160: 134c 9b3c bc8e acbc 64cc fb3d fabe de3c
00000170: 8dda 953d 0892 193e d269 a1bd eeaa 833c
00000180: 3243 283e d690 aa3d 1856 23be 9160 debd
00000190: 64c3 113d e0ba eabd b00a c13b 2562 dc3c
000001a0: 7e15 91bd d42c a9bd 9ee5 14bc 9be8 4f3d
000001b0: 3ed5 b8bd e03a 823d 721c 15be 03f1 83bd
000001c0: b8ca 6bbd 2cae 123d 031d 6bbd 1e1c ee3d
000001d0: 3ec9 803d 5255 7c3d 3dbf 47bd 1779 d63d
000001e0: f6a3 ca3c 9ad4 c5bd d7e3 86bd 68eb 943d
000001f0: d5f4 97bd 4857 37bd c845 06bd 4599 383d
00000200: f6e0 2d3e bd77 bc3d e4ba 2bbe e48e ebbc
00000210: 7f42 e63d 66b4 ba3d a286 b43d 46ea d7bd
00000220: c2cf 4ebc c9fd a6bd 9a07 88bc f845 3e3c
00000230: 230b 023e 3d0f c03d f267 d5bc 992e ffbc
00000240: 9bf5 93bd 15a6 c9bd 21ee a23d e2e8 1fbd
00000250: 5cc3 1dbe eaed bf3d b332 c5bd a01a 353d
00000260: 1f06 943d 0951 f83b 8b03 a83c 5d14 be3c
00000270: cb58 2bbc 8132 af3d 5f67 d63d 51a5 1f3e
00000280: 7693 babd 219c 0a3e 2dc1 c93d bc21 81bd
00000290: 14ac 943c 7105 e63d 9675 e5bd bd64 debd
000002a0: 9297 f0bc 117a 6e3b 261a 843a 9907 2dbd
000002b0: 0829 1fbe 8f7a a23d 0cb7 683d 2af5 c73d
000002c0: 3ffe 2c3e 405d 823d 3340 123c d2b6 0ebe
000002d0: f38f febd b712 8abd f3b0 033e 96cc 37bd
000002e0: 31fd 04bd 8d18 8dbd d221 c1bd a524 58bc
000002f0: fe89 56bd 3c4f eebc c72a e43d e8a6 1dbe
00000300: 472b 3dbd 76ad 3c3d 06d0 a13d f102 16be
00000310: 64fb 0b3e 395c e2bd cc6b 873d da99 72bd
00000320: 6353 d33d db06 213e 37b6 13bd f8ab 06be
00000330: 3acf 29bd 2c00 e0bd 5779 523d 490a 8bbd
00000340: a17e 3ebd bf29 28be 0527 25be 206c 1cbe
00000350: 3515 f6bd d364 7d3c ce81 e9bc a6cb 46bd
00000360: dd37 0ebc f67f cfbd dd4c c8bd e75c 01be
00000370: e0c1 e8bd b3c1 20bd 7e30 08be 6533 b73d
00000380: 4174 a63b 458a 053c ec5f e93d dac9 be3d
00000390: e786 2dbe d972 8c3c 9919 4dbd 3bab c33d
000003a0: 6e1f ff3d 0a4a bd3c 9960 183e 8c88 203b
000003b0: 1a6a a6bd 7192 cd3c 84e4 943d 6c95 2e3e
000003c0: 6458 493d 87f0 b0bd 9143 cc3d 2a1b 01bd
000003d0: e14b c63c 1456 afbd 3f28 d83c 947b c43d
000003e0: 564c 6d3d 725d d1bd 76f9 1e3e 01f9 9fbc
000003f0: 3a15 263e 105c 703d 5d8b 0d3e 6db4 0b3e
0.056945156 0.15395987 -0.111238025 -0.08598348 0.16931283 -0.15556288 -0.15455376 0.0052999402
-0.065933116 0.08610531 0.05902323 0.07624647 0.0024497495 -0.12689981 0.0569057 -0.15433055
0.1627683 0.07767801 -0.057378434 -0.012921466 -0.11530763 -0.12123831 -0.04052691 -0.066121854
-0.038010024 0.0141209485 0.1387501 0.12154416 -0.07509703 -0.0038071235 0.033634674 0.14262849
0.021851216 -0.05388928 0.02288829 -0.09244874 0.030414933 0.05020562 -0.12332434 0.05642105
0.0049426365 0.06902696 0.024254108 0.08024941 -0.11125174 -0.080231786 0.054408193 -0.1696843
0.15336175 -0.14046137 0.04002977 -0.069059364 -0.1276811 -0.10839589 0.043908857 -0.0977358
-0.09191594 0.046840414 0.10254044 -0.14656818 -0.03826803 0.035922423 0.16762412 0.039064392
-0.02827013 0.08267671 0.06038504 0.058520384 -0.12972939 -0.09008903 -0.015874 -0.06007026
-0.08373231 -0.120668314 -0.10726354 -0.060089294 0.1398193 -0.14193486 0.032950304 -0.058573194
0.014909502 -0.1485242 0.17039245 0.05784074 -0.030657198 0.05086989 0.052540757 0.07119145
0.018957173 -0.021064155 0.12294844 0.027190674 0.07317076 0.14997113 -0.07881512 0.016072717
0.16431883 0.083284065 -0.15950811 -0.10858262 0.03558673 -0.11461425 0.0058911666 0.026902268
-0.070841774 -0.082605034 -0.009087948 0.05075894 -0.09025048 0.06358886 -0.14561632 -0.06442454
-0.057566375 0.035810634 -0.057400715 0.11626457 0.06288384 0.061604805 -0.048766363 0.10472315
0.024736386 -0.09659691 -0.06586426 0.07271463 -0.07419745 -0.044760972 -0.032781392 0.045068044
0.16980347 0.09202526 -0.16770512 -0.028754659 0.11243152 0.091164395 0.08814742 -0.10542731
-0.0126227755 -0.081538744 -0.016605187 0.011613362 0.12699561 0.093779065 -0.026050542 -0.03115015
-0.0722458 -0.09846131 0.07955576 -0.039040454 -0.15406555 0.093715504 -0.09628811 0.044214845
0.0722773 0.0075780195 0.020509502 0.02320307 -0.010458182 0.08554555 0.10468935 0.15590407
-0.09110157 0.13536121 0.098512985 -0.063052624 0.01814846 0.112315066 -0.11204068 -0.10859058
-0.02936915 0.0036388675 0.0010078594 -0.042243574 -0.15542996 0.079335324 0.056815192 0.09763558
0.16893862 0.06365442 0.008926439 -0.13936928 -0.124298 -0.06741851 0.1286047 -0.044872843
-0.032468025 -0.06889448 -0.09430279 -0.0131923305 -0.052377693 -0.029090516 0.11140972 -0.15395701
-0.04618385 0.046063863 0.079010054 -0.1464956 0.13670117 -0.11052746 0.066123575 -0.059228756
0.10318639 0.15725271 -0.036062445 -0.13151538 -0.041457392 -0.10937533 0.05138525 -0.06789071
-0.04650748 -0.16422175 -0.16128166 -0.15275621 -0.12015764 0.015465933 -0.028504279 -0.048534058
-0.008680311 -0.101318285 -0.097802855 -0.12633096 -0.11365104 -0.039247226 -0.13299748 0.089453496
0.0050797765 0.008150642 0.11395249 0.09315844 -0.16945992 0.017144607 -0.05007324 0.09554144
0.124571666 0.023106594 0.14880599 0.002449545 -0.08125706 0.025094243 0.072701484 0.17049187
0.04915656 -0.08639627 0.09973825 -0.031520046 0.024206104 -0.0856134 0.026386378 0.09593883
0.057934128 -0.102229014 0.1552485 -0.019527914 0.16219035 0.058681548 0.13822694 0.13643046

pi.net.0.bias f4 [50]
00000000: 0eb9 adbd 0b05 bdbd 1656 9ebd 6410 e9bd
00000010: e269 44bd ff34 a7bd 21de 843c 7087 15be
00000020: 8bd9 f73c e2e9 24be 2de2 023e a89b c53d
00000030: e847 363d 53ce fa39 2251 8dbd 892d ee3d
00000040: 596b e93d ff88 1b3c 226a 72bc 040f 1ebe
00000050: fb10 bf3d 30b8 5abd 1b3e 563c 1256 2b3e
00000060: a203 e43d 9bca c1bd 4ce1 cf3d 11aa 5c3d
00000070: fe58 afbd fafa 0cbd e895 253d 48b4 a3bd
00000080: 7e5c 24be d7f8 e33d 53fa 693d 1558 903d
00000090: abf5 e1bd d0dc 123e 5e39 c13d 58bb 14be
000000a0: 01dd 82bc 8cff 003e ee78 ee3d 3f2e fdbc
000000b0: abda a33d 0695 0d3e a9b0 f6bd fa4e 0f3c
000000c0: 97c1 6b3d 3abd cc3c
-0.08482562 -0.092294775 -0.07731263 -0.113800794 -0.04795254 -0.08164405 0.0162192 -0.14602447
0.0302551 -0.16104844 0.12781592 0.0964883 0.04450217 0.0004783744 -0.069002405 0.11629779
0.11397428 0.009493112 -0.014795812 -0.15435416 0.09329411 -0.05339831 0.013076331 0.16732052
0.111335054 -0.09462472 0.10150394 0.053873125 -0.08561896 -0.034419037 0.040426165 -0.0799337
-0.16050908 0.11131447 0.057123493 0.0704805 -0.110331856 0.14342046 0.0943477 -0.14524591
-0.015974523 0.12597483 0.11644159 -0.03090584 0.08000692 0.13826379 -0.12045414 0.008746857
0.05755767 0.024992574

pi.net.2.weight f4 [50, 50]
00000000: e66f f8bd 4f99 d9bd 2eea 0c3e 8a2d ee3c
00000010: 2ec0 053e e058 f6bb 33bb d63d 727f 3cbd
00000020: 8767 10bd 3d43 9f3d 7442 d33d efac e23d
00000030: fed5 07be 7285 bebd dd09 30bd f1f5 033d
00000040: d730 29bc f976 acbd f324 9e3d 5665 c4bd
00000050: 222f 013e d1dc df3c 8754 82bd 6cbd f03d
00000060: 9399 6fbd 8595 1fbd 85ae a73d cbc1 17bd
00000070: e6df 97bd f07a b9bd 881a 0abe e54b 75bc
00000080: af18 ff3d c940 673d bacc 40bd 06b4 de3d
00000090: 84ed cfbd 7565 0abe 7fb9 00be fbbc b93d
000000a0: fa01 30bb b56a c7bc 2ecb 763d 860f eabd
000000b0: 5191 73bc 11f1 93bc 288c a53d b3b0 04be
000000c0: 4adb 8fbc 8f9e 033d 188a b3bd 24d8 94bd
000000d0: 2c85 bbbd f2b4 c83d 3315 52bc 55f7 c03c
000000e0: e17b 9ebc 5672 bdbc bc45 09be 98e0 18bd
000000f0: 96f9 893d 2bc1 523d bdf7 0cbe 2c04 b9bc
00000100: 1f52 0ebd ccf9 933c 0be2 18bd 853b 303d
00000110: e6ef d3bd 3a00 5cbd 37d2 573b ed5c 553d
00000120: 79c0 f1bd 45d9 b6bd 8be2 40bc 1f20 b7bc
00000130: 5806 84bd 80ee d6bd ed0d 01be da97 803d
00000140: f23b 823c d0ce a0bd 1f66 debc 7f40 e2bc
00000150: a66b 413c b96c 5dbc df4d 793d 76c3 cf3d
00000160: bc88 db3d 089b 2e3d 3708 9fbd e462 563d
00000170: 2abb 0b3e af8b 343d 4f02 43bb 5ab7 633d
00000180: 344a 093e b55d 903d 7aeb ef3c ca0d ee3d
00000190: d87f 5cbd af85 0c3e bf93 1a3c 7999 923d
000001a0: 7111 e0bd 48ff fa3d 7f1b 19bd 5d72 f1bd
000001b0: 283a 723c 5d46 b03d 2b90 e53d 1efe 44bd
000001c0: c711 de3d c2cb dc3d b872 6fbd b228 77bc
000001d0: c86b 18bc a8fc 0e3d 0695 233d 3c81 36bc
000001e0: 545b e6bc 160c 08be 7279 ac3a a20a d73c
000001f0: 2695 a13d 5122 d23d 708f 583c e5e7 9abc
00000200: b1c5 493d 5492 cabd c6b2 79bd 6498 8cbd
00000210: 8b9a 28bd 990b 953d 314c e1bd f8dc 8dbc
00000220: 0464 693d 42e0 eebd 8ed9 fdbc 80d7 f83d
00000230: 6bb5 eb3d 1c3a 33bc d7f4 a9bd 1027 ffbc
00000240: 5930 79bd 8b2b ebbd 9055 493d e062 e03d
00000250: 01e6 6c3b b8d5 3bbd 6924 b53d 17ad 8cbc
00000260: bc10 0d3e 2681 0cbe df82 94bd de90 3bbd
00000270: 6418 0ebe 2392 69bd 7625 003e e23f 3dbd
00000280: 11b6 143d b994 56bd b589 b1bd 073b e2bd
00000290: a115 803d c072 f53d 7ce1 dabd 3d35 eabd
000002a0: ed40 69bd ef3b da3d b710 78bd fae1 de3d
000002b0: 039a eabc a3bc 86bc 07d2 a5bb 25bb 193d
000002c0: 9efb 00be 208e e9bb dede 7c3d 4352 903d
000002d0: fd1e afbd b617 103c 26bd f03d aded 633c
000002e0: 7e4e 0f3e b0dd 20bd 7400 3fbd 3b03 06bd
000002f0: 07a0 acbd 0059 2d3d 61b1 8bbd 8a70 03be
00000300: e842 30bd 97f8 2fbd 0872 4ebd 9892 01bd
00000310: 6b39 443d 12e9 b0bd 8868 6c3d 2666 05bc
00000320: df87 acbc 4344 fbbd 0cc9 f13d 523b 6b3d
00000330: 7a12 f43d c042 cebd d1a7 be3d c032 3b3c
00000340: 5838 7e3c 368f 143d 8b9d 393d 05d2 8e3c
00000350: 358e 43bd 9c92 993c be73 fa3c ba81 10be
00000360: 516e c23d d4ab 8bbd 0a6c 8cbb 8164 8e3d
00000370: 0d04 dfbd 4108 bbbc aa9b e9bd 4624 423d
00000380: 36a1 a2bd 423f 04be 08cf 903c 58fc 72bd
00000390: 3406 6ebd e0d4 8b3d ade1 9ebd b95a b8bd
000003a0: 7567 17bd 0a0d 0c3d a973 1ebd 6b67 ddbc
000003b0: 5c98 033e 88f5 e6bd 23b0 083e 7251 c6bd
000003c0: b1d7 c7bd 7a55 013e 29fd 9c3d eac4 df3d
000003d0: 2a8e 6c3d 55cc 5e3d 41bd 88bd f9a1 4e3d
000003e0: 05e1 c03d d60f 043e a04c 603d 69e3 bbbd
000003f0: 5f86 94bd 8ba8 b5bc fb60 04be 5e3a 3f3d
-0.12130718 -0.106249444 0.13761207 0.02907445 0.13061592 -0.007517919 0.10484924 -0.04601998
-0.03525498 0.077764966 0.10315409 0.11068141 -0.13265225 -0.093027964 -0.042978156 0.03221697
-0.010326586 -0.0842113 0.07721891 -0.09589641 0.12615636 0.027326973 -0.063637786 0.11754879
-0.05849607 -0.038960952 0.08187584 -0.03705005 -0.07415752 -0.090566516 -0.13486683 -0.014971708
0.1245588 0.05645827 -0.047070242 0.108741805 -0.101527244 -0.13515265 -0.12570761 0.09069248
-0.0026856647 -0.024342874 0.06025236 -0.11428742 -0.014866189 -0.018059285 0.08083373 -0.1295803
-0.01756062 0.032133635 -0.08766574 -0.07267788 -0.0915626 0.098001376 -0.012822437 0.023555437
-0.01934618 -0.023125809 -0.13405508 -0.037323564 0.06737058 0.05145375 -0.1376638 -0.022584997
-0.034746286 0.018063448 -0.037324946 0.043025512 -0.10348491 -0.053711154 0.0032931694 0.052090574
-0.11804289 -0.089281596 -0.011772762 -0.022354184 -0.064465225 -0.10494709 -0.12602969 0.062789634
0.015897725 -0.07851946 -0.027148305 -0.027618645 0.011805451 -0.013514691 0.06086528 0.10144703
0.107194394 0.042628318 -0.07765239 0.052340403 0.13645616 0.044078525 -0.0029756015 0.05559478
0.13407212 0.07049123 0.029287089 0.11623724 -0.05383286 0.13722871 0.0094346395 0.07158179
-0.10940827 0.12255722 -0.037379738 -0.11789391 0.014784373 0.08607171 0.112091385 -0.048093908
0.108432345 0.10781051 -0.058459014 -0.015085386 -0.009303041 0.03490892 0.03993704 -0.01113921
-0.02811972 -0.1328586 0.0013158752 0.026250187 0.07889776 0.102604516 0.013217792 -0.018909404
0.0492608 -0.09891191 -0.060961507 -0.06865004 -0.04116301 0.07277603 -0.110008605 -0.01731728
0.056980148 -0.116638675 -0.030987527 0.12150478 0.11509212 -0.010939147 -0.082986526 -0.031146556
-0.060837124 -0.114829145 0.049153864 0.10956359 0.0036147835 -0.045858115 0.08844835 -0.01717238
0.13775915 -0.13721141 -0.07251524 -0.045792453 -0.13876492 -0.057024132 0.1251429 -0.0462035
0.036306445 -0.052387927 -0.08668844 -0.11046415 0.062541254 0.119847775 -0.10687539 -0.11435936
-0.056946684 0.10655963 -0.060562816 0.10882945 -0.028637892 -0.01644737 -0.0050604376 0.03753199
-0.12595984 -0.0071275383 0.06173598 0.0704694 -0.085508324 0.008794716 0.11754827 0.013911647
0.13994786 -0.039273918 -0.04663129 -0.032717925 -0.0842896 0.042321205 -0.06820942 -0.12835899
-0.043032557 -0.042961683 -0.050401717 -0.031633943 0.04790632 -0.08638205 0.057716876 -0.00814203
-0.021060882 -0.12268879 0.11805925 0.05742962 0.119175866 -0.10071325 0.09309352 0.011425674
0.015516363 0.03626939 0.04531626 0.01743413 -0.04774304 0.018746667 0.030572768 -0.14111987
0.094936974 -0.06819883 -0.00428534 0.06952763 -0.108894445 -0.022831084 -0.11406644 0.047397874
-0.07940905 -0.12914756 0.017676845 -0.059322685 -0.058111385 0.06827712 -0.07757888 -0.09001679
-0.0369639 0.034192123 -0.03868452 -0.027026853 0.12851089 -0.112773 0.13348441 -0.09683503
-0.09757937 0.12630263 0.07665474 0.1092623 0.057752766 0.054394085 -0.06676722 0.050447438
0.09417919 0.12896666 0.054760575 -0.091742344 -0.07252192 -0.022175094 -0.1292762 0.046686523

pi.net.2.bias f4 [50]
00000000: ccbf ab3c 7c23 683d 830a 3f3d 3b92 ee3a
00000010: 201a 8ebd 0be6 f53c 8820 ddbc 9752 973d
00000020: 0f64 33bd adb5 42bd 4a1c c9bd 0766 ccbd
00000030: 5236 a53b f09d 8f3d 8ea3 6e3c d233 913d
00000040: 1581 823d fa51 873d 3493 cdbd dd5d d33c
00000050: 2fb6 c4bd 4347 d33d d9f7 e8bd 1e79 b83d
00000060: c0a4 de3d e77b 0a3e 3b52 c13c f788 9cbd
00000070: 4fa8 0dbe c9b4 023e edad c8bd dc9c 87bd
00000080: 653e 153d 7a6d a53c 9c71 0a3e 4cc1 96bd
00000090: 16ed 88bc e8b7 0b3e 065d b33d c346 0c3e
000000a0: 1f56 4abb cce1 cf3d 6194 0cbe 62a0 9ebd
000000b0: a4c0 053d 3009 5c3d 2777 89bd 2684 4ebd
000000c0: c771 0fbe 6ca7 bcbd
0.02096548 0.056674466 0.046640884 0.0018201539 -0.06938577 0.03001692 -0.026993051 0.073888
-0.043796595 -0.04753654 -0.09819849 -0.09980398 0.005041876 0.07012546 0.014565362 0.07089962
0.06372277 0.06607433 -0.100378424 0.025801593 -0.09605061 0.103163265 -0.11375398 0.09007476
0.10871267 0.13523827 0.02359878 -0.076433115 -0.13833736 0.12764277 -0.09798799 -0.066217154
0.036436457 0.020193804 0.13519901 -0.07361087 -0.016714614 0.13644373 0.08757977 0.13698868
-0.0030874086 0.10150489 -0.13728477 -0.07745434 0.03265442 0.0537197 -0.0671218 -0.050418995
-0.14008246 -0.09211621

pi.net.4.weight f4 [4, 50]
00000000: 3b44 bf3d 3418 1dbc a9bf 03be b634 91bc
00000010: 10de aabd effe be3d d986 d73d 5eef debd
00000020: 5ff7 fabc 15e9 ee3d 289e 9dbd 9872 afbd
00000030: 1f57 3a3b ccbe e33d 8522 ff3d 012a a0bd
00000040: 8a69 0c3e f000 563b 8139 07be 288f 813d
00000050: 3c52 dc3c e934 833d b400 4abb c3ac 99bd
00000060: ad8e 0fbe 7cf6 5f3c d20a 103e df45 f83c
00000070: 330e 0fbe c6f9 febc 38bc a63c fa9f ff3d
00000080: 1502 72bc d2c4 e6bd 9a83 3a3d b948 04be
00000090: fba9 98bd fd71 1fbd 7fba f2bd 4fff a43d
000000a0: ab60 e4bd 77d7 053e 682e 563d a3cc 7b3d
000000b0: 2100 33bc 8cbf e4bd 1430 f23c b7bb 86bc
000000c0: 7d52 b43d dc82 433c 5673 e4bd d2b3 283b
000000d0: bc8e d33d 0d56 d33d cf1a 973d a1f5 d13d
000000e0: 6790 9ebd 812e 363c a91d 743d 76c9 0a3e
000000f0: 1823 1d3c b6d0 6f3a b302 de3c cb11 dabd
00000100: 25c2 e53d 7ca8 bbbc ead3 f6bc a8a6 ee3d
00000110: c1c8 1b3c 4c2b 07bd 434c 0a3e 0b8b 8ebd
00000120: 6ca5 083b 5780 a1bd 0394 863c 65c5 3a3d
00000130: ff52 8b3c 536d 90bd 73b9 ebbd 179b df3d
00000140: 0079 32bb 7803 c73b 4db5 9b3d 5f8b e1bc
00000150: 506c b53d 0185 a73d 86a0 4c3d 1b36 533d
00000160: d724 81bd b106 a23d 8536 0abe 09e8 c63c
00000170: b7b7 4cbc c9c5 a5bd f989 d1bb 2ee5 c7bb
00000180: c49c 61bb adb8 e8bd df2f c5bd 6df6 233d
00000190: d460 a2bd 3e7a a03d 19cd eebc a6a5 0ebe
000001a0: 7cb0 053d 5494 9cbb 99b1 9bbd 0267 043d
000001b0: 271a af3d cf0b e53c eaaa 103d b16b 903d
000001c0: 78ac 04be 0af8 d33d 94c2 f9bc 46ea efbd
000001d0: a870 93bb 3401 963d 4dcf b3bd 1f7d 703d
000001e0: f96e 173d c392 58bd b451 0d3e 0b3a 103e
000001f0: ca49 0ebe 9d39 02bc 8a93 023d 1425 2fbd
00000200: e4a9 57bd 7549 c7bd 20e3 a1bd 1b24 003e
00000210: b41b edbd a42b 0cbe d5ee 2fbd 956b e9bd
00000220: 41bc 2abb 92b4 eb3c c4cf 8bbc 8240 b43d
00000230: 3124 1d3d 8199 8fbd cbd7 ed3d 98ba e93d
00000240: 5da5 a63d bba1 25bd 2229 e7bd 11e7 0ebe
00000250: b40f fe3d 5490 983d f476 c4bb cc94 cb3d
00000260: 3526 023e 3a24 b0bd d949 fabd f360 103d
00000270: d9e8 0fbe 9c21 893d 3bb7 e1bd 4ef2 1cbc
00000280: 95d9 b2bd 4560 90bd abee 37bd 52d2 98bd
00000290: c88b debd 3d5c 723d 8a40 0fbb f288 05be
000002a0: b038 553c c3ea 9f3d 7c47 5cbb ca6d e0bd
000002b0: 5058 ffbc 7a24 da3d af46 d03d df24 723c
000002c0: 5ab5 5c3d d6d6 82bd c14f 2bbc 14bf b73d
000002d0: 4990 2e3d fbfe 513d 2bda 243d 302e 533d
000002e0: 5952 453d f447 7c3c ec38 e3bd 82fe d53d
000002f0: 2efe 623d 7f94 0dbe 1374 c13d 8cc9 9d3c
00000300: add3 1fbd 9c31 1b3d 55ef 083e 9544 8cbd
00000310: 527b 003e 4ec4 ccbd b741 90bd 36fc aabd
0.09339186 -0.00958829 -0.12866081 -0.01772533 -0.08343136 0.093259685 0.10523767 -0.108854994
-0.030635534 0.116655506 -0.076961815 -0.08566779 0.0028433276 0.11120376 0.12457756 -0.078205116
0.13712135 0.0032654367 -0.1320553 0.06326133 0.026894681 0.06406576 -0.0030823173 -0.07503655
-0.1401927 0.013669606 0.14066628 0.030306755 -0.1397026 -0.03112496 0.020353422 0.12481685
-0.014771004 -0.11268009 0.04553566 -0.12918366 -0.07454296 -0.038927067 -0.118519776 0.08056509
-0.111512505 0.13070475 0.05229035 0.061474454 -0.010925324 -0.11169347 0.029563941 -0.016446931
0.08804796 0.011933055 -0.11154811 0.0025741947 0.10329959 0.10319147 0.0737816 0.10251928
-0.07742386 0.011119486 0.0595986 0.13553414 0.0095908865 0.0009148227 0.027100896 -0.10647925
0.11218671 -0.022907488 -0.030130345 0.11652881 0.009508313 -0.033000275 0.13505654 -0.06960114
0.0020850552 -0.07885807 0.016428 0.045598406 0.017007349 -0.07052102 -0.11509981 0.10918253
-0.0027232766 0.0060734116 0.0760294 -0.027532278 0.088585496 0.08179665 0.049957775 0.05156527
-0.06305855 0.079114325 -0.1349736 0.024280565 -0.012494973 -0.08094365 -0.0063946215 -0.0061003184
-0.0034425715 -0.11363349 -0.09628271 0.04002993 -0.07928625 0.07835816 -0.029150533 -0.13930377
0.03263901 -0.0047784243 -0.076022334 0.0323248 0.0854991 0.027959732 0.035319246 0.070517905
-0.12956417 0.10350044 -0.03048829 -0.11714606 -0.0044995137 0.07324448 -0.08779774 0.058713075
0.036971066 -0.052874338 0.13800699 0.14084642 -0.13895336 -0.007948306 0.031878985 -0.04275997
-0.052652255 -0.09730808 -0.07904649 0.12513773 -0.115775496 -0.13688523 -0.042952377 -0.11397473
-0.002605215 0.028772626 -0.017066844 0.088013664 0.038364593 -0.070117004 0.11613425 0.11412543
0.08137009 -0.04043744 -0.11287142 -0.13955332 0.12405339 0.074494034 -0.0059956256 0.0994049
0.12709887 -0.0860066 -0.122211166 0.035248708 -0.14053668 0.066958636 -0.110212766 -0.009579254
-0.08732907 -0.07049612 -0.044905346 -0.074619904 -0.10866505 0.059169997 -0.0021858537 -0.13040522
0.013014004 0.07808449 -0.0033611944 -0.109584406 -0.03117004 0.106514886 0.10169732 0.014779299
0.053883888 -0.06388633 -0.0104560265 0.08971992 0.04261807 0.05126856 0.040247124 0.05155772
0.048174236 0.015398014 -0.11094841 0.10448934 0.055418186 -0.13826178 0.094459675 0.019261144
-0.03902023 0.037889108 0.13372548 -0.068490185 0.12547043 -0.0999838 -0.07043784 -0.08348887

pi.net.4.bias f4 [4]
00000000: 8493 c8bd bb3a be39 051c 98bd b5c5 423c
-0.097937614 0.00036283382 -0.07427219 0.011887957

v.net.0.weight f4 [64, 34]
00000000: d21e c43d f3e9 c63d 5a40 133d 2305 bcbc
00000010: 5081 093e 82be 893d 1a98 cd3d 4fd8 b1bd
00000020: 93dc 6abd 25b7 193d dbc7 e3bd 9a92 193e
00000030: 8efc 0fbe 7e91 f9bd b0b1 8dbd b55f ddbd
00000040: 55a4 013e 08ac 1a3e f12d ae3d e92e fd3d
00000050: acbe d83d dc07 8f3d 3ba8 2e3d 132d cb3c
00000060: 44e2 023e 20b5 b0bd a59e 4e3d f672 9239
00000070: 853b 06be 01ee ccbd 54f7 0b3d 7433 f1bd
00000080: 8659 85bc 35c8 6a3d 0234 fabd 46a5 1f3e
00000090: 096e 133c 34f7 40bd 1027 3f3c f9b6 ef3d
000000a0: 8bdf 023e cae5 b83d 24b6 2cbe 72db 4b3d
000000b0: 2040 fd3d 7b37 28be 1186 1abe 0bb4 a2bd
000000c0: 3d82 02be 17a6 fbbd 9aca 0dbe 00d2 6e3d
000000d0: 687f 043e 6bc3 b63d 4114 9c3c bc8f afbd
000000e0: 3f89 b6bb 5bf3 d1bc bd3a 133d 6e73 4abd
000000f0: 275d 87bd 1b7c aabd c589 9b3d f652 b0bd
00000100: 9a54 1f3e d799 31bd 77be dcbd e424 c5bd
00000110: 8b24 db3d ee36 23be 5f95 0e3d 392e 84bd
00000120: b646 e73c 713f 82bb e871 c33d d81f 00be
00000130: 19c6 76bd 91a9 293e 2062 2b3e 29d2 0b3e
00000140: cde9 efbc 6d69 773d 81f8 b539 fdc4 cdbb
00000150: 2404 14be 2c20 183e bf74 1b3e 9e29 36bd
00000160: ef4c 093e 0436 eabd a47d 133e eaa4 1a3e
00000170: 85d4 e93d 997d af3b 9fba f2bd 2d8d 16bd
00000180: 325b 4d3d b5c8 fa3c c68f 203d d9c4 1abd
00000190: 51f1 7b3d a39b fc3d 9147 c7bd dddb 19bd
000001a0: 199c 29bc c1f1 9e3a 21b2 04be b5c2 2cbe
000001b0: 03a0 f3bd 7285 2d3e 69d4 0bbe 546a 72bd
000001c0: 48c0 373d d487 96bd c1e5 8cbd 3a06 a43c
000001d0: 1724 22be 524d f43d fe52 0c3e 858d 913d
000001e0: b0d5 253e c9a8 91bd d828 d03d 7624 10be
000001f0: 48bd 21be 2416 473d 9d7e a03d 701c ca3b
00000200: cc70 763d aca8 b33d 87cb cdbd e6bf 21be
00000210: bfc9 8abc 5be5 0d3e 869c c53c 51b3 083d
00000220: 8f18 8f3d f16a ae3c 0188 ef3d c695 f33d
00000230: 441f c5bd 57a7 db3c 06a5 10be 76a3 16be
00000240: ce94 2c3e 13b7 5b3d 7eb6 1cbd 6015 0a3c
00000250: ba1a ce3d bf3d 9e3d ca4a b33d f054 fdbd
00000260: 5e92 24be 9fdc 29be eeac 893d 59d4 83bd
00000270: 618c 063e f976 3d3d 3bb5 51bb 4d79 263e
00000280: 2771 e3bd 73e8 aa3d 5336 ee3d 866f 07bc
00000290: 359d 143e 3dae aa3d 88d8 aebd d4e3 e03d
000002a0: 4223 12be c732 fa3b 9bb1 143e 4a65 183d
000002b0: 6927 a13d 6e81 99bd c04f f83c c1e9 f3bd
000002c0: 77c7 093e 407a de3d b394 233e e8eb dbbd
000002d0: 26eb 813d f553 f0bd e122 f3bd e3ff 00be
000002e0: e289 b23d cb50 dc3d 54bb 2d3c ffc8 113e
000002f0: 75e0 2e3e 0d19 2d3e 1f88 383d 06fd c0bd
00000300: af4e 3b3d e1a8 3dbd 5e42 22be b56a 1b3e
00000310: a17d 893d 68e5 edbd 1c8c e8bd 3866 123e
00000320: 9cbe fcbd 8be2 f1bd b7a6 a83d 0063 e2bd
00000330: 1873 683c 2da4 f03b fa33 59bd fcc1 febd
00000340: a4a2 163e 148c 073c b83b 2abe 903f 2d3e
00000350: 38c5 f9bd 44c3 5e3d 751e 183e c6a1 283e
00000360: c4d7 10be f632 26be c9a1 bb3d ae06 20be
00000370: 0b30 b33d b6f0 ae3d 58bf d53d b85f 0a3e
00000380: 2b03 113e c75f ed3d 5435 b5bd 7a33 153e
00000390: b432 3f3d 43ed 2abc d3e1 0dbe dd42 1fbe
000003a0: 2373 4c3d 7f52 253e f2f2 08be 137a 91bd
000003b0: 3b49 e0bd 6450 96bd 9cf5 d23d e1df 2ebe
000003c0: a966 2c3e 3ba5 ff3b d8e8 1c3e d1a2 d63d
000003d0: 9809 913d df8b 05be d13a 1fbe 8155 2e3c
000003e0: 0280 f1bd 6a6e 083e 3ff1 c13d 9030 3b3d
000003f0: 70ed 773d 5925 053e 25cb 053e 17a5 d43d
0.09576191 0.09712591 0.035950042 -0.022951668 0.13428235 0.067257896 0.10038777 -0.08683836
-0.057339262 0.037528176 -0.11122104 0.1499733 -0.14061186 -0.121859536 -0.06918657 -0.1080927
0.12660344 0.15104687 0.085048564 0.12362463 0.10583243 0.06983921 0.042640906 0.024801766
0.12781626 -0.08628297 0.050444264 0.00027932943 -0.13108642 -0.10006333 0.034171417 -0.11777392
-0.01627804 0.05731984 -0.12216951 0.1559039 0.008998402 -0.04711075 0.011667028 0.11704821
0.12780587 0.09028204 -0.16866356 0.049769826 0.123657465 -0.16427414 -0.15090205 -0.07944497
-0.12744994 -0.122875385 -0.13846818 0.05830574 0.12939227 0.08923992 0.019052627 -0.08572337
-0.00557056 -0.025628736 0.03594469 -0.04942649 -0.06609564 -0.083244525 0.07594637 -0.086095735
0.15559617 -0.043359604 -0.10778516 -0.09626177 0.107003294 -0.15938923 0.03481042 -0.06454129
0.02823196 -0.003974848 0.0954321 -0.12512147 -0.060247514 0.1656859 0.1673665 0.13654388
-0.02928629 0.060403276 0.0003470816 -0.0062795863 -0.14454705 0.14856023 0.15181254 -0.044473283
0.13408254 -0.11436084 0.14403397 0.15101972 0.11417488 0.0053555486 -0.118520014 -0.03675573
0.0501358 0.030613283 0.039199613 -0.037785385 0.061509434 0.12334373 -0.09730447 -0.037563194
-0.010352158 0.0012126492 -0.12958576 -0.1687115 -0.11895754 0.16945437 -0.13655247 -0.059183434
0.044861108 -0.07350126 -0.068797596 0.0200225 -0.1583408 0.1192881 0.13703534 0.07107071
0.16194797 -0.07112271 0.1016404 -0.14076409 -0.15794861 0.0486051 0.078366496 0.006167941
0.060166165 0.08772406 -0.100485854 -0.1579586 -0.016941903 0.13857023 0.024122488 0.033374134
0.06987106 0.021291228 0.116958626 0.118938014 -0.09625104 0.026813192 -0.14125451 -0.14710793
0.1685364 0.05364139 -0.038259976 0.008427948 0.100636914 0.07726621 0.08754499 -0.12369716
-0.1607146 -0.16588067 0.06722437 -0.064369865 0.13139488 0.04625604 -0.003199889 0.1625721
-0.111055665 0.083451174 0.11631455 -0.008266335 0.14513095 0.083340146 -0.08537394 0.10980955
-0.14271262 0.0076354477 0.14520876 0.03720597 0.07868845 -0.0749539 0.030311465 -0.119098194
0.13454996 0.10863161 0.15974693 -0.10738355 0.06343679 -0.117347635 -0.11871887 -0.12597613
0.08717705 0.107575975 0.010603745 0.1423683 0.17077811 0.16904087 0.04505169 -0.094232604
0.045729335 -0.046303634 -0.1584563 0.15177424 0.06713415 -0.116160214 -0.11354849 0.14296806
-0.12341043 -0.11810788 0.08234923 -0.11054039 0.014187597 0.00734379 -0.053028084 -0.12439343
0.1471048 0.008273143 -0.16624343 0.16918778 -0.121958196 0.05438544 0.14855368 0.16467962
-0.14144808 -0.16230378 0.091617174 -0.15627548 0.08749398 0.08542006 0.104368865 0.13513076
0.14161365 0.11590534 -0.08848062 0.14570418 0.046679214 -0.010432544 -0.13855676 -0.1555285
0.04991449 0.16144751 -0.13373926 -0.07103362 -0.109514676 -0.07339552 0.103007525 -0.1707759
0.16836037 0.0078016794 0.15323198 0.104802735 0.07081908 -0.13041638 -0.1554978 0.010640503
-0.11791994 0.1332337 0.09469842 0.04570061 0.060529172 0.13002528 0.13065775 0.10383051

v.net.0.bias f4 [64]
00000000: 0047 3e3d bd8a 9a3d aa38 7d3c c6d4 dabd
00000010: 5e32 f7bd 77e1 abbd 0562 2dbe 4acc 463d
00000020: e842 433d 93b4 6bbd 10f8 0e3e ec2f 4fbd
00000030: b706 0d3e 2bac 06bd e59e 033e 5aa9 ce3d
00000040: d24d 273d 5354 8c3c a279 d8bd 3f0f e0bc
00000050: ba1e c7bd ee74 6b3d 3536 143e 5bf6 1cbe
00000060: 9a6b 25be 8aab 8ebb a0da 2c3e 9e34 ddbd
00000070: e1b8 11be c6d9 073e 7c03 0f3e 6231 ee3d
00000080: 7dd3 c5bc 45ca e6bd cb12 093e 6c5b 1a3e
00000090: 6c90 5fbd ae0c f53c 2e08 153e 66b7 9d3d
000000a0: 5696 903d dafe dcbd 69cf 25be 147c cfbd
000000b0: 1efa 9f3d 2fa9 ae3d 6c12 89bd 0fd2 76bd
000000c0: 0cc9 2d3e a67f d1bd 69ae f2bd 7ec8 173e
000000d0: 3416 993d 99f9 25be d91f 003e 5156 243d
000000e0: 2144 ff3d 8d29 293e 7c6a ce3b 6644 41bc
000000f0: 384f 033e 6fba e3bd e54b 493c b0ac d8bd
0.04645443 0.075459935 0.015455404 -0.106851146 -0.12070154 -0.083926134 -0.16931923 0.04853467
0.04767123 -0.057545256 0.13961816 -0.05058281 0.13772093 -0.032879036 0.12853582 0.10090895
0.0408457 0.017130053 -0.105700746 -0.02735102 -0.097226575 0.05748456 0.14473803 -0.15328352
-0.16154328 -0.004353945 0.16880274 -0.108010516 -0.14230682 0.13266668 0.13966173 0.11630513
-0.024148697 -0.112690486 0.13386075 0.15073937 -0.05458109 0.029913273 0.14553902 0.07700996
0.07059924 -0.107907966 -0.16192402 -0.10131088 0.07811378 0.08528363 -0.06692967 -0.06025892
0.16971225 -0.10229425 -0.11849672 0.14822575 0.07474938 -0.16208495 0.12512149 0.04012138
0.124641664 0.16519757 0.006299315 -0.011796093 0.12823188 -0.11119544 0.012286161 -0.105798125

v.net.2.weight f4 [64, 64]
00000000: d271 e33d f070 3f3c f41a 3bbd 8898 1a3d
00000010: d863 36bd 4850 88bd b069 27bd c82f e5bc
00000020: e622 fdbd c80d f53d 6021 9b3c 403e 203b
00000030: e0c1 123c be03 93bd c663 fe3d fc41 89bd
00000040: e4ce b8bd fe83 9fbd b8fb 0fbd b4b7 b43d
00000050: ecb4 ea3d e076 58bc b626 b03d 909c 023c
00000060: 08d4 16bd 80d9 cabd 30fd 553c 3edf e33d
00000070: 6c1c 57bd c0b0 c53d 48ed e83d 1eea 84bd
00000080: 7cb5 b73d 70e2 0a3c 6c82 5abd c842 88bc
00000090: a4ac 7a3d ec4a b33d 4c84 48bd e2a6 f43d
000000a0: 7401 dfbd 6c06 ce3d 3c89 3dbd 2611 f83d
000000b0: 2098 30bc 2422 a2bd cc2c c2bd 0281 fd3d
000000c0: 86bf 9ebd 2c00 a4bd ec09 cc3d e0ec c2bb
000000d0: 4c3c 5ebd 2e96 e63d 48f2 abbc 722d eabd
000000e0: 0000 3f3a f69c d4bd bc73 303d 30df 61bd
000000f0: f4b7 4e3d 5850 873d 0cbb 4e3d 0e6d d73d
00000100: 9c4e d73d 0449 80bd c42c 233d 2091 ef3c
00000110: 70cb fcbd 881d 53bd e872 8bbc 46d5 da3d
00000120: a447 48bd 0477 a3bd 5445 e83d 22b8 c73d
00000130: a620 ed3d 722f 94bd 9623 c8bd 8028 dcba
00000140: 7a35 be3d b4fe 473d 14f0 273d f24d a83d
00000150: ee3d a4bd 8061 573c 54d0 21bd d03e eb3d
00000160: 40f0 58bd bc12 b43d 0814 b2bc 4cf0 35bd
00000170: f4b3 44bd 7caf 373d e859 da3c 027a fabd
00000180: 1401 ce3d aa62 c0bd ec60 203d 0af2 e8bd
00000190: fe9c b7bd c097 8a3c 40b2 5abd 9691 a33d
000001a0: 2caf 1fbd 20c7 9dbc fce3 78bd 2048 383d
000001b0: 40cc d4bb fe9f 8cbd 3038 3fbd 0cc7 8b3d
000001c0: beed 92bd 7015 32bd a8f5 cb3d 28a1 92bd
000001d0: 327a f23d 60a7 d3bd 6aa8 adbd b043 e33d
000001e0: 0834 b9bd 9acb de3d c020 a33b 00e6 d339
000001f0: 386b 97bd 9081 b6bc f077 81bd 4cd2 d83d
00000200: 60a1 cf3d 2804 b3bd e0a2 61bd 7493 de3d
00000210: 34bc 0b3d d8bf c0bd 8c62 f93d c831 f63d
00000220: 82b5 a3bd 98e3 f43d 461b f83d 9644 b6bd
00000230: fcab 60bd 82a3 eabd 4a5f 8d3d 6ec3 cebd
00000240: 34d8 863d 80c9 4a3c d4e6 36bd 90d0 b6bd
00000250: 6079 c63b 5828 6dbd 80f8 85bb 1837 cb3d
00000260: d442 1ebd ec94 ebbd 807f ad3d 509c bdbc
00000270: 707c 8f3d 7a3c d2bd e8d2 b03d 16cd cfbd
00000280: e4ed 973d e44e 943d 341c 043d 109a 5fbc
00000290: a85e 3dbd fc26 6cbd b8e4 5fbd 520c 80bd
000002a0: e499 35bd f839 b2bd ac48 e0bd 32af d1bd
000002b0: 6867 98bc a4f1 f23d d47e 343d de05 ea3d
000002c0: 78cb 98bc 588e 3f3d 16a4 c6bd d808 b03d
000002d0: b0e7 bdbd 9a68 c3bd 8092 6ebc 0654 963d
000002e0: 280a 3fbd 90e2 69bd 7473 00bd 2c24 953d
000002f0: 383e 593d f800 a13d 1892 f9bc 125f fe3d
00000300: 2444 493d 101f d2bd 9a04 c3bd 2065 9d3c
00000310: c08c 133d 6466 eabd 301b 93bd 98ec b53d
00000320: a87f f5bc a0c7 743d 700f cebd 98b2 cdbd
00000330: 3c52 103d 6064 e8bd 009a 9c3c 169f f1bd
00000340: 801a edbd d414 fc3d 2ace 833d 2ed4 d1bd
00000350: 742b cebd 6890 f73d ce4d f43d 3006 39bd
00000360: 384a b4bd 84d2 83bd e0c9 5abd 4412 493d
00000370: 008a 7abc 9030 cdbd 5829 ca3d f0fa e23d
00000380: 1a63 a4bd 087b 86bd 3c33 f5bd a606 f7bd
00000390: 7004 ec3d d02e e0bd a44d bcbd 808b 523b
000003a0: 1869 453d 8812 833c c0ff 993c d27c 9abd
000003b0: 089a bb3d 946e cdbd b40e 1ebd 004b b93a
000003c0: 6059 12bc c6cc 873d a4eb 88bd 6404 bb3d
000003d0: 98b3 e2bd e0dd a6bd a897 e53d 3a8d b6bd
000003e0: b859 2fbd 3062 c0bc 701d e1bc aabe e5bd
000003f0: 5c3a 99bd 8a60 8bbd 5a8f a8bd c0f3 da3c
0.11105694 0.011684641 -0.04568 0.03774312 -0.044528812 -0.066559374 -0.040872276 -0.027976885
-0.12360172 0.11965519 0.018936813 0.0024451166 0.008957356 -0.07178448 0.12421374 -0.06702039
-0.09023836 -0.077888474 -0.035152167 0.08824101 0.11460289 -0.013211936 0.086011335 0.007971898
-0.036823303 -0.09904766 0.013060853 0.111265644 -0.05251734 0.09652853 0.11373383 -0.06489967
0.08970162 0.0084768385 -0.053347036 -0.016633406 0.0611998 0.087545246 -0.048954293 0.11945893
-0.10888949 0.100598186 -0.046273455 0.12112646 -0.010778457 -0.07916668 -0.094812006 0.12378122
-0.07751374 -0.08007845 0.0996283 -0.005948648 -0.054256722 0.11259113 -0.020989552 -0.11434449
0.0007286072 -0.103815004 0.043079123 -0.05514449 0.0504684 0.06607121 0.05047135 0.105188474
0.105130404 -0.062639266 0.039837614 0.029244006 -0.1234349 -0.051541835 -0.017022565 0.1068521
-0.048896447 -0.07981685 0.11341348 0.097519174 0.11578493 -0.07235612 -0.097724125 -0.0016796738
0.092875436 0.04882689 0.04100044 0.08217992 -0.08019625 0.013145804 -0.039505318 0.1148659
-0.052963495 0.08792636 -0.021738067 -0.044418618 -0.04802318 0.04484509 0.026654199 -0.122303024
0.100587994 -0.09393819 0.039154932 -0.1137429 -0.08965491 0.016918063 -0.05339265 0.07986753
-0.038985416 -0.01925999 -0.060764298 0.04499066 -0.006494075 -0.068664536 -0.046684444 0.068250746
-0.07174252 -0.043477476 0.099589646 -0.07159644 0.11839713 -0.103346586 -0.08479388 0.11096895
-0.09043127 0.10878678 0.0049782693 0.0004041642 -0.07393497 -0.022278577 -0.063217044 0.10586986
0.10138202 -0.08741027 -0.05508697 0.10867968 0.03411503 -0.09411591 0.121769994 0.12021214
-0.07993604 0.119574726 0.12114577 -0.088998005 -0.054851517 -0.11456968 0.069029406 -0.10095869
0.06584206 0.012377143 -0.04465373 -0.08926499 0.0060569495 -0.057899803 -0.0040884614 0.09922618
-0.03863795 -0.11503014 0.08471584 -0.023145825 0.070061564 -0.10265441 0.08633977 -0.10146539
0.07418421 0.0724161 0.03225346 -0.013647571 -0.04623285 -0.057654366 -0.054661483 -0.0625235
-0.044336215 -0.08702463 -0.10951361 -0.10238494 -0.018603995 0.118624955 0.044066265 0.114269
-0.018651709 0.04676661 -0.09699266 0.08595437 -0.092727065 -0.095414355 -0.0145612955 0.07340245
-0.046640545 -0.057100832 -0.031360105 0.0728229 0.053037852 0.07861513 -0.03046517 0.12420477
0.04913725 -0.10259831 -0.09522362 0.01921326 0.0360229 -0.11445311 -0.0718292 0.08883017
-0.029968098 0.05976069 -0.10061538 -0.1004383 0.035234675 -0.1134727 0.019116402 -0.11797921
-0.1157732 0.1230866 0.06435807 -0.10245548 -0.10066882 0.1208809 0.119289026 -0.045171916
-0.088032186 -0.06436637 -0.05341518 0.049089685 -0.015291691 -0.10019028 0.09871167 0.11083019
-0.080267146 -0.06566435 -0.11972663 -0.12061815 0.11524284 -0.10946429 -0.09194496 0.0032126606
0.04819593 0.016000047 0.018798709 -0.07543339 0.091602385 -0.10030857 -0.03858824 0.0014136732
-0.0089324415 0.06630854 -0.0668557 0.09131697 -0.11069411 -0.08147788 0.11210567 -0.089136556
-0.04281017 -0.02348432 -0.027479857 -0.11218007 -0.07481834 -0.06805523 -0.08230467 0.026727557

v.net.2.bias f4 [64]
00000000: 9a5b f9bd 0032 663a 6e95 e93d 943c 953d
00000010: f21b 9f3d ba00 ce3d 7042 4b3c c0ed 103b
00000020: f4dc 4d3d 4e50 fc3d 5699 d3bd fa20 dabd
00000030: 1ab1 a9bd d0f9 44bc 38fa cd3c d064 27bd
00000040: ca1b 83bd b4ca d6bd e09e 41bd a0a9 32bc
00000050: 70b5 423c 8860 8abc 6007 ab3d a27f eabd
00000060: 38ee bfbd f8e6 533d 422d a9bd b275 b2bd
00000070: 0215 fc3d e8c5 bb3c 3209 98bd b227 90bd
00000080: 3c15 833d a0ce fcbc e061 82bc 80fe 1ebb
00000090: f6d6 ef3d a0af bdbb 78fd a73d 1013 a7bc
000000a0: 86b2 a23d a09e 0a3c 0c1d 473d b09a 213d
000000b0: 14be b83d 1ab5 d53d 9434 edbd b89e 4ebd
000000c0: c86b 863d 0043 e7bb 488a c4bc fc30 3ebd
000000d0: 303f a0bc c25e a7bd b817 babd 36f3 99bd
000000e0: e2dc 903d 4088 b43d 807f e1bd 3006 d4bc
000000f0: 10e9 d5bd 6210 f1bd c04a 68bc 68c9 2abd
-0.12175675 0.00087812543 0.114054546 0.07286945 0.07769002 0.10058732 0.012405977 0.0022114366
0.050259545 0.123200044 -0.10331981 -0.10650821 -0.082857326 -0.012022451 0.025143728 -0.040867627
-0.06401785 -0.10487881 -0.047270656 -0.0109047 0.011884078 -0.016891733 0.08351016 -0.11450125
-0.093716085 0.05173394 -0.08260585 -0.08713855 0.123086944 0.022921517 -0.07423629 -0.07038821
0.064005345 -0.030860245 -0.015915811 -0.002426058 0.117109224 -0.0057887584 0.08202642 -0.020394832
0.07944207 0.008460671 0.048611686 0.039454162 0.090206295 0.10434933 -0.11582294 -0.050444335
0.065635264 -0.0070575476 -0.023991719 -0.046433434 -0.01956138 -0.081723705 -0.09086555 -0.07517092
0.0707338 0.0881505 -0.11010647 -0.025881857 -0.10444844 -0.11770703 -0.014177978 -0.041695982

v.net.4.weight f4 [1, 64]
00000000: 0607 d4bd a0dc 043d d025 20bd 90ac b73c
00000010: b822 6b3d 4062 733d d427 553d 5813 57bd
00000020: 1499 e8bd 104c 873d 8a7e f8bd 0c3e 4a3d
00000030: 6e82 993d 1e1b fcbd 70dd 203d 06e3 a1bd
00000040: c07b dabc 2021 7d3d 1050 693d 4441 1cbd
00000050: 2821 983c 8c98 203d 5cdd 093d d0f5 2f3c
00000060: 2054 793d 9032 66bd 2add c6bd 44a0 29bd
00000070: 1053 b4bc 4085 bbbb 8084 40bb 18fb aa3d
00000080: 202a e73c ec1a 9b3d a209 f8bd c446 07bd
00000090: ccf9 bdbd aa12 a5bd 9294 9a3d 5811 ea3c
000000a0: 4062 67bd 1865 b93d 06c1 80bd dcfc 6fbd
000000b0: c075 77bd 30b5 7bbc de07 dcbd c077 1ebb
000000c0: 34f6 ba3d 24a0 423d fcfc cfbd 5c22 0c3d
000000d0: 1ca5 6dbd 1c65 20bd 4084 c83c ec6e c3bd
000000e0: 76f7 d83d 303d 71bd 601b 35bd 984a 4cbd
000000f0: c0bd 1bbc 64cd 9d3d 344c cbbd 2856 f23d
-0.10352902 0.032436967 -0.03909856 0.022421151 0.057406157 0.05941987 0.052039936 -0.052508682
-0.11357322 0.06606305 -0.121335104 0.04937558 0.074955806 -0.1230986 0.03927368 -0.079046294
-0.026670337 0.06179917 0.05696112 -0.03814818 0.018570498 0.03920798 0.03365837 0.010739759
0.060871243 -0.056200564 -0.097101524 -0.041412607 -0.022012264 -0.0057226717 -0.002937585 0.083486736
0.028218329 0.07573494 -0.12111212 -0.03302647 -0.092761606 -0.080602005 0.07547869 0.028572723
-0.056490183 0.09052485 -0.06286816 -0.058590755 -0.06041503 -0.015363023 -0.10743688 -0.0024180263
0.09128991 0.047516003 -0.10155675 0.034212455 -0.05801879 -0.039158925 0.024477124 -0.09542641
0.105940744 -0.058896244 -0.04421556 -0.049875826 -0.009505689 0.07705191 -0.09926644 0.11832839
