runs/original_ppo/our_distb/DroneHoverBulletEnvWithAdversary-v0/ppo/2023-08-25__23-35-14/seed_40226/torch_save/model.pt (torch, 49538 bytes, 14 tensors)

obs_oms.mean f4 [34]
000000 18 ab 06 3c c3 63 01 bc 38 1f 6b 3f 4b 0c b5 3c
       0.008219503 -0.00789732 0.9184451 0.022100588
000010 6b c5 19 3c f2 dd df bd a6 9e 35 3f 1a ae 46 3d
       0.009385447 -0.109310046 0.70945203 0.04850588
000020 b3 a3 fc 3a 0b 3a ab be 5a 08 85 3e 89 3d 15 bd
       0.001927486 -0.3344272 0.25982934 -0.036435638
000030 12 37 19 bf 31 d9 62 3e 0f 57 f6 3d 65 4f 14 3e
       -0.59849656 0.22153164 0.12028324 0.14483412
000040 85 ba 84 3e c2 bb 0e 3c cb 1b 01 bc 01 40 6a 3f
       0.25923553 0.008711757 -0.0078801615 0.9150391
000050 d7 fa b9 3c f0 2e 1e 3c 56 a7 df bd 1f 94 35 3f
       0.022702618 0.009654745 -0.10920589 0.7092914
000060 8c 90 4d 3d 9d 29 f0 3a a8 41 b0 be 29 b2 85 3e
       0.05018668 0.0018322949 -0.34425092 0.26112488
000070 94 c9 15 bd 3c bb 19 bf 60 68 61 3e f7 80 f4 3d
       -0.036569193 -0.6005132 0.22012472 0.119386606
000080 84 aa 13 3e 0f aa 84 3e
       0.14420515 0.25910994

obs_oms.std f4 [34]
000000 86 0a f8 3e 0c 2e 0b 3f 7b 4c bb 3e 6b 95 18 3e
       0.4844553 0.54367137 0.36581787 0.14900748
000010 e9 24 0a 3e a6 89 1b 3f 59 f9 a7 3e 88 e1 66 3f
       0.13490643 0.6075691 0.32807425 0.90187883
000020 ea 91 67 3f 0a 8d 35 3f 51 9e 35 40 7f 09 34 40
       0.9045702 0.70918334 2.8377879 2.8130796
000030 1f a0 16 40 7b a7 ff 3e 33 e3 11 3f dc c4 da 3e
       2.353523 0.49932465 0.56987303 0.42728317
000040 87 d6 1e 3f 12 2b fb 3e 61 c3 0c 3f 52 90 bd 3e
       0.6204609 0.49056298 0.54985625 0.3702417
000050 36 e8 19 3e 8f fa 0a 3e 30 7c 1b 3f 3b 28 a8 3e
       0.15029988 0.13572143 0.6073637 0.32843193
000060 8c 47 6a 3f 80 cf 6a 3f 15 95 39 3f 84 af 35 40
       0.9151542 0.9172287 0.72493106 2.8388376
000070 0b 0f 34 40 63 37 17 40 b4 18 00 3f 28 f9 11 3f
       2.8134181 2.3627555 0.50037694 0.5702081
000080 ad cb da 3e b0 cd 1e 3f
       0.42733517 0.62032604

pi.log_std f4 [4]
000000 18 71 8e c0 18 71 8e c0 18 71 8e c0 18 71 8e c0
       -4.4513054 -4.4513054 -4.4513054 -4.4513054

pi.net.0.weight f4 [50, 34]
000000 60 9e 16 3e 2d 66 f6 bb 03 cb 55 3e 2b 89 b6 3b
       0.14708853 -0.0075195045 0.20878224 0.005570551
000010 a5 e0 94 3e ce 25 7b 3e fb 3f d2 bd fd 30 af 3e
       0.2907764 0.2452614 -0.102661096 0.34217063
000020 06 17 e6 bd 73 df cf 3d b3 38 29 3e aa 89 43 3e
       -0.1123486 0.101500414 0.16525535 0.19095483
000030 68 8c 0f 3d 16 b5 9f bd a7 77 4c bd ec eb e4 bd
       0.03504601 -0.07798211 -0.049918797 -0.11177811
000040 56 45 4e 3e 07 e1 ad 3e 48 0b 92 3d 6d 1f 8b 3d
       0.20143637 0.33960745 0.07131058 0.06793103
000050 19 01 bd 3c bf cb d4 3e 97 88 9e 3e f6 e9 5d be
       0.023071812 0.41561696 0.30963585 -0.2167128
000060 03 72 55 3e 40 ec 02 3e bb 2c b1 bd c0 e6 98 bc
       0.20844273 0.12785435 -0.0865111 -0.018664718
000070 4b 14 60 3d 12 0f 24 3e 87 67 8e bc 04 11 02 3d
       0.054706853 0.16021374 -0.01738335 0.03175451
000080 5e 31 14 3e aa fc ec bc e3 06 4c bd e9 6a 35 bc
       0.14471957 -0.028929073 -0.049811255 -0.011072853
000090 9d 77 93 bd 68 a4 1a 3e 57 18 80 3c 67 4b 71 be
       -0.07200549 0.15101779 0.015636606 -0.2356392
0000a0 37 88 98 be 80 df 25 3e fd 07 34 be 63 07 3e 3e
       -0.29791424 0.1619854 -0.17581172 0.18557505
0000b0 f5 43 81 bd 1e 0f a5 be cb b5 92 bd 3e 6f 24 3e
       -0.0631179 -0.32238096 -0.071635805 0.1605806
0000c0 e3 e5 60 be b6 ca 59 be 08 7f f7 bd e7 ec 17 bd
       -0.21962695 -0.21268734 -0.12084776 -0.037091162
0000d0 8a c3 1a 3d ee 7a 87 3d 58 19 d0 3c 3f 55 7e bd
       0.037784137 0.06615244 0.02540271 -0.062093016
0000e0 68 03 b1 bd 85 d8 50 be 60 15 fc 3c 90 32 17 be
       -0.08643228 -0.20395096 0.030771911 -0.14765382
0000f0 72 68 53 3e 24 f0 d1 3c 70 25 0d 3d ea 48 b2 3d
       0.20645311 0.025627203 0.03445953 0.087053135
000100 55 93 81 bd 47 eb 38 3d 37 8f 6d be 04 b8 94 be
       -0.063269295 0.045146253 -0.23199163 -0.29046643
000110 1c de 79 be f0 b2 14 3e 45 12 10 be 2e cd 6c be
       -0.24401134 0.14521384 -0.1406947 -0.23125145
000120 ac 33 a6 3e dd 93 c0 3d ed bd d6 bd f2 98 f4 bc
       0.32461298 0.09403203 -0.10485444 -0.029858086
000130 67 57 c5 3d de f8 c2 bd f1 a8 b2 bd 1b 0d 63 3c
       0.09635811 -0.09520124 -0.08723629 0.013858105
000140 00 25 26 3e f2 ca 66 bb 3d 4e 7c 3d 74 f8 93 3d
       0.16225052 -0.003521618 0.06159805 0.07225123
000150 c1 b8 14 3e 14 c0 2d be 72 45 0c 3e 06 41 ba 3d
       0.14523603 -0.16967803 0.13698366 0.090944335
000160 88 20 50 be cc 49 5a 3e c8 c9 73 3e 43 8e bb 3c
       -0.2032491 0.21317214 0.23807442 0.022894984
000170 3d b2 9e be 14 fb f5 bd 28 94 45 be 89 9a 4c be
       -0.3099536 -0.1201078 -0.19294798 -0.19980825
000180 39 57 a3 3d 38 bf 88 3c 79 5f 42 3d ca 10 d3 bd
       0.07975621 0.016692743 0.04745433 -0.10305937
000190 92 96 0f 3e f9 08 2f be 54 36 8b 3d c4 6d 45 be
       0.14022282 -0.17093267 0.06797472 -0.19280154
0001a0 6a 69 2d 3e 99 da 35 3e e8 0f 80 be 1c 71 79 3e
       0.16934744 0.1775917 -0.25012136 0.24359554
0001b0 d9 c3 9d bd fc 9a 0a be b7 f2 91 bd bd af 5c bd
       -0.077033706 -0.13535684 -0.07126372 -0.053878535
0001c0 30 16 0f 3e c3 a2 3a be 1d c1 05 be 90 1d d6 bd
       0.13973308 -0.18226151 -0.13061948 -0.10454857
0001d0 ba b7 c1 bc 9a 86 90 3e b5 f1 63 3e 4a 33 8d 3b
       -0.023647178 0.28227693 0.22260173 0.0043090926
0001e0 52 69 27 be 0a 86 2f 3e b0 3a 84 3e 27 f6 5f be
       -0.1634877 0.17140976 0.25826025 -0.21871243
0001f0 fe cd 4a 3e 68 71 b6 3d 5a 79 8f be 48 d9 89 be
       0.19805142 0.08908349 -0.2802227 -0.26923585
000200 5c 56 17 3e 0b 72 0d be 0f 0f 67 3e 26 6e 16 be
       0.14779037 -0.13813035 0.22564338 -0.14690456
000210 0f 01 08 3d cc ea d7 bd 4e 0f bd bd b9 86 01 3d
       0.033204135 -0.10542831 -0.09231435 0.031622622
000220 c6 ba ba bd 41 d6 13 3d 5f 94 96 bd 20 54 06 3e
       -0.091176555 0.036093 -0.07352518 0.13118029
000230 c3 cb 02 3e 7f 1f 13 3e b2 f8 6b 3d 81 fa 03 bd
       0.12773041 0.14367484 0.05761022 -0.03222132
000240 8f c4 c2 3d fd ea 4c 3e 0f 3e 2d 3d 89 5d 9e 3d
       0.09510147 0.20011516 0.04229551 0.07732684
000250 b2 eb e5 3d 31 02 7c 3e 27 c2 77 3d b0 5d b6 bd
       0.11226596 0.24610211 0.060487892 -0.08904588
000260 fc e5 a3 bd 94 1d 25 be 91 d4 0e be 39 cc 48 3e
       -0.080028504 -0.16124564 -0.13948275 0.19609155
000270 23 cb 2a 3e 42 56 d7 3d 55 2e 8d 3e 63 62 d3 bd
       0.16679053 0.10514499 0.2757441 -0.103215
000280 e8 12 3b 3d 42 1c 00 3c 96 66 8d 3d c8 80 5b be
       0.045672327 0.007819237 0.06904332 -0.21435845
000290 e1 3d 0c bd 02 48 63 bd 92 3b 27 3e bc 4a a5 3e
       -0.0342387 -0.055488594 0.16331318 0.3228358
0002a0 a3 9a cd 3c f4 d0 bc bd 0f b1 1c 3e 69 a5 9d 3e
       0.02509815 -0.09219542 0.15301917 0.3079026
0002b0 b1 7a 12 be 5d a6 b1 be 00 8d 12 bd 21 62 93 be
       -0.14304616 -0.34697238 -0.035779 -0.28785804
0002c0 02 1c 53 bd 5a 2b 8c bc 23 54 b4 3e a7 43 de 3b
       -0.051540382 -0.017110515 0.3522044 0.006782967
0002d0 d2 ba 87 bd 6d 5d df bd 32 0d f3 bb 60 a3 fa 3c
       -0.0662743 -0.109064914 -0.0074173445 0.030595481
0002e0 ec ea 07 bd 97 d4 e4 bd 6a 86 a3 3d 2f 0f 30 bd
       -0.033183023 -0.11173361 0.07984622 -0.04298323
0002f0 a8 a6 af 3e 0b df f8 3d 90 ad 8d be 7b c8 be 3d
       0.34306836 0.12151917 -0.2767148 0.09315582
000300 60 84 1a be cd 23 e5 bb c4 e0 46 3c 1b b9 24 3e
       -0.1508956 -0.006992793 0.012138549 0.16086237
000310 71 b9 b4 bd 40 8b 0f bd 8b d0 67 3d d2 ba 4a be
       -0.08824433 -0.03504491 0.056595366 -0.19797829
000320 2f e8 a7 3d 78 67 a7 bb f0 5f 74 bd bd 71 bd bb
       0.081985824 -0.00510877 -0.059661806 -0.005781381
000330 51 38 88 be b5 98 80 3e cd 72 de 3d 5f 3a 06 be
       -0.26605466 0.25116506 0.1086174 -0.13108204
000340 1f f6 a3 bd 4e 43 17 be 16 bd b8 3e 43 56 07 be
       -0.08005928 -0.14771768 0.3608176 -0.132165
000350 2f 2f ae 3d b8 9f d0 bd c8 9b f6 bd fa 1e c0 bc
       0.08505093 -0.10186714 -0.12041432 -0.02345227
000360 f3 ac 99 bd 5f b7 31 3d 1d 8a 27 3e d1 68 b2 bc
       -0.075036906 0.043387767 0.1636128 -0.021778496
000370 7f 8d 02 3e 80 47 a0 be 9f d2 a0 3e 25 cb 24 be
       0.12749289 -0.3130455 0.3141069 -0.16093118
000380 11 cf 35 3e 25 cd 16 bd 96 8d 4b ba 8e 24 30 3e
       0.17754771 -0.036816735 -0.00077649334 0.17201445
000390 91 5f 37 bc 9a ef c6 bd fe 49 94 bd b2 2e 7d 3d
       -0.011192218 -0.09713669 -0.072406754 0.06181211
0003a0 3f 6e 10 bc b2 ee 94 3d 1f 16 84 be 97 ac 95 be
       -0.008815347 0.0727209 -0.25798127 -0.29233238
0003b0 ea 7f 93 3d a1 a1 9d bb 86 ae 87 bd 60 19 bf 3c
       0.07202132 -0.0048105274 -0.066250846 0.02332753
0003c0 d2 cd f8 bd 05 48 83 be 4b 07 9c 3d 17 65 2e bd
       -0.12148632 -0.25640884 0.076185785 -0.042576876
0003d0 91 f3 cb 3e 26 17 4c be 60 58 90 3d 7d 84 48 3e
       0.39834264 -0.19930705 0.07048106 0.1958179
0003e0 55 0c 23 bd a6 7a 4d 3e d9 f1 8b 3d c1 68 0a 3e
       -0.039806683 0.20066318 0.06833238 0.13516523
0003f0 95 14 19 3e 53 ad 12 3c 95 ff 3f be 7e 7d ac 3d
       0.14949258 0.0089524565 -0.1874984 0.08422373

pi.net.0.bias f4 [50]
000000 5a 2b 27 be 36 53 e5 3d 14 38 b6 3d 4b d8 a4 3c
       -0.16325131 0.11197512 0.08897415 0.020122668
000010 50 56 2b 3e b0 06 28 be 4c 55 e9 bd 81 7f cc 3d
       0.16732144 -0.16408801 -0.11393222 0.09985257
000020 5f 4e b3 3e 59 49 99 bc 77 ed b6 3e c5 f7 23 be
       0.3502073 -0.018711733 0.35728046 -0.16012485
000030 be 3c 8e 3d 5e 4e 7c 3e bc 3f aa 3d dd 3b d7 3e
       0.069451794 0.2463927 0.083129376 0.4203786
000040 f3 b7 e8 3d 97 e6 33 bd 91 bd a6 3d a6 95 ab bd
       0.113632105 -0.04392108 0.08141626 -0.083781525
000050 b1 9d 83 3d 89 e3 8a 3e 5c 49 19 3c 1c 59 50 bd
       0.064265616 0.2712672 0.009355869 -0.05086623
000060 e6 ef 81 3d 0c 82 95 3e d2 e8 be bc 2f e4 f6 3c
       0.06344585 0.2920078 -0.023304377 0.030138103
000070 83 1b 4d 3d b2 3b ba 3d 8f 01 0d be 1b fd 2d be
       0.050075065 0.09093417 -0.13770126 -0.16991083
000080 b1 21 5c 3d 34 0f 38 be e2 f6 60 bd d3 5a 48 3e
       0.053743068 -0.1797455 -0.054922946 0.19565897
000090 7c f5 81 bd de f5 1e 3e 4d 71 d2 bd 85 bb 73 3d
       -0.063456506 0.15523478 -0.10275517 0.059505004
0000a0 a7 b1 53 bd 14 eb 83 3d 30 41 eb 3d 4c ed 81 bd
       -0.051683094 0.06441322 0.11487043 -0.06344089
0000b0 a9 9d e6 3d 93 1c 71 3d 95 a8 2e 3e 6b 8c 5a 3d
       0.1126054 0.05886514 0.17056496 0.05335657
0000c0 29 b8 49 3e 6b 1b 89 3d
       0.19699158 0.06694683

pi.net.2.weight f4 [50, 50]
000000 e2 67 dd 3c 80 13 82 bc 8b 3b 02 be 55 89 69 be
       0.027027074 -0.015878439 -0.12718026 -0.22806294
000010 76 0c 14 be 5c df 07 3e 0b 80 52 be 57 f5 c7 3d
       -0.14457878 0.13268799 -0.20556657 0.09763592
000020 f4 ac 8c be f7 ff 05 be 57 df 80 3d 8d 0a 5e bb
       -0.27475703 -0.13085924 0.06292599 -0.00338808
000030 29 d8 44 3e 46 cb 56 bd ef 45 23 3e 20 7c 91 be
       0.19223084 -0.05243995 0.15944646 -0.28415012
000040 45 dc e6 bb a9 74 28 3e 9b c7 78 3d f0 53 97 bd
       -0.007045301 0.16450752 0.060737234 -0.07389057
000050 ad 97 db 3d 7a 44 ec 3d df 23 af 3d c1 7b 08 3e
       0.10722289 0.11536498 0.08551764 0.13328458
000060 1c 5d 2e 3d 5d b0 9a bd 55 52 09 3e ca 6f a7 bd
       0.042569265 -0.0755317 0.13410313 -0.08175619
000070 04 ae 01 3e 99 a9 6e 3c d6 e1 1a 3e 12 2e 30 bc
       0.12664038 0.014566802 0.15125212 -0.0107531715
000080 da 95 1e 3e c9 80 a9 3c 55 34 df bc 71 4a 08 3d
       0.15486851 0.020691292 -0.027246634 0.033274118
000090 b4 ba 21 3e 1f 6f e7 bd 03 39 f4 ba 5e 3c b6 3d
       0.15793878 -0.113004915 -0.0018632713 0.08898233
0000a0 57 51 c4 3d 26 a2 99 3d 67 ec 63 bd c9 6c a8 3d
       0.09585827 0.075016305 -0.055645373 0.08223874
0000b0 d2 7b a8 be 9b 77 8e bd bd 8e 45 be 59 00 21 3e
       -0.32906967 -0.06956407 -0.19292732 0.15722789
0000c0 cd b0 3c 3e be cc d9 3d d7 6d 22 3e ce 07 b2 bd
       0.18426819 0.106347546 0.15862213 -0.08692895
0000d0 a5 c3 90 bd 15 ba d9 bd d8 88 2e bd 87 5a 34 be
       -0.07068566 -0.106311955 -0.042610973 -0.17612658
0000e0 82 a3 34 3d e0 78 24 3e 68 44 06 be 00 71 9b 3d
       0.044101246 0.16061735 -0.13112032 0.075899124
0000f0 31 24 32 3e 28 0a db 3c 54 b8 bc bd 8a 1a 42 3e
       0.17396618 0.026738241 -0.09214845 0.18955436
000100 45 c8 94 3b b4 74 0a 3e c8 3b 21 3b 0b c5 88 3c
       0.0045404756 0.13521081 0.0024602283 0.01669552
000110 68 02 2c bc 2f 96 71 be b3 9d 00 be 3c 60 05 3d
       -0.010498621 -0.23592447 -0.12560157 0.03256248
000120 60 33 36 be 66 6d 47 be 99 d9 86 3c 7f d8 0e 3e
       -0.17793036 -0.19475326 0.01646118 0.13949774
000130 e3 94 08 bd fe 95 06 3e f7 7b 9f 3c 67 db 72 3b
       -0.033345114 0.13143155 0.01946829 0.0037057044
000140 db b1 5a bd 57 74 e4 3d 58 8f c9 3d 91 26 57 3c
       -0.053392272 0.111550026 0.09841794 0.013131754
000150 27 31 a0 3d c6 7c f1 3c d3 90 16 3e de b5 2d bc
       0.07821875 0.029478442 0.14703684 -0.010602443
000160 fb a6 f5 3c 32 e9 07 be ac 7d 93 bd d9 2d 05 3e
       0.029986849 -0.1327255 -0.072017044 0.1300577
000170 2e 41 53 bd 74 be 59 be 2e df c1 3d 9c fb 41 3e
       -0.051575832 -0.21264058 0.09466396 0.18943638
000180 46 22 0c be 78 a9 68 3d 07 25 9c 3d 36 e8 c5 3d
       -0.1368495 0.056802243 0.0762425 0.09663431
000190 f6 1e db bd d4 a3 9e bc 84 29 07 bd bd fc a0 3c
       -0.10699265 -0.019365229 -0.032998577 0.019651765
0001a0 f3 be 3e 3e 7c 79 47 bc cf 0d dc 3d 97 b2 d7 3d
       0.18627529 -0.01217496 0.10744821 0.1053211
0001b0 b9 2d df 3d 4d e2 42 3d 17 6b 58 3d 9f 6b 4b 3e
       0.10897393 0.0475791 0.052836504 0.19865273
0001c0 c3 f8 df bc 45 e6 95 bd 3a 4d be bc f3 6e 04 be
       -0.027340299 -0.07319311 -0.023230184 -0.12932949
0001d0 92 0b 46 3d 31 82 69 bc ec d7 84 3d b9 4c ca 3c
       0.048350878 -0.014252231 0.06486496 0.024694787
0001e0 07 e4 eb bd 97 9a 8e 3d 73 b6 fc 3d 40 f7 fe bd
       -0.11518102 0.069630794 0.12339487 -0.12449503
0001f0 65 74 4c 3d 1e 80 a7 3d 34 f5 3a 3e 32 d1 05 be
       0.04991569 0.08178733 0.182576 -0.13068083
000200 ea 42 d6 3c 55 60 58 3d 3f af 06 3d f3 cc 9c 3d
       0.026154954 0.052826244 0.03288197 0.076562785
000210 f3 31 d4 bd b6 f0 b3 3c 84 af 83 3c 36 0a c4 bd
       -0.103610896 0.021965366 0.016074903 -0.0957226
000220 ce b1 c2 bb 7a 1d 43 bd 6e ea 73 bd 7c d6 bf bd
       -0.005941606 -0.047635533 -0.05954974 -0.093670815
000230 7c ed 55 bc 7b b2 0a 3e 46 86 36 3c 2b 38 29 be
       -0.013057109 0.13544647 0.011140412 -0.16525333
000240 2e 1d 60 3d ff a2 6c 3d fb 4a 5d 3d fc 0e 42 3e
       0.054715328 0.057772633 0.054026585 0.18951029
000250 fc 4d 8a 3c f0 f3 46 bd 67 e9 dc 3d 34 55 99 be
       0.016882889 -0.04857248 0.107867055 -0.29947817
000260 50 3d 4b be 6a 66 af 3d 3a b8 d8 3d 76 f8 8b 3e
       -0.19847608 0.08564456 0.105820134 0.27337998
000270 3b fd 6c bc 7a 80 1c be 4a ff cc 3d bd 73 81 bb
       -0.014464672 -0.15283385 0.1000963 -0.0039505647
000280 6c 61 93 3c 50 67 53 3d be b3 cf bd 91 95 f4 3c
       0.01799079 0.0516122 -0.10141705 0.029856475
000290 fe 85 6e be 27 79 f1 bc 4c 3d e4 3c 03 59 76 3b
       -0.23293301 -0.029476715 0.02786126 0.0037589676
0002a0 30 4b 0f be 6c 4a 8f 3e ee 93 05 be 44 9d bf bb
       -0.13993526 0.27986467 -0.13044712 -0.005847605
0002b0 a2 d6 36 bc e1 3b d8 3d 97 71 b3 3d 43 5e d5 3d
       -0.011159571 0.10558296 0.087619 0.104183696
0002c0 1f c4 b9 bd 5d 7c 19 3e c5 a0 e0 bd 09 6d 47 be
       -0.0907061 0.14988847 -0.10968164 -0.19475187
0002d0 d9 96 87 bc 7d f3 95 bc 35 e5 b0 3d 5d 9a 9c 3d
       -0.016551422 -0.01830458 0.08637468 0.0764663
0002e0 b0 98 07 be a3 8d 32 3e e6 81 fa 3d 2c ec cb 3d
       -0.1324184 0.17436843 0.122318074 0.099571556
0002f0 b3 7b 4a be 5a 67 92 3d e6 35 53 be d5 8f 45 be
       -0.1977375 0.07148619 -0.2062603 -0.19293149
000300 bc 74 9a bb 09 ff 46 3d be 16 e8 3a 7f fd 8f 3c
       -0.004713623 0.048583064 0.0017706973 0.017576931
000310 f3 ed cb 3d 52 1a 44 be 8a bc cb bd 7a a6 88 3d
       0.099574946 -0.19150665 -0.0994807 0.06672378
000320 fe 59 a0 bd 95 f1 b9 bd 04 17 fa 3d 5d 9c 03 3e
       -0.07829665 -0.09079281 0.12211421 0.12852617
000330 a7 72 ff ba bc 2f 39 3d 16 eb 29 bd e4 19 a3 bb
       -0.0019489125 0.04521154 -0.04148396 -0.0049774516
000340 fd 3a e3 3d 02 28 5b 3e 34 90 03 3d 9d a1 42 3e
       0.110952355 0.2140198 0.032119945 0.19006963
000350 9d 86 b1 bd 14 b4 c9 3d 82 be 32 3e ee 38 21 be
       -0.086682536 0.098488 0.17455485 -0.15744373
000360 87 4c 2b 3e 69 f3 b5 bd 91 40 61 3e f5 96 19 3e
       0.16728412 -0.088843174 0.21997286 0.14998992
000370 07 c3 fb bd af cb 11 bd 0c 98 01 3e 8d 8d 89 3e
       -0.12293058 -0.03559464 0.12655658 0.26865807
000380 86 59 af 3d ae 23 ba bc 34 95 6f bd d5 12 51 3d
       0.08561997 -0.022722092 -0.0584919 0.05104335
000390 25 e6 2c be 7b 67 c3 bd 93 a5 10 3e a0 9e d5 3b
       -0.16884668 -0.09541222 0.14125662 0.0065191537
0003a0 6a 56 60 be 3c 90 9c be 21 b7 e0 3d 0b 47 01 be
       -0.21907964 -0.30578792 0.10972429 -0.12624757
0003b0 3d e3 bb bd 2d c6 70 3d 86 f8 ff 3d 09 72 0e 3e
       -0.09174202 0.058782745 0.12498574 0.13910688
0003c0 b1 36 da bd fa 19 ca bc d3 b1 7b be 83 2e 9f 3d
       -0.10654963 -0.02467059 -0.24579553 0.07772543
0003d0 0f 24 16 be 90 02 eb 3d 03 f5 95 3d 49 b5 f3 bd
       -0.14662193 0.11475098 0.07322123 -0.11899812
0003e0 9f 51 2a 3e 97 b5 ae 3d 4c b2 68 3e 18 bf ae bd
       0.16632698 0.08530729 0.22724265 -0.08532542
0003f0 89 e0 01 3e ae 8f 79 bc 0f 15 24 3e 44 f0 db 3d
       0.1268331 -0.01523201 0.16023658 0.107391864

pi.net.2.bias f4 [50]
000000 c1 a9 ad 3b cd 7c a1 3d a7 12 52 3e 8e 14 f4 3d
       0.0052997773 0.07885132 0.20514928 0.11917983
000010 1e 74 c0 3d f6 a2 12 be e7 a6 01 3d e1 d2 d3 3d
       0.093971476 -0.14319977 0.03165331 0.10342956
000020 3e 84 b1 bd fe d8 2f bd a8 70 2d be 05 4d 2d bd
       -0.08667801 -0.04293155 -0.16937506 -0.04230978
000030 ac d8 02 3e c3 87 1b 3e e9 2c 7a 3e 3e 61 51 3d
       0.12777966 0.15188508 0.24431194 0.051118128
000040 a7 48 15 3d 31 13 6f 3e 5a 0d db bd 00 96 06 3e
       0.03644624 0.23347165 -0.10695906 0.13143158
000050 08 4a 3f bd 50 b3 89 bd f8 35 14 3d 18 6d dc bd
       -0.04670146 -0.06723654 0.03618428 -0.107629955
000060 69 3e 7f 3e 4b 4d 2e 3e 8b cd 30 bc 57 18 c5 3d
       0.24926151 0.17021672 -0.010791193 0.09623783
000070 6b 13 62 3e a9 26 a2 bc 0b a2 55 bd 83 de 53 bd
       0.2207772 -0.019793825 -0.05215649 -0.051725876
000080 51 88 43 bd 4b 5f 5a be 13 65 6b 3d 56 d8 db 3c
       -0.047737423 -0.21325414 0.05746944 0.026836555
000090 89 5b b1 3e 06 e0 d0 3b 84 07 a0 3e 77 77 e5 3d
       0.34640148 0.006374362 0.31255734 0.11204427
0000a0 74 c4 cf bc 66 d1 6f bd 26 86 4a 3e f5 52 9a 3d
       -0.02536223 -0.058549307 0.19777736 0.07535354
0000b0 02 b1 30 3e fc 0c ba 3c ab ae 80 bc 61 a9 13 3d
       0.17255023 0.02271127 -0.015708288 0.036050204
0000c0 d7 10 c3 bd 80 37 3e 3d
       -0.09524696 0.046439648

pi.net.4.weight f4 [4, 50]
000000 e0 e6 6f be cc b6 bd 3e 76 73 43 3e 3d 58 0d bd
       -0.23427916 0.37053525 0.19087014 -0.03450798
000010 80 b6 5a 3e 3e b7 56 be e0 6c b1 be 11 b9 43 be
       0.2135868 -0.20968339 -0.34653378 -0.19113566
000020 49 51 50 be f7 81 c3 be 1b cf 51 3e 7e 44 e4 3d
       -0.20343508 -0.38185093 0.2048916 0.11145876
000030 5c fa b9 bc 63 6c 2d 3d 24 ad 1c 3c f2 d5 7b 3e
       -0.022702388 0.042339694 0.009562764 0.24593332
000040 3d 85 50 bd 2d a6 20 3c 39 b4 87 be 9b a2 19 be
       -0.050908316 0.009805244 -0.26504686 -0.15003435
000050 21 cf c2 3e ae 78 3f be 8a 7e 4d be fe 22 33 be
       0.38048652 -0.1869838 -0.20067802 -0.17493817
000060 6b 26 38 3d 8d 91 a0 3d 10 f0 a8 3d 91 c6 f3 bd
       0.044958513 0.078402616 0.08248913 -0.11903108
000070 9b 42 1e be e8 b0 e2 bd c3 7c 1e be ae 90 a4 3d
       -0.15455095 -0.110688984 -0.1547728 0.08035408
000080 30 1d d9 3e d5 5b 75 be c8 f9 bf 3c 09 db 34 be
       0.4240508 -0.23960812 0.023434535 -0.1766168
000090 34 4f 26 be a3 72 1e 3e 1e ea 69 3e de 20 cd bd
       -0.16241151 0.15473418 0.22843215 -0.100160345
0000a0 22 e2 d8 bc 1c 41 17 3e 9e 9b 62 bd df a3 0f 3e
       -0.026475016 0.14770931 -0.05532419 0.14027356
0000b0 53 8d 57 3e 30 85 0a be 31 0b cd bd 0c 40 f4 3c
       0.21050005 -0.1352737 -0.100119 0.029815696
0000c0 53 dc c9 bd 6e c0 ae 3c 57 25 0b be 69 ae ff 3d
       -0.09856477 0.021331992 -0.13588463 0.12484438
0000d0 9d 9d 28 bc 3b 6c e4 3d 07 7b d7 3d 0d b2 20 3e
       -0.010291484 0.11153456 0.105215125 0.15692921
0000e0 1a 6d 2a be a2 00 18 3e 4a 5a 52 be e8 99 13 bf
       -0.16643181 0.14843991 -0.20542255 -0.5765672
0000f0 93 d6 39 be f1 6c 49 be 19 97 ba 3d cd 8a 4b be
       -0.1814826 -0.19670464 0.09110851 -0.19877167
000100 c2 ab bd bd cd 06 35 bd b1 89 89 be f9 5a cd 3e
       -0.09261276 -0.04419594 -0.26862863 0.4010847
000110 3f 1b ff 3c 86 d6 10 3e 5b b7 1d bb 1a ac d2 bd
       0.031140922 0.14144334 -0.0024065587 -0.10286732
000120 7f 4e 46 be 27 43 12 3d d4 6b ab 3d 09 58 0e 3e
       -0.19365881 0.035708573 0.08370176 0.1390077
000130 34 11 ba bd 20 66 71 3e f0 39 ed 3e c9 83 40 be
       -0.090853125 0.23574114 0.46333265 -0.18800272
000140 6e e7 d0 bb c4 bf 58 be de 5f 4c be 04 85 21 be
       -0.006375245 -0.21166903 -0.19958445 -0.15773398
000150 39 1b 59 3e b9 2f a7 be d4 5c 7d 3e b4 13 33 3d
       0.21201791 -0.32653597 0.24742442 0.043719962
000160 34 f0 d9 3d 2f 08 de 3d a4 62 e2 3d 90 a1 91 be
       0.10641518 0.10841405 0.110539705 -0.28443575
000170 fd b2 00 3d 4b e9 9d 3e ab 8b 38 3e 19 4f 08 3e
       0.031420697 0.3084205 0.18022029 0.13311423
000180 a5 67 8a bd d4 06 a2 be 6d e2 b8 be 23 f1 34 3e
       -0.0675805 -0.31645834 -0.3611025 0.17670111
000190 a9 58 2b 3e fc 69 6e 3e 79 23 f1 3c 04 eb 24 be
       0.1673304 0.23282617 0.02943586 -0.16105276
0001a0 8e d9 8f be ee b5 53 be f0 2a 1c be 87 8c 39 3e
       -0.2809567 -0.2067487 -0.15250754 0.18120013
0001b0 41 de cd 3d bb 72 dc bb c2 a8 34 3e f4 c9 67 3e
       0.10052157 -0.006727544 0.17642501 0.22635633
0001c0 58 f5 57 3d 54 19 29 3e 62 53 3d 3d 11 07 7d be
       0.052724212 0.16513568 0.0462221 -0.24709727
0001d0 b1 c9 aa 3e 27 bf 1f be 5e 4a 5e be 47 77 f8 3c
       0.33357003 -0.15600263 -0.21708056 0.030330313
0001e0 fd cb 72 bd a0 5d 75 3e a3 d5 1a 3d 9e ea 68 3e
       -0.05927657 0.23961496 0.037801396 0.2274575
0001f0 00 1f aa 3e 9b 18 d7 3e c2 ab a3 3e 7e 51 cd be
       0.33226776 0.4201096 0.31966978 -0.40101236
000200 08 81 7d 3e ec ce cc bd 5d f5 11 be e1 a6 4c be
       0.24756253 -0.10000405 -0.14253755 -0.19985534
000210 c7 7e 23 be b9 9c c9 bd ac 38 68 3e 04 f3 17 be
       -0.1596633 -0.098443456 0.22677869 -0.14838797
000220 f5 64 a7 3e 90 fc 2b be 37 48 d5 3d 18 71 05 3e
       0.32694212 -0.16795564 0.104141645 0.13031423
000230 01 93 12 be 46 ad d9 3c 51 ae 72 3e 50 11 6a be
       -0.1431389 0.026571881 0.23699309 -0.22858167
000240 56 71 0c be 96 39 6d 3e ef 84 65 3e fa 57 e2 3d
       -0.13715109 0.23166499 0.22413991 0.110519364
000250 7e 78 a9 3e 0d d3 85 3e c3 f1 8e be c0 a1 c1 bd
       0.3309974 0.2613758 -0.27918825 -0.094546795
000260 7b fe 6c 3d e4 13 bd be c7 a9 49 3b b3 67 8d be
       0.05785988 -0.36929238 0.0030771361 -0.2761818
000270 a1 c8 99 be 6e 43 5a 3e b7 2d 7c be cb f1 97 bd
       -0.3003588 0.21314785 -0.24626814 -0.07419165
000280 69 d6 58 be 58 e5 1f 3e 2d 1e c2 bd bb c8 ec 3d
       -0.21175541 0.15614831 -0.09478412 0.11561724
000290 35 1f 7e 3e c4 81 0a 3e f5 40 3a be 86 6c 3c bd
       0.24816592 0.13526064 -0.18188842 -0.046001934
0002a0 f8 b1 ce bd 03 1e 62 be 22 e1 80 3e f2 85 7f be
       -0.100925386 -0.22081761 0.25171763 -0.2495344
0002b0 02 0f c8 3e 34 e7 c9 3d 30 67 7e 3e 0f 35 ad bd
       0.3907395 0.098585516 0.2484405 -0.08457386
0002c0 40 8b 71 be fe c0 04 be 4b 3d 9a be 3e 3f 16 3e
       -0.23588276 -0.12964246 -0.30124888 0.14672562
0002d0 19 68 95 3e 10 c5 26 be 4e fa dd bc 22 72 22 3e
       0.29180983 -0.16286111 -0.027096894 0.1586385
0002e0 a2 15 b4 3d 27 e5 b5 bc 96 25 0d 3e 23 4d a3 be
       0.08793189 -0.022203995 0.13783869 -0.31894788
0002f0 95 14 3f 3d 5a e0 7e 3e cc 03 81 3d 48 51 8e 3e
       0.046650488 0.24890271 0.06299552 0.27796388
000300 f9 b3 c3 3d 92 d8 0c be 7b b1 dd 3d 50 d4 64 be
       0.095558114 -0.1375449 0.10824867 -0.22346616
000310 d3 ac d2 3e 4e c7 1c be 1a 6f d9 3d e8 9d 24 3d
       0.4114748 -0.15310404 0.10616894 0.040189654

pi.net.4.bias f4 [4]
000000 fb 3f 9d 3d 16 a8 98 3c 0e 94 fc bc 26 62 f1 3d
       0.07678219 0.018634837 -0.030832317 0.117862985

v.net.0.weight f4 [64, 34]
000000 7f c8 4e 3e eb 48 a4 3d 09 a5 1a be 07 04 6e 3b
       0.2019367 0.080217205 -0.15102018 0.0036318318
000010 28 e6 08 3e 1d 2d fe 3d d8 d5 85 bc 47 12 20 3e
       0.13369048 0.124109484 -0.01633732 0.15631972
000020 fd ef d6 3d 5c 94 20 be 4d dd 4f 3c da e2 ac 3c
       0.10494993 -0.15681595 0.01268704 0.021104265
000030 05 eb 0a 3e 1f ca d1 bc 3a be c1 bc ce 1b 17 bb
       0.13566215 -0.025609074 -0.023650277 -0.0023057344
000040 73 53 04 bd 77 92 aa 3e 79 84 c8 3d 43 3a 9c 3b
       -0.032306146 0.3331487 0.09790892 0.0047676875
000050 84 6d 9b 3d 46 b0 ca 3e bf 47 87 3e 35 f9 84 3c
       0.07589248 0.3958761 0.26421925 0.016232112
000060 7e e7 9d 3c 8b b5 9a 3e d0 d8 b4 bb b6 2a 9f 3c
       0.019275423 0.3021663 -0.00551901 0.019429546
000070 12 58 d6 3c 52 67 ab 3c 3a 95 f3 bc ab 6c ef bc
       0.026165042 0.02092329 -0.029734243 -0.029226622
000080 b2 b9 a0 3b 5a e3 2a bd 9b f6 4f 3e 55 64 4f bd
       0.004904949 -0.041720726 0.20308916 -0.050632793
000090 b4 c0 58 bd c1 fd 49 3e b4 4e 99 bd 42 e0 17 3d
       -0.05291815 0.19725706 -0.074857146 0.037079103
0000a0 3e 5a 4a 3e 55 7e 9d bc 31 f1 8c bd 52 f2 8d be
       0.19760987 -0.019225279 -0.06881941 -0.27723938
0000b0 e0 64 61 bc cc 30 53 bb 0e 85 a5 bc 66 88 04 bd
       -0.013756961 -0.003222513 -0.020205047 -0.032356642
0000c0 53 60 bd bc 1b 8c e7 3c 36 b9 84 bc 28 8b de 3d
       -0.02311722 0.02826505 -0.016201597 0.10866386
0000d0 c3 00 8b be b8 8b d9 3d fc 24 4a 3e 94 34 7b 3a
       -0.2714902 0.10622352 0.19740671 0.0009582725
0000e0 e4 b0 13 be f6 74 bd ba da df 25 3e a9 e2 5b 3d
       -0.14422947 -0.0014454413 0.16198674 0.053682957
0000f0 bf c8 b5 bd 83 ea 47 bb da 16 e7 3b ff 8b 04 3d
       -0.0887618 -0.003050477 0.0070522847 0.032360073
000100 93 d3 12 bd 0b 71 c2 bc 26 29 ee 3c a0 ce 04 bc
       -0.035846304 -0.023735544 0.029072355 -0.008105904
000110 d8 3f 9e 3c bc d9 b5 3d 52 d5 0c bd 07 ef bf 3c
       0.019317552 0.0887942 -0.034383126 0.023429407
000120 5a 87 f2 bb 37 b0 1b be 25 e1 f1 3d a9 cf 98 3d
       -0.007401389 -0.1520394 0.11810521 0.07461483
000130 df 09 83 bd 90 68 b3 3d 3a fe df 3b d0 47 8c bb
       -0.06398367 0.08760178 0.006835726 -0.0042810217
000140 c3 3e 8b bd e3 f1 ad b9 ee 8e d4 39 09 67 64 bc
       -0.0679908 -0.0003317735 0.00040542282 -0.013940581
000150 31 da d4 bb 12 f0 37 3d 01 86 3f bd d6 e3 9a 3d
       -0.006495737 0.044906683 -0.046758655 0.075629875
000160 26 1d ad 3d e2 74 be 3c 77 3c 28 bd 88 79 41 3e
       0.08452825 0.023249093 -0.04107329 0.18894017
000170 8e dc 0c be aa ea e2 3d 06 8a fb bd 41 a9 55 bb
       -0.1375601 0.11079915 -0.12282185 -0.0032602104
000180 5c ec 97 bc fd ac db 3d d6 fa 3c bb d5 d2 ce bb
       -0.018545322 0.10726354 -0.0028836033 -0.006311754
000190 f6 7b 7e bc d5 2f a8 3c 74 9d 8f 3d 89 d0 c1 3d
       -0.015532484 0.02053062 0.07012454 0.09463603
0001a0 62 76 c7 bd 0a bb aa bd e0 6b 12 be ad 41 6e 3e
       -0.097393766 -0.08336456 -0.14298964 0.23267241
0001b0 79 b5 a1 3d f4 24 89 3d 92 4e 67 bd 55 45 ef bd
       0.07895941 0.066965014 -0.056471415 -0.11683146
0001c0 2f e9 4a 3c d0 46 43 3a e8 b2 db 3d 7a 9d 68 bb
       0.012384697 0.00074492116 0.10727483 -0.0035494254
0001d0 51 19 82 ba 9a ee 6f 3b 87 22 0b 3d d2 e9 11 be
       -0.0009925758 0.0036610723 0.033968475 -0.14249352
0001e0 ce 8b ac bd b9 60 0c 3e 2d f1 39 3d c4 f8 c5 3d
       -0.08425103 0.13708772 0.04539602 0.09666589
0001f0 fc 56 31 be 86 ab 43 3d 80 d8 c9 bd 20 ca 98 3d
       -0.17318338 0.047771 -0.09855747 0.07460427
000200 d9 f8 1b 3e d9 1e af ba 1f 65 b4 bb 90 e1 bc bd
       0.15231647 -0.0013360634 -0.0055052186 -0.0922271
000210 5d 07 da bc 76 ae e6 3b 76 61 02 ba 60 6d fe bc
       -0.02661484 0.0070398403 -0.0004973629 -0.031058013
000220 0d 97 a1 bd df a2 72 bd 2c 6c 91 38 66 74 48 3e
       -0.07890139 -0.059237357 6.9342874e-05 0.19575652
000230 50 ec 03 bc 36 21 57 3b 25 86 40 bd 29 42 fa 3c
       -0.008051947 0.0032826192 -0.04700293 0.030549126
000240 01 dc d2 bd 13 fb 9c bd 31 18 38 ba c7 64 eb bc
       -0.10295869 -0.07665076 -0.0007022648 -0.028734578
000250 db 9b d7 bb d8 eb b2 3a 56 7d 1f 3c 09 a2 6c 3d
       -0.0065798587 0.0013650609 0.009734472 0.057771716
000260 8c 67 78 3c ab 3d 6e 3d 09 bd 8c 3d bd bb 71 3d
       0.015161406 0.05816428 0.06871993 0.05901693
000270 45 ef 63 3e bf 00 8e bc 0b 45 02 3e 02 f3 30 bd
       0.22259243 -0.01733434 0.1272165 -0.0432005
000280 35 5c 2c 3e a8 93 12 3e dc 99 27 3e 59 0b 7d bc
       0.16832049 0.14314139 0.16367286 -0.0154446
000290 fc 85 0c bd 2e 9f cf 3d 64 30 f4 3b 71 83 19 3b
       -0.034307465 0.10137783 0.0074520577 0.0023424292
0002a0 75 ba 77 3d 47 70 18 3d 56 d9 b6 3e 2f a9 39 be
       0.060480554 0.03721645 0.3571269 -0.18130945
0002b0 0b c2 43 3c 35 3a b6 bd 57 53 04 3d 90 76 b5 bc
       0.011948119 -0.08897821 0.03230604 -0.022151262
0002c0 9d 9b 8e bd ce 3a a8 3e b5 fe 9c be b6 04 57 3e
       -0.06963275 0.32857364 -0.30663076 0.20997891
0002d0 47 ab fc 3b 2e c9 14 3c 99 86 97 bd 60 cd d6 3c
       0.0077108475 0.009081168 -0.07398719 0.026220977
0002e0 c4 44 6c 3c a7 5a 0f 3c b2 3b a4 3b d5 f4 49 3e
       0.014420692 0.008749641 0.005011999 0.19722302
0002f0 ad b7 4e be 5c 8e 03 3e dc 6a 0c be 8f f3 7c 3e
       -0.20187254 0.12847275 -0.13712639 0.24702285
000300 28 2e 66 3d 51 fe 11 be 04 2f 7a 3e a4 3c 1e bc
       0.05619636 -0.1425717 0.24431998 -0.009658013
000310 24 b8 85 3e 98 90 13 3c 32 5a f5 3b eb 3c 06 bd
       0.2611705 0.009006642 0.0074875588 -0.03277294
000320 62 e8 37 3d ed 3e 81 3c 8f 6c 80 3b 6b ca 39 bb
       0.044899352 0.015777076 0.003919191 -0.002834941
000330 08 12 8f bd 5b 1b 77 be 65 ae 91 be f0 14 09 3e
       -0.06985861 -0.24131529 -0.28453365 0.13386893
000340 c9 fc 56 bd 6f 56 b8 3d 15 e0 19 3e a1 a3 02 be
       -0.05248717 0.09000861 0.15026887 -0.12757732
000350 50 39 14 3e 65 1a bf bd ff 26 03 3a dd 66 b3 bc
       0.14474988 -0.09331206 0.0005003064 -0.021899635
000360 65 17 41 3c 22 33 d4 bc 7d 20 d5 bd 6b 71 e8 3a
       0.011785363 -0.025903288 -0.10406587 0.0017733997
000370 76 fe 9c bc cb 8b 2e be 90 0e 84 bd 48 16 e3 be
       -0.019164305 -0.17045514 -0.0644809 -0.44352937
000380 84 45 c5 bd 9a 56 2b 3e d2 d0 f6 3b 65 c4 4e 3e
       -0.096324 0.16732255 0.0075322175 0.20192106
000390 ea 88 27 be 23 7f 8b 3d c5 2a 94 be 22 8e 78 3c
       -0.16360822 0.06811359 -0.2893888 0.015170606
0003a0 74 7c 35 bc c6 1f 16 3e 3f 53 86 bd 0a 47 b0 bd
       -0.011077035 0.14660558 -0.06558847 -0.086072996
0003b0 aa 96 79 bb fa 51 94 bd 76 f5 18 be a1 f3 4f bf
       -0.0038084188 -0.07242198 -0.14937386 -0.81231123
0003c0 eb 9f 24 bd 35 30 50 3d 53 81 56 3e a3 50 a8 3e
       -0.040191572 0.050827224 0.20947771 0.3287402
0003d0 cc fb 19 3e b5 4a 99 bc 2e 23 ea be 56 0a 0e be
       0.15037459 -0.01871238 -0.45729965 -0.1387113
0003e0 06 21 f8 ba 2c 2e b2 bb 47 77 be bd 15 13 0e bd
       -0.001893074 -0.005437633 -0.09300094 -0.034686167
0003f0 70 18 1a 3d 0e a4 31 3d 69 41 01 bd 9b 96 f0 bd
       0.03762096 0.043369345 -0.03155652 -0.11747476

v.net.0.bias f4 [64]
000000 00 21 8a 3e 58 e5 59 bc ed 72 84 be 58 6c 53 be
       0.26978302 -0.013299309 -0.2586893 -0.20646799
000010 92 9f 00 be ef 11 23 3e 54 46 9e 3e 86 9c eb bc
       -0.12560871 0.1592481 0.3091303 -0.02876116
000020 57 bd 7d 3c f4 2e 11 3e 46 23 3a be 98 9c cb bd
       0.015487037 0.14178067 -0.18177518 -0.09941977
000030 0a ca 1a be 82 f3 97 be a7 6e 98 3d 5a a0 a4 be
       -0.15116134 -0.2967797 0.0744298 -0.3215359
000040 71 61 b6 be a6 ab 6e be 83 ae 54 3c 96 74 a7 3d
       -0.35621217 -0.23307666 0.01298106 0.08176534
000050 71 a5 98 3e a4 2b 9b be 80 eb 8c 3e e4 6f f7 3d
       0.29813722 -0.30306733 0.27523422 0.12081888
000060 9c 08 ab 3e d4 e8 a8 3c 1b 29 ce 3e af ac 29 3e
       0.33405006 0.020618834 0.40265736 0.1656978
000070 f3 47 64 3e df f8 c4 3e bf 3f ab 3e ad a8 05 3f
       0.22293071 0.38471124 0.33447072 0.52210504
000080 b2 6d 11 3e ee e4 32 3f 6a a7 d1 3e 08 ee a2 3e
       0.14202002 0.6988057 0.4094804 0.31822228
000090 f2 3c 25 bd 67 d7 39 3e ed 73 a9 be ed 3c 8e be
       -0.040341325 0.18148576 -0.33096257 -0.27780858
0000a0 57 14 1f 3e c4 12 68 3e c1 6f 0c 3e 0a fd 8e be
       0.15535103 0.22663409 0.13714506 -0.27927428
0000b0 8d 21 b6 bd a2 aa bd 3e 3e 8b 0b bf d9 60 4f 3e
       -0.08893118 0.37044245 -0.5450934 0.20251788
0000c0 6c 85 a9 3d 70 67 68 3e f2 4d 83 3e 4e fd 93 be
       0.08277401 0.22695708 0.25645405 -0.28904194
0000d0 96 9f bf be a1 ea 65 be 72 07 a6 3e 04 58 9e bd
       -0.37426442 -0.22452785 0.32427555 -0.077316314
0000e0 ba 9f 52 be 6b 9a e4 bd 1d 9e 58 3e 54 1a 6d 3e
       -0.20568743 -0.111622654 0.21154065 0.23154575
0000f0 98 8e 7d bd af a3 b7 bd ba 9a 2e 3e 88 03 8f be
       -0.061903566 -0.08966767 0.17051211 -0.27932382

v.net.2.weight f4 [64, 64]
000000 1a 8b 15 be 36 1d 80 bd 70 e6 07 3d 15 cb 55 bd
       -0.14603844 -0.062555715 0.033178747 -0.052195627
000010 b8 05 08 3e 98 b4 62 3e 05 2f 0f bd f5 5c 29 be
       0.13283432 0.22139204 -0.03495695 -0.16539367
000020 f0 84 39 3c 5c e2 a0 bc 7b 87 cb 3d 32 3f 8b 3e
       0.011323199 -0.019639187 0.0993795 0.27196652
000030 be 18 30 3d ad 1f 7e bc d5 6d a1 bd ec b1 36 bd
       0.042992346 -0.015510482 -0.07882277 -0.044603273
000040 f4 6d 11 3e cd ad 16 3e 86 8a 86 bd 48 09 ac be
       0.142021 0.14714737 -0.0656939 -0.3360083
000050 aa 43 05 be 54 6b 08 3d cf 66 49 bd 7a e2 e7 bd
       -0.13014093 0.03330548 -0.04917031 -0.11322494
000060 fe c7 9f bd 90 5b 47 3d 73 b6 a8 bd 79 e7 94 bc
       -0.07801817 0.048671305 -0.082379244 -0.018176781
000070 8f 8d 46 bd 16 4d 50 3e dd 55 9b 3d 01 e4 b6 bd
       -0.048474845 0.20341906 0.075847365 -0.08930207
000080 10 28 3b bd ed 12 08 be e3 e5 47 be 40 80 ca 3d
       -0.045692503 -0.1328847 -0.19521289 0.09887743
000090 e8 d3 33 be 3e 9c 38 3d 16 eb 30 be d9 ef 0b bd
       -0.17561305 0.04507088 -0.17277178 -0.034164283
0000a0 59 a7 29 be 9e 49 2f bd 17 0f 11 bb 14 0d 23 3e
       -0.16567744 -0.042794816 -0.0022134238 0.15922958
0000b0 d1 59 41 3d af 6d 36 bd 66 db 25 bd 6a 81 29 3d
       0.047204796 -0.044538196 -0.040492438 0.041383184
0000c0 ff ee e1 3d 69 38 ac 3d fd f4 31 bd 5a 3d 13 3e
       0.11031913 0.08409197 -0.04344653 0.14378873
0000d0 6d c1 83 be 2a 05 07 bd a2 c0 05 be 5e f5 75 bc
       -0.2573351 -0.03296391 -0.13061765 -0.015012113
0000e0 57 5c 22 be d9 0c b0 3c 9b cc fb bd 68 5f 1e 3d
       -0.15855537 0.021490501 -0.12294885 0.038665205
0000f0 70 e6 31 be 32 5c 40 be 65 66 3e 3e eb 78 0a 3e
       -0.17373061 -0.1878517 0.18593748 0.13522689
000100 4b 5c c7 bd d1 5b 63 3c 09 35 c4 3d 47 e6 30 bd
       -0.097344 0.013876871 0.09580428 -0.04318836
000110 4d 44 73 bd 98 ab c0 3d d8 91 91 3b e2 f1 78 3d
       -0.05939131 0.09407729 0.0044424348 0.060777552
000120 cb 7d 54 3e 9f 73 4e be a5 72 79 bc 90 37 c9 3d
       0.20751111 -0.20161293 -0.015225087 0.09825051
000130 c0 89 09 be 20 dc 03 3e e3 82 37 3d 29 86 34 be
       -0.13431454 0.1287694 0.044802558 -0.17629303
000140 85 77 91 bd 8c c2 8f 3e 00 8a 7b 3d 0e de 25 be
       -0.07102875 0.28078115 0.061410904 -0.16197988
000150 fc 07 75 3d ca ee e4 3d 17 67 5e be 53 dd e7 bd
       0.059822068 0.11178358 -0.21719013 -0.11321511
000160 95 b0 a2 bd 2d 39 5d 3d 5b 1f 51 be 47 05 fe bc
       -0.079438366 0.054009605 -0.20422117 -0.031008376
000170 69 38 10 bd c6 9c 45 be a9 5d 5c bd 17 81 2b be
       -0.035210047 -0.19298086 -0.05380026 -0.16748463
000180 44 25 57 3d 7b 2a 10 be 36 13 33 be 4f ec 64 be
       0.052525774 -0.14078705 -0.17487797 -0.2235577
000190 3b 8b 12 3d 84 4e a0 bd 29 79 f1 3d c5 e9 6b 3e
       0.03577731 -0.07827476 0.117906876 0.23038395
0001a0 2e 15 c7 bc f7 b3 40 3d 1a 06 15 be d7 08 c2 3e
       -0.024302091 0.047046628 -0.14553109 0.3789737
0001b0 60 e8 14 3e c3 9b 58 be 5d c6 56 3d d1 c3 37 be
       0.14541769 -0.21153168 0.052435268 -0.17945792
0001c0 f3 61 13 be fa a8 ff bd 44 e2 25 3d c7 2f 5e bd
       -0.14392833 -0.124834016 0.040498987 -0.054244783
0001d0 81 21 93 bc f0 cb 31 3d 24 39 41 be 67 4e 8c bd
       -0.017960312 0.04340738 -0.18869454 -0.068508916
0001e0 53 37 7d bd 67 d8 11 3d 8c b0 50 bd 91 fd 54 be
       -0.06182034 0.035606768 -0.05094962 -0.20799853
0001f0 c8 20 66 3d 74 f3 eb 3d 69 e0 a0 bd 16 b6 9c 3d
       0.056183606 0.115210444 -0.07855303 0.07651918
000200 c2 fd 21 3e 58 f7 e9 bd f4 b9 05 bd 2b 70 19 bb
       0.15819457 -0.1142413 -0.03264804 -0.0023412805
000210 71 3b e7 3d f4 3f 50 3d 3b 78 e4 3c 45 7a 96 3d
       0.112906344 0.05084224 0.027889362 0.0734754
000220 cc e0 a8 bc 47 12 fc bd af a9 f9 3b 20 e1 04 3d
       -0.020615004 -0.123081736 0.007619105 0.03244126
000230 b5 e5 8d bd b0 14 10 3d f6 3c e5 3c b5 29 13 bd
       -0.06928579 0.03517598 0.02798317 -0.035928447
000240 a1 7f 96 3a 37 ef 3a bc 1a 1b 25 3e ff 28 ba bd
       0.0011482128 -0.011409572 0.1612362 -0.09089851
000250 53 65 56 3d 9f 6b 41 bb 21 cf 66 bd d3 fd ee bb
       0.052342724 -0.002951361 -0.056349877 -0.007293442
000260 db b2 10 bd 1d 26 08 be af 36 ae be 4b 0b bd 3d
       -0.03532682 -0.13295789 -0.34026095 0.092306696
000270 f1 94 e5 3d 2a a9 4a be 5e 1b 7b 3d e9 3d 9f bd
       0.11210049 -0.19791093 0.061305396 -0.0777548
000280 69 b9 da 3c 22 9a 14 be 5e 1d 3a be ed 49 bc bd
       0.026699739 -0.14511922 -0.18175265 -0.09193788
000290 ef 1b b8 3d b4 d6 28 be 6d 40 d6 bb f1 2b 54 bd
       0.08989703 -0.16488153 -0.006538442 -0.05179972
0002a0 65 a2 5b bc 86 e1 ef bc 64 9a 37 be c8 28 a7 bd
       -0.013405417 -0.029282343 -0.17929989 -0.08162075
0002b0 df 93 c9 3d 83 7f 4d be 58 e2 00 3e 98 9a 16 3c
       0.09842657 -0.20068173 0.12586343 0.009192131
0002c0 ea c6 55 be df a9 be bd f7 34 17 3e 89 17 ae bd
       -0.20876661 -0.09309744 0.14766298 -0.08500583
0002d0 2b bb e8 3d 58 7c 9f 3b 56 9f 11 be bf da 08 bd
       0.113638245 0.004867118 -0.14220938 -0.033411738
0002e0 0e fc d1 bc 8c 07 fb bd f2 c6 8e 3d af 67 11 be
       -0.025632884 -0.12257299 0.069715396 -0.14199708
0002f0 03 77 47 3c b1 9a d5 3c a0 55 9a bd c8 c9 c4 bd
       0.012174371 0.02607474 -0.07535863 -0.09608799
000300 4d 60 45 bb c1 34 b3 bc 1c f7 1c 3e 2e e0 29 bc
       -0.0030117214 -0.021875741 0.1532864 -0.01036839
000310 5b 00 7f 3d 3c 4a 96 3c 58 0f 00 be 86 bb 2e 3e
       0.0622562 0.018345945 -0.12505853 0.17063722
000320 63 86 15 bd bf c6 ef 3c e6 4b 0a 3e 6d 9b a6 bd
       -0.036505114 0.029269574 0.13505515 -0.08135114
000330 1e 4e fc 3d bb 60 b8 3d 30 19 7d 3d 2a 0a b7 3c
       0.12319587 0.09002825 0.0617916 0.022343714
000340 53 5b b3 3d 05 4d 92 3d 5d 9f 3a bc ec b4 b2 3d
       0.08757653 0.071435966 -0.011390534 0.08725914
000350 06 c4 41 be 63 2e ec 3d 95 22 ca bd 24 04 19 3c
       -0.18922433 0.11532285 -0.09869877 0.009339366
000360 b2 60 21 be 57 56 86 bd f4 6d cb bd 22 b7 c2 bd
       -0.15759543 -0.06559437 -0.09933081 -0.09507586
000370 30 a6 9b bd 04 cc a5 bc 4a 87 ee bd 41 2c 79 bd
       -0.07600057 -0.020238884 -0.11646898 -0.06083322
000380 4c 8d 5d 3c d9 ff fa bd 04 7c 1a be 8a c8 32 be
       0.013522457 -0.1225583 -0.1508637 -0.17459312
000390 f3 48 82 3b ff 36 b9 bd 03 15 bd bd e5 26 27 3c
       0.0039759814 -0.09043693 -0.09232523 0.010202144
0003a0 49 09 6c 3d a2 0b 2a be 5b 9c d4 3c 61 a6 f0 3d
       0.057626043 -0.16606 0.025953462 0.11750484
0003b0 68 92 aa 3d 8c 90 6d 3d 25 6e 61 3d 90 11 d1 bc
       0.08328706 0.05799918 0.055036683 -0.02552107
0003c0 a0 3d 96 bd 3a f9 14 3d 2f 9c 5e 3d 7d 23 5b 3e
       -0.07335973 0.036370493 0.054348167 0.21400256
0003d0 dd 28 20 3e d7 c8 01 3d 84 84 ab 3b 2d 43 14 3e
       0.15640588 0.031685676 0.005234303 0.1447875
0003e0 7d 85 bc 3c d7 31 81 bd 8a 62 f3 3a 59 be b0 3d
       0.02301287 -0.06308334 0.0018568796 0.08630056
0003f0 c7 01 1f bd 79 1f 15 be a6 53 59 3d 36 93 dd 3d
       -0.038820054 -0.14562787 0.05305829 0.10819094

v.net.2.bias f4 [64]
000000 b4 8c 19 be 72 ce 1e 3d f3 ab 28 3c d5 d9 b8 bd
       -0.1499508 0.0387711 0.010294902 -0.09025923
000010 db 58 b4 3c 33 af e2 bd 21 bb 64 bd 07 8f b4 3d
       0.022015026 -0.11068573 -0.055842523 0.08816343
000020 b3 22 0b 3e fb 66 93 3e 2d 10 89 3e e6 74 6b 3d
       0.13587455 0.28789505 0.26770154 0.05748453
000030 81 08 ac bd 45 c9 88 bd 3b da 84 be 88 6a ab 3e
       -0.084000595 -0.06679014 -0.25947747 0.33479714
000040 21 23 8c bd 21 ee f5 bd ad 15 bc 3d e0 dc 8e 3e
       -0.06842638 -0.1200831 0.09183822 0.2790289
000050 b6 b3 1c 3e 2b 0d 01 3e a0 73 f5 3c 2c d2 95 be
       0.1530293 0.1260268 0.02996236 -0.2926191
000060 ca 89 96 be da 58 88 3e 72 3e 8a 3d 70 40 1d 3d
       -0.29402 0.26630288 0.06750192 0.03839153
000070 e8 fa d3 3d 0c d3 f4 3d f3 6e 14 be 85 13 8e bd
       0.10350591 0.119543165 -0.14495449 -0.06937317
000080 c9 5b 9d bd de 05 ad 3d 22 95 42 bd 7f fc 93 be
       -0.07683522 0.08448385 -0.047505505 -0.28903577
000090 ab f8 6f be 06 f8 bc bc 63 bb 2b be 5c e8 38 be
       -0.23434703 -0.023067486 -0.16770701 -0.18057388
0000a0 fc 4f 31 3e 98 ec 27 3e 4f 83 11 be ac 27 b0 be
       0.17315668 0.16398847 -0.14210247 -0.34405267
0000b0 7d 66 db 3c 51 e2 e3 3c 30 fc 44 3e 51 66 e2 3d
       0.026782269 0.027817877 0.19236827 0.110546716
0000c0 44 69 2a be 5c 81 87 be 2d de a4 be 38 e8 64 3e
       -0.16641718 -0.2646588 -0.32200757 0.2235421
0000d0 9f a4 7a 3e 2b e5 4d bd 4c 99 72 be 2d af 49 3e
       0.2447686 -0.05026738 -0.2369129 0.1969573
0000e0 fa 47 5c 3e e6 18 a8 bd ed 29 10 3e 97 7c 07 bb
       0.21511832 -0.08207874 0.14078493 -0.0020673627
0000f0 8a f8 84 be 25 39 5e bd e2 23 6f 3e 94 e0 fe bd
       -0.2597087 -0.054253716 0.23353532 -0.12445179

v.net.4.weight f4 [1, 64]
000000 71 97 ce 3d 45 2f 0e be 40 2c 2b be e3 15 e2 3d
       0.10087479 -0.1388522 -0.16716099 0.11039331
000010 25 75 03 be 36 4d 43 3e 80 7e e5 3d 84 e0 28 3e
       -0.12837656 0.19072422 0.112057686 0.16491896
000020 88 c1 3d be b8 91 96 bd d5 5a 18 be c7 a2 cf bd
       -0.18530858 -0.073520124 -0.148784 -0.10138469
000030 b3 40 2a 3e 09 53 9d 3d ba 2e 20 3e 6e ff 7a bd
       0.16626243 0.07681853 0.15642825 -0.061278753
000040 a4 b9 f8 3d e8 68 d7 3d 36 37 e9 bd 32 08 dc bd
       0.12144783 0.10518056 -0.11387484 -0.10743751
000050 b6 82 13 be c3 45 fa bd 42 56 fd bd 6f 13 ad 3d
       -0.14405331 -0.12220337 -0.12369968 0.08450972
000060 1f c1 5e 3e ea 82 56 bc 37 21 12 3e c5 e5 c0 bc
       0.21753357 -0.013092736 0.14270483 -0.023547063
000070 2e 46 0f be 35 64 d2 bd fd c2 dc 3d 79 76 0c be
       -0.13991615 -0.10273019 0.107793786 -0.13717069
000080 01 f2 18 3c 94 91 8f bd 58 0f e6 3d 63 cc 22 3e
       0.009335042 -0.07010189 0.11233395 0.1589828
000090 db 49 c7 3d 5f 77 24 3e 54 83 8b 3d da 1a 44 3e
       0.09730884 0.16061161 0.06812158 0.19150868
0000a0 ef 86 59 bd 2b 82 e6 bd 0a 5c 1c 3e 51 66 f2 3d
       -0.0531072 -0.11255296 0.15269485 0.118359216
0000b0 bf 17 24 3e cc 9a 8d bd 2c 8d 2a be 55 8e 9a bd
       0.16024683 -0.06914291 -0.16655415 -0.07546679
0000c0 9b bc 3c 3d d4 08 0c 3e 5c df 0c 3e 15 df d2 bd
       0.046078306 0.13675243 0.1375708 -0.10296456
0000d0 1c 03 2a be f6 08 df bd b0 df 56 3e 1f 02 14 be
       -0.16602749 -0.10890381 0.20983768 -0.14453934
0000e0 a6 e1 07 be f3 9a 0c 3e 6f 70 aa bd 11 f8 e0 3d
       -0.13269672 0.13730983 -0.08322226 0.10984815
0000f0 37 84 7e 3c ea 26 2e 3e 30 1f 20 bd 50 d3 02 3e
       0.015534452 0.17007032 -0.039092243 0.12775922
