runs/phoenix/DroneHoverBulletEnvWithAdversary-v0/ppo/2023-07-17__20-06-53/seed_00461/torch_save/model.pt (torch, 49538 bytes, 14 tensors)

obs_oms.mean f4 [34]
000000 00 00 00 00 00 00 00 00 00 00 00 00 00 00 00 00
       0.0 0.0 0.0 0.0
000010 00 00 00 00 00 00 00 00 00 00 00 00 00 00 00 00
       0.0 0.0 0.0 0.0
000020 00 00 00 00 00 00 00 00 00 00 00 00 00 00 00 00
       0.0 0.0 0.0 0.0
000030 00 00 00 00 00 00 00 00 00 00 00 00 00 00 00 00
       0.0 0.0 0.0 0.0
000040 00 00 00 00 00 00 00 00 00 00 00 00 00 00 00 00
       0.0 0.0 0.0 0.0
000050 00 00 00 00 00 00 00 00 00 00 00 00 00 00 00 00
       0.0 0.0 0.0 0.0
000060 00 00 00 00 00 00 00 00 00 00 00 00 00 00 00 00
       0.0 0.0 0.0 0.0
000070 00 00 00 00 00 00 00 00 00 00 00 00 00 00 00 00
       0.0 0.0 0.0 0.0
000080 00 00 00 00 00 00 00 00
       0.0 0.0

obs_oms.std f4 [34]
000000 00 00 80 3f 00 00 80 3f 00 00 80 3f 00 00 80 3f
       1.0 1.0 1.0 1.0
000010 00 00 80 3f 00 00 80 3f 00 00 80 3f 00 00 80 3f
       1.0 1.0 1.0 1.0
000020 00 00 80 3f 00 00 80 3f 00 00 80 3f 00 00 80 3f
       1.0 1.0 1.0 1.0
000030 00 00 80 3f 00 00 80 3f 00 00 80 3f 00 00 80 3f
       1.0 1.0 1.0 1.0
000040 00 00 80 3f 00 00 80 3f 00 00 80 3f 00 00 80 3f
       1.0 1.0 1.0 1.0
000050 00 00 80 3f 00 00 80 3f 00 00 80 3f 00 00 80 3f
       1.0 1.0 1.0 1.0
000060 00 00 80 3f 00 00 80 3f 00 00 80 3f 00 00 80 3f
       1.0 1.0 1.0 1.0
000070 00 00 80 3f 00 00 80 3f 00 00 80 3f 00 00 80 3f
       1.0 1.0 1.0 1.0
000080 00 00 80 3f 00 00 80 3f
       1.0 1.0

pi.log_std f4 [4]
000000 18 72 31 bf 18 72 31 bf 18 72 31 bf 18 72 31 bf
       -0.6931472 -0.6931472 -0.6931472 -0.6931472

pi.net.0.weight f4 [50, 34]
000000 f1 87 15 bc 61 83 1b bd 07 2b 27 3d f6 46 f8 3d
       -0.009126649 -0.03796709 0.04081252 0.1212291
000010 3d 77 20 3e 5b a6 56 3d 4b d7 2b bd 31 fb 29 bd
       0.15670486 0.052404743 -0.041953366 -0.04149932
000020 d4 1d a8 3c 12 95 ed 3d 12 91 b1 3d 6f 66 a8 3d
       0.020522036 0.116006985 0.08670248 0.08222663
000030 aa 3e fd 3c e9 d8 10 3d 23 59 0f be 2e dd 7a 3d
       0.03091367 0.03536311 -0.13998847 0.06124609
000040 d2 81 9e bd 77 49 9d bd fd a0 b3 3d 6e f8 ae bc
       -0.07739605 -0.07680028 0.087709405 -0.021358695
000050 de 81 c5 bd bf 82 b0 bc 30 7d dc bd 2a 70 73 3d
       -0.09643911 -0.02154672 -0.10766065 0.05943314
000060 f8 e6 d4 bd 89 e9 47 bd a8 4f ea bd 20 c4 5e 3d
       -0.10395616 -0.0488067 -0.114409745 0.054386258
000070 75 86 d2 3b 9f 47 80 bd c2 1d 81 3d 67 2c dc 3d
       0.00642472 -0.06263661 0.06304504 0.107506566
000080 64 6e 11 3e f3 63 be bd d8 ca 24 be 5a 83 26 be
       0.14202267 -0.092964076 -0.16093004 -0.16261044
000090 b1 5a 24 bc 21 66 ae bd d4 c7 1d 3e 01 a2 d4 3d
       -0.010031388 -0.08515573 0.1540826 0.10382462
0000a0 bf a7 27 be 0a 38 c8 3c c0 13 29 3e 79 f0 d8 3c
       -0.16372584 0.024440784 0.1651144 0.026481854
0000b0 01 fc 8e bd a2 8b 1b be a8 87 24 be ae 46 3a 3d
       -0.0698166 -0.15189984 -0.16067374 0.04547756
0000c0 ee 32 19 be 3a ce ab bd 12 bb eb 3d 5e 81 92 ba
       -0.14960834 -0.08388944 0.1151029 -0.001117747
0000d0 4a 38 1c 3d 35 af 91 bd 10 b2 f8 3d 38 33 fd bd
       0.03813962 -0.07113496 0.12143338 -0.12363285
0000e0 3a d2 03 bd 0a 5e a0 bd 46 4e c9 bd 28 70 03 3e
       -0.03218291 -0.078304365 -0.098293826 0.12835753
0000f0 00 91 15 be ef d3 ff bd 4f 34 22 3d 59 e9 fd 3d
       -0.14606094 -0.12491595 0.039600667 0.12398023
000100 60 2b 45 bc 36 2e 83 bd cf e9 5e bd ab 66 d0 3d
       -0.012034267 -0.064052984 -0.054422196 0.10175832
000110 72 5e 22 be c7 c6 0c bd 11 b5 36 3c 61 67 87 3d
       -0.1585634 -0.034369256 0.011151568 0.06611515
000120 66 ac 6e 3c 7d 97 b3 3d e1 7f f6 bd 7a 23 06 be
       0.01456747 0.087691285 -0.1203611 -0.1309947
000130 f2 f5 16 3e 81 82 2b be 20 5e 12 3c b2 5d 27 be
       0.14742258 -0.16749002 0.008933574 -0.16344336
000140 da 59 9a 3d a3 26 f2 bd ce 0a e2 3d 38 ea f4 bd
       0.07536669 -0.118237756 0.11037217 -0.11958736
000150 f0 18 18 3e c2 85 cc 3d 80 81 f2 3d b3 dc 01 bd
       0.14853263 0.0998645 0.118411064 -0.031704616
000160 28 75 8a 3c 60 cd ea 3d 6f d4 d6 bd 67 f3 2d be
       0.016901568 0.114649534 -0.10489737 -0.16987382
000170 db f1 22 3d 58 b0 ee bc d5 d4 d2 bb 7a b6 48 bd
       0.039781433 -0.029136822 -0.006434063 -0.04900215
000180 56 8d 77 bd 07 45 83 bd bb d8 d8 bd 75 54 0c 3e
       -0.060437523 -0.0640965 -0.10588213 0.13704093
000190 24 ce 04 3e 4f 2f 4c bc e1 e0 a4 bd 16 55 35 bd
       0.12969261 -0.012462451 -0.08050705 -0.044270597
0001a0 13 81 1f be 3f e8 20 bd 4a 01 2e 3e 81 9b 8c bd
       -0.15576582 -0.039283987 0.16992679 -0.068655975
0001b0 49 7e 95 bd 62 14 8b 3d 55 28 53 3d 5a 9a 2c bc
       -0.072994776 0.06790997 0.051552135 -0.010534847
0001c0 11 a2 0a 3d d6 93 52 3d 0d 0d f6 3d 99 51 f9 3a
       0.033845965 0.05141052 0.12014208 0.001902151
0001d0 e2 a5 ca bd 5d 80 a6 3d cb fe 58 bc 42 1d 42 3c
       -0.09894921 0.08129952 -0.013244341 0.011847796
0001e0 9e 68 81 bd ef b3 b2 3d c7 e0 28 be 36 eb 35 3c
       -0.06318782 0.08725726 -0.16491996 0.011103442
0001f0 91 24 00 3e 64 c9 70 bb 04 5a 6e 3d 41 3f a2 bd
       0.12513949 -0.0036741132 0.058191314 -0.07922221
000200 01 4e ff 3d 07 e6 f1 bd 08 b4 f7 bc a8 db fc bd
       0.1246605 -0.11811452 -0.030237213 -0.123465836
000210 55 dc db 3d 06 d8 be bd 4a 52 db bd 91 6c d3 3c
       0.107353844 -0.09318547 -0.10709055 0.025808604
000220 2f 0c d8 3d 51 53 16 3e ff a9 77 bd 2b 65 c4 bc
       0.10549199 0.1468022 -0.060464855 -0.023974022
000230 eb 3b a2 bd 01 c8 a0 bc 54 f7 4e 3d 99 44 11 be
       -0.07921585 -0.01962662 0.05052884 -0.14186324
000240 fc c2 cf bc ec f4 56 bd 0f 25 68 bb 9a a8 13 bc
       -0.02536153 -0.05247967 -0.003542248 -0.009012366
000250 5a fb 18 3d 88 16 ca bd 9d 67 21 3e 1c 38 e4 3d
       0.037349083 -0.09867579 0.15762182 0.111435145
000260 0f 83 f5 bd b8 c2 0c 3e c7 f6 96 bd 13 98 05 bd
       -0.11987888 0.13746154 -0.07371288 -0.032615732
000270 49 02 2e be b5 2e 68 3d d0 d0 08 3b 17 c2 0e 3d
       -0.16993059 0.05668517 0.0020876415 0.034853067
000280 f4 d5 f9 bc df 24 00 3d cc d6 84 ba da 84 d7 bc
       -0.030497529 0.031285163 -0.0010134815 -0.026308466
000290 64 5c f6 3d 9c 0e 03 3d 4e bf 13 bd d5 41 21 be
       0.12029341 0.031996354 -0.036071114 -0.15747769
0002a0 c9 4a e0 bd 3c c1 c3 3d 07 b2 94 3d f8 3e 1d be
       -0.10951764 0.09558341 0.072605185 -0.15356052
0002b0 90 c0 21 3e 99 b6 15 3e 5e a2 48 bc 65 3e 17 be
       0.15796113 0.14620437 -0.012245743 -0.14769895
0002c0 34 a0 78 bd af 47 1b be b9 f4 05 be 9d b7 10 be
       -0.060699657 -0.15164064 -0.13081636 -0.14132543
0002d0 4e b2 f5 bb c7 a1 18 3e 83 91 55 3d 67 15 9a 3c
       -0.007498062 0.14905463 0.052140724 0.018809034
0002e0 3f 8a 6d bd 69 c8 0e 3e 1b 27 ea bd 96 42 1b be
       -0.05799317 0.13943638 -0.1143324 -0.1516212
0002f0 4a 20 06 3e c4 da b7 bd 79 7f 36 bd 37 90 fd 3c
       0.13098255 -0.08977273 -0.04455516 0.030952556
000300 f7 7b 2a be c8 0b 46 3c c7 90 24 be 88 64 cf ba
       -0.16648851 0.01208777 -0.16070853 -0.0015822807
000310 db 9a 8d 3b 95 f0 67 3c ff 9d 18 be 09 91 c8 3d
       0.0043214387 0.01415648 -0.1490402 0.09793288
000320 a4 ba 14 be f2 91 9d bd 57 01 0f be b8 8e 2b be
       -0.14524323 -0.076938525 -0.13965355 -0.16753662
000330 1d 6b 1d be 24 96 04 bc d1 49 21 3e d3 54 0e be
       -0.15372892 -0.008092437 0.15750815 -0.13899545
000340 79 6e f6 3d 29 02 f1 3b d7 68 16 bd 37 b0 51 bd
       0.1203279 0.007354994 -0.036721077 -0.051193442
000350 a9 06 de 3c d8 9e 20 3d 6b cb 03 be ea f7 28 be
       0.027102785 0.039213985 -0.12870567 -0.16500822
000360 0c 32 c1 3c 99 aa 98 3d 55 e5 b4 bc da 99 ad 3d
       0.023583435 0.07454414 -0.02208201 0.084766105
000370 79 f6 27 be ee 4e 2d 3e ed 8a cd bd 28 b1 b7 3d
       -0.16402616 0.1692464 -0.100362636 0.08969337
000380 f9 86 a0 bd 6e 4e ee 3d 4d 7d b0 bc f2 c9 b6 bc
       -0.07838244 0.11636053 -0.021544123 -0.022313092
000390 d4 98 81 bd f1 82 21 3e b2 69 06 3e 78 9f f4 bd
       -0.06327978 0.15772606 0.13126257 -0.11944479
0003a0 f9 a8 a0 3d f8 bd 06 be 13 04 27 3d ba f0 24 be
       0.07844729 -0.13158405 0.04077537 -0.16107455
0003b0 0e 3a f8 3c ba 33 04 3e 26 89 d9 3d 60 34 86 bd
       0.03030112 0.12910357 0.10621862 -0.065529585
0003c0 50 c2 9c 3d 6c de d8 3c 16 0a 0c bd 91 8d a0 bd
       0.0765425 0.026473247 -0.034189306 -0.07839502
0003d0 82 b0 f8 bd c1 1b 86 3d 9e d1 c6 3d d1 35 53 3d
       -0.12143041 0.065482624 0.0970795 0.051564995
0003e0 45 70 22 3e 05 92 16 be 42 74 18 be 5b 8f 2a be
       0.1586314 -0.1470414 -0.14888099 -0.16656248
0003f0 25 e3 e3 3d 68 c3 5c bd a4 2e de bd 05 7b 88 bc
       0.11127309 -0.05389729 -0.1084874 -0.016660223

pi.net.0.bias f4 [50]
000000 d2 7a 95 3c 03 36 1f 3e 95 50 b0 3c 30 2e dd 3d
       0.018247042 0.15547948 0.0215228 0.10799825
000010 34 c5 ff bd bc f2 e2 3d 2b fb c0 3c fa 5e 24 3c
       -0.124887854 0.11081454 0.023557266 0.01003241
000020 68 7d 85 3c 63 b7 d4 3d c0 53 c4 3d 8f 19 89 3d
       0.01629515 0.10386541 0.095862865 0.06694328
000030 f6 18 2f be 93 5d 18 be 4a d4 dc 3d 97 26 15 be
       -0.17099366 -0.14879446 0.107826784 -0.14565502
000040 35 e0 04 3e 25 66 15 3e fc b4 29 3e 7e 2f 66 bd
       0.12976153 0.14589746 0.16572946 -0.056197636
000050 6d 10 86 bd c9 e0 aa bc ec f6 10 3c 0c 75 a6 bd
       -0.06546102 -0.020859139 0.008847933 -0.08127794
000060 44 f8 18 be d8 55 da 3d da d8 f8 bd 1b eb 22 be
       -0.14938456 0.10660905 -0.12150736 -0.15909998
000070 37 78 20 bd 80 8b 2d bd a9 ba d0 bd bc 1b 84 bc
       -0.039177146 -0.042369366 -0.101918526 -0.016126506
000080 59 fc 13 be 71 80 04 be 77 3a 9e bd 95 3c 0a 3d
       -0.14451732 -0.12939622 -0.07725995 0.03374918
000090 1b 55 48 3c be 25 17 3e eb 3e e4 3d 78 cd 22 be
       0.012227322 0.14760491 0.11144813 -0.15898693
0000a0 2f ea 10 be 86 8e 16 be ea 7c 85 3d 2b 11 eb 3d
       -0.14151834 -0.14702806 0.06517966 0.11477884
0000b0 c4 51 dc 3a c0 91 89 bd 03 10 bb bd 20 d6 c3 bd
       0.0016809036 -0.06717253 -0.09133913 -0.095623255
0000c0 db e7 6b 3b 77 c9 fe 3d
       0.003599635 0.1244077

pi.net.2.weight f4 [50, 50]
000000 35 c5 7f bd db 2a 1d 3d 1d bd 9a 3b 93 8d eb 3c
       -0.06244393 0.03837095 0.004722251 0.028754031
000010 a5 35 94 bd 26 c8 00 bc e6 b3 01 3e 42 29 02 3e
       -0.072367944 -0.007860219 0.12666282 0.12711051
000020 0f 00 26 bd 4f db 08 3e b2 ba 0d 3d 25 e0 e3 bd
       -0.0405274 0.1336491 0.034601875 -0.111267366
000030 ab 06 52 3d a3 b2 9f 3d 25 2a 14 3d 8f cd 80 bd
       0.05127589 0.07797744 0.036173005 -0.06289207
000040 64 7e eb 3d 92 76 90 3d 20 a7 03 be fb 39 87 bd
       0.114987165 0.070538655 -0.12856722 -0.06602856
000050 de 00 8a 3d d9 c2 6a 3c 7a 0b a7 bd 92 ae 7e 3d
       0.06738447 0.014328682 -0.08156486 0.062178202
000060 10 33 0a be df 55 17 3d 2b 23 83 3c a6 84 0c be
       -0.13496041 0.036947127 0.01600798 -0.13722476
000070 c3 04 f0 bd 43 20 61 bd 3d df 91 bd 1e 7e 75 bd
       -0.11719658 -0.054962408 -0.071226574 -0.059934728
000080 46 35 05 3e c9 3b 09 be 60 37 83 3d 91 63 52 bd
       0.13008603 -0.13401712 0.06407046 -0.051364485
000090 d9 b8 38 bd 68 4f b9 3c f2 4f 05 3e cd aa fa bd
       -0.04509816 0.022620872 0.13018778 -0.12239609
0000a0 de 46 09 be c9 c9 55 3b 66 37 a6 bd 2b f8 82 bd
       -0.1340594 0.0032621494 -0.08116035 -0.063949905
0000b0 dc 56 fa 3c 15 d0 0b 3e 90 14 14 3d 9f 6c 76 bd
       0.030558996 0.13653596 0.036152422 -0.060162183
0000c0 30 d9 f8 bd cb 43 99 3d 25 ff 14 3d a7 47 26 3d
       -0.121508 0.074836336 0.036376137 0.040595677
0000d0 6e aa 3b bd 8c 9b a1 bb 99 c2 77 3d 8a 64 84 3d
       -0.04581683 -0.0049318727 0.060488317 0.06464489
0000e0 15 0c 03 3d 4c 65 f2 3d 24 3e 94 3c e2 1d 66 bd
       0.031993944 0.11835727 0.018096037 -0.056180842
0000f0 86 5d 45 bd e7 40 0a be c1 41 d4 bd f9 84 ac 3c
       -0.048184894 -0.13501321 -0.10364104 0.0210595
000100 c2 77 f9 bd bf b8 8f 3c 2a 85 b9 bd 45 1a 63 bd
       -0.12181045 0.017544148 -0.09058602 -0.055444974
000110 9a 47 6f 3c e8 d5 fa bd 25 64 01 3e 3d 49 82 3c
       0.0146044735 -0.12247831 0.12635858 0.015904063
000120 70 6c 77 3c d3 e2 cd 3c 06 62 8b 3c 88 4a 35 bb
       0.015101537 0.025132572 0.017014515 -0.0027662832
000130 ee 6a 25 bb ef 1f 6f 3c c5 71 b0 3c 1c e8 cc bd
       -0.0025240737 0.014595016 0.021538625 -0.10005209
000140 e4 68 d6 bd c2 b8 01 be 99 89 e0 bc 69 a3 dc bb
       -0.10469225 -0.12668136 -0.027409362 -0.006733347
000150 3d b8 01 3e 66 0a b5 3d 97 d6 02 3d 38 f8 90 3d
       0.12667938 0.08839874 0.03194293 0.07078594
000160 9f 74 e3 bd 35 a7 00 3e 66 5f 0c 3d 09 0a 8b 3d
       -0.11106228 0.12563784 0.034270667 0.067890234
000170 40 99 05 3e 65 4e 13 bd 17 98 f8 bd 29 c1 e8 bd
       0.13046741 -0.035963435 -0.12138384 -0.113649674
000180 98 75 37 bd aa 5c 7b 3d fc 9b 9c bd 1a 3e ae 3d
       -0.04478988 0.06136767 -0.07646939 0.08507939
000190 2e f0 8a bb 02 c2 86 bd 66 67 75 3c 31 9c 95 3d
       -0.0042400574 -0.06579973 0.014978265 0.07305182
0001a0 4a 45 ec 3d f3 b1 5d 3c 38 e4 ba bd 36 32 52 bd
       0.11536653 0.013531196 -0.091255605 -0.051317416
0001b0 fd 51 ae 3d 50 74 e2 bd 8d bc ee 3c 64 6a 6f 3c
       0.08511732 -0.11057341 0.029142642 0.014612768
0001c0 ca 6b b8 bd f2 9a 0e be b7 bc e7 3d c0 44 e1 bd
       -0.09004934 -0.13926294 0.113152914 -0.10999441
0001d0 8f 90 ed bd 7e 05 8a bd de 76 08 3e 46 ca 3a 3d
       -0.11599838 -0.06739329 0.13326594 0.04560306
0001e0 5d 3d 03 3e 6c 36 8a 3d a6 b6 9f bd 3c d3 fd 3d
       0.12816377 0.067486614 -0.07798509 0.123938054
0001f0 d1 f1 e9 3d 4a 2e f9 3d ca 99 cd bd 30 42 81 3d
       0.11423076 0.12167032 -0.100390986 0.063114524
000200 ef 49 86 3d 7a e1 f0 3c f7 82 a3 3d 50 c4 2c bd
       0.065570705 0.02940439 0.07983964 -0.042179406
000210 9a 65 d9 3d 80 49 27 bd b0 14 9e 3d 86 fa 5c bd
       0.10615082 -0.04084158 0.077187896 -0.053949855
000220 10 4b de bd 27 34 04 be ef 40 35 3d 46 61 df bd
       -0.10854161 -0.1291052 0.04425138 -0.10907225
000230 32 64 6e bc c6 8d 0e 3e 84 a3 06 be 27 86 30 bd
       -0.014550256 0.1392127 -0.13148314 -0.043096688
000240 19 6c a3 bd 09 68 aa bc 14 63 b2 bc 97 f5 a9 bd
       -0.07979602 -0.020801561 -0.02177576 -0.08298796
000250 06 fa 62 3d 70 3a 34 3b a6 75 94 3d 9a 97 7b 3d
       0.055414222 0.0027500652 0.07249002 0.061423875
000260 9b 3d c3 3d c2 ce 02 be ce 99 17 3d 87 c8 80 3d
       0.09533235 -0.12774184 0.037011914 0.062882476
000270 e3 1b 83 3c 98 c7 0a bb 5c e9 86 bb 79 02 3d bc
       0.016004508 -0.0021176096 -0.004117174 -0.011536234
000280 08 5e aa 3d 55 c2 2c bd 4e 50 9c 3c b9 d7 d7 bd
       0.08318716 -0.042177517 0.019081261 -0.10539193
000290 a8 ff 81 3d 48 5a 56 3d 94 a3 68 bc ec 58 12 3c
       0.06347591 0.052332193 -0.014199156 0.008932333
0002a0 40 31 96 3c fb f4 80 3d 14 6e 0f 3d 75 47 92 3d
       0.018334031 0.06296726 0.035017088 0.071425356
0002b0 6e b8 a6 bd b3 5f d8 3d 71 8a a5 3d e3 d1 a2 bd
       -0.08140646 0.10565128 0.08083046 -0.07950189
0002c0 1e 0c af bd 8a 49 84 bc cb 8f 9e 3d c1 b2 e6 bd
       -0.08547233 -0.016148347 0.0774227 -0.11264563
0002d0 5b 9d af bd 81 29 84 bb b9 7f 8a 3d 6a 93 ef 3d
       -0.08574935 -0.004033268 0.067626424 0.11698039
0002e0 85 d1 8a bd cb 2c 99 bd fa a9 bc bc 04 08 64 3d
       -0.06778244 -0.07479247 -0.02303027 0.055671707
0002f0 6a e1 fa bd 2c 20 99 3d b0 1b dc bd b2 3e 0c bd
       -0.122500256 0.074768394 -0.107474685 -0.03423948
000300 38 2a d4 bd 28 ac e1 3d ba 26 fd bd 47 8f f9 3c
       -0.10359615 0.11019164 -0.12360902 0.030463828
000310 6c 55 f3 bb f6 68 d9 3d c5 5f cb 3d a4 0d 95 bd
       -0.0074259546 0.10615723 0.09930376 -0.07277992
000320 7c 19 88 3c db 6f ba bd c9 99 f1 b9 25 4f 8c 3d
       0.016613714 -0.09103366 -0.0004608168 0.06851033
000330 7c 3b d1 3b 16 30 9e bd c7 16 0e bc 45 f8 1b bd
       0.006385265 -0.077240154 -0.008672423 -0.038078565
000340 54 2e c8 3c 54 3a 03 bd 89 41 1b bd 8d 28 a3 bc
       0.024436153 -0.032038048 -0.037904296 -0.019916797
000350 b2 aa 23 bd 9e 83 b1 3d 71 0a 7f 3d 06 18 02 3d
       -0.03995771 0.08667682 0.062265817 0.03176119
000360 03 85 e6 bc 2d b5 65 3d 80 cb ff 3c af 95 59 bd
       -0.028139597 0.056080986 0.031224966 -0.053121265
000370 5e 31 c9 bd 8e 3d a2 bd d3 7e 92 3b 7f 2a 03 3e
       -0.09823869 -0.07921897 0.004470685 0.1280918
000380 a9 a1 a5 bb 5f ed 07 be 05 a3 88 3d 16 f8 30 3d
       -0.005054672 -0.13274144 0.066717185 0.043205343
000390 67 ad 75 3c 82 8a 94 3a 46 96 b2 bc bc 36 09 bc
       0.014994956 0.0011332782 -0.021800172 -0.008374866
0003a0 4f c3 dc bd 59 30 85 3d d7 ad 27 3c a1 db 4d bd
       -0.1077944 0.06503362 0.010234318 -0.050258283
0003b0 2f 2a fd bd 09 be 42 bd 07 a5 03 3d 84 bf ca bd
       -0.123615615 -0.047544513 0.032139804 -0.0989981
0003c0 9f 74 16 3d d5 eb a8 3d d9 84 6e 3d 18 1e 0e bd
       0.036732312 0.082481064 0.058232162 -0.03469667
0003d0 e0 43 ca 3c ea 59 e6 bc ed e3 0e 3d 5f 69 df bd
       0.024690568 -0.028119046 0.034885336 -0.1090877
0003e0 12 b2 c8 bd 4b 6d 22 3d 13 ef 61 3a 92 1b 0c 3b
       -0.09799589 0.03965501 0.00086186937 0.0021378738
0003f0 fc e2 0d 3e e3 fc 01 3d 4c 19 98 bc 61 42 21 bd
       0.13856119 0.031735312 -0.01856675 -0.039369944

pi.net.2.bias f4 [50]
000000 89 94 0b 3e fd ae bc bd f8 5b 80 3d 1c 44 9c bc
       0.1363088 -0.09213064 0.06267542 -0.019075446
000010 80 6d 05 3e e8 c8 44 3c 4a ce 8c bd c5 e9 ed 3d
       0.13030052 0.01201079 -0.06875284 0.116168536
000020 ea 48 15 3d 30 ec bb bd 0a 6f 9d 3c 54 be 43 3c
       0.03644649 -0.091759086 0.019217987 0.011947233
000030 7f ea 00 bd 2e a3 fb 3d 69 3d 25 3d 4e 52 b1 3d
       -0.031473633 0.122869834 0.04034177 0.086582765
000040 a3 f2 d5 bd b8 fa bb bc e3 bc 63 bc 46 d3 cd bd
       -0.1044667 -0.0229467 -0.013900015 -0.10050063
000050 fd 08 8d bd 84 97 fa bd e3 bc c2 3d 15 71 9b bd
       -0.0688648 -0.122359306 0.095086835 -0.07589928
000060 d1 12 98 bd 50 d4 73 3d 6e b4 15 bd eb d5 58 bd
       -0.07425464 0.05952865 -0.036549024 -0.052938383
000070 fd d1 f4 bb c3 97 0f be 16 b9 00 bc 8e f6 54 3d
       -0.0074713216 -0.14022736 -0.007856628 0.051992945
000080 ea a3 b2 bd 23 0c 64 3d 74 9b 06 bd 56 ff d0 bd
       -0.087226704 0.055675637 -0.032863095 -0.102049515
000090 39 f9 0b be 54 8d 07 be b8 e1 8c 3d 9b 67 0f 3e
       -0.1366929 -0.13237506 0.0687899 0.14004366
0000a0 a5 97 85 bd 75 e6 3f 3d b1 dc e1 bb ab bd 12 bd
       -0.065230645 0.04685064 -0.0068927635 -0.035825413
0000b0 a8 96 50 3d d2 26 f0 3d 7d 1c 83 bc d3 36 1b bd
       0.050924927 0.117261544 -0.016004795 -0.03789408
0000c0 58 5f 0e 3d 03 0e 93 3d
       0.034758896 0.07180407

pi.net.4.weight f4 [4, 50]
000000 8c 5c de bd cb f6 55 bd c3 9d d2 3d e5 f4 bc 3a
       -0.10857496 -0.052237313 0.10283997 0.0014416246
000010 14 f0 9c bc 77 19 c3 3d 66 1b a6 bd 13 a2 1b bc
       -0.019157447 0.095263414 -0.081106946 -0.009499091
000020 8a 58 a0 bb cb e5 02 3d cb 80 c2 3d 79 fa f2 bd
       -0.004893367 0.03195743 0.094972216 -0.1186418
000030 5a 75 d0 bc ac 4b 95 3d b3 9a e0 3d e8 73 e9 bd
       -0.025446583 0.07289824 0.109670065 -0.113990605
000040 2f d9 f4 bd d8 e9 07 be 8e 16 72 3d e7 d6 76 bd
       -0.11955487 -0.13272798 0.05910354 -0.06026354
000050 94 cc 94 bd 1a c7 a5 bc 72 03 11 bd 84 1d 1e bd
       -0.07265583 -0.02023654 -0.035403676 -0.038602367
000060 49 45 99 3c 20 52 e0 bb 04 b1 b6 bd 74 99 78 bd
       0.018709796 -0.0068457276 -0.08920482 -0.06069322
000070 94 6e 6a bd e2 33 04 3e 8e 39 c6 bd 65 73 9e bc
       -0.05723436 0.12910417 -0.096789464 -0.019342134
000080 38 14 9e 3c 29 b3 fe 3d a0 c8 f8 3d 54 bb e4 3d
       0.01929675 0.12436516 0.12147641 0.111685425
000090 df 61 43 bd 6f 41 97 bd 20 bd 62 3d cb ea dc bc
       -0.04770076 -0.07385527 0.055356145 -0.026967427
0000a0 ef 8f f6 3d af 5a d2 bd d3 f6 d9 bc d0 46 df 3d
       0.12039172 -0.10271203 -0.026606953 0.10902178
0000b0 58 43 ab bc d5 d6 86 bd 16 b4 33 3d 53 e5 19 bd
       -0.020906135 -0.06583945 0.043872915 -0.037572216
0000c0 40 f8 81 3d 0a 82 b5 3c 2e 12 85 bd ce ac 10 be
       0.06346178 0.022156734 -0.06497608 -0.1412842
0000d0 15 b3 af bd 4d ff f0 3d fc 31 0f 3e 17 51 f6 3d
       -0.08579079 0.11767445 0.13983911 0.120271854
0000e0 26 30 92 3d 73 43 f9 3d 32 cb 50 bc 96 58 0f 3e
       0.0713809 0.12171068 -0.012743758 0.13998637
0000f0 f2 b4 b2 bd 23 d3 02 3e 36 fb e2 bd 24 21 e7 bc
       -0.08725919 0.12775855 -0.11083071 -0.028214045
000100 b2 91 bb bd 10 fe ac bd 29 7e 55 3d cd 91 4a 3d
       -0.091586486 -0.08446896 0.05212227 0.049455453
000110 63 8c 83 bd e3 fa 1b 3d 18 2c de bd 9c 37 87 bd
       -0.06423261 0.03808106 -0.10848254 -0.066024035
000120 8f c0 bb bc a1 83 d6 3d 6f 5a bd bb 35 2c 9d bd
       -0.022918968 0.10474325 -0.005778603 -0.076744474
000130 29 7b 21 bd e2 3b f0 bd 30 83 97 bd 21 80 79 bd
       -0.039424095 -0.11730172 -0.07398069 -0.06091321
000140 5b 21 fd bc f9 1a ff 3d e5 69 d4 3c f5 a1 95 bd
       -0.030899694 0.124563165 0.0259294 -0.073062815
000150 e6 c4 10 3e 81 7a a5 bd 2b dc 62 3d 62 5c 0a 3e
       0.14137611 -0.080800064 0.05538575 0.13511804
000160 8a 32 0a 3e 1c 86 24 3d 73 40 c6 bc ef d3 06 bc
       0.13495842 0.04016696 -0.024200654 -0.00822924
000170 67 48 de 3d dc cb a2 bd a0 15 06 be 56 01 0d be
       0.108536534 -0.07949039 -0.13094187 -0.13770041
000180 5d 11 4b bc cf 52 f3 bd ea 32 02 3e 7b 95 0d 3d
       -0.012394276 -0.11881029 0.12714735 0.034566384
000190 26 29 f5 3d 9f 2c d5 bd e8 fd 4d bc 05 19 b3 bd
       0.11970739 -0.104089014 -0.012572743 -0.087450065
0001a0 78 fb bf 3d c3 f5 50 bb d6 50 06 bc c7 b6 98 3d
       0.09374136 -0.0031884767 -0.008197984 0.07456737
0001b0 7f 6a 73 3c 48 00 46 bd 86 e6 b2 bd cc 1b 59 3d
       0.014856934 -0.048340112 -0.08735375 0.053005025
0001c0 51 db c5 3d 40 27 5b 3d f7 39 0e be 26 53 b4 bd
       0.09660972 0.05350423 -0.138893 -0.08804922
0001d0 d0 58 0d 3d 48 87 e2 3d d5 d6 3d bd 15 58 55 3d
       0.034508526 0.11060959 -0.046347458 0.052085955
0001e0 1c 49 9f 3d e3 c3 cf bd a6 ca 01 bd 9c 01 0d 3e
       0.077776164 -0.10144784 -0.0316874 0.13770145
0001f0 e7 63 bd bd ef 1b b5 bd f0 bc 2e 3d e0 2c 62 bd
       -0.092475705 -0.088432185 0.042660654 -0.055218577
000200 5f f5 fc 3c 02 18 d6 bd f7 a2 92 bd e0 e5 ca 3c
       0.03087872 -0.10453798 -0.07159989 0.024767816
000210 d2 c6 5a 3c d2 54 8a 3d 13 18 bd 3d 4a 6c 55 bd
       0.0133530665 0.067544594 0.092331074 -0.052105226
000220 4f 3e a9 3d fb 58 8d bd 58 6d a2 3d f9 03 1e 3d
       0.082638375 -0.06901737 0.07931012 0.038578007
000230 e0 62 c9 ba 58 52 80 bd 90 1f e5 3d 6a 1b 10 be
       -0.001536455 -0.06265706 0.11187661 -0.14072958
000240 f0 d6 d2 3d db a5 5d bc e1 0e b4 bc 78 93 75 bd
       0.10294902 -0.013528313 -0.021979751 -0.05995509
000250 13 2a 79 3d 51 7a d5 bd c3 d7 07 3d 3d ef 7a 3d
       0.06083114 -0.10423721 0.03316475 0.06126331
000260 d3 5f 9d 3d b8 88 db bd 37 c5 df bd 79 0d 56 bd
       0.07684293 -0.107194364 -0.109262876 -0.052258942
000270 2b fc 92 bd b3 3b d6 bd ac 5a 68 bc 7b f4 d1 3d
       -0.071770035 -0.104606055 -0.014181774 0.10251709
000280 dd f1 f3 bd 6e 2c 33 3d 53 e7 ca bd ae 9d 27 bd
       -0.11911366 0.043743543 -0.09907403 -0.04092186
000290 14 18 0f 3e cd 8c 46 3d 1a c1 64 3d 07 07 83 bd
       0.13974029 0.04847412 0.05584822 -0.06397825
0002a0 24 02 df 3c a0 0d b2 bd 1f e8 df 3d 5d a0 6f bd
       0.0272227 -0.08694005 0.109329455 -0.058502544
0002b0 fd ee 87 3d 45 32 10 3e c1 ae 06 3e be 00 09 3e
       0.0663738 0.14081676 0.13152601 0.1337919
0002c0 af 3f d8 3d a6 e1 ea bd 8a ba 12 bd 79 1a c0 3d
       0.10559022 -0.1146882 -0.03582243 0.09380049
0002d0 d9 b2 77 3d 92 e6 e2 3d ae 74 dc bd 4d b0 0b 3c
       0.060473297 0.11079134 -0.107644424 0.00852592
0002e0 46 49 b9 3d d0 30 68 bd f4 53 63 bd 7c 43 22 bd
       0.09047179 -0.056687176 -0.055499986 -0.03961514
0002f0 b7 ac dd bd f2 8b 03 3d 7b 85 d1 3d 40 7b c2 3c
       -0.10823958 0.032115884 0.102305375 0.02374041
000300 32 e7 e5 bd 94 e4 f2 bd c4 bc b3 bd ff 17 b9 3d
       -0.11225738 -0.11860004 -0.087762386 0.0903778
000310 4d 10 1f 3c a8 dd 05 be 09 7b fa bd 43 ee b7 3d
       0.009708476 -0.13072836 -0.12230498 0.08980992

pi.net.4.bias f4 [4]
000000 16 55 1d 3b e5 38 e5 bd 03 f3 53 3d 58 82 ba 3d
       0.0024007014 -0.111924924 0.051745426 0.09106892

v.net.0.weight f4 [64, 34]
000000 5b 0f ea 3d 09 50 9f bd 61 06 01 be f6 d7 e2 3d
       0.1142871 -0.07778937 -0.1260009 0.110763475
000010 2d d5 35 bd cb 00 cf 3d 6b e9 87 3c 0b 20 17 3e
       -0.044392753 0.10107573 0.016590795 0.14758317
000020 18 1a ea bc 91 57 c2 3c 9e c9 03 3e 12 81 d0 3d
       -0.028576896 0.023723396 0.1286988 0.10180868
000030 4e 6b f0 3d 10 55 6e bd bc 70 9e bd 24 60 ea bd
       0.11739217 -0.05818659 -0.07736346 -0.114441186
000040 88 ec 08 be 21 05 2e 3e 72 6f 21 be 53 2f 08 be
       -0.1337148 0.16994144 -0.1576517 -0.13299303
000050 1d ac 41 bd b7 2d 8a bd 77 e8 f9 bd 01 42 14 be
       -0.04728328 -0.06747001 -0.12202542 -0.14478303
000060 13 e5 a1 bc 05 db 1c bc 4b 75 62 bd ba 1e 10 3d
       -0.019762551 -0.009573703 -0.05528764 0.035185553
000070 d0 c2 16 bd 0a fd 12 3e c8 42 cd 3d 6c f8 c0 3c
       -0.03680688 0.14354339 0.10022503 0.023555957
000080 cd 02 ae 3d 52 93 15 be 8f e6 2e 3e 48 7a 8f bc
       0.08496628 -0.1460698 0.17080139 -0.017514363
000090 c1 a4 9c 3d 1c cd d1 3d e7 bd 0b be 8a 66 c9 3d
       0.07648612 0.102442 -0.13646661 0.09834011
0000a0 3e d3 1f be 6c 34 90 3d a3 4a 29 3d 56 d1 b0 ba
       -0.15607926 0.07041249 0.041330945 -0.0013490121
0000b0 d3 cc 08 3d 30 0e aa 3c 55 18 e4 bd 4f 76 d5 bc
       0.03339846 0.020758718 -0.111374535 -0.02605739
0000c0 d1 cf 14 3d 8b 81 21 3e 7c 76 bc 3d 2b dd 7c bc
       0.036331 0.15772073 0.092022866 -0.01543359
0000d0 cd 03 2d 3e 74 31 5f 3d 10 0a b2 bc 30 3e 82 bd
       0.16895981 0.05449052 -0.021733314 -0.063595176
0000e0 4e 8b 29 be d8 e2 bd bc a8 eb a8 3d 0b 3d bc 3a
       -0.16557047 -0.023179457 0.08248073 0.0014361454
0000f0 fd f7 14 3d 7a c2 c2 bd b3 a6 16 be 77 25 1f be
       0.036369313 -0.0950975 -0.14712028 -0.15541635
000100 34 bd da 3c d5 d4 06 bc c7 ea aa 3c 36 7b 29 bd
       0.026701547 -0.008229454 0.020863904 -0.04137727
000110 db b5 1f be 62 f3 36 3d be 6c 0d bd 14 c8 d2 3d
       -0.15596716 0.0446657 -0.034527533 0.10292068
000120 35 db eb 3c cf 3f 1f bd 59 b7 0f be a4 fe 45 3d
       0.02879105 -0.038879212 -0.14034785 0.048338547
000130 b0 4a 3e 3c 71 13 b9 3d 03 02 d5 bd ff 8b 0c be
       0.011614487 0.09036911 -0.10400774 -0.1372528
000140 6c c1 cb 3d 64 41 0f 3e 96 c3 0d 3e 63 34 0b be
       0.09949002 0.13989788 0.13844141 -0.13594203
000150 8e 08 28 be b0 50 fe 3d 10 66 26 3d eb 34 58 bd
       -0.16409513 0.12417734 0.040624678 -0.05278484
000160 d0 04 75 3d fd 91 77 bd c0 de 2a be 48 f7 20 3e
       0.059819043 -0.06044196 -0.16686535 0.1571933
000170 aa 5f 9d bd 5a af f6 bd 8c 40 cc bc ae 8e a0 3d
       -0.07684262 -0.120451644 -0.024933122 0.07839714
000180 b2 fa 22 3e 8c c2 a7 bd 1f 4b 97 3d d2 c1 61 bd
       0.15915945 -0.08191404 0.07387375 -0.055116482
000190 0d fd 25 3e 87 3a 60 bd 23 15 f5 bd 0b 5e 87 bd
       0.16209812 -0.054743316 -0.11966922 -0.06609734
0001a0 ca 2b f6 3d ca 45 cf bd 8f 64 b9 3c 9a 83 b7 3d
       0.12020071 -0.10120733 0.022630958 0.08960648
0001b0 35 be 50 bd b8 bc 8b bc 2f 63 d2 bd a1 83 c6 bd
       -0.050962646 -0.017057762 -0.10272824 -0.09693075
0001c0 22 7d 18 3e 10 33 e4 3c 3e 5f b6 3d ee 85 67 3d
       0.14891484 0.02785638 0.08904885 0.05652421
0001d0 87 77 27 be 02 cd e7 bd e8 9a 1c be 58 8d 10 3d
       -0.1635419 -0.11318399 -0.15293467 0.035291046
0001e0 ab 28 a9 bd 05 c6 db 3d c0 e1 2c 3e af a3 f2 3d
       -0.0825971 0.107311286 0.16882992 0.118476264
0001f0 da ae c7 3d 15 c9 f0 3d 8f a6 fc 3d d0 d9 66 3c
       0.09750147 0.11757103 0.12336456 0.0140900165
000200 6e 20 6d 3d bc 38 9b 3b 21 6b 2d be 1d c7 0e 3e
       0.057892255 0.004736988 -0.16935398 0.13943143
000210 f8 4f 03 be d3 ea 98 3d cd 03 10 3e 51 15 b2 3d
       -0.12823474 0.07466664 0.1406395 0.08695472
000220 aa 4e 83 bd 5d 5a a0 bd 70 b5 25 bd aa 7a b2 3d
       -0.06411488 -0.078297354 -0.040456235 0.087148026
000230 98 f1 ed bc 68 69 8a 3c 27 29 f6 3b 79 dd 6a bd
       -0.029045865 0.016895965 0.00751223 -0.05734012
000240 3f e1 dc bd 2c fd 47 bd 9f 7a 10 3e 4e 4c 0b 3e
       -0.1078515 -0.048825428 0.14109276 0.13603327
000250 20 34 70 bd 62 04 4a 3d e6 bf 0d bc bf c4 42 bd
       -0.05864346 0.049320586 -0.008651709 -0.047550913
000260 88 7e 14 3e 42 26 7a bc 1e 02 b8 3c 9b 58 bb bb
       0.14501393 -0.01526791 0.022461947 -0.0057173497
000270 40 b7 17 be bc 92 29 be fc 6c 00 be ba 6a 16 3e
       -0.14815998 -0.16559881 -0.12541574 0.1468915
000280 ec 80 0b 3e 60 9c 4a bb 5e 49 24 3e e8 4a 29 be
       0.13623399 -0.003091596 0.16043612 -0.1653248
000290 c3 95 e7 bd a1 a9 ce bd 9c a8 0d be 13 03 d8 bd
       -0.11307862 -0.10090948 -0.1383385 -0.10547461
0002a0 00 60 9e bd b5 06 27 3e 40 e8 2b bd 13 c5 1b be
       -0.07733154 0.16311152 -0.041969538 -0.15211897
0002b0 3a ea a2 3d 38 29 ac bd 60 55 fa 3d 56 f9 13 bd
       0.079548314 -0.08406299 0.12223315 -0.036126457
0002c0 60 ec ce 3d 70 16 63 bd df 45 c0 3d 49 2a 1d be
       0.10103679 -0.05544132 0.09388327 -0.15348162
0002d0 3c 56 2e 3e c1 82 95 bc 56 5a a9 bd a6 ff 15 3e
       0.17025083 -0.018250825 -0.08269183 0.14648303
0002e0 64 d3 f2 3c cc c3 87 3d 7b 81 2a be b8 dd 0c 3e
       0.029641815 0.06629142 -0.16650955 0.13756454
0002f0 75 70 1f be 48 4c a8 bd fb 9f 76 3d 1e 49 e8 3c
       -0.15570243 -0.082176745 0.060211163 0.028355177
000300 40 91 28 be 31 49 23 bd 94 94 af bb 35 aa 84 bb
       -0.16461658 -0.039864723 -0.005358288 -0.0040486106
000310 01 bf f7 3d 53 eb 28 3d 2e 62 da bd 25 02 3e bd
       0.12096978 0.041240048 -0.106632575 -0.046388764
000320 ba 5f 9f bd 42 16 dc bd f6 cc 1e be 07 4b 04 3d
       -0.0778193 -0.10746433 -0.15507874 0.032298114
000330 82 7d f3 bd bf dc 02 be 0b 02 c4 bc 27 ef 4c 3d
       -0.11889173 -0.1277952 -0.023926755 0.05003276
000340 40 63 e6 bd e9 0e 05 3e c4 46 05 be 5b 1f 1f 3e
       -0.11249399 0.12993969 -0.13015276 0.15539305
000350 9c 6b e3 3d 63 f4 16 be 3b 77 6d bd 09 d7 c7 bd
       0.11104509 -0.14741664 -0.057975035 -0.097578116
000360 79 0f 18 3e d8 ad 93 bd e0 e3 63 3d 51 75 24 3d
       0.14849652 -0.072108924 0.05563724 0.040150944
000370 75 f1 e4 3d bd 3c 02 be e3 b0 6f bd a3 58 46 3d
       0.11178867 -0.12718482 -0.0585183 0.048424374
000380 f3 cb 42 bd f0 8d 23 be 07 6f 24 be cd 2f 29 be
       -0.047557782 -0.15972114 -0.16057979 -0.16522141
000390 c1 19 19 3e b7 25 0a 3e 2a bb 03 be ed 54 d9 bc
       0.1495123 0.1349095 -0.12864366 -0.026529754
0003a0 9a b0 17 be 71 8a 26 3d 03 c5 e0 3d c7 4e 09 bc
       -0.14813462 0.04065937 0.10975077 -0.008380598
0003b0 67 60 34 bd 62 0e 20 be 47 4f 2c be 00 0c a8 3d
       -0.04403725 -0.15630487 -0.16827117 0.08205414
0003c0 37 82 01 3d 7b 7f fa bc 98 61 b7 bd 1d e6 bf 3a
       0.031618323 -0.030578366 -0.089541614 0.0014640723
0003d0 94 88 ee bd 34 a5 53 3b 70 e6 7e 3c 75 f2 29 3e
       -0.11647144 0.0032294514 0.01555787 0.16596396
0003e0 d2 a4 e9 3d 34 2e fd 3d 68 91 21 be 3c 3d e6 3d
       0.1140839 0.12362328 -0.15778124 0.11242148
0003f0 0f 0b f9 bd 42 9c b3 3d 84 2e c7 bd 1d e2 0d 3e
       -0.121603124 0.08770038 -0.09725669 0.13855787

v.net.0.bias f4 [64]
000000 7f 00 3f bd 4d 26 26 3e e0 fc 16 3e 2a 6e 13 3d
       -0.046631332 0.16225548 0.14744902 0.035993733
000010 57 d0 67 3d b0 03 48 3d 73 08 c8 3c 43 f3 04 3e
       0.056595173 0.04883164 0.024418091 0.12983422
000020 4e 2f 1e be c5 91 2f 3e 06 93 66 bd 3d 55 13 be
       -0.15447733 0.1714545 -0.056292556 -0.14387985
000030 b7 65 f1 3d f1 01 54 bd f5 c4 6c bd 29 ec 2e 3e
       0.11786979 -0.051759664 -0.05780502 0.17082275
000040 e3 91 44 3c 1a 1b 8b bd bc ab 04 be e2 50 9d 3c
       0.011997673 -0.067922786 -0.12956136 0.019203607
000050 b9 c9 1b 3e ea c9 89 bd 80 fa b1 bd fa c1 27 be
       0.1521367 -0.06727965 -0.08690357 -0.1638259
000060 8a 64 0b be cf 28 e7 3d 25 8b 92 3d 36 d3 24 3d
       -0.13612571 0.112870805 0.07155446 0.04024049
000070 56 c4 e0 bd 2c c0 89 bd e2 8a c3 bd 27 d7 5c 3d
       -0.10974948 -0.06726107 -0.09547974 0.053916123
000080 26 8e 01 3e 14 69 8d 3c 43 cc 21 be d5 36 2f 3d
       0.12651882 0.01726202 -0.15800576 0.0427769
000090 a9 62 06 3d 04 01 0e 3e 71 c2 c4 3d 60 51 24 3e
       0.032808933 0.13867575 0.09607399 0.16046667
0000a0 87 8b de bd cc d7 ca 3d 4e 77 2e be b1 26 82 3d
       -0.108664565 0.09904441 -0.17037699 0.06355036
0000b0 77 81 fd bd 82 d1 27 3e 24 88 67 bc 61 c2 f4 bb
       -0.12378209 0.16388515 -0.01413158 -0.007469461
0000c0 29 f0 80 bb 8e a2 fb bc 86 7d d8 3c f1 09 e8 3d
       -0.0039348793 -0.03071716 0.026427042 0.11330021
0000d0 1c fc 1c be 2f e9 29 bb a8 1d 2d be ed b8 28 bd
       -0.15330547 -0.0025926342 -0.16905844 -0.041191984
0000e0 18 dd 23 be 33 24 16 3d a6 3d 29 be 95 91 9b bd
       -0.1600231 0.036655616 -0.16527423 -0.07596127
0000f0 e4 9b 19 3e 83 e4 2e 3d 15 a9 02 39 12 50 09 be
       0.15000874 0.042698395 0.00012460754 -0.1340945

v.net.2.weight f4 [64, 64]
000000 a0 a1 dc 3d 98 3e 8f bd c0 ad b7 3b d2 d1 e3 bd
       0.10773015 -0.06994361 0.0056054294 -0.111240044
000010 e8 47 a7 3c 70 46 f3 bd 02 58 aa bd 54 95 3d bd
       0.02042003 -0.11878669 -0.083175674 -0.04628499
000020 88 99 78 3d 88 ec f3 bd 08 a7 9a 3c 40 48 ac bb
       0.060693294 -0.11910349 0.018878475 -0.0052576363
000030 08 18 05 3d 1c 7d 52 3d 80 d0 3c 3d 42 38 a0 bd
       0.03249362 0.051388845 0.04609728 -0.0782323
000040 7e f7 c2 3d ee 34 f9 bd 40 64 0e 3b 88 54 8e 3c
       0.09519862 -0.12168299 0.0021727234 0.017374292
000050 98 c6 f5 3d d0 8f ca 3c 9e c3 fc 3d 90 d7 c4 bc
       0.120007694 0.024726778 0.123419985 -0.02402857
000060 64 fb 75 bd 1e 56 ac bd 80 45 02 3b f2 81 c7 bd
       -0.060054198 -0.08414863 0.001987785 -0.09741582
000070 40 3e 27 3b 18 61 fb bd 70 aa c2 bc 94 bd e7 bd
       0.0025519282 -0.122743785 -0.023762912 -0.11315456
000080 9a 4d 9c 3d 6a a6 a9 3d 7e d2 bb bd 9a 7b 8d bd
       0.07631989 0.08283694 -0.091710076 -0.06908341
000090 40 e3 eb bc 92 d5 e4 3d e0 1a a0 3c 84 3d c7 3d
       -0.028794885 0.11173548 0.019544065 0.0972853
0000a0 6e ef be bd ba 07 91 bd 00 bd df bc d0 00 7d 3c
       -0.09323011 -0.07081552 -0.027311802 0.015442088
0000b0 dc 77 64 3d 88 f9 18 bd 64 80 79 bd 78 7a b5 bc
       0.05577837 -0.037347347 -0.06091346 -0.022153124
0000c0 b0 78 2a bc 20 6f e6 bb fa 21 d0 3d 3c 29 5d bd
       -0.010404751 -0.00703229 0.101627305 -0.053994402
0000d0 b0 3b 6a bd 80 45 43 bc 98 0f cd 3c 08 bb 8c bd
       -0.05718583 -0.011918426 0.02503185 -0.06871611
0000e0 9a ea b0 bd e0 56 91 3b ac cf 5e bd 00 11 e1 ba
       -0.08638497 0.004435405 -0.05439727 -0.0017171204
0000f0 00 70 92 3b 66 f7 d4 bd b0 af e7 bd 58 8c 46 3d
       0.004468918 -0.1039875 -0.113128066 0.048473686
000100 e4 62 32 bd b0 e5 aa bd 80 df 39 bd 60 1c 9e 3c
       -0.04355134 -0.08344591 -0.04537916 0.01930064
000110 d6 7f fe bd 02 1c e1 3d 00 1b 75 3c 12 3e e7 3d
       -0.124267265 0.1099167 0.014960051 0.11291136
000120 68 d6 76 bd aa 84 87 bd f0 16 74 3d c4 d2 d4 bd
       -0.060263067 -0.066171005 0.059592187 -0.10391763
000130 68 34 0a bd 3a 99 e5 bd d2 ea 97 3d f4 5e 67 bd
       -0.033741385 -0.11210866 0.07417835 -0.05648704
000140 d4 a7 4a 3d a0 1e 46 3c 30 89 d9 bc 14 94 8d 3d
       0.04947646 0.0120922625 -0.026554674 0.06913009
000150 48 de 85 3c 0c d7 2b bd 94 cf cd 3d b6 3c ae 3d
       0.016341344 -0.04195313 0.10049358 0.085076734
000160 38 07 d0 3c 9c e3 cd 3d 64 35 8a 3d 28 82 69 bd
       0.025394067 0.10053179 0.06748465 -0.057008892
000170 40 68 5c bd 58 f6 8f 3d 90 ec 34 bc dc bf 05 3d
       -0.053810358 0.07029408 -0.011042729 0.032653674
000180 40 ed d4 3b 00 9a ca bb 6e 28 90 bd c4 d2 13 bd
       0.006498009 -0.006182909 -0.07038961 -0.036089674
000190 b8 e8 95 3c 0c 0f 58 bd a8 d0 6c bd 0e 6e a8 3d
       0.018299446 -0.052748725 -0.057816178 0.08224116
0001a0 94 78 b2 3d 74 a6 52 3d e8 42 c9 bc a0 8f ee bb
       0.08714405 0.051428273 -0.024568036 -0.007280305
0001b0 64 55 3e 3d 44 cf 70 bd e0 cd e2 3b 9a 4a a3 3d
       0.046468154 -0.058791414 0.006921515 0.079732135
0001c0 24 f5 a4 3d 60 09 93 bd 84 09 43 3d 70 6a 2c 3d
       0.08054569 -0.071795225 0.047616497 0.042093694
0001d0 80 9c bb 3a 9e 1c fb bd 08 6d f4 3c 50 b3 b9 bd
       0.0014313608 -0.12261318 0.029837146 -0.09067404
0001e0 9c 4d b4 bd 18 e2 11 bd 60 87 a3 bd 9c 35 83 3d
       -0.08803865 -0.03561601 -0.07984805 0.064067096
0001f0 5c 01 97 bd 16 f0 8e 3d b0 7a 64 3d 20 be b4 bb
       -0.07373306 0.069793865 0.055781066 -0.0055158287
000200 f8 35 d8 bc 5c b5 ad bd 34 68 f1 3d 40 8d bf bb
       -0.026392922 -0.08481857 0.11787453 -0.0058456957
000210 00 72 5e ba 9c 44 35 bd 54 22 d0 bd ac b0 3b 3d
       -0.0008485615 -0.044254884 -0.101627976 0.045822784
000220 0e 30 dc bd c0 af 33 3b 40 a5 37 3c d8 0a c5 3c
       -0.10751353 0.0027417988 0.011208832 0.024053022
000230 64 a8 82 bd c0 a2 20 bb 4c c5 fc 3d e8 b1 13 bd
       -0.06379774 -0.002451107 0.12342319 -0.036058336
000240 30 ee 5a bc 92 10 a2 bd 36 8c e7 bd 72 be d6 3d
       -0.013362452 -0.07913317 -0.1130604 0.10485543
000250 d8 f0 69 3d bc cf 48 bd 28 f4 bb bd f0 f9 b2 3d
       0.057114452 -0.049026236 -0.091774285 0.08739078
000260 48 c0 de 3c ac 79 d9 bd 00 17 6f ba b2 c1 be 3d
       0.027191296 -0.1061891 -0.0009120554 0.09314288
000270 40 20 60 bc ac 89 6d bd 4c 6f e2 3d ae 93 99 3d
       -0.013679564 -0.057992622 0.110563844 0.07498871
000280 60 46 76 bc 5e 45 b6 3d 80 dc e7 3d 2c 56 b8 3d
       -0.015031427 0.088999495 0.11321354 0.09000811
000290 e6 1c ba bd 40 9c 9e bc fc e0 9a 3d 62 50 8b bd
       -0.09087543 -0.019361615 0.075624436 -0.06802441
0002a0 28 ec 8c bd 16 31 dc bd ec 3c 89 3d d8 df bd bd
       -0.06880981 -0.1075155 0.06701073 -0.092712104
0002b0 00 6d 64 3c 36 cc de 3d 22 0d 9d 3d a0 a2 83 3b
       0.013942003 0.10878794 0.076685205 0.004017189
0002c0 80 43 b9 3d e8 c8 b6 bc 24 1c d7 bd 78 2d bc bd
       0.09046078 -0.022312596 -0.10503414 -0.0918836
0002d0 68 76 f5 3c 10 24 5f bd 1c 49 d5 bd 22 2c c8 3d
       0.029963687 -0.05447775 -0.10414335 0.09774043
0002e0 36 91 fa 3d 00 5d bb 3c ce e2 b4 3d e4 44 27 3d
       0.12234728 0.022871494 0.08832322 0.040837184
0002f0 20 ea ed 3d 26 0d e2 bd e0 37 e9 3c 98 f1 99 3d
       0.116169214 -0.11037664 0.028469026 0.075167835
000300 ae 5d d3 3d e8 a2 86 bc 2c 85 86 bd 00 18 28 bc
       0.10320602 -0.016435102 -0.06568369 -0.010259628
000310 5a 98 c2 3d 34 bb c8 3d 9a 36 b2 bd 20 6d c5 bd
       0.09501715 0.09801331 -0.08701821 -0.096399546
000320 44 f0 d8 bd 90 66 f0 bd c4 88 6a 3d 42 c6 ab bd
       -0.10592702 -0.11738312 0.057259336 -0.08387424
000330 bc f8 c9 3d 60 f3 5c bd 18 9a fa bd e8 f3 b8 bd
       0.098618954 -0.053943038 -0.12236422 -0.090308964
000340 10 b1 f4 bd 98 0f d3 3c a4 11 b3 3d 90 da 26 3d
       -0.119478345 0.025764272 0.08743599 0.04073578
000350 08 c6 da 3c e6 3c f0 3d 20 8a d3 3c 90 9c 3e 3c
       0.026705757 0.117303655 0.0258227 0.011634007
000360 9a af 91 bd b8 07 bd 3d 18 17 b4 bd d8 c8 e4 3c
       -0.071135715 0.09229988 -0.08793467 0.027927801
000370 a2 48 8d bd a0 3c 07 bc a4 b3 57 bd 58 c1 8f bc
       -0.06898619 -0.0082542 -0.052661553 -0.017548248
000380 e0 d2 4b 3c e8 45 ec bc e8 0f 84 3d c2 4f bf 3d
       0.012440413 -0.028841928 0.064483464 0.093413845
000390 50 03 33 3d 14 27 3b 3d f8 f4 77 bd 80 2a 3c 3c
       0.04370433 0.045691565 -0.060536355 0.011484742
0003a0 2c cc 6f 3d 4e 1b e7 3d 0a 5f b4 bd 54 3c 9c 3d
       0.058544323 0.11284505 -0.0880719 0.07628694
0003b0 7c e6 b0 bd f0 f6 a5 3d c4 1c 40 3d d0 eb 27 3d
       -0.086377114 0.0810374 0.046902433 0.040996373
0003c0 a0 8c 34 bc 60 77 db 3d f0 e7 07 bd 18 72 7e bd
       -0.011019856 0.10716128 -0.033180177 -0.062120527
0003d0 68 73 da bd 80 26 36 3d 96 f2 c1 bd a0 db a3 bd
       -0.10666543 0.04447031 -0.09470098 -0.080008745
0003e0 40 fc 6b bc 38 d6 ee bc a4 e3 04 bd 04 0f 9f 3d
       -0.014403403 -0.029154882 -0.032443658 0.07766536
0003f0 6a c9 ea bd f2 de 84 bd 2e b2 de bd 78 6d 5a 3d
       -0.11464198 -0.06487836 -0.10873829 0.053327054

v.net.2.bias f4 [64]
000000 28 fe ec bd be e7 ef 3d 18 13 da bc b8 55 25 bd
       -0.11571914 0.11714123 -0.026620433 -0.04036495
000010 08 0e be 3c c2 9c cc bd 00 93 f4 bc 60 66 76 3c
       0.02320005 -0.09990837 -0.029855251 0.015039057
000020 d6 4c f4 bd 40 1b 0b bd b4 57 ac bd b2 38 f6 bd
       -0.11928718 -0.033961535 -0.084151655 -0.120225325
000030 9a ca c3 3d 80 60 ad bd d0 cd b9 bd 60 79 20 3d
       0.095601276 -0.084656715 -0.09072459 0.039178252
000040 52 4e 9c 3d 00 69 31 ba d8 be f9 3c 16 b3 b1 bd
       0.07632126 -0.00067676604 0.03048651 -0.08676736
000050 e0 23 61 bc 30 5f c5 bd cc e8 90 3d 8e 6f bd 3d
       -0.013741463 -0.09637296 0.070756525 0.09249793
000060 98 9b ec 3c 24 48 f4 bd 5e d1 e3 bd c4 36 70 bd
       0.028882787 -0.11927822 -0.11123918 -0.05864598
000070 38 7c 64 3d 12 58 9f bd 34 c9 dd 3d b6 66 e4 3d
       0.055782527 -0.0778047 0.10829392 0.11152403
000080 d0 a6 f6 bd ec 60 82 bd 5a 7e ff 3d ec 19 87 3d
       -0.12043536 -0.06366143 0.124752715 0.06596741
000090 24 cf 39 bd ea 33 85 bd 94 db a5 bd 10 65 38 3c
       -0.04536356 -0.065040424 -0.08098522 0.011254564
0000a0 7e 13 c1 3d 40 fd 1d bc dc 4a da bd 38 32 a6 bc
       0.09427546 -0.009642899 -0.106588095 -0.020287618
0000b0 e8 ab e3 bd a8 a9 92 3d 8a f4 f7 bd 40 e4 e1 3c
       -0.11116773 0.071612656 -0.12107189 0.027574658
0000c0 c0 76 86 bc 46 aa bf bd 20 cc e8 3d 68 65 19 3d
       -0.016414046 -0.09358649 0.11367059 0.037450224
0000d0 ec 69 84 bd 4c 06 07 3d 20 45 34 3c d0 4c 47 3c
       -0.064655155 0.03296499 0.011002809 0.01216431
0000e0 d8 a4 4b bd e0 49 43 3c dc 49 04 3d 26 93 f1 3d
       -0.049717754 0.011919469 0.032297 0.117956445
0000f0 60 25 02 bc 36 3d c6 bd ca ec a5 3d 6c 50 17 bd
       -0.007943481 -0.09679644 0.081018046 -0.03694193

v.net.4.weight f4 [1, 64]
000000 f8 7f 71 bd 08 9e 59 bd d8 32 34 bd 20 a5 18 3d
       -0.05895993 -0.053129226 -0.0439938 0.03726685
000010 48 a0 f0 bd 20 c8 85 3c 00 55 51 3d 24 a9 8d 3d
       -0.11749321 0.016330779 0.051106453 0.06917027
000020 f0 ef 4c bd 88 89 3c 3d 48 5f 93 3c 9e b9 c0 3d
       -0.05003351 0.046029598 0.01798977 0.09410404
000030 e0 20 93 bb 86 47 ca bd 70 27 3b bd 64 b4 07 3d
       -0.004490003 -0.09876923 -0.045691907 0.03313102
000040 b4 81 be 3d ce 5c e3 3d fc ee ee bd 56 e7 d6 bd
       0.09302083 0.111016855 -0.116666764 -0.104933426
000050 88 20 b9 3d 38 ab 5d bd 1c d9 15 bd cc 20 5b bd
       0.09039408 -0.054118365 -0.036584005 -0.053498074
000060 34 44 a2 3d 7c 27 62 bd 96 34 9b 3d 80 31 df bd
       0.07923165 -0.055213436 0.07578389 -0.10898113
000070 f8 da 77 bd e2 b7 f4 3d 40 66 df 3d 30 74 c3 3c
       -0.06051156 0.11949135 0.109081745 0.023859113
000080 a4 99 68 3d 48 44 f1 3d 40 e4 42 3b e8 ba 7d bd
       0.056787148 0.11780602 0.0029738098 -0.061945826
000090 20 a6 cd 3c 90 c1 4a bc f8 82 e9 3d 9c 9b 31 3d
       0.025103629 -0.01237525 0.114019334 0.04336129
0000a0 28 9b 33 bd aa 00 a0 3d 50 e7 e4 3c ec c4 72 bd
       -0.04384914 0.07812627 0.02794233 -0.05926983
0000b0 2a 4b ea 3d 70 45 48 bd 80 95 f4 3d 40 38 cf bb
       0.11440118 -0.048894346 0.11942577 -0.006323844
0000c0 18 12 f0 3d 64 ab 13 bd d0 72 33 bd b0 bc e9 3c
       0.11722201 -0.036052123 -0.043810666 0.028532356
0000d0 5e b8 bf 3d 08 1d 08 bd fc a8 88 3d 28 df f1 bc
       0.09361337 -0.03323081 0.06672856 -0.029525355
0000e0 c8 9d e3 3d 7e e7 e0 3d fc f0 42 3d d8 f7 8f 3d
       0.11114079 0.10981654 0.0475931 0.07029694
0000f0 3a 22 fe bd 40 4f ad bb 7e 6d ad bd 34 2d b6 3d
       -0.12408872 -0.0052889884 -0.084681496 0.088953406
