runs/phoenix/DroneHoverBulletEnvWithAdversary-v0/ppo/2023-08-20__13-12-01/seed_29585/torch_save/model.pt (torch, 49538 bytes, 14 tensors)

obs_oms.mean f4 [34]
0	0xbc360e43	-0.011111799
1	0xbc87c31a	-0.016572524
2	0x3f52bd1e	0.8231982
3	0x3d115795	0.035483915
4	0xba10b6ee	-0.0005520423
5	0x3c92c377	0.01791547
6	0x3f158544	0.5840647
7	0xbd418fc7	-0.047256257
8	0xbdd20e2c	-0.10256609
9	0xbf43736d	-0.76348
10	0x3e1a2b34	0.15055543
11	0xbcede0a1	-0.029037775
12	0xbf1f4b50	-0.6222429
13	0x3dfe75f9	0.12424845
14	0x3c81f1a8	0.015862301
15	0x3c914454	0.017732777
16	0x3d845ea6	0.06463365
17	0xbc3de743	-0.011590782
18	0xbc90528e	-0.01761749
19	0x3f50bf8f	0.81542295
20	0x3d13b470	0.03606075
21	0xba0f2f74	-0.0005462088
22	0x3c93c13a	0.018036474
23	0x3f153843	0.58288974
24	0xbd473df7	-0.04864308
25	0xbdd83ec3	-0.10558846
26	0xbf48f403	-0.7849733
27	0x3e1a321a	0.15058175
28	0xbcf09ad6	-0.029370707
29	0xbf204a14	-0.62613034
30	0x3df9f349	0.12204606
31	0x3c7dc841	0.015489639
32	0x3c79b137	0.015240005
33	0x3d82b4f9	0.06382174

obs_oms.std f4 [34]
0	0x3f452a05	0.7701724
1	0x3f4b65b2	0.7945205
2	0x3eea8804	0.45806897
3	0x3e4a6b5c	0.19767517
4	0x3e3aa70a	0.18227783
5	0x3f33896e	0.70131576
6	0x3e9dee22	0.30845743
7	0x3fb733a7	1.4312638
8	0x3fb8266f	1.4386729
9	0x3f3967b1	0.72423846
10	0x4029e881	2.654816
11	0x402981d1	2.6485484
12	0x401d4737	2.4574716
13	0x3eafaeab	0.3431295
14	0x3eb94c79	0.36191157
15	0x3eb02fb8	0.34411407
16	0x3eadac23	0.33920392
17	0x3f480d40	0.7814522
18	0x3f4e3f3a	0.80565226
19	0x3eed120a	0.46302825
20	0x3e4bfdc0	0.19921017
21	0x3e3ba0e8	0.183231
22	0x3f339a57	0.7015738
23	0x3e9df73d	0.3085269
24	0x3fb9e34f	1.4522494
25	0x3fbad36f	1.4595774
26	0x3f3c1179	0.7346416
27	0x40297957	2.648031
28	0x402929e3	2.6431816
29	0x401e14ba	2.470015
30	0x3eafd658	0.3434322
31	0x3eb9935c	0.3624524
32	0x3eb07638	0.34465194
33	0x3eadd2e2	0.33949953

pi.log_std f4 [4]
0	0xc0866972	-4.2003717
1	0xc0866972	-4.2003717
2	0xc0866972	-4.2003717
3	0xc0866972	-4.2003717

pi.net.0.weight f4 [50, 34]
0	0xbdac6654	-0.08417955
1	0xbac369d3	-0.0014908857
2	0xbe30444c	-0.17213553
3	0xbdf03a63	-0.117298864
4	0xbe85dcb1	-0.26144937
5	0xbd907b0a	-0.07054718
6	0xbe1eccc4	-0.155078
7	0x3d38d18b	0.04512171
8	0x3de34d14	0.11098686
9	0xbe06edb8	-0.1317662
10	0x3e28980c	0.16464251
11	0xbcf1205f	-0.029434381
12	0xbe2301db	-0.15918677
13	0x3d567fb8	0.052367896
14	0xbd71cdd4	-0.059034184
15	0x3e177582	0.1479092
16	0xbcb88b08	-0.022527233
17	0xbcb8c402	-0.022554401
18	0xbe0e5394	-0.1389907
19	0xbdf66b78	-0.12032217
20	0xbe25ed52	-0.16203812
21	0xbd1acf3b	-0.037795287
22	0xbd19dc64	-0.037563697
23	0xbdf4d432	-0.119545355
24	0xbd4e8f06	-0.050429367
25	0xbc476448	-0.012169905
26	0xbe2c3258	-0.1681608
27	0xbdf68422	-0.12036921
28	0xbe281dde	-0.16417643
29	0xbe4ab4bb	-0.19795506
30	0x3e1a733a	0.15083018
31	0xbe086bef	-0.13322423
32	0x3cb5eb5d	0.022206957
33	0x3d2bc370	0.04193443
34	0xbe619c8c	-0.22032374
35	0x3d443d64	0.04791011
36	0xbd8edf5d	-0.06976197
37	0x3d2c6faf	0.042098697
38	0x3c163aae	0.009169264
39	0x3ab8d76a	0.0014102284
40	0x3d0f3a1a	0.03496752
41	0xbd8731af	-0.06601273
42	0xbdede292	-0.116154805
43	0x3d6f694b	0.058450025
44	0x3e29b029	0.16571106
45	0xbda97a42	-0.08275272
46	0x3e21c2d1	0.15796973
47	0x3e3b527b	0.18293183
48	0x3de225f1	0.11042393
49	0x3e0ea4e6	0.13930091
50	0x3e00abc2	0.1256552
51	0xbe5535ea	-0.20821348
52	0x3e1c4c77	0.15263544
53	0x3d77da2c	0.0605108
54	0xbdd320c9	-0.10308988
55	0xbdf22f59	-0.11825437
56	0x3e6fee04	0.2343064
57	0x3df1f9e3	0.1181524
58	0xbe334461	-0.17506553
59	0xbdf84a52	-0.121235505
60	0xbcacdd5d	-0.021101648
61	0xbc70e30a	-0.014702568
62	0xbd5da0ac	-0.054108307
63	0xbc957f61	-0.018249216
64	0xbcb02d6c	-0.021506034
65	0x3dd3d67a	0.103436425
66	0xbde5efdf	-0.112273924
67	0xbce17ce9	-0.027525382
68	0x3e11272c	0.14175099
69	0xbe3ef793	-0.1864913
70	0x3df676cb	0.12034377
71	0x3e4f8928	0.20267165
72	0x3d495581	0.04915381
73	0xbcca0e87	-0.02466513
74	0xbdc278c8	-0.094956934
75	0x3dda0153	0.10644784
76	0xbcad175d	-0.021129305
77	0xbd3ee285	-0.046602745
78	0xbd1bdedd	-0.038054336
79	0x3cac82e5	0.02105851
80	0x3b1a477d	0.0023541145
81	0xbdbe5c36	-0.092949316
82	0x3da473cc	0.08029899
83	0x3d9da74e	0.076979265
84	0xbe28c5da	-0.16481724
85	0x3dc1331c	0.094335765
86	0xbe4785a0	-0.19484568
87	0x3c5fc0b0	0.01365678
88	0xbce5d0a4	-0.02805359
89	0xbac2083e	-0.0014803482
90	0xbcd9f3f9	-0.026605593
91	0xbdb495e5	-0.088176526
92	0xbca6d0a5	-0.020363161
93	0x3d5ba1cd	0.053621102
94	0xbde45036	-0.111481115
95	0xbd645eb9	-0.055754397
96	0xbe160c4a	-0.14653125
97	0x3da72387	0.08161073
98	0xbe518c16	-0.20463595
99	0x3de8833f	0.11353158
100	0xbdc73724	-0.09727314
101	0xbe5965a3	-0.21230178
102	0x3cfad9e3	0.030621475
103	0xbd7cb903	-0.06169988
104	0xbb677aef	-0.0035321077
105	0x3e0d10b2	0.137759
106	0xbca810ee	-0.020515885
107	0xbcaaf233	-0.020867443
108	0x3e294859	0.16531505
109	0xbdaeaf82	-0.08529569
110	0x3e08f4cd	0.13374634
111	0xbd6cd74f	-0.05782252
112	0x3e706940	0.2347765
113	0xbd12596f	-0.03572982
114	0x3e38d136	0.18048558
115	0xbc1c76a8	-0.009549774
116	0x3d73c174	0.059510663
117	0xbda7a8ea	-0.08186515
118	0x3d520b45	0.05128028
119	0x3e1ef2bd	0.15522285
120	0x3d4d6d6b	0.050153177
121	0x3d6d8df3	0.0579967
122	0xbd7057e0	-0.058677554
123	0xbbb54790	-0.0055322126
124	0xbd77d169	-0.060502443
125	0xbbff96a0	-0.0077999383
126	0x3e162aa5	0.14664705
127	0xbd800b5f	-0.06252169
128	0x3e13669f	0.14394616
129	0x3dc94403	0.09827425
130	0xbd5efe97	-0.054442015
131	0x3db5a492	0.0886928
132	0x3e233825	0.15939386
133	0x3e12008e	0.14258024
134	0x3c7b2a8b	0.015329967
135	0x3db63adb	0.088979445
136	0xbe1f9837	-0.15585409
137	0x3e609462	0.21931604
138	0xb9e721ec	-0.00044085027
139	0x3e1c9ed2	0.1529496
140	0x3e23cccf	0.15996097
141	0xbdc1de8a	-0.09466274
142	0xba281441	-0.00064117095
143	0x3d8ad292	0.06778444
144	0x3df0b7a2	0.11753775
145	0xbd8dac0b	-0.0691758
146	0x3dfbab52	0.12288536
147	0x3d8d778f	0.069075696
148	0x3e0980af	0.13427995
149	0x3d8db462	0.06919171
150	0x3e0d3765	0.13790663
151	0x3db5e8e0	0.08882308
152	0x3c4e3a24	0.012587104
153	0xbdd62dbe	-0.104579434
154	0xbcbbfaf4	-0.022946812
155	0xbd216e26	-0.039411686
156	0x3db3018f	0.08740532
157	0x3e4bae2c	0.1989066
158	0x3e00eb04	0.12589651
159	0xbda58a86	-0.08083062
160	0x3e4fc0d1	0.20288397
161	0x3db49c55	0.088188805
162	0x3e08d1ff	0.13361357
163	0x3cda1f9a	0.026626397
164	0xbe52fcab	-0.20604198
165	0xbe42017a	-0.18945876
166	0xbcc94eb6	-0.024573665
167	0x3dac2b7f	0.08406734
168	0x3e06f404	0.13179022
169	0xbe229fb6	-0.15881237
170	0x3cb99299	0.022652911
171	0xbc472f9e	-0.012157349
172	0x3d8b89e2	0.068134084
173	0x3dcd6261	0.1002853
174	0xbc8f0439	-0.017458068
175	0xbe306b8d	-0.17228527
176	0x3cbe6898	0.023243234
177	0xbdb9f0ac	-0.09079108
178	0xbd5c750b	-0.05382256
179	0x3db34b24	0.08754566
180	0xbe6bba65	-0.23020323
181	0xbd66ad67	-0.056317713
182	0x3dcd64b6	0.10028975
183	0x3e85dc2e	0.26144546
184	0x3d09bacf	0.03362542
185	0x3ba37c4e	0.0049891835
186	0x3d1375cc	0.03600101
187	0xbd377186	-0.044786
188	0xbd1357c6	-0.03597238
189	0x3c966344	0.01835788
190	0x3da0b051	0.0784613
191	0xbc086f17	-0.008327267
192	0x3df4af10	0.11947453
193	0x3e2b0215	0.16700013
194	0xbd843a65	-0.064564504
195	0x3d8c37db	0.06846591
196	0x3e9b45ef	0.30326793
197	0x3d8df991	0.06932367
198	0xbdb0fb7e	-0.08641718
199	0x3d9a88d3	0.075456284
200	0x3e812bc1	0.25228694
201	0x3d4d781a	0.050163366
202	0x3e612520	0.21986818
203	0x3e3b772d	0.1830718
204	0x3db865a5	0.09003762
205	0x3e2afe3e	0.16698548
206	0x3e149c65	0.14512785
207	0xbe08235b	-0.13294737
208	0xbe3017cc	-0.17196578
209	0xbdc5d251	-0.09659255
210	0x3d6a2f50	0.057174027
211	0xbd6fcde0	-0.058545947
212	0x3e3d3e9b	0.18480913
213	0xbe764a43	-0.24051766
214	0x3e07902e	0.13238594
215	0x3d1d9e33	0.03848095
216	0x3d396b8a	0.045268573
217	0x3d90c1e3	0.07068231
218	0x3dd8dcf0	0.105890155
219	0x3dee3012	0.116302624
220	0x3ca0ff3e	0.019652959
221	0xbd3efaa0	-0.046625733
222	0x3d605a17	0.054773416
223	0xbe195ebe	-0.14977548
224	0xbd2a909c	-0.041641816
225	0x3da8ae00	0.08236313
226	0xbd19a9f0	-0.03751558
227	0x3e333b16	0.17503008
228	0x3d7cd81f	0.061729547
229	0x3e34c7a4	0.17654282
230	0xbd711f38	-0.058867663
231	0xbdd2ee15	-0.10299317
232	0xbe86b24f	-0.26307914
233	0x3e1c2e01	0.15251924
234	0xbe2082d0	-0.15674901
235	0xbdc126de	-0.094312415
236	0x3de58ea5	0.11208848
237	0x3e620b04	0.22074515
238	0xbd95bdeb	-0.073116146
239	0x3d48cf3a	0.04902575
240	0x3c5c73c8	0.013455339
241	0xbe5c8729	-0.21535935
242	0x3de84220	0.11340737
243	0x3dd9a80b	0.10627755
244	0x3e50b9be	0.20383355
245	0x3e0b5049	0.13604845
246	0xbcc1e6f2	-0.023669694
247	0xbe017e3d	-0.12645812
248	0xbbe049df	-0.0068447436
249	0xbd1efa72	-0.038813062
250	0x3d559871	0.052147333
251	0x3e07ba4e	0.13254663
252	0x3dd26b1a	0.10274334
253	0x3d945f77	0.07244771
254	0xbcfd8879	-0.030948864
255	0x3c23b5a8	0.009992041

pi.net.0.bias f4 [50]
0	0xbdf0e501	-0.11762429
1	0x3bfe3698	0.007757973
2	0x3e09910e	0.1343424
3	0x3c1ea1a4	0.009682093
4	0xbe2ad758	-0.1668371
5	0x3e04c270	0.12964797
6	0xbe56518c	-0.20929545
7	0x3e0cdc3a	0.13755885
8	0x3db5d982	0.08879377
9	0xbe16c77f	-0.14724539
10	0xbdec7ee6	-0.115476415
11	0x3dd48104	0.1037617
12	0x3dc90a8b	0.09816464
13	0x3da6e85e	0.08149789
14	0x3e373cd5	0.178943
15	0xbd893b8a	-0.06700809
16	0xbe3d7c57	-0.18504463
17	0x3e3f863f	0.18703555
18	0x3c78f77d	0.015195725
19	0xbdf14844	-0.11781362
20	0x3d819564	0.06327322
21	0xbe3ac3f1	-0.18238808
22	0xbd7d21bf	-0.06179976
23	0x3e44f10e	0.1923258
24	0x3d20579b	0.039146047
25	0x3dac4d78	0.084132135
26	0x3b742006	0.0037250533
27	0xbe258a3a	-0.1616601
28	0xbe2aa546	-0.1666461
29	0x3db22d91	0.08700097
30	0x3c00a431	0.007851646
31	0xbd6301d9	-0.055421684
32	0x3dcd19e7	0.10014706
33	0x3c0ea622	0.008706601
34	0xbdc043d6	-0.09387939
35	0x3d1aa807	0.0377579
36	0xbd5ee977	-0.05442187
37	0xbdd2b2c6	-0.102880046
38	0xbdc2744b	-0.094948374
39	0xbe32127c	-0.17389864
40	0x3c90b7cf	0.017665772
41	0x3b47bd7b	0.003047793
42	0xbd0f86ac	-0.035040542
43	0x3cbd29cf	0.023091225
44	0xbe16d48e	-0.1472952
45	0x3e57bda7	0.2106844
46	0xbdde661a	-0.10859318
47	0x3c2abe53	0.010421353
48	0xbb80acdb	-0.003926856
49	0x3e66d273	0.22541218

pi.net.2.weight f4 [50, 50]
0	0x3e1e7f3e	0.15478227
1	0xba950114	-0.0011368119
2	0x3dba4dca	0.09096868
3	0x3df02a31	0.11726797
4	0xbdd9d4f2	-0.10636319
5	0xbd43210d	-0.04763894
6	0xbdb5a416	-0.088691875
7	0x3e130207	0.14356242
8	0x3d0bc04f	0.034118947
9	0xbdbc913c	-0.09207389
10	0x3cb01271	0.021493169
11	0xbc7a4a07	-0.015276439
12	0xbdc95d46	-0.098322436
13	0x3d14559b	0.036214452
14	0x3e31c77b	0.17361252
15	0x3c8a5c89	0.016889827
16	0x3da524ad	0.08063636
17	0xbe2582aa	-0.16163126
18	0xbe153d63	-0.14574198
19	0x3e1f010c	0.15527743
20	0x3dee8652	0.11646713
21	0xbbc5c714	-0.006035695
22	0x3e15f60d	0.14644642
23	0x3cde3695	0.027125636
24	0x3dbb22e7	0.091375165
25	0xbcd2e965	-0.025746057
26	0x3db29cb6	0.087212965
27	0xbd5c2b69	-0.053752337
28	0x3d51ef8e	0.051253848
29	0xbd3389a5	-0.04383244
30	0xbdcbf44f	-0.099587075
31	0xbdb4f1b5	-0.088351645
32	0xbdf3f5ff	-0.119121544
33	0xbd3dd0d2	-0.046341725
34	0xbc250515	-0.010072012
35	0xbe226868	-0.1586014
36	0xbc97690d	-0.01848271
37	0xbe226c34	-0.15861589
38	0xbdc7c360	-0.09754062
39	0xbd13efd2	-0.036117382
40	0x3dc076fe	0.09397696
41	0xbd47d673	-0.0487885
42	0x3db56811	0.0885774
43	0x3db3844a	0.087654665
44	0x3de90e36	0.11379664
45	0xbda2b1e2	-0.07944085
46	0xbd1dced6	-0.038527332
47	0xbd1d0138	-0.03833124
48	0xbdc4a10b	-0.09601029
49	0xbe1b04d2	-0.15138558
50	0x3c8a66bd	0.016894693
51	0xbded3e2b	-0.11584123
52	0xbe2fb165	-0.17157514
53	0x3d160b18	0.036631674
54	0xbd904503	-0.07044413
55	0x3d5f7610	0.054555953
56	0xbd5cd595	-0.053914625
57	0xbad44dd2	-0.0016197509
58	0x3dd11c16	0.10210435
59	0x3d74f0b5	0.05979987
60	0xbdc57d83	-0.0964308
61	0xbd3bdd16	-0.04586514
62	0x3bb1b6a6	0.0054233847
63	0x3da01949	0.07817323
64	0x3e7ed215	0.24884827
65	0xbdb682ee	-0.089116916
66	0xbd592071	-0.053009454
67	0xbe624928	-0.2209822
68	0xbe54c6b9	-0.20778932
69	0x3db0040c	0.08594522
70	0x3d29c717	0.041449632
71	0xbd59c4f9	-0.053166363
72	0xbcefacbc	-0.02925717
73	0xbd34921a	-0.044084646
74	0xbde00dc5	-0.10940126
75	0x3cd97f9c	0.026550107
76	0xbdeaa2a0	-0.114567995
77	0xbdb27337	-0.08713382
78	0x3d2a96d3	0.041647743
79	0xbe439147	-0.19098388
80	0x3e3fa334	0.18714601
81	0xbc158397	-0.009125612
82	0xbcdfa620	-0.027300894
83	0xbd97cdc0	-0.074122906
84	0x3e13a1ef	0.14417242
85	0x3e3b3a05	0.18283851
86	0xbc33ed2a	-0.010981837
87	0x3d22835e	0.039676063
88	0x3d9572bd	0.07297275
89	0xbdf410b3	-0.119172476
90	0x3e019c28	0.12657225
91	0x3df7f8ad	0.12107978
92	0x3d1f1674	0.038839772
93	0xbd964cf7	-0.07338899
94	0x3d451bfe	0.0481224
95	0xbd221d54	-0.03957875
96	0xbd33ccd8	-0.043896526
97	0x3d8f705c	0.07003853
98	0x3cabc148	0.020966187
99	0xbe1d11d5	-0.15338834
100	0xbd0ffc9b	-0.035153013
101	0xbccf583c	-0.025310628
102	0xbd9a9b01	-0.07549096
103	0x3d196e94	0.03745897
104	0xbd590f78	-0.052993268
105	0x3e1878f3	0.14889888
106	0xbdf5180e	-0.11967479
107	0xbe057b11	-0.13035227
108	0xbda94861	-0.08265758
109	0x3daa49af	0.08314835
110	0xbc9fce42	-0.019507531
111	0x3c6b954c	0.014378857
112	0x3e2467d0	0.16055226
113	0x3d0c05fb	0.03418539
114	0x3d008cc6	0.031384252
115	0x3dd68697	0.1047489
116	0x3d914cb1	0.07094706
117	0x3d37e096	0.044891916
118	0xbe11a840	-0.14224339
119	0x3e30469a	0.17214432
120	0xbe3f9ee8	-0.18712962
121	0xbdcb0616	-0.0991327
122	0x3dee71e8	0.1164282
123	0xbdad2e55	-0.08456103
124	0xbd1a5621	-0.037679795
125	0xbbbbcb49	-0.0057310206
126	0xbdcaa8ae	-0.09895454
127	0x3e0157d1	0.12631156
128	0x3caf4f75	0.021400193
129	0xbe09c9ae	-0.13455841
130	0x3e46d9f6	0.19419083
131	0xbc7a7af4	-0.015288103
132	0x3d55371d	0.052054513
133	0xbc048711	-0.008088843
134	0xbd67a659	-0.056555126
135	0x3db81888	0.08989054
136	0xbdbbe9a4	-0.09175423
137	0x3d1d82ef	0.038454946
138	0x3cf50b6f	0.029912679
139	0x3d67277b	0.056434136
140	0xbd835b58	-0.06413907
141	0xbe182a16	-0.14859805
142	0xbe1c2439	-0.15248193
143	0xbc2cbf3f	-0.0105436435
144	0x3de0ad85	0.10970596
145	0xbda6d970	-0.08146942
146	0xbca3ef21	-0.020011486
147	0xbe8833ab	-0.2660192
148	0xbe28b564	-0.16475445
149	0x3d800cbb	0.06252428
150	0x3d323a68	0.04351273
151	0xbd391fc2	-0.045196302
152	0x3c681a47	0.014166421
153	0xbda1e384	-0.07904723
154	0x3df86820	0.12129235
155	0xbd4a1efc	-0.049345955
156	0x3de65815	0.11247269
157	0xbce70e8e	-0.028205182
158	0xbdd1d2d6	-0.10245292
159	0x3e091f73	0.13390903
160	0x3dcbb616	0.099468395
161	0xbc58d8d2	-0.013235288
162	0xbd9a4ba2	-0.07533957
163	0x3dceeb29	0.10103447
164	0xbdad1236	-0.08450739
165	0x3ca50d08	0.020147815
166	0xbd0a9449	-0.033832822
167	0x3cc02ca3	0.023458784
168	0x3d14c381	0.03631926
169	0xbdbdf41a	-0.09275074
170	0xbe2c18d4	-0.16806346
171	0x3d4796b4	0.048727706
172	0x3de72d37	0.11287921
173	0x3d6a632d	0.057223488
174	0xbc9d8502	-0.019228462
175	0x3e0fb30c	0.14033145
176	0xbe06ad88	-0.13152134
177	0xbd9da3dc	-0.07697269
178	0xbd239807	-0.039939906
179	0x3d75bb05	0.05999281
180	0xbd9f4eb6	-0.07778685
181	0xbd211ca5	-0.03933396
182	0xbe0cdd76	-0.13756356
183	0x3d888df1	0.06667698
184	0x3cecebe0	0.028921068
185	0x3d87933a	0.06619878
186	0x3d24506b	0.040115755
187	0xbdc6d757	-0.097090416
188	0x3d22333f	0.039599653
189	0x3d465ded	0.04842942
190	0xbe2ab2bf	-0.16669749
191	0x3daba478	0.08380979
192	0x3c8cb024	0.017173834
193	0x3e1dc5e6	0.15407524
194	0xbddf86b0	-0.109143615
195	0xbd7a9d2b	-0.061185043
196	0x3e0a14af	0.13484453
197	0x3e3a3835	0.18185504
198	0xbd9d6425	-0.07685117
199	0x3d54c6e0	0.051947474
200	0x3de2b87f	0.11070346
201	0x3d7df771	0.062003557
202	0x3e1300eb	0.14355819
203	0x3d99c224	0.075077325
204	0xbd22c248	-0.039736062
205	0xbdc5f50b	-0.09665879
206	0x3d9bf383	0.076148055
207	0x3de626b8	0.11237854
208	0xbd50e205	-0.0509968
209	0x3db2cdc0	0.0873065
210	0x3cc4f923	0.024044579
211	0xbdd8d468	-0.10587388
212	0x3dc5b7e2	0.096542135
213	0x3d7b89b1	0.06141061
214	0xbcdc8e1b	-0.02692323
215	0xbdc2b50f	-0.095071904
216	0x3c5ccd8d	0.0134767415
217	0x3d05446d	0.03253596
218	0xbde657da	-0.11247225
219	0x3db61d7e	0.08892344
220	0xbd7ce3ad	-0.061740566
221	0x3e07c858	0.13260019
222	0x3dbd61fb	0.09247204
223	0x3db350a0	0.087556124
224	0xbe228871	-0.15872361
225	0x3d358ded	0.044324804
226	0xbe2f414c	-0.17114753
227	0x3d3cf97b	0.04613636
228	0x3dbf234b	0.093329035
229	0x3dd162ad	0.10223899
230	0x3ce8113c	0.02832853
231	0xbd958cb8	-0.073022306
232	0xbddb244e	-0.10700284
233	0x3d7da8fb	0.06192873
234	0xbd156497	-0.036472883
235	0xbc2897d6	-0.010290107
236	0x3c96c84e	0.01840606
237	0x3cf90d90	0.030401975
238	0x3dd0a2c4	0.10187295
239	0xbe1a92de	-0.15095088
240	0xbd7a8e97	-0.06117114
241	0xbdc5d673	-0.096600436
242	0xbc20d0e3	-0.0098154275
243	0xbd8516bb	-0.06498476
244	0xbc898c6a	-0.016790587
245	0x3dadd84c	0.08488521
246	0xbc940eac	-0.018073402
247	0x3e0dbdcd	0.13841935
248	0xbe15d99f	-0.14633797
249	0x3c86432f	0.016389458
250	0xbaea8e0a	-0.0017895114
251	0x3e08c3a7	0.13355885
252	0xbd2ce4d7	-0.042210426
253	0xbd1fac12	-0.03898246
254	0x3d9bcc6c	0.0760735
255	0xbe2e05d3	-0.1699441

pi.net.2.bias f4 [50]
0	0x3d9a3bdc	0.075309485
1	0x3dff4f3f	0.12466287
2	0xbde0e9aa	-0.10982068
3	0xbdb5f30c	-0.08884248
4	0xbd9a922b	-0.075474106
5	0x3d5d5daf	0.05404442
6	0xbdcc38cb	-0.0997177
7	0xbdf73ba7	-0.12071925
8	0x3e20cc53	0.15702944
9	0xbdb7cdb5	-0.089747824
10	0x3db8569c	0.090008944
11	0x3de08403	0.10962679
12	0x3de2d298	0.11075324
13	0xbdaf1613	-0.08549132
14	0x3d743537	0.059621062
15	0xbe351d4c	-0.17686957
16	0xbd95f9cc	-0.073230356
17	0x3d9088ef	0.07057368
18	0x3d9dcded	0.07705293
19	0xbd2d9b1b	-0.04238425
20	0x3d74195b	0.059594493
21	0xbd6d5366	-0.057940863
22	0x3d94e793	0.07270732
23	0x3dab2c1d	0.08358023
24	0xbcdbd297	-0.026833816
25	0x3dbd7ef7	0.09252732
26	0xbde0c50c	-0.10975084
27	0xbdd6a048	-0.1047979
28	0xbd8e8f0d	-0.069608785
29	0x3dcc8a94	0.09987369
30	0x3d8ff4e9	0.07029135
31	0xbe080e17	-0.13286625
32	0x3e1fee5d	0.15618272
33	0xbd6de62e	-0.058080845
34	0xbc74974b	-0.014928649
35	0xbba50797	-0.005036305
36	0x3d23d5fe	0.039999
37	0x3d54bd4a	0.051938333
38	0x3e2a0e56	0.16607031
39	0x3dfa726f	0.12228858
40	0x3d7b4f6b	0.061355036
41	0xbc424099	-0.011856222
42	0xbd1475fe	-0.03624534
43	0x3db99e10	0.09063351
44	0x3d18ff7f	0.037353035
45	0x3d95c0f1	0.07312191
46	0xbccf1c6c	-0.025282107
47	0x3d9cbeef	0.07653605
48	0xbd9e596e	-0.07731901
49	0xbd813bdb	-0.06310245

pi.net.4.weight f4 [4, 50]
0	0xbdb518ce	-0.08842622
1	0x3d99e977	0.07515233
2	0xbe0eae03	-0.13933568
3	0xbb8b0c81	-0.004243434
4	0x3d0e6e02	0.03477288
5	0xbd971170	-0.07376373
6	0xbe357752	-0.17721298
7	0xbd8157f3	-0.06315603
8	0x3d9b7cac	0.07592139
9	0x3dab9aca	0.08379133
10	0xbc597c88	-0.0132743195
11	0xbdb862bd	-0.09003208
12	0xbdebc022	-0.11511256
13	0x3e70f9c2	0.23532775
14	0x391ba91a	0.00014844947
15	0x3c317959	0.010832154
16	0x3d34f917	0.044182863
17	0xbb78a458	-0.0037939753
18	0xbe49a229	-0.19690765
19	0x3d72403a	0.059143282
20	0x3d96fd83	0.07372572
21	0xbe5dae4d	-0.21648522
22	0xbd241af5	-0.04006477
23	0xbdd85f0e	-0.10565005
24	0xbbd4a044	-0.0064888317
25	0x3d7335f1	0.059377614
26	0xbddb6df6	-0.10714333
27	0xbe280cd0	-0.16411138
28	0xbd81f13f	-0.06344842
29	0x3daf620c	0.08563623
30	0x3dfbaf8b	0.122893415
31	0xbe3055d9	-0.17220248
32	0xbddf84ea	-0.10914023
33	0xbe03bea9	-0.128657
34	0xbe1ce67a	-0.15322295
35	0x3e1f2d96	0.15544733
36	0xbdf0781f	-0.11741661
37	0x3df122c4	0.11774209
38	0x3e2c081e	0.16799971
39	0x3de73826	0.11290006
40	0xbe79de94	-0.24401313
41	0x3d4a6f84	0.049422756
42	0xbcaf48c0	-0.021396995
43	0xbddf7368	-0.10910684
44	0x3d12269c	0.035681352
45	0xbde4c708	-0.11170775
46	0x3d8f5ad8	0.06999749
47	0xbd6269a5	-0.05527653
48	0xbe1722b4	-0.14759332
49	0x3deabf11	0.11462224
50	0x3e0b3467	0.13594209
51	0x3e40b945	0.18820675
52	0xbdfcce75	-0.12344066
53	0xbde8cf14	-0.11367622
54	0xbccaea51	-0.024769934
55	0x3d8c4a25	0.068500794
56	0xbd1ddbca	-0.038539685
57	0xbd511d37	-0.051053252
58	0x3e045083	0.12921338
59	0xbdc9cd5f	-0.098536246
60	0xbe3203c4	-0.17384249
61	0xbd547349	-0.051867757
62	0x3d423efb	0.047423344
63	0xbdc2b28a	-0.0950671
64	0xbe332627	-0.17495023
65	0x3d8c28ab	0.06843694
66	0x3d8286d1	0.063733704
67	0x3e30a92f	0.17252038
68	0x3e18b4b2	0.1491268
69	0xbd00fca0	-0.031490922
70	0xbdcd32a1	-0.10019422
71	0xbda481fa	-0.080326036
72	0xbdc8f052	-0.098114625
73	0xbe10ff15	-0.14159806
74	0xbe46b9e9	-0.19406857
75	0x3dd80d8f	0.10549461
76	0x3deb9de4	0.115047246
77	0x3e793714	0.24337417
78	0x3dcb3d3c	0.09923789
79	0xbe74f246	-0.23920545
80	0x3e22f8ae	0.15915176
81	0xbe06f0aa	-0.13177744
82	0xbe21384c	-0.15744132
83	0x3e28eea7	0.16497289
84	0xbde475d5	-0.11155287
85	0xbe1956cc	-0.14974517
86	0x3d0cdf20	0.034392476
87	0x3e4aab72	0.19791964
88	0x3b4d7e74	0.003135589
89	0xbb579c18	-0.0032899436
90	0xbcc94390	-0.02456835
91	0xbf01ac95	-0.50653964
92	0xbe375287	-0.17902575
93	0x3d8b5053	0.0680243
94	0xbe4d6f0a	-0.2006189
95	0x3e3bf23b	0.18354122
96	0xbe050761	-0.12991096
97	0xbe5a1da6	-0.21300372
98	0x3e2c05a5	0.16799028
99	0xbe26f96e	-0.16306087
100	0xbdd4300a	-0.10360725
101	0xbde76983	-0.11299422
102	0xbdec20c2	-0.115296856
103	0xbd9e46a9	-0.07728321
104	0x3e08bd43	0.13353448
105	0xbe111749	-0.14169039
106	0x3d79734a	0.060900964
107	0xbe321c09	-0.17393507
108	0x3dbb1c74	0.091362864
109	0xbda2d8cf	-0.07951509
110	0x3dfdc7f1	0.123916514
111	0xbd6d65f7	-0.05795857
112	0x3e39a976	0.1813105
113	0xbdf743bd	-0.12073467
114	0x3bf2ef73	0.0074137985
115	0xbc65befc	-0.014022585
116	0x3e22864e	0.15871546
117	0x3d63e586	0.055638812
118	0xbe8e9fb0	-0.27856207
119	0xbe1b502f	-0.15167306
120	0x3c095baa	0.008383671
121	0x3e4eddf9	0.20201863
122	0xbe233b25	-0.1594053
123	0xbde931d5	-0.11386458
124	0xbd9f5545	-0.07779936
125	0x3e135f87	0.1439191
126	0xbd4c8979	-0.04993579
127	0x3b5e77b5	0.0033945863
128	0x3d8f35a5	0.06992654
129	0xbe10a991	-0.14127184
130	0xbe017450	-0.12642026
131	0xbdadabca	-0.08480032
132	0x3cff3c3f	0.031156657
133	0xbd3d047e	-0.046146862
134	0x3e34ea1a	0.17667428
135	0xbe1d170e	-0.15340826
136	0xbdd08bb8	-0.10182899
137	0xbd919e6b	-0.07110294
138	0x3d8e1d50	0.06939185
139	0xbcf29af5	-0.029614905
140	0x3e8414f3	0.25797233
141	0xbd24b6fe	-0.040213577
142	0xbdfc8c0f	-0.123314016
143	0x3de501fe	0.111820206
144	0x3e0cd785	0.13754089
145	0x3d7de95d	0.06199013
146	0xbde9aa95	-0.11409489
147	0x3dee7919	0.11644191
148	0x3da265e0	0.07929587
149	0x3da57a85	0.08080009
150	0x3d925dcb	0.07146796
151	0xbe6ae4b0	-0.229388
152	0xbdcac638	-0.099010885
153	0x3e619724	0.22030312
154	0x3df23fd4	0.118285805
155	0xbe0914d7	-0.13386856
156	0xbc671757	-0.014104686
157	0x3d98c96c	0.07460293
158	0x3e0d4784	0.13796812
159	0x3e49f076	0.19720635
160	0xbe1bb7c3	-0.15206818
161	0xbd9c7d68	-0.07641107
162	0xbdae8633	-0.0852169
163	0xbe160e17	-0.14653812
164	0x3e3228c3	0.17398362
165	0x3dc1b5f5	0.09458534
166	0x3db7e9de	0.089801535
167	0xbd0b242d	-0.033970047
168	0x3e295de7	0.16539727
169	0xbd93537f	-0.0719366
170	0xb9a67f04	-0.0003175662
171	0x3e370912	0.17874554
172	0xbe27a40b	-0.16371171
173	0xbe2f3911	-0.17111613
174	0xbe831e3e	-0.2560901
175	0x3baf4dd9	0.0053498563
176	0xbdd670b5	-0.10470716
177	0xbe006bf7	-0.12541185
178	0xbe00f975	-0.1259516
179	0x3def7588	0.11692339
180	0x3db4ee86	0.08834557
181	0xbad0ba3d	-0.0015924644
182	0x3e5c2e4f	0.2150204
183	0x3d7690ee	0.06019681
184	0x3e172dae	0.14763519
185	0xbe224cfe	-0.15849683
186	0xbc0c1f7d	-0.008552429
187	0x3de8e0c2	0.11370994
188	0xbe32a559	-0.17445888
189	0x3deae43d	0.11469314
190	0xbe0ecf5c	-0.13946289
191	0x3dd389db	0.10329028
192	0xbd63fda9	-0.05566183
193	0xbdafd33b	-0.08585211
194	0x3e049e3e	0.1295099
195	0x3e61fc03	0.22068791
196	0xbe0e056a	-0.13869253
197	0xbe78932b	-0.2427489
198	0xbe111c71	-0.14171006
199	0x3e28d03a	0.16485682

pi.net.4.bias f4 [4]
0	0x3dee8658	0.11646718
1	0xbd0fa87e	-0.035072796
2	0xbd18f0e7	-0.037339117
3	0xbd324c0a	-0.043529548

v.net.0.weight f4 [64, 34]
0	0x3d9e03e3	0.07715585
1	0xbd049bea	-0.032375254
2	0x3e3e8188	0.186041
3	0xbe2d84da	-0.1694521
4	0x3e318c5f	0.17338704
5	0x3da03634	0.078228384
6	0x3d0c800e	0.03430181
7	0xbd918b51	-0.071066506
8	0xbe05bee5	-0.13061102
9	0xbd9d2cd1	-0.07674564
10	0xbb29d525	-0.0025914398
11	0x394d91a2	0.00019604576
12	0x3dfb8b47	0.122824244
13	0xbdd5c777	-0.104384355
14	0x3e0004ab	0.1250178
15	0x3d192f98	0.037398905
16	0xbd98ba70	-0.07457435
17	0x3b746d7c	0.0037296703
18	0x3cfc05a9	0.030764418
19	0x3da04c05	0.078269996
20	0xbe35cf0e	-0.17754766
21	0x3e2b8287	0.16749011
22	0x3d19221a	0.037386037
23	0x3da1bf77	0.07897847
24	0xbd36b701	-0.04460812
25	0x3dc27b57	0.094961815
26	0x3d9a517d	0.07535074
27	0x3cab37a5	0.020900557
28	0xbc2a5712	-0.010396736
29	0x3d5c9607	0.053854015
30	0xbdbb5752	-0.091475144
31	0x3cacb234	0.021081068
32	0xbe0d285d	-0.13784929
33	0xbd82c6b2	-0.063855544
34	0xbe81feed	-0.25389805
35	0xbe567a6c	-0.20945138
36	0xbe02df60	-0.12780523
37	0xbd9b5ce9	-0.075860806
38	0x3d900d93	0.07033839
39	0xbce79657	-0.02826993
40	0x3d967852	0.07347168
41	0xbedd848c	-0.43265188
42	0x3e0a2774	0.13491613
43	0xbe68d6cd	-0.2273819
44	0x3aa197f3	0.001232861
45	0x3c1dd0a4	0.009632263
46	0xbc0c913e	-0.00857955
47	0xbd10d60d	-0.035360385
48	0x3cded8b0	0.027202934
49	0xbcca4bda	-0.024694372
50	0x3d33b1ab	0.04387061
51	0xbe5368a6	-0.20645389
52	0x3d7e0c1c	0.062023267
53	0xbe447903	-0.19186787
54	0xbdbccad3	-0.09218373
55	0x3d26d9d0	0.040735066
56	0xbdf22dba	-0.11825128
57	0x3ca62a56	0.02028386
58	0xbe92da59	-0.2868221
59	0xbd855c50	-0.06511748
60	0xbde93c0e	-0.11388408
61	0xbb87b423	-0.004141347
62	0x3be1459f	0.0068747546
63	0xbbcf5d84	-0.0063282866
64	0xbd020c3e	-0.031749956
65	0x3c3041e3	0.010757896
66	0x3a8e7831	0.001086956
67	0x3cde6823	0.027149266
68	0x3e10a50a	0.14125457
69	0xbc09bc0b	-0.008406649
70	0xbe1f8c71	-0.15580918
71	0x3e1a3a64	0.15061337
72	0x3d2969ac	0.041360542
73	0x3e9cfa0d	0.30659524
74	0xbdf6d42f	-0.120521896
75	0x3c5bac44	0.013407771
76	0xbd955348	-0.07291275
77	0x3cb024fa	0.021502007
78	0xbd00a9da	-0.031411983
79	0x3c972dd6	0.018454473
80	0xbcd65a40	-0.026166081
81	0x3cce9046	0.02521528
82	0x3d247f63	0.040160548
83	0xbd88d60d	-0.06681452
84	0x3d34b949	0.044122014
85	0xbdf3c14d	-0.119021036
86	0xbd544ca5	-0.051830906
87	0x3cf3379b	0.0296896
88	0x3e5a697d	0.21329303
89	0xbbe6a12a	-0.007038255
90	0x3e34bab0	0.1764934
91	0xbdcab3f9	-0.09897608
92	0x3d288634	0.04114361
93	0x3d8c2ae6	0.0684412
94	0xbe0d80d7	-0.1381868
95	0xbcb3c1b0	-0.021942943
96	0x3d41ac12	0.04728324
97	0xbd9d3109	-0.07675368
98	0x3d8b70c7	0.0680862
99	0xbcb9a9a8	-0.022663906
100	0x3d60391c	0.054741964
101	0x3c678339	0.014130407
102	0xbd999965	-0.07499961
103	0x3c71535c	0.014729347
104	0x3e014d95	0.12627251
105	0xbe08cba6	-0.13358936
106	0xbd0ba653	-0.034094166
107	0xbe352dc4	-0.1769324
108	0xbd989e54	-0.07452074
109	0xbdc760be	-0.09735249
110	0x3da3ac78	0.0799188
111	0xbe39d965	-0.18149336
112	0xbba7c4d9	-0.0051199016
113	0x3c11df46	0.00890333
114	0x3dea448c	0.114388555
115	0x3d0cb69f	0.03435385
116	0xbcb55969	-0.02213736
117	0xbc480114	-0.012207288
118	0x3d09d429	0.033649597
119	0x3da50c1a	0.08058949
120	0xbc943e06	-0.018095981
121	0xbd5ef146	-0.054429315
122	0xbd1c7045	-0.038193006
123	0xbcbc628f	-0.022996215
124	0xbc981c5b	-0.018568208
125	0x3e0e045a	0.13868847
126	0x3caa21fd	0.02076816
127	0xbd71af55	-0.0590051
128	0xbe0e2711	-0.1388209
129	0xbc4de6d0	-0.012567237
130	0x3a91c386	0.0011120893
131	0xbdae50b1	-0.085114844
132	0x3cc36c2d	0.023855293
133	0xbb47934e	-0.003045279
134	0x3c0751ca	0.008259246
135	0x3d287e42	0.041136034
136	0x3d8d5ccd	0.06902466
137	0x3d706ffd	0.05870055
138	0x3de1fb60	0.11034274
139	0xbe64056c	-0.22267693
140	0x3d4fa56f	0.05069488
141	0xbe730c54	-0.23735172
142	0x3d8a6587	0.06757646
143	0xbdb2053f	-0.08692407
144	0xbcf8d050	-0.030372769
145	0xbdf92377	-0.121649675
146	0xbc072192	-0.00824775
147	0x3d3da45d	0.046299327
148	0xbdc1c1f8	-0.09460825
149	0x3d6652be	0.056231253
150	0xbd1d9122	-0.038468488
151	0xbb7b54a1	-0.0038350003
152	0x3da5101d	0.08059714
153	0xbdf57923	-0.119859956
154	0x3e242016	0.16027865
155	0x3d1b11f9	0.037858937
156	0xbe309350	-0.17243695
157	0x3ddb2ca1	0.10701872
158	0xbe5e318a	-0.21698585
159	0x3d19b9e6	0.037530802
160	0xbdc247f3	-0.094863795
161	0xbd1ae644	-0.037817255
162	0xbc1f8009	-0.009735116
163	0xbd148b02	-0.03626538
164	0x3d5140ef	0.051087316
165	0x3cd0e7c9	0.025501149
166	0x3d05bec5	0.032652635
167	0xbc9729bf	-0.018452523
168	0x3d3621a8	0.04446569
169	0x3dce58a9	0.10075504
170	0xbcd8115b	-0.026375463
171	0x3e06faa5	0.13181551
172	0xbe301624	-0.17195946
173	0x3e0959fe	0.13413236
174	0xbdba9522	-0.09110476
175	0xbe049089	-0.12945761
176	0x3cfcb7c6	0.030849349
177	0xbd4eca5a	-0.050485946
178	0xbdba3ed0	-0.09094012
179	0xbd18a164	-0.03726329
180	0x3d2ad0fa	0.0417032
181	0xbb9278f1	-0.0044699837
182	0xbd85f6ee	-0.06541239
183	0x3d9c46c5	0.07630686
184	0x3dba576c	0.09098706
185	0xbd9923cc	-0.07477531
186	0xbd988ae7	-0.074483685
187	0x3df834d9	0.12119455
188	0xbddaf258	-0.10690755
189	0xbd94c34b	-0.07263812
190	0x3b3a148e	0.00283936
191	0x3b78771a	0.0037912787
192	0x3de76ab6	0.1129965
193	0x3cea00e8	0.028564885
194	0x3dbc0ffd	0.09182737
195	0xbca4042a	-0.020021517
196	0x3db6eaa5	0.08931474
197	0x3cfcfaca	0.030881304
198	0xbcc7ac59	-0.024374174
199	0xbe320658	-0.17385232
200	0x3d151870	0.03640026
201	0xbdabe02c	-0.08392367
202	0xbd4e249e	-0.05032789
203	0xbd872257	-0.06598347
204	0x3d61c52e	0.055119686
205	0xbcb68d36	-0.022284131
206	0xbdf06edf	-0.11739897
207	0xbd2afe2f	-0.041746315
208	0x3daccb07	0.08437162
209	0x3d0e820a	0.034791984
210	0x3dc5088c	0.09620771
211	0x3d8eebfa	0.06978603
212	0x3bc4f809	0.0060110134
213	0x3d5ed8eb	0.054406088
214	0x3b0636dd	0.0020479478
215	0x3cd06755	0.025439898
216	0xbd2a0d31	-0.041516487
217	0xbc617e17	-0.013762972
218	0x3cd8564f	0.026408343
219	0xbc30a7b6	-0.010782173
220	0x3c974807	0.018466963
221	0xbbc608cb	-0.0060435287
222	0xbcda2642	-0.02662957
223	0x3b721e48	0.0036944319
224	0xbd7b04c7	-0.061283853
225	0xbd48dc42	-0.04903818
226	0xbd3ab402	-0.045581825
227	0xbe11424b	-0.14185445
228	0xbde14a99	-0.110005565
229	0x3c034b6c	0.008013587
230	0x3d4ed489	0.050495658
231	0xbcc4b36b	-0.024011334
232	0x3cdab5cc	0.026698016
233	0x3d7ead8b	0.062177222
234	0xbcaa956b	-0.020823201
235	0xbd6c46ae	-0.057684593
236	0x3d93cfa2	0.07217337
237	0x3cb86395	0.022508422
238	0x3dc7c614	0.09754577
239	0x3e8972c4	0.26845372
240	0xbdb1cd90	-0.08681786
241	0xbd8b025d	-0.0678756
242	0x3d021795	0.03176077
243	0x3c7e8642	0.015534939
244	0x3cc2445a	0.023714233
245	0x3c370970	0.011171684
246	0x3e2b499c	0.16727298
247	0x3d505574	0.050862744
248	0xbbead900	-0.0071669817
249	0xbb609461	-0.0034268128
250	0x3baa0974	0.005189115
251	0xbc636480	-0.013878942
252	0xbcd60285	-0.026124248
253	0x3bcdae3e	0.006276875
254	0xbc6b4b02	-0.014361145
255	0x3d827b15	0.06371132

v.net.0.bias f4 [64]
0	0xbd61841e	-0.055057637
1	0x3cb655c3	0.022257691
2	0xbde8d681	-0.113690384
3	0xbd25bdc1	-0.040464167
4	0xbd197b16	-0.0374709
5	0x3e1167b0	0.1419971
6	0xbe984649	-0.29741123
7	0xbeb4835f	-0.35256478
8	0xbe8ecca7	-0.27890512
9	0x3e7a631f	0.24451874
10	0xbcecfb90	-0.028928548
11	0x3e5f75ea	0.21822324
12	0xbe2e9f8a	-0.17053047
13	0xbe34b42b	-0.17646854
14	0xb99a0ef0	-0.00029384298
15	0xbe11f255	-0.14252599
16	0xbe0ac11b	-0.13550226
17	0xbd173f2a	-0.036925472
18	0xbe3b6156	-0.1829885
19	0xbbda09c3	-0.0066539957
20	0x3e5b987c	0.21444887
21	0xbcb8b4f5	-0.022547225
22	0x3e60850c	0.21925753
23	0x3d40f36d	0.04710715
24	0x3e5b26e8	0.2140156
25	0x3e9d255e	0.3069257
26	0xbe81704e	-0.25280994
27	0xbd9a9e88	-0.07549769
28	0x3f0cf3aa	0.550593
29	0xbdcac9d2	-0.099017754
30	0xbe0d9dfe	-0.138298
31	0x3bab2d3d	0.0052238987
32	0xbe251fc7	-0.16125403
33	0x3e2c7f38	0.16845405
34	0x3e86534a	0.2623542
35	0xbe2240da	-0.15845051
36	0xbe654bcb	-0.22392194
37	0x3dd20088	0.102540076
38	0x3e875101	0.2642899
39	0xbe628046	-0.22119245
40	0xbe2e09c8	-0.16995919
41	0xbe51af5e	-0.20477054
42	0xbe7fc3b0	-0.24976993
43	0x3e238481	0.15968515
44	0xbe3c2882	-0.18374828
45	0x3e7f8746	0.24953946
46	0xbe0d3892	-0.13791111
47	0xbc3c4f67	-0.01149354
48	0x3e5aef93	0.21380453
49	0x3eb5f7d5	0.35540643
50	0x3d821eea	0.06353553
51	0xbe5e3dd0	-0.21703267
52	0xbdce8291	-0.10083497
53	0x3e742682	0.23842815
54	0x3e474cf9	0.19462956
55	0xbe1fa47d	-0.15590091
56	0xbd892ac9	-0.06697614
57	0x3e780a6c	0.24222726
58	0xbddf71a5	-0.10910348
59	0xbc53f655	-0.012937148
60	0x3d67eef4	0.056624368
61	0xbe2aa58a	-0.1666471
62	0xbeb47462	-0.35245043
63	0x3ddd115f	0.10794329

v.net.2.weight f4 [64, 64]
0	0xbd55dfeb	-0.052215498
1	0x3dca9757	0.09892147
2	0x3d942b7c	0.072348565
3	0xbdb95c66	-0.09050827
4	0xbd2ad612	-0.04170806
5	0x3d5e27c8	0.054237157
6	0xbe25b0c4	-0.16180712
7	0x3dd8f921	0.105943926
8	0xbe23725c	-0.15961593
9	0xbdfae227	-0.122501664
10	0x3e4f796a	0.2026116
11	0x3d8c30ed	0.06845269
12	0xbbcf4fe7	-0.006326664
13	0xbd414a95	-0.047190268
14	0xbe2be575	-0.1678675
15	0x3c382353	0.011238891
16	0xbda1999c	-0.07890627
17	0x3e3f406b	0.18676917
18	0x3cc538c2	0.024074916
19	0x3c7e2bd2	0.015513377
20	0x3d1eb1f4	0.038743928
21	0xbd76d9af	-0.060266193
22	0xbe334221	-0.17505695
23	0x3a822f58	0.0009932322
24	0x3e3ff0d0	0.18744206
25	0x3e1548c5	0.1457854
26	0xbdc62a58	-0.09676045
27	0x3eaf0c96	0.3418929
28	0xbe6a6609	-0.22890486
29	0x3d4f8c3e	0.050670855
30	0xbd57eb0d	-0.052714396
31	0xbd158127	-0.036500122
32	0x3e35d4d5	0.1775697
33	0x3d9a4c2c	0.0753406
34	0x3e836e03	0.2566987
35	0xbd2a8e29	-0.04163948
36	0xbd4f4e67	-0.05061188
37	0xbdb00598	-0.08594817
38	0x3da68220	0.08130288
39	0xbdd9d12d	-0.106356
40	0xbe7b0d16	-0.2451671
41	0xbc262b24	-0.010142121
42	0xbd6c620a	-0.057710685
43	0x3db33fd1	0.087524064
44	0xbc9a3296	-0.01882295
45	0x3df84e15	0.12124268
46	0xbe8bdc3c	-0.27316463
47	0x3e03f937	0.12888037
48	0xbd4e86cd	-0.050421525
49	0xbd6285ea	-0.05530349
50	0xbc9b0702	-0.01892424
51	0xbe4ebfb0	-0.2019031
52	0x3e97745a	0.29580957
53	0x3e023a99	0.12717666
54	0x3e070901	0.13187028
55	0x3db3c4f6	0.08777802
56	0x3c2f70e5	0.0107080685
57	0x3e3d11bc	0.18463796
58	0xbe1beaa4	-0.15226227
59	0x3d8884f1	0.066659816
60	0x3c9411fe	0.018074986
61	0xbdbac0c7	-0.091188006
62	0xbd07fa3b	-0.033197623
63	0x3da86dcc	0.08224067
64	0x3c9fc72f	0.019504158
65	0xbe1eb223	-0.15497641
66	0xbd9a0af1	-0.07521618
67	0x3d81bc92	0.06334795
68	0xbd62633a	-0.05527041
69	0xbd6926a4	-0.056921616
70	0xbe0dad71	-0.13835694
71	0xbdb2bdb0	-0.08727586
72	0xbe218fc3	-0.15777497
73	0xbd459b32	-0.04824371
74	0xbe00faca	-0.12595668
75	0x3d5b56cc	0.053549573
76	0x3d13cb94	0.03608282
77	0xbd9b02a9	-0.07568867
78	0xbc80e8f8	-0.015736088
79	0xbdf27e2d	-0.11840472
80	0x3c508321	0.012726576
81	0x3d5d3928	0.054009587
82	0xbced8167	-0.028992368
83	0xbdcfdfd3	-0.10150113
84	0xbde298e5	-0.110643186
85	0x3e33bd59	0.17552699
86	0xbd86586e	-0.065598354
87	0x3d7a73b2	0.061145492
88	0xbca1a1cb	-0.01973047
89	0x3dd6079f	0.10450672
90	0x3d5b76c8	0.053580076
91	0xbd11c08d	-0.03558402
92	0xbdc841a5	-0.09778146
93	0x3dc102d9	0.09424371
94	0xbe1852d9	-0.14875354
95	0xbdc7f152	-0.09762825
96	0xbd17bdf8	-0.037046403
97	0x3d88ebfd	0.06685636
98	0x3d0f8148	0.0350354
99	0xbdf6eac1	-0.120564945
100	0xbe2337af	-0.1593921
101	0xbca3b0e8	-0.019981816
102	0x3ceb1bc0	0.028699756
103	0x3ce249c2	0.027623061
104	0xbe00b2df	-0.12568234
105	0x3dd320ce	0.103089914
106	0xbd9b2fa2	-0.075774446
107	0x3e0c23d3	0.13685541
108	0x3da86e3e	0.08224152
109	0x3d952815	0.07283036
110	0xb9987211	-0.00029076685
111	0xbd251075	-0.040298898
112	0x3d31033e	0.043215983
113	0xbd887d0b	-0.06664475
114	0xbd9debf2	-0.077110186
115	0x3d6bf506	0.05760672
116	0x3cdee358	0.027208015
117	0x3e41244c	0.18861502
118	0x3e075798	0.13217008
119	0x3dccbcf2	0.09996976
120	0x3d98831e	0.074468836
121	0x3bf7ecb8	0.007566061
122	0xbde40d9f	-0.111354105
123	0xbdd7bf43	-0.10534527
124	0x3dfc3589	0.123148985
125	0xbe0293a9	-0.1275164
126	0xbbd1de91	-0.006404706
127	0x3c9ab3b8	0.018884525
128	0xbcaf7bfb	-0.021421423
129	0x3d0c1e9d	0.034208883
130	0xbbccb92f	-0.0062476615
131	0xbb57b8c7	-0.0032916532
132	0xbe4370d2	-0.19086006
133	0x3d87d336	0.06632082
134	0x3e01fccf	0.12694095
135	0xbdd8f8ee	-0.105943546
136	0x3dff310a	0.12460525
137	0xbc8128b5	-0.015766481
138	0x3dee5d3c	0.11638877
139	0xbd22fcec	-0.039791986
140	0x3d97a14a	0.0740381
141	0x3e09d44b	0.1345989
142	0x3dd4c564	0.10389212
143	0x3dfda7a0	0.123854876
144	0xbd9600de	-0.07324384
145	0xbc4fc9bc	-0.012682375
146	0x3d7802bd	0.060549486
147	0x3d7ae53b	0.061253767
148	0x3cb77a2c	0.022397123
149	0xbdd644aa	-0.104623154
150	0x3d47cff5	0.048782308
151	0xbd7dd65d	-0.06197201
152	0x3c645e17	0.013938448
153	0xbcd52ecb	-0.02602329
154	0x3dc57da0	0.09643102
155	0xbda25c37	-0.07927745
156	0x3e179259	0.14801921
157	0x3b10d747	0.0022100972
158	0x3ddbaaba	0.10725923
159	0x3d899c64	0.06719282
160	0xbe1f3a6b	-0.15549628
161	0xbe3872f4	-0.18012601
162	0x3d2c0481	0.041996483
163	0x3e294b8f	0.1653273
164	0x3ccca827	0.024982525
165	0xbdc5cdbb	-0.096583806
166	0xbd887008	-0.06661993
167	0x3dd4ba2e	0.103870735
168	0x3dfdc6b7	0.123914175
169	0xbda2a0c3	-0.07940819
170	0x3e109c34	0.14122087
171	0xbe8a334a	-0.26992255
172	0x3d336463	0.043796908
173	0xbd7aea03	-0.061258327
174	0x3da2d15c	0.079500884
175	0xbd55fe51	-0.05224449
176	0x3d546cf7	0.05186173
177	0x3c8bc65c	0.017062359
178	0xbd8fa0f1	-0.07013119
179	0x3e242db3	0.16033058
180	0x3d85f2d2	0.06540455
181	0xbe5fe69d	-0.21865316
182	0xbe109060	-0.14117575
183	0x3df5320d	0.11972437
184	0x3e2bb850	0.16769528
185	0xbde508ba	-0.11183305
186	0x3d95b29d	0.073094584
187	0x3ce6671f	0.028125344
188	0x3c926e24	0.017874785
189	0x3d5ae1db	0.05343805
190	0xbcd011ca	-0.025399107
191	0xbd6ad442	-0.05733133
192	0xbdc037cd	-0.09385643
193	0xbd0d64c5	-0.03451993
194	0x3d7d2ad7	0.061808433
195	0x3d55faba	0.052241065
196	0xbdd00798	-0.101576984
197	0xbd924bc3	-0.07143357
198	0x3d456031	0.04818744
199	0xbded537e	-0.115881905
200	0xbcaaa15e	-0.020828899
201	0xbc11307a	-0.008861655
202	0xbcf0af6d	-0.029380525
203	0xbe2017a4	-0.15634018
204	0x3de3821a	0.11108799
205	0x3cbe3bbb	0.023221841
206	0xbca56137	-0.020187957
207	0x3dd918bc	0.10600421
208	0x3e2846b1	0.16433217
209	0x3da41208	0.08011252
210	0xbc6af4bf	-0.014340579
211	0xbd09bad1	-0.033625428
212	0xbca96af7	-0.020680888
213	0xbe57555b	-0.21028654
214	0x3c80cfa3	0.015724009
215	0xbd3bef2d	-0.045882393
216	0xbe310ad1	-0.17289282
217	0xbd977616	-0.0739557
218	0xbcf6adc2	-0.030112151
219	0xbd607c47	-0.05480602
220	0x3e6b684d	0.22989006
221	0xbd311f07	-0.04324248
222	0x3c8bdfbd	0.01707446
223	0xbc25fc70	-0.010130987
224	0xbe28279c	-0.1642136
225	0x3d381ae3	0.044947516
226	0xbd4c73a0	-0.049914956
227	0x3d2803af	0.041019138
228	0x3e383d10	0.17992043
229	0x3d757a86	0.0599313
230	0xbde027ef	-0.10945117
231	0x3dbc7854	0.09202638
232	0x3dfa00f2	0.122072116
233	0xbccd8fcf	-0.025092987
234	0x3da155ed	0.07877717
235	0xbe59364b	-0.21212117
236	0x3d345db8	0.04403469
237	0xbd522a41	-0.051309828
238	0xbc1305bf	-0.008973538
239	0xbcc0b7da	-0.023525167
240	0xbd0cebac	-0.03440444
241	0x3e193568	0.14961779
242	0xbce62bd6	-0.028097074
243	0x3e315689	0.17318167
244	0xbd4db79b	-0.050223928
245	0xbe3f6581	-0.18691064
246	0x3cdbe28c	0.026841424
247	0xbc3a9246	-0.011387413
248	0xbcacc081	-0.021087887
249	0xbdf35d16	-0.11882989
250	0x3c181040	0.009281218
251	0x3ba5d67e	0.00506097
252	0xbe1c95fe	-0.15291592
253	0x3b08e9fa	0.0020891414
254	0xbd157033	-0.036483955
255	0xbdd59d98	-0.10430449

v.net.2.bias f4 [64]
0	0x3e7b12b1	0.24518849
1	0x3df5f71a	0.120100215
2	0x3cb72a36	0.022358995
3	0xbb23c881	-0.0024991336
4	0xbc9e5026	-0.019325327
5	0xbe0e0476	-0.13868889
6	0x3d132eee	0.035933428
7	0x3badb672	0.00530129
8	0x3d936ed5	0.07198874
9	0x3dd8b2db	0.10580989
10	0x3e05a6ca	0.13051906
11	0x3e3c013b	0.18359844
12	0x3e679401	0.22615053
13	0xbd0fc20c	-0.035097167
14	0xbd822292	-0.0635425
15	0x3dcebe27	0.100948624
16	0x3e6e5cef	0.23277639
17	0xbce5ea14	-0.028065719
18	0xbdf44b8e	-0.119284734
19	0xbcc81434	-0.024423696
20	0x3c9c80e2	0.019104425
21	0xbdf1e4f2	-0.11811246
22	0xbc5db371	-0.013531552
23	0xbe1433a9	-0.14472832
24	0xbe0b2ca8	-0.13591254
25	0xbe43b65b	-0.19112532
26	0xbe26bc68	-0.16282809
27	0x3d488e69	0.048963938
28	0x3de0affb	0.109710656
29	0x3e2185a1	0.15773632
30	0xbdb63365	-0.088965215
31	0xbe297e4c	-0.16552085
32	0x3e5e7dda	0.21727696
33	0xbd8a848a	-0.06763561
34	0x3c6d2111	0.014473216
35	0xbdfae8a4	-0.12251404
36	0x3eadc82c	0.33941782
37	0x3d213226	0.039354466
38	0xbe33f832	-0.17575148
39	0xbe128325	-0.1430784
40	0xbd677e7f	-0.05651712
41	0xbd195098	-0.037430376
42	0x3e327603	0.1742783
43	0xbe43626d	-0.19080515
44	0xbe120cef	-0.14262746
45	0xbd298f71	-0.041396562
46	0x3e416526	0.18886241
47	0xbdac2ed7	-0.084073715
48	0xbe66cb25	-0.22538431
49	0xbdb3ea4b	-0.08784922
50	0xbe6ec53f	-0.23317431
51	0xbe513415	-0.20430024
52	0xbcf0ef64	-0.029411025
53	0x3e30cb62	0.17265084
54	0xbe583aca	-0.21116176
55	0xbdee04c7	-0.11622005
56	0xbd89a46a	-0.067208126
57	0x3ccba4ce	0.024858858
58	0x3e2ef4ae	0.17085525
59	0x3d91bd3a	0.0711617
60	0xbdccfb8d	-0.10008917
61	0xbdde962b	-0.10868486
62	0x3d7f06fc	0.06226252
63	0xbde0c10e	-0.10974322

v.net.4.weight f4 [1, 64]
0	0xbe12ef7d	-0.1434917
1	0xbe3fbe46	-0.18724927
2	0x3e371b38	0.17881477
3	0x3e4b1f9d	0.19836278
4	0x3e30eb31	0.17277218
5	0x3e5d317b	0.21600907
6	0xbe36b088	-0.17840779
7	0x3e668cc0	0.2251463
8	0xbdf41208	-0.11917502
9	0xbe52b87b	-0.20578186
10	0xbe391ee9	-0.18078198
11	0xbe475da9	-0.19469322
12	0xbe3a22ce	-0.1817734
13	0x3e6c3b46	0.23069486
14	0x3e18d51e	0.14925048
15	0xbe68fda7	-0.2275301
16	0xbdfc105f	-0.1230781
17	0x3e54849f	0.20753716
18	0x3e5f23be	0.21790978
19	0x3e332582	0.17494777
20	0x3e4d0a43	0.20023446
21	0x3e28a30c	0.16468447
22	0xbe3830da	-0.17987385
23	0x3e61b2e3	0.22040896
24	0x3e274ca8	0.16337836
25	0x3e53d004	0.2068482
26	0x3e10f77b	0.14156906
27	0xbe0d445c	-0.13795608
28	0xbe1c5e05	-0.1527024
29	0xbe12f619	-0.14351691
30	0xbe221a9d	-0.15830465
31	0x3e465599	0.1936859
32	0xbe074775	-0.13210852
33	0x3e1b24f2	0.15150812
34	0xbe5e0373	-0.21681003
35	0x3e5889b1	0.21146275
36	0xbe40959d	-0.18807073
37	0xbdfbf59a	-0.12302704
38	0x3e5383d0	0.20655751
39	0x3e0212ba	0.12702456
40	0x3e618008	0.22021496
41	0x3e55b236	0.20868763
42	0xbe2d645e	-0.16932818
43	0x3e6e0337	0.23243414
44	0x3e16508d	0.14679165
45	0xbe54c33f	-0.20777605
46	0xbdffc64f	-0.12488996
47	0xbe356a19	-0.17716254
48	0x3e122816	0.14273104
49	0x3e38384c	0.17990226
50	0x3e04e8d8	0.12979448
51	0x3e4e74dc	0.20161766
52	0xbe65cd7b	-0.22441666
53	0xbe4b5b05	-0.1985894
54	0x3e3ae892	0.18252781
55	0x3e6dd2ea	0.23224989
56	0x3e13a513	0.1441844
57	0xbe5269d1	-0.20548178
58	0xbe36d203	-0.1785355
59	0xbe5d756f	-0.21626829
60	0x3e1eeb07	0.15519343
61	0x3e3549bf	0.17703913
62	0xbe0168ec	-0.12637681
63	0x3e279928	0.16367018
