runs/phoenix/DroneHoverBulletEnvWithAdversary-v0/ppo/2023-07-26__22-27-41/seed_00077/torch_save/model.pt (torch, 49538 bytes, 14 tensors)

obs_oms.mean f4 [34]
00000000: 71dc 333c d519 c4bc bb7b 643f 23d7 443c
00000010: e5e3 933c 6e25 593c 925e 203f 03f0 593d
00000020: f6aa cabd 0fae 03bf 6f07 dbbe c9ba 113d
00000030: 7b7f 3b3e 4e16 0c3e 1659 083e faa5 f13d
00000040: d5e8 f73d c8c1 3c3c 8f5a ccbc c922 633f
00000050: 1429 343c 62b5 963c 4ef4 523c 5125 203f
00000060: 9c84 603d 7903 d1bd 0a4a 08bf d283 e3be
00000070: ec68 003d 5beb 3a3e 436a 0b3e 6d54 063e
00000080: 81f2 ec3d b6c3 f23d
0.01097785 -0.023938099 0.892513 0.012014183 0.018053005 0.013253553 0.626443 0.05320741
-0.098958895 -0.5143747 -0.4277911 0.035578523 0.18310349 0.13680384 0.13315234 0.11799236
0.12104956 0.01152081 -0.024945525 0.8872495 0.010996122 0.018397037 0.01287563 0.6255694
0.054813966 -0.102057405 -0.53237975 -0.44436508 0.03135006 0.18253843 0.13614754 0.13118143
0.115696914 0.11853735

obs_oms.std f4 [34]
00000000: 08b0 f03e a369 c63e 1bf6 ac3e 8353 453e
00000010: 253d 4a3e 43e9 2a3f a01e 973e 426f 553f
00000020: e7ac 423f 915b 293f 751a 7340 5ce2 6d40
00000030: 4475 f83f 307b bc3e c01b c63e f969 c73e
00000040: 4365 ce3e a5a7 f33e 34d4 c83e 8044 af3e
00000050: 309f 483e 82d6 4d3e 02a1 2a3f 7f1b 973e
00000060: 7832 583f c943 453f df8d 2c3f 6630 7640
00000070: 1cdf 6f40 2415 fa3f b58c bc3e f160 c63e
00000080: 2ba2 c73e e9cf ce3e
0.470093 0.3875247 0.33781514 0.19270138 0.19749887 0.6676218 0.29515553 0.8337289
0.7604508 0.66155344 3.7984898 3.7169409 1.9410787 0.36812735 0.38693047 0.38948038
0.40311632 0.4758884 0.39224398 0.3423195 0.19591975 0.2010136 0.6665193 0.29513165
0.8445201 0.77056557 0.6740398 3.846704 3.7479925 1.9537702 0.368261 0.38745835
0.38990912 0.40392998

pi.log_std f4 [4]
00000000: 7269 86c0 7269 86c0 7269 86c0 7269 86c0
-4.2003717 -4.2003717 -4.2003717 -4.2003717

pi.net.0.weight f4 [50, 34]
00000000: 12ee 7e3d eac7 ae3d 2c29 c83b a4ae d13d
00000010: 9e61 d1bd e29e b2bc 65a5 d93c 3f0d a839
00000020: 6d83 7dbd d344 883d 53e1 38be 18f0 313d
00000030: 1ddb 51be b3bf 20bd 6cf8 f7bd cba5 32be
00000040: dcd7 b8bc 78ef e6bd dc4e 13be 4017 5abd
00000050: de05 103e fee8 13be ddf3 bc3d 9b64 7e3d
00000060: 793e 42be d44f 913b 805e a7bc d522 c23d
00000070: cfe3 7abe 64b4 57be 5781 2f3e 5791 8f3c
00000080: 7fac fabd af5e a53d 81d2 f13d 1429 e3bd
00000090: f388 463e 40d3 863e 0525 72bb 5dda a03d
000000a0: a79c 893d e72c 483d a1b8 2cbd 7106 f03d
000000b0: 647f 543e 116d 8a3d 52da 92bd 7a19 55bd
000000c0: 9d24 1b3e 4ef6 443e 3789 243e 6ba2 e7bd
000000d0: 2c5c 37bd 638b 183e f79e 4e3e 8de8 1c3e
000000e0: eeb3 7a3d a1ba 80bd e1fc 703d 9cce 003e
000000f0: 9f27 f23d ee10 923e 5ab4 8cbd 6ad6 3cbd
00000100: 2e0e 113e 7f09 0abd 4394 1c3e e1dd e93c
00000110: f176 6b3d d7e6 643d dd70 793c 1247 0abe
00000120: ceec 23be 98ec 343e 0eac 0fbe c328 59be
00000130: 38f7 143e f597 f43d 1b38 e9bd f02b 573e
00000140: a64c 563d 823f 00bd 9aab 443d da64 fa3d
00000150: 110a 3b3d 68ba 04be a054 5dbe c164 c4bd
00000160: 83bf aabd a2fd 793d 5980 9b3e 7a6a 58be
00000170: eb39 323d 92df 353e ec3f e33b 81e2 d43d
00000180: 5b64 2f3e aaff 88bd ffc7 f3bd 4bc3 3ebe
00000190: f146 923e d033 cc3d 87d6 903d 8878 3a3e
000001a0: 795b 053e 0e8f 063d 8764 8abd 3ce2 16bd
000001b0: 3163 303e 5803 ccbd 8ad0 ca3d 6b0b 2e3b
000001c0: 03f2 d2bd 3d2d 30be 4718 723e 4da2 3a3e
000001d0: 796f 77be 86de 543c 7e68 7c3e 14a3 20be
000001e0: 480e c33d 313a eb3d fb9c e03c 3f24 6bbd
000001f0: 167b 643d 98ff ad3d c4f8 943b e5df f0bb
00000200: c0ce 663e 84e4 90bd 52fb 0fbe c614 643e
00000210: c233 703d f011 dc3c 6241 223e 429c df3d
00000220: 44bd 343d a335 be3d a8d9 8d3c 5ed3 04be
00000230: 10cc 6f3e e378 2a3e 64c7 30be 0890 81bd
00000240: 879b 013e 6720 6bbc b90b f23d 4955 833d
00000250: 3644 cabd 6945 e23c 088b 4bbe 532b 10be
00000260: 1883 d63d 7bff c0bd dd1c da3d 0569 d13c
00000270: e836 b23d a20c 1ebd 7db2 463e ba87 553d
00000280: 2faa 253e 3a21 1d3e a50e 8a3d 7ffe cb3d
00000290: df34 97bc ef7c 40be 3121 173e 56ce bebd
000002a0: cce3 2f3e 4288 15be 561b b73c 59d2 fc3d
000002b0: d740 183c 9cc9 d3bd db6b a23d 676b 103d
000002c0: 17ad 26be 59cc a93d 928c 803d 69ad 113e
000002d0: c0aa df3d fdb7 b23c b726 cf3d da3a 213e
000002e0: e01f 88bd d560 023d 06c7 04be eb92 f0bc
000002f0: b38d 173e 92a9 743d 9221 913d b743 163e
00000300: d544 27be 800a ccbc 3100 fc3d 6e6a 2b3c
00000310: c705 0fbe cfee 95bc 7237 78bd 5f3f 27be
00000320: 8ee2 31be 4ac0 9b3d 3238 39be 7590 0f3e
00000330: 7fb7 f23b d00e cebd 1760 e1bd a9d6 14be
00000340: 115b 3bbe 7702 5fbc 33fa 2d3e 4d06 f4bd
00000350: e9c7 273d b6b1 6db9 93c0 943d d28f c73c
00000360: 7ddb 99bd 63cc 06be 2501 f2bd 490a fabd
00000370: 9640 32bd efa2 c43c b137 623e 0ac9 c5bd
00000380: 6fe2 2fbe de4c 633d 927b 143e 0625 343e
00000390: 83bb 923d e096 f9bd a24c 2f3e 436d 8ebe
000003a0: 849d fe3d 04a3 1a3d 46e6 793d 4b9c 0cbd
000003b0: cace 003e 77a8 efbd 3271 313e 5f0b 0bbe
000003c0: 1483 11be 1845 383e aa91 42be 565d 8abe
000003d0: 83cf 04be 68ea 02bd 7e31 bd3d 6a0e f6bc
000003e0: d965 29be b731 133e bee1 2cbe 8ee1 2cbe
000003f0: df6a d63c 546e 54be f2f4 703e 6d60 113e
0.06223876 0.08534224 0.0061084237 0.10238388 -0.10223697 -0.021804277 0.026568124 0.00032053326
-0.061892916 0.06653752 -0.18054704 0.043441862 -0.20493741 -0.03924532 -0.121079296 -0.17446057
-0.022563867 -0.11276144 -0.14385551 -0.05324483 0.14064738 -0.14444348 0.09226201 0.062107664
-0.18969144 0.004434565 -0.020430803 0.094793 -0.24500965 -0.21064907 0.17139183 0.017525358
-0.12239932 0.080747 0.118077286 -0.110918194 0.1938818 0.26333046 -0.0036948335 0.078541495
0.06719332 0.048870947 -0.042168263 0.117199786 0.2075172 0.06759084 -0.071705475 -0.05202625
0.15150686 0.19234583 0.16067968 -0.11310276 -0.044765636 0.14896922 0.20177828 0.15323086
0.06120675 -0.06285597 0.058834914 0.12578815 0.118239634 0.2852854 -0.06870337 -0.04610292
0.14165565 -0.033700462 0.15290932 0.028548183 0.05748648 0.05588421 0.015224663 -0.13503674
-0.16008303 0.17668378 -0.14030477 -0.21206956 0.14547431 0.11943046 -0.113876544 0.21012855
0.05231919 -0.031310566 0.048015215 0.12226267 0.045663897 -0.12961733 -0.21614313 -0.0958953
-0.08337309 0.0610329 0.3037136 -0.21134368 0.043512266 0.17761067 0.0069351103 0.10394765
0.17128126 -0.06689389 -0.119033806 -0.18629186 0.2856975 0.0997082 0.07072168 0.18210042
0.13023175 0.03285127 -0.06757455 -0.036836848 0.17225339 -0.09961575 0.09903057 0.0026557099
-0.10300066 -0.17204757 0.23642074 0.18225975 -0.24163617 0.012992507 0.24649236 -0.1568721
0.09524208 0.114857085 0.027418604 -0.057407614 0.055781446 0.08496016 0.0045462567 -0.007350909
0.22539806 -0.07074836 -0.14060715 0.2227355 0.05864311 0.026864022 0.15845254 0.10918476
0.04412581 0.09287574 0.0173157 -0.12971255 0.23417687 0.16647677 -0.17263561 -0.063263
0.12656985 -0.014350987 0.11818642 0.06412751 -0.098762915 0.027620988 -0.19877255 -0.14079027
0.10474223 -0.09423729 0.106500365 0.025562773 0.08701879 -0.038586266 0.19404025 0.052131392
0.16178201 0.15344706 0.067410745 0.09960651 -0.018457828 -0.18797658 0.14758755 -0.09316699
0.17176741 -0.1460276 0.022351902 0.12344808 0.009292803 -0.10341188 0.07930728 0.035258677
-0.16276966 0.08290929 0.06276812 0.14226307 0.1092124 0.021816248 0.10114806 0.15745106
-0.06646705 0.031830627 -0.12966546 -0.029366931 0.14800148 0.059732027 0.07086481 0.14674269
-0.16334851 -0.02490735 0.12304724 0.0104623865 -0.13967048 -0.01830235 -0.06059975 -0.16332768
-0.1737158 0.076050356 -0.18087843 0.1401995 0.0074071283 -0.10061419 -0.11004656 -0.14535011
-0.18296458 -0.0136114275 0.16989975 -0.11915264 0.040962134 -0.00022668284 0.07263293 0.024360571
-0.07512567 -0.13163905 -0.118166246 -0.12208993 -0.043518625 0.024003474 0.22091557 -0.09657486
-0.17176221 0.05549323 0.14500263 0.17592248 0.07164671 -0.1218698 0.17119077 -0.27817735
0.124323875 0.03775312 0.06101062 -0.03432874 0.12578884 -0.11702054 0.17328337 -0.13578556
-0.14210159 0.17995107 -0.19000879 -0.27024335 -0.12969784 -0.03196183 0.092379555 -0.03003617
-0.16542758 0.14374433 -0.16882989 -0.16882917 0.026174007 -0.20745212 0.23530939 0.1419694

pi.net.0.bias f4 [50]
00000000: be00 9a3d c5f7 30bd fe8b 60be bf3b 89bd
00000010: 43c0 8a3d c3f9 82bd 4a26 aa3c 9599 fdbd
00000020: 3ed8 063e 35de 1f3e 6487 873d 0c52 ed3d
00000030: 8524 893e 4ca9 3a3e 2661 153e d736 503e
00000040: 0c14 67bd 58d8 873d f9ca 02be eeb3 27bc
00000050: 29da 1a3d d8c8 4c3e c45e 083c a8f4 a83d
00000060: 31f1 a03c e954 5a3e 5b6d 00be 32c2 a83c
00000070: 21f9 dfbd c538 da3c 0d14 52bd c304 383e
00000080: 9cae 083d 851d 7c3d c392 02be 8eef 7d3e
00000090: 196f b23d 69d9 40be 0842 a33d f8f7 063d
000000a0: 951b 57bd 1d35 ea3c 95c6 edbd 3697 69bd
000000b0: 2b2f 233e 1d0b 0dbe 7793 f03d f945 e23d
000000c0: dcfc a23d af9a 5ebc
0.07519673 -0.04320504 -0.21928403 -0.06700849 0.06774952 -0.063952945 0.02077021 -0.12382809
0.13168427 0.15612109 0.066176206 0.11587915 0.26785675 0.18228644 0.1458784 0.2033342
-0.056415603 0.06633061 -0.1277274 -0.01023577 0.03780571 0.19998491 0.008323375 0.082497895
0.019646259 0.21321453 -0.12541716 0.020600412 -0.109361894 0.026638398 -0.051288653 0.17970566
0.033369645 0.06155159 -0.12751298 0.24798414 0.087125964 -0.18832935 0.07971579 0.032951325
-0.05251654 0.02858978 -0.11610142 -0.05702897 0.15935962 -0.1377377 0.11746877 0.110485025
0.07958385 -0.013586684

pi.net.2.weight f4 [50, 50]
00000000: d6c6 693d a1ce 343e 6031 8f3d b4bb b3bd
00000010: 5b40 123e 89d4 acbc 01fb 123e a611 c93c
00000020: 3dd6 c8bd 0672 a1bc 808b 313d 79de 993d
00000030: c557 7a3d 7229 2abe 61d3 5bbd 8451 163e
00000040: 499a a23d 078e 733d 12ca 36be 993f e63c
00000050: f2ea 14be 3917 b53d c280 a53d 4c1f 2c3e
00000060: f55f a03d 4a94 e33d 8f78 bebd 9238 8abd
00000070: ebda 21bb eacf 17be b9d4 14be 1b08 9a3d
00000080: 86e3 3ebe 0e6a 6e3d fd7c 5bbc 268e 713b
00000090: d513 bc3d 9fd0 05be c04e a63d 5df0 fe3d
000000a0: 0887 e5bc f052 b33d f8fe 0d3e 80e7 ddb9
000000b0: 090b d7bd f436 61bd 8e46 f7bc 478f d0bd
000000c0: a6f8 053d bb4e 0abe a670 6bbd 88a0 f53c
000000d0: 9bee e6bc 916d 9fbd 0d48 b13c 55a0 2dbd
000000e0: 30ed 0e3e b4c6 1a3c 3b7c 25be 8405 82bd
000000f0: f32e 103e 75ef 933c bac0 24be 9252 8e3b
00000100: f697 f9bd 1011 f1bc f6f1 7d3d bdc6 99bd
00000110: 8c63 0fbc e87a a9bd fe10 7fbe fccf e03c
00000120: 0a74 933d a2ae 1f3e 6726 873d 66d7 37bc
00000130: 85d0 8a3d ebe0 63bd 73ab 763d 1453 d63d
00000140: 0e64 45bd ead4 21bd 96c3 b9bc 6701 473d
00000150: fc10 8ebb 2986 da3d 45a9 32be b95e 62be
00000160: e206 393b 1d30 963d e759 b6bd c9f4 233e
00000170: 6f1b 1e3e 65a4 3cbe 8513 9fbd bd70 edbd
00000180: 25e6 de3d c587 edbc bb6c 243e ebd4 26be
00000190: d5b8 00bd 095f ea3d 559e 11be 3660 e53d
000001a0: 32f3 2b3c dfb0 823e 0c5d 2c3d b91b a13c
000001b0: 9319 733e 7ddc fcbd 2625 303d 393e cf3d
000001c0: dc18 ac3d 813f 943d f971 d8bc e0f0 95bd
000001d0: ea37 053d 40d4 c9bd c381 b3bd 3ba7 2e3d
000001e0: 59b1 6f3d 5bf4 bd3d c959 07be ee44 863d
000001f0: cc25 0c3e 4186 56bd 6d70 81bc af88 1c3e
00000200: fba9 da3d 7842 c5bd a9d8 6c3d 4fcf bd3c
00000210: 2bb8 0e3e 32c7 a3bb c3cc 0c3d 5d34 d13d
00000220: e144 903d e05c be3d 9d73 25be 5c78 583e
00000230: 4174 fb3d 79d5 2f3e 0c36 c73d 5f06 abbd
00000240: 4775 873d 17d5 d3bd 9c7f 303c 7240 633d
00000250: b029 ec3a 82a9 34bc 6d40 293d b19c e33d
00000260: e6fc 7dbe 6c73 36be e8f9 d13d 8aad 23bd
00000270: 8781 f13d 8236 4e3e 7489 5d3d 64ab b7bc
00000280: c1d6 143e 454c dd3d f53e 2b3e 1084 a03d
00000290: ed4e 173e f816 e63d 2e88 43bd f56f 33be
000002a0: 8582 35be 973e bc3d d147 c1bd a504 73bd
000002b0: 6b9b 893d ccc3 c83b 5844 893d 5eae b5bd
000002c0: 3373 023e 3008 4a3e 2917 31bd c368 0ebc
000002d0: e283 de3c aca0 803c ecf0 2bbe 1963 2f3d
000002e0: c96b dfbd d334 a7bd a4c2 efbd 5d4b bbbc
000002f0: c2eb 873d 47dd 1ebe 088d b43d 5b4f 883d
00000300: 3046 14bc ec5c 8bbd dbef bc3c c428 843d
00000310: 2f34 af3d ed9b f6bc 82e8 d43c b483 743d
00000320: 08c6 103d 4641 44bd a236 8a3c fb15 c63d
00000330: 40c6 7fbd ee80 b7bd b110 96bc b3f6 4e3d
00000340: bc18 13be 89a2 3ebd f352 b5bd 8e4f 56be
00000350: 0f3c 92bd 9c3c 5038 3103 fe3d 9ebb 3a3d
00000360: 2610 f83d cc50 46be 216e e33d 81b5 c8bd
00000370: 3a29 0f3e 5912 3a3d 32bb d53d 8638 4a3c
00000380: 8a0f 553c beb2 2abd d50b 3bbc b052 0b3e
00000390: e9af 633c e83e df3c 63f6 833d d577 703e
000003a0: 3818 1a3e 9335 853d dc48 dfbd 6234 70bd
000003b0: b9b9 01be 7725 503d cffe 3f3d 4ce6 413d
000003c0: c40f a2bd b8ff cebd 0532 403b e431 73bd
000003d0: f8d3 98bd 1101 febd 5e58 31be df19 ac3d
000003e0: 016c d4bd c08e 8d3c 7f26 54bd 7da3 d8bd
000003f0: 7886 4fbe b630 e03d 3be4 a1bd d08c c63d
0.05707439 0.17656948 0.069918394 -0.08776036 0.14282362 -0.021097438 0.14353563 0.024544548
-0.09806488 -0.01970769 0.04334593 0.075131364 0.06111886 -0.16617373 -0.053668384 0.14679533
0.07939584 0.05946162 -0.17850521 0.028106498 -0.1454275 0.0884232 0.08081199 0.16808814
0.07830802 0.11112268 -0.093003385 -0.06749071 -0.0024697136 -0.14825407 -0.14534272 0.07521077
-0.18641481 0.05820661 -0.013396499 0.0036858409 0.0918347 -0.13067864 0.08120489 0.124481894
-0.02801849 0.087560534 0.13866794 -0.00042324886 -0.10500152 -0.054984048 -0.03018501 -0.10183578
0.032707833 -0.13506596 -0.057480477 0.029983774 -0.028189948 -0.0778457 0.021640802 -0.042389233
0.13957667 0.009446789 -0.16160671 -0.06348708 0.1408041 0.018058518 -0.16089144 0.0043433392
-0.121871874 -0.029427081 0.06199833 -0.075086094 -0.008751761 -0.08275396 -0.24908826 0.027442925
0.07199867 0.15593961 0.065991215 -0.011220789 0.06778053 -0.05563442 0.0602221 0.10465065
-0.048191123 -0.03950969 -0.02267627 0.04858532 -0.004335521 0.1067012 -0.17447384 -0.22106446
0.0028232862 0.07333396 -0.08903866 0.16011347 0.15440153 -0.18422087 -0.07767395 -0.11593769
0.1088374 -0.028995404 0.16057102 -0.1629216 -0.03142627 0.11443908 -0.14220555 0.111999914
0.010494994 0.25525567 0.042080924 0.01966654 0.23740225 -0.12346742 0.043004178 0.1011929
0.08403179 0.07238675 -0.026421534 -0.07321334 0.032524027 -0.098549366 -0.087649845 0.042639952
0.05851874 0.09275123 -0.13217844 0.06556116 0.13686293 -0.05237413 -0.01580068 0.15286516
0.106769525 -0.096318185 0.05782381 0.023170142 0.13937442 -0.004998111 0.034374963 0.10215066
0.070443876 0.09295058 -0.16157384 0.21139663 0.12278033 0.17171277 0.097271055 -0.083508246
0.06614166 -0.10343378 0.010772612 0.05548138 0.0018017795 -0.011026742 0.041321207 0.11113871
-0.24803504 -0.17817467 0.10252744 -0.03996042 0.117922835 0.2013798 0.054086164 -0.022420593
0.14535047 0.10805563 0.16723235 0.07837689 0.14776202 0.1123485 -0.047737293 -0.17523177
-0.1772557 0.091916256 -0.09437526 -0.0593306 0.06719097 0.0061268564 0.06702489 -0.088711485
0.12739258 0.19729686 -0.043234978 -0.008691969 0.027162496 0.015701614 -0.16791123 0.042819116
-0.1090923 -0.08164372 -0.11707047 -0.022863084 0.06636764 -0.15514098 0.08815962 0.06655761
-0.009049937 -0.06804833 0.02306359 0.06453088 0.08554875 -0.030103648 0.025989775 0.059695914
0.035345107 -0.047913812 0.016871754 0.09672161 -0.062444925 -0.08960138 -0.018318506 0.05052824
-0.14364904 -0.046541724 -0.08853712 -0.20928785 -0.071403615 4.964751e-05 0.124029525 0.045589082
0.12112455 -0.19366759 0.1110499 -0.09800244 0.1398057 0.045427654 0.10436095 0.012342578
0.013004193 -0.041674368 -0.011416395 0.13605762 0.013896921 0.027251676 0.06443479 0.23483212
0.15048301 0.06504359 -0.10902569 -0.058643706 -0.12668504 0.05081698 0.046873864 0.04733877
-0.07913163 -0.10107368 0.002932669 -0.05937375 -0.07462305 -0.12402547 -0.17318866 0.08403372
-0.103721626 0.017279983 -0.051794525 -0.10578058 -0.2026614 0.10946791 -0.0790486 0.096948266

pi.net.2.bias f4 [50]
00000000: 07ad d33c 673b 353d c7f9 283e 556e 25bd
00000010: a9db d73b 0348 9bbd 176e 103d a2a0 acbb
00000020: 85c7 54bc 4781 703d 6241 933d 067a 4c3d
00000030: 5b6c 99bd fa98 2c3e 2c02 c73c 648b 903d
00000040: 1a8f 39be 1897 02be ffef 28bd 8f05 03bb
00000050: a84f 5a3e 2d0c e63c 2382 9bbd 0061 863b
00000060: 434e 38bd f7af b4bd 8556 063e fcd9 8dbd
00000070: 29d6 01be 819c ac3d f1ab e8bb 4537 223e
00000080: 65c6 67bd 978f 8cbd 3d17 a53d 3250 753c
00000090: 4caf f03d 4b5c 59be 1b39 b7bd 6191 4d3e
000000a0: 7580 653c 713b c0bd 8253 c53d b10d 413e
000000b0: f77e b2bd 499d fcbc 59cb 0ebd 5ae4 0d3e
000000c0: 7d61 9f3d eaa9 02be
0.025839342 0.044246104 0.16501532 -0.040388424 0.006587465 -0.075820945 0.03526124 -0.0052681724
-0.012987022 0.05871704 0.07190205 0.049921058 -0.0749137 0.16855231 0.024293028 0.07057837
-0.18120995 -0.1275295 -0.041244503 -0.0019992327 0.21319449 0.028081978 -0.07593181 0.004100919
-0.04499651 -0.08822625 0.13118942 -0.06926343 -0.12679352 0.08428288 -0.007100575 0.15841396
-0.05658569 -0.06863325 0.08061073 0.014972733 0.11752185 -0.21226613 -0.08946439 0.20074989
0.014007677 -0.093863375 0.096350685 0.18852879 -0.08715623 -0.030836718 -0.034861896 0.1385664
0.07782266 -0.1276013

pi.net.4.weight f4 [4, 50]
00000000: bcc6 2d3e 2f22 743e 7bcd a13c 833d adbd
00000010: e325 f1bd 1711 3dbe e0a6 55be 952d 6fbd
00000020: 7ed7 3abe 5414 013e 9022 eebc 60b0 e73d
00000030: 3046 263e ef76 42be 8c56 4e3c 83d0 3bbe
00000040: d21c 4b3e c0b2 7dbd 6cff 433e 10cf 21be
00000050: 5d7f b43c 59ad 293b eb7b 213e 0e91 8cbd
00000060: dc11 c43d 1780 a0bd 75a0 65be 8f53 3e3e
00000070: 617c 093e d801 7a3e 6bbb 28bc a753 993b
00000080: e495 2d3e 2bdd 8a3d 672a b5bd efc9 883e
00000090: c62a 2dbd 41ba 473d 19a4 553e 4290 84bd
000000a0: fee9 22be 741a 483e 7924 1fbe 140c 143e
000000b0: 07fb 123e c3df 1abe f7fb a1bd c12a 0dbe
000000c0: ba36 6abe 8b34 a3bb 2930 1cbc fbf3 01be
000000d0: be7b 3b3e 1c8f 613e 7a30 6cbe 8b18 aebd
000000e0: 4666 833c d94d e2bd bea6 903e 7082 5c3d
000000f0: eddb 39be 016e 3e3e 80be 46be e405 49bd
00000100: 5d55 c4bd 437a 973d b558 19be 76f2 1ebd
00000110: 06c7 b3bd e7c8 ddbd 8a9f 563e b7bc 3d3e
00000120: 3ac2 8b3d 84b8 f6bd f8d1 87be d39a e3bd
00000130: c2d0 1c3b ce5f 83be 9e02 17be b347 3fbd
00000140: c724 3b3c 202c 5e3e 693b 06be ed92 4ebe
00000150: 1fe9 993d 817f 09bd a49e 1b3e 8683 853d
00000160: f706 90be ffff f13d fb37 253e 0ec4 743d
00000170: 8d5a 973d b61c 0bbd ea51 8f3e 1706 00bd
00000180: c7ad 83bb 63fb a8bd 52e2 4bbd db7d bfbd
00000190: 1b65 3abe 8162 8b3d e9d0 7bbb a194 93be
000001a0: 32ab 23be f43e cd3d 98b8 123e 998e 0dbe
000001b0: 8151 8fbd 453e fb3c de1e b33e be69 183e
000001c0: 97ae 4dbe 45d0 2c3e 2402 143e d36d b23c
000001d0: 1805 bd3d 3553 813e 6046 1ebe 0f37 05be
000001e0: 6f92 ba3d 177f 88bd 4b50 073e f007 1fbe
000001f0: f8b6 f8bc 72b1 f53d d403 8d3e 1db9 173b
00000200: e401 31be c43f 00bc 3492 0ebd e8b2 3d3d
00000210: 0974 4f3e 5c89 5b3d 0bd9 fcbd 5782 84bd
00000220: ea60 29be 0ebd 27be b6ad afbe 66cf 283e
00000230: aa30 a2bd 0d30 87be 09b3 28be 86f9 523e
00000240: 6b7d febd 7057 903e 4104 eebd 2a53 683e
00000250: f3f9 013e 21e9 dd3c 19b0 1ebe 31c3 513e
00000260: 2d30 163d 20f9 1fbe 0dfd 0dbe b96e 2bbe
00000270: 748f 403d 16b5 b7bd ca8a 323e 448f 7c3c
00000280: 93e6 2f3d f680 383e 3434 edbd 59eb d9bd
00000290: f3be 803e ae5c 98bd 72aa 74bc a003 4cbe
000002a0: b218 de3d 67df a5bd db2b 79bd 9f60 153e
000002b0: 96fb b5bd 7212 85bc 3724 593e 1fd1 003e
000002c0: e367 243d e951 c0bb 685b d5bd d59a 083e
000002d0: 8991 67be ccfb bebd 3237 723e 0819 013e
000002e0: 6772 4ebe 9b3d 323c 6602 31be b335 423e
000002f0: 8d95 313e 0855 603d 8415 0b3e 4484 9e3d
00000300: 5322 69bd 88ec 4c3e 2a1c df3d 96d2 9f3e
00000310: 3633 0cbe 984b c23d aa4e e33d dfe0 6e3d
0.16970342 0.23841165 0.019751301 -0.08458998 -0.117748044 -0.1846355 -0.20864439 -0.05839308
-0.18246266 0.12605411 -0.029069215 0.11312938 0.16237712 -0.18990682 0.012593877 -0.1834126
0.19835213 -0.061938047 0.19140404 -0.15801644 0.022033388 0.0025890677 0.15769927 -0.068636045
0.09573719 -0.07836931 -0.22424491 0.18586563 0.13426353 0.24414766 -0.01029859 0.0046791616
0.1695171 0.06780466 -0.08845978 0.26716563 -0.04227712 0.04876161 0.2086338 -0.064728275
-0.15909573 0.19541341 -0.15541257 0.14457732 0.14353572 -0.15124421 -0.079093866 -0.1378584
-0.22872439 -0.004980629 -0.009532967 -0.12690727 0.18308923 0.22027248 -0.23065367 -0.08500775
0.016039979 -0.110500045 0.28252214 0.053835332 -0.18150301 0.1859665 -0.19408607 -0.049077883
-0.09586594 0.073963664 -0.14975245 -0.038805448 -0.08778195 -0.10829335 0.20959297 0.1852902
0.06824155 -0.12046912 -0.2652738 -0.11113515 0.002392814 -0.2565903 -0.14747092 -0.046699237
0.011422343 0.2169652 -0.131086 -0.20173235 0.075151674 -0.033568863 0.15197235 0.06519227
-0.28130314 0.118164055 0.16134636 0.059757285 0.07390318 -0.033962928 0.27992183 -0.031255808
-0.0040185186 -0.08251073 -0.049776383 -0.09350177 -0.18202631 0.068058975 -0.003842408 -0.28824332
-0.15983275 0.10021773 0.1432823 -0.13823928 -0.069979675 0.03066934 0.34984487 0.14884087
-0.20086132 0.16876324 0.14453942 0.021780884 0.09229487 0.25258794 -0.15456533 -0.13009284
0.09109961 -0.066648655 0.13214223 -0.15530372 -0.030360684 0.11996736 0.27541983 0.0023151108
-0.17285877 -0.007827703 -0.0348074 0.046313196 0.20259108 0.053597793 -0.12346085 -0.06470173
-0.16540876 -0.16380712 -0.34312218 0.16485366 -0.07919438 -0.26403847 -0.16474546 0.20602998
-0.12426265 0.2819171 -0.11621905 0.22687975 0.12693004 0.027088704 -0.15496863 0.20484616
0.036667038 -0.15622377 -0.13866062 -0.16741456 0.047011808 -0.08970086 0.17435756 0.015415017
0.042944502 0.18017945 -0.115822226 -0.10640592 0.25145683 -0.07439552 -0.014933215 -0.19923258
0.10844554 -0.08099251 -0.06083284 0.1458764 -0.08885877 -0.016244147 0.21205221 0.12579773
0.040138137 -0.0058691395 -0.10417825 0.13340314 -0.22614111 -0.0932537 0.23653868 0.12607205
-0.20160829 0.010878946 -0.17286071 0.18965797 0.17342205 0.054768592 0.13582426 0.077400714
-0.0569175 0.20012105 0.10894044 0.31215352 -0.1369141 0.094870746 0.11098988 0.058319923

pi.net.4.bias f4 [4]
00000000: 7c95 d03d b9b6 7e3d 55f9 4d3a dfc8 60bc
0.10184762 0.062185977 0.0007857283 -0.013719766

v.net.0.weight f4 [64, 34]
00000000: ee71 ee3d eb1e 4cbd fd43 ef3c 4ae3 89bd
00000010: 2351 1a3e adc2 d1bd 6157 debd e7d3 ce3d
00000020: ed3a 813d 4ffa 0a3e ccee 13bd 2393 873d
00000030: 2b69 013d 7b77 463c 1a8d f93c e693 8abb
00000040: 6c99 48bc e2a3 6ebd bd3d 163d 328b 93bd
00000050: 8cbf 59be 5abd 86bd 437f c2b9 8bf8 25bd
00000060: c8da eebc ba70 febc 21d8 20bd fcc8 d93c
00000070: 8b30 c4bd 0869 6abc ccd0 f53c eac1 8fbd
00000080: c2ea 0f3d 6af6 d1bb 85b3 87bd ba8f 85bd
00000090: 76a5 a93d ab53 0d3e 7d65 a6bd 039a 22bc
000000a0: c3f5 04be 3d0c c5bd 026d 41bd 4846 b0bd
000000b0: c93a 053c 8f79 d43d c8ac 983d 905e c7bc
000000c0: 7ba6 59bd e3cf 393c 625a 5f3c 416c 9b3d
000000d0: 7844 d33d 1bee d43d 3807 1e3b b7c7 823d
000000e0: 83f0 413e 55bd 21be 9d7a 4e3e bffd 1f3c
000000f0: da4d a3bd 7417 043d b9ea 77bd a7fe 38bc
00000100: e394 e73c ef96 7b3b 7981 a0bc 60fd 4bbd
00000110: 35b5 dcbc fa3f 06bd 8bf7 1d3c baf2 0f3e
00000120: 2797 683d 8971 00ba 5733 3a3e 714c 84bc
00000130: f91f 7e3d 9dd4 d03d 24a9 b33d a596 2d3d
00000140: aac8 033d 7fae 8d3d b673 9b3b be85 173d
00000150: 82a3 623c f914 623d a8fe 0c3d f255 1cbd
00000160: a9d6 35bc ef05 14be 1c9f 4b3d 090d 723e
00000170: e84c 97bd 2639 e5bd 5413 afbd 66e5 02bd
00000180: 74d1 7bbc fcbb 9ebc 5859 483d 3fd8 c7bc
00000190: e0cd 5f3d 292f 1ebb 0016 d0bd 5156 e1bd
000001a0: 435e 7ebd 2704 2b3d 02a0 48bc 1e7d 11bd
000001b0: 2b98 51bd 067f cc3a a4c6 443e c889 84bd
000001c0: 219b 013e bcdc 66bd cc79 a5be b875 2ebd
000001d0: f441 96bd b015 de39 d4b2 88bc aa89 a5bd
000001e0: dcb1 c8bd b5ba 5abd 14e9 06bc 73c0 103e
000001f0: b71c 53be 0dff e2bd 0f08 d73d 8af5 5b3c
00000200: 1191 ce3d bea9 e3bd 175d b63d b9e4 5abe
00000210: a5ab b63c 6f90 34bc 9621 18bb 5e9c 4fba
00000220: a00a d03d eaad 00be 9c37 433d 88bd 58be
00000230: faac 2ebc 7abd 01be 6c34 0ebc c83f 86bd
00000240: aa79 013e 13e6 203e 0f5b debd 1a76 dabd
00000250: 69e9 9abd ee3c 3bbb 401f a5b9 2016 493b
00000260: 5ade 26bc 035d c7bd 80f1 e73d 7bf4 d6bd
00000270: 72c8 893d abaa 203e e5af 1abd 4a80 1b3e
00000280: 3a83 703d 2be3 c2bd 55be 80bd 9682 b73d
00000290: 6a38 a73d 78fb 05bd bd82 8d3b 63db 0dbc
000002a0: 64ac 293c feb6 71ba bb3b f4bd 507c 833d
000002b0: 91f4 e5bd 2940 643b 2578 02be f66b babd
000002c0: 9709 65be b034 233e 719c 953d f75f 203e
000002d0: 9677 243c ef80 e1bd b8cd 44bd ee11 103d
000002e0: e450 3fbc 7cbc 513d cb7f 323c fbf3 193d
000002f0: 8968 cc3b 5bb0 4cbe 7586 8c3d 5cd0 333e
00000300: 6ffc 1dbe ae51 5abe ab1c 85bd c163 263e
00000310: de40 8c3e 83f9 2ebc cb4c 0f3e ee4d cdbd
00000320: 46ff 0f3d f587 23bc 73ba 3c3d 3bbd ab3c
00000330: f3aa c3bd 9cc1 dfbd ca2d 0abe 3c7d e5bc
00000340: f22e a7be 1fb7 7e3a cb2d ca3d d40f 90be
00000350: b287 afbe 6c09 b0be fa86 d73d 8e10 40bd
00000360: 97ab d8bc 4d38 8bbd 651f 20bd 4e16 50bd
00000370: 04c3 8b3c acbb 96bd 378c 10be cece 89be
00000380: d983 8a3d 7d5c 07be 7705 afbc 31b8 083c
00000390: a90e 94be 0d7d 5fbe dd8a e5be 59fe 473e
000003a0: c0c7 b43d f1a9 153e 105a b8bd 3ab3 26bd
000003b0: d403 2ebd a94f 9fbc 7a12 843e d6df 66be
000003c0: e8fa 9ebd 4b53 3d3d e57b 86bd 6647 303d
000003d0: 0a02 31be 5396 06bd b48d 043d 5112 173e
000003e0: bfd2 54bb 2455 083b 9da6 87bd 9268 41bd
000003f0: 2cea d9bd 4ec4 bf3c b255 7abd 0d70 9f3d
0.11642824 -0.049834173 0.029207224 -0.06732805 0.15070014 -0.102422096 -0.1085651 0.10099011
0.06310067 0.13572048 -0.036116406 0.06619861 0.031594437 0.012113447 0.03046279 -0.0042290566
-0.01224361 -0.05826176 0.036679972 -0.07204284 -0.21264476 -0.06579085 -0.0003709738 -0.040520232
-0.029157057 -0.031059612 -0.039268617 0.026585095 -0.09579571 -0.014307268 0.030006789 -0.07019408
0.035135992 -0.0064075487 -0.066260375 -0.06521554 0.08283512 0.13801448 -0.08124826 -0.009924415
-0.12984376 -0.09621475 -0.0472231 -0.08607155 0.008131691 0.10374748 0.074548304 -0.024337083
-0.053137284 0.011341068 0.013632389 0.07589007 0.10315794 0.103969775 0.002411319 0.06385749
0.18939404 -0.1579488 0.20163961 0.009765088 -0.079738334 0.03224893 -0.060526583 -0.011291183
0.028269237 0.0038389524 -0.019592987 -0.049802184 -0.026941875 -0.032775857 0.009641538 0.14057437
0.056784775 -0.00048997306 0.18183647 -0.016149731 0.06204221 0.10196803 0.087724954 0.042379994
0.03217379 0.06918048 0.0047440184 0.03699278 0.013832929 0.055195782 0.034422547 -0.0381679
-0.011098542 -0.14455388 0.049712285 0.23637785 -0.073877156 -0.11192541 -0.085486084 -0.031957053
-0.015369762 -0.019376747 0.04891333 -0.024395106 0.054639697 -0.0024136996 -0.10160446 -0.11002792
-0.062101614 0.041752007 -0.01224518 -0.03551971 -0.05117051 0.0015601821 0.192164 -0.06471592
0.12656833 -0.056362852 -0.32319486 -0.042592734 -0.07336798 0.00042359298 -0.016686834 -0.08082898
-0.09799549 -0.053400714 -0.008234281 0.14135914 -0.20616423 -0.11083803 0.10499584 0.01342524
0.10086263 -0.1111636 0.08904474 -0.21376313 0.022298643 -0.011020764 -0.0023213378 -0.0007919724
0.101582766 -0.12566343 0.047660455 -0.2116605 -0.010661358 -0.12669936 -0.008679491 -0.06555134
0.12644067 0.15712766 -0.10857212 -0.10667057 -0.07564051 -0.0028570252 -0.00031494536 0.0030683354
-0.010184849 -0.097345375 0.11325359 -0.1049585 0.06727685 0.15690105 -0.037765402 0.15185657
0.058718897 -0.09515985 -0.06286303 0.08960454 0.08165057 -0.032710522 0.0043185637 -0.008658263
0.0103560425 -0.00092206884 -0.11925455 0.06420195 -0.11228288 0.0034828281 -0.12741144 -0.09102623
-0.2236694 0.15938067 0.073052295 0.15661608 0.010038277 -0.1101092 -0.04804775 0.03517335
-0.011677001 0.051205143 0.010894726 0.037586194 0.0062380475 -0.1998915 0.06861583 0.17559952
-0.15428327 -0.21320221 -0.064996086 0.1624899 0.2739324 -0.010679605 0.13994138 -0.100246295
0.035155557 -0.009981145 0.04607625 0.020964256 -0.0955409 -0.109256 -0.1349403 -0.028013818
-0.32653004 0.0009716618 0.098720156 -0.28137076 -0.34283215 -0.34382188 0.105237916 -0.046890788
-0.026449008 -0.06797848 -0.03909244 -0.05080252 0.017060764 -0.07360014 -0.14115988 -0.26915592
0.06763429 -0.13218875 -0.02136491 0.008344696 -0.28917435 -0.21825047 -0.44832507 0.1953062
0.08827162 0.14615609 -0.09001553 -0.040698268 -0.04248412 -0.019447165 0.25795346 -0.22546324
-0.077627 0.046222012 -0.065666 0.04303684 -0.17285934 -0.032858204 0.0323617 0.14753081
-0.0032474247 0.00208027 -0.06623576 -0.047218867 -0.10640368 0.023409035 -0.06111688 0.07785044

v.net.0.bias f4 [64]
00000000: d6b3 89be 40e2 5a3e 1076 ac3e 2888 2dbd
00000010: 840d 8a3e 908b e0bd 9c44 923d 3af6 04be
00000020: b0e4 023e bfec 113e 13ec 473e a8e8 ef3d
00000030: 69e8 dcbe b816 2ebd 0a76 30bd 7eda 703e
00000040: baa0 a33e 0f54 853e ab47 03be 158c 883e
00000050: c3fe 58be 980b af3d f018 9a3e 8749 8f3e
00000060: 9a31 01be 6352 b13d aff8 9ebe b711 52be
00000070: 9ff1 20be 9cf5 65be 6536 893e 14b0 023c
00000080: 48be 8d3e d2c5 873e 7e8a 05be 9f70 b8bd
00000090: 8649 813e 2378 32bd b34f 8bbe 545b 46be
000000a0: eccb a1be 53b6 b63e 1104 0fbe 404e 10be
000000b0: 4196 a3bd 3696 503e ec36 a3be f826 d93d
000000c0: 87cf 73bd f10a 69be 3ca5 ffbd adef 69be
000000d0: 4ae9 0b3c f184 e83e 047c 55be bc3a 9c3e
000000e0: 57d4 153c 2e21 3fbe ee41 953e d24a a43e
000000f0: a809 d6bc 49b2 8cbe 79dd 5fbe fb21 6a3e
-0.26895016 0.2137537 0.33683825 -0.042366177 0.26963437 -0.109641194 0.071419924 -0.12984553
0.1278255 0.14250468 0.19523649 0.117142975 -0.43146065 -0.042502135 -0.04308132 0.23520848
0.31958562 0.26040694 -0.12820308 0.26669374 -0.21190934 0.08547133 0.3009715 0.27985784
-0.12616578 0.08658292 -0.31049106 -0.2051457 -0.15717171 -0.22456974 0.26799312 0.007976551
0.27684236 0.26518112 -0.13041112 -0.09005856 0.25251406 -0.043571603 -0.27209243 -0.19370776
-0.31600893 0.35685977 -0.13966395 -0.1409235 -0.07987643 0.20369801 -0.3187784 0.10603136
-0.059524085 -0.2275808 -0.12482688 -0.22845335 0.008539507 0.45413926 -0.2084809 0.3051356
0.009144864 -0.18665001 0.29151863 0.32088333 -0.026127651 -0.2747977 -0.21861829 0.22864525

v.net.2.weight f4 [64, 64]
00000000: 6f0f bdbd 4465 513d e160 793c cde3 863b
00000010: 4af8 083d 5761 623e 2a03 ef3c 3122 863c
00000020: d39c bebd 7f2f 193d 3f75 08bc a893 28bc
00000030: 824a 083e b602 6fbc 9c48 923b cca2 0b3b
00000040: 977c ee3d 8379 a0bb 67b6 c63d 92bf 8b3c
00000050: a123 c13d f07a 303d 2900 513d 2ca2 ab3d
00000060: cfc5 8fbd 66c6 c33c bf02 b4bd a946 8abd
00000070: 67d5 493e 6d3e 93bd b51e b53d 8c6b 78bd
00000080: e065 d6bd 4f29 873e 9b5b 5ebe 645c dd3c
00000090: 69c0 d93d adb4 533c 6231 bbbd e64f 9dbd
000000a0: 1022 8fbd 5b76 773c f91c 613d 5e92 7b3d
000000b0: 1f4f 3d3b fceb 67bd a782 c53c 57e2 f6bd
000000c0: 77e1 e7bc 3534 f2bd ae3e bcbd 2554 fbbc
000000d0: 8d54 563e d970 6bbe a44d 4e3e 1672 6c3e
000000e0: 61d0 edbd aa23 10be 86aa bf3d 026f 11bd
000000f0: 629e 32be 9771 2fbe 63ed 083d ec5f 463d
00000100: 0ba6 f93d b4ba acbd f73a e4bd 51d2 0ebe
00000110: 4771 31bd d1dd 77bd c32e 9fbd d1a9 2bbe
00000120: 9d18 ccbd 6487 6c3e c9f9 8cbd 627d e03d
00000130: fa08 a7bd f9a3 4dbd ad6a 2a3e ed62 45be
00000140: 5622 02be e8dc 39be 442e 51be ee65 b8bd
00000150: a7b6 aa3d 91c1 efbd 1ff4 8d3e df55 15be
00000160: ccdb fabd 1ed9 b5bc e1b3 403e 2fc3 3c3d
00000170: 4a86 ccbd 861e 5b3d 9d96 0abd 1de9 ee3c
00000180: 136e f83d 801b e5bb e5ad 2b3e 84dd f9bc
00000190: 8515 65be b0ff 2f3d f3d3 7dbd b867 cbbd
000001a0: 82e4 883e 2b17 83be 390f d9bb b774 22be
000001b0: 8de5 4c3e 5cfd 623e 04b1 5ebd 4294 183e
000001c0: 84c1 963e 48c3 c53c 30a3 65be 6dc9 a63d
000001d0: 7ac4 9bbe 631c ce3e 2163 16be dc32 66be
000001e0: 8616 c03d 0a1b abbd 941f 773c d459 66bd
000001f0: ac80 b73e 6b17 0d3e 397f 663c 3d47 aebb
00000200: fe59 9f3b c292 4abe f024 16be 8c8f b43a
00000210: 7f55 5abd 83d5 973d afba b8bd fc90 2f3c
00000220: 5c90 adbc ff64 093e aaca 33bb d722 c53d
00000230: 35b3 bc3d 2cea 243d 14a5 10be a955 b9bc
00000240: 1031 24bd 6aef 2abe 504d 283e 7512 83bd
00000250: be32 ca3d 031c 79bd 50fd 113e 4818 5cbe
00000260: 5cb9 0e3d 82f4 953c 69ac 573e b295 f23d
00000270: f487 ef3b ddc0 f73d 5ecc 02be 57c2 08be
00000280: 18b4 113d 615d 17bd de4c 64bd bb50 4cbd
00000290: c2ad ccbd d3ae a8bc dd44 243d f3a4 1cbd
000002a0: 0368 133e a663 31be 1103 2bbd f365 5d3d
000002b0: fccb 813d b54b 493d 6a66 6dbe 4b98 83be
000002c0: 2ef1 913e bcd9 793d ac63 edba e7ee a7bc
000002d0: 90aa 773d bd91 873e f77b 833c b806 80be
000002e0: 7438 8b3e f346 eaba d491 b8bd 780d 373d
000002f0: 44e8 6dbd 4a08 cf3d d391 d1bd 397c e63c
00000300: 8cbe 21be ceff 8b3a 9515 e23d fcb8 1bbd
00000310: 268a 083e 0e6c 5b3d 078d dabd 3ccf 243d
00000320: e849 e63c 113c df3d 51d7 53bd 6fa0 3fbc
00000330: 4959 353d 2ffb 7a3d 6782 74be b53d 1f3e
00000340: f18e 253c 56de 1e3e 8957 8d3d cd10 093e
00000350: a6b8 adbc 8064 13be 2084 353d 3ced 8b3b
00000360: ee0b 05bd 481a 623c 00e2 37be 3c1c 8a3b
00000370: 33fb b03d 4431 c4bc f2cc 623c 5f54 9e3a
00000380: 8054 ebbc ae07 b2bd 7288 d7bd afa2 8fbc
00000390: e86c 80ba 54bd 6a3d 8e68 09be 0468 61be
000003a0: ee11 32be a54b 513c 8164 20be 950b 17bd
000003b0: dbe7 00bd 40c4 65bd e847 b1bd 4d44 38be
000003c0: 73c7 2c3e 4fb8 a8bd 053d 05be 31bf 36bd
000003d0: 847e f73d 4921 313e 9355 023d e369 833c
000003e0: 9dd9 643e f5f4 283e a446 983d 0e46 d1bc
000003f0: 60bc 8e3c 802d c2bd 65a9 d8bd 1d9e c6bd
-0.09231459 0.051121965 0.015220852 0.0041165114 0.033439912 0.22107445 0.029176313 0.016373726
-0.093072556 0.03739881 -0.008328735 -0.01028911 0.13309672 -0.014588049 0.004464222 0.0021306751
0.116448574 -0.004897298 0.09702759 0.017059121 0.09430624 0.043085992 0.051025543 0.08380541
-0.07020151 0.023898315 -0.08789586 -0.067517586 0.19710313 -0.07189641 0.088437475 -0.06064944
-0.1046865 0.26398703 -0.21714632 0.027021594 0.106324024 0.012921494 -0.091402784 -0.07681255
-0.06988919 0.015103902 0.05495927 0.061418884 0.0028886271 -0.056621537 0.024110151 -0.1205489
-0.028305752 -0.11826364 -0.09191643 -0.030679772 0.20930691 -0.22992267 0.20146805 0.23090395
-0.11612011 -0.14076105 0.09358697 -0.035506256 -0.17443231 -0.17133175 0.033429515 0.048431322
0.12189873 -0.08434048 -0.11144059 -0.13947417 -0.04332092 -0.060514275 -0.07772591 -0.16763999
-0.09965632 0.23098522 -0.0688358 0.10961415 -0.08156009 -0.050205205 0.16642256 -0.19276018
-0.1270841 -0.18150675 -0.20427805 -0.090038165 0.083356194 -0.11706842 0.27725312 -0.14583538
-0.12248954 -0.022198256 0.18818618 0.04608458 -0.09986551 0.053495906 -0.033835042 0.029163891
0.1213037 -0.0069918036 0.16765554 -0.030501135 -0.2237149 0.042968452 -0.06196971 -0.09931892
0.26736838 -0.25603613 -0.006624129 -0.15864836 0.20009442 0.22166961 -0.054368034 0.14900306
0.29444516 0.024140969 -0.22425532 0.08143888 -0.30423337 0.40256032 -0.14686252 -0.22480339
0.09379296 -0.08354767 0.015083212 -0.05623801 0.35840356 0.13778464 0.014068418 -0.005318551
0.004863023 -0.19782546 -0.14662528 0.001377569 -0.05330419 0.07413771 -0.09019982 0.010715719
-0.021187 0.13417433 -0.002743403 0.09625786 0.092138685 0.040262386 -0.14125472 -0.022623854
-0.040085852 -0.16692892 0.16435742 -0.06400005 0.098729596 -0.06081773 0.14256787 -0.21493638
0.03484474 0.018305067 0.21061863 0.11844958 0.007309908 0.120973326 -0.12773272 -0.13355385
0.03557214 -0.036954287 -0.05573737 -0.049881678 -0.09994079 -0.020591175 0.040104736 -0.038243245
0.14395146 -0.17323169 -0.04175097 0.054052304 0.06337735 0.049144465 -0.23183599 -0.25702128
0.28504318 0.060998663 -0.001811137 -0.02049966 0.060465395 0.26478377 0.016050322 -0.25005126
0.27191508 -0.0017873928 -0.090121895 0.04469058 -0.058082834 0.10109003 -0.10232892 0.028135406
-0.15795344 0.0010681094 0.11039273 -0.03801821 0.1333395 0.053569846 -0.1067143 0.040236697
0.028111413 0.10900129 -0.051719014 -0.011695965 0.044274602 0.061274704 -0.2387787 0.15550883
0.010104881 0.15514502 0.06901462 0.13385315 -0.021206211 -0.14393806 0.044315457 0.004270224
-0.03248208 0.013800211 -0.17957306 0.0042147916 0.086416624 -0.023949273 0.013842808 0.0012079588
-0.028726816 -0.08692871 -0.10524072 -0.017533628 -0.0009798082 0.057309464 -0.1341879 -0.22012335
-0.17389652 0.012774383 -0.15663339 -0.03687628 -0.031471115 -0.05609536 -0.08656293 -0.17994805
0.16872959 -0.08238279 -0.13011558 -0.044615928 0.12084678 0.17297854 0.03181989 0.016041702
0.22348638 0.16499694 0.07435349 -0.0255461 0.017423809 -0.09481335 -0.105791844 -0.096981265

v.net.2.bias f4 [64]
00000000: aaa7 4b3e 91ae 03be 2ae2 32bc 14d7 343e
00000010: 6fcf 02be 4a0e 5cbe 531f 493e 1a87 963b
00000020: be00 973c edd4 993d 6c66 82be 19f5 163e
00000030: eb14 8e3d 0ade 013e d18f 313e 8ed4 93bb
00000040: c634 9cbe a3ae 303e b86e 4e3e ccea 83bb
00000050: ae05 6f3e 0966 183d 368f 253e 8392 a0bc
00000060: 0a07 193e d167 7abe 3dea 95bd f78d 873e
00000070: 5ad7 29bc ee33 443e 2bbb 983d 9d04 0ebd
00000080: 1135 813e ca26 403e a9a2 acbb 21b8 623e
00000090: b45d 44bd 908f 5abe 3085 383e e691 803e
000000a0: 4727 8b3d 7df1 ea3d 0d6d d73d 6699 7e3d
000000b0: 5e3c 703e 3622 48be 5464 1bbe a3bf e93d
000000c0: b7ce 9e3d ecd2 42be 8b7d 043e 819c e93c
000000d0: 7cb7 183e d53a 32be e82c 6bbe 5c3e 2cbe
000000e0: 01ca 393e 9b67 12be 13ed 423e 00ba 843d
000000f0: bacf 493b 8615 31be 1c2d 4dbe f60f bfbd
0.19888178 -0.1285956 -0.0109181795 0.17660171 -0.12774442 -0.21489826 0.19640855 0.004593742
0.018432971 0.075113155 -0.25468767 0.14741935 0.069375835 0.12682357 0.17340018 -0.0045114225
-0.30509013 0.17254119 0.20159423 -0.0040257927 0.2334201 0.037206683 0.16167912 -0.019601112
0.14944091 -0.24453665 -0.07320068 0.26475498 -0.010366285 0.19160435 0.074575745 -0.03467237
0.252358 0.18764797 -0.005268414 0.22140552 -0.047940925 -0.21343827 0.18019557 0.25111312
0.06794601 0.114718415 0.10518847 0.06215801 0.23460528 -0.195443 -0.15174991 0.11413505
0.077542715 -0.19025773 0.12938516 0.02851701 0.14913744 -0.17405255 -0.22966349 -0.16820663
0.18143465 -0.14297335 0.19035749 0.06480789 0.003079398 -0.17293367 -0.20036739 -0.09329216

v.net.4.weight f4 [1, 64]
00000000: 3827 35be 3496 293e ad41 0d3e 1de7 34be
00000010: 7cca 543e 4970 e1be 636f 91be c5ff 5ebe
00000020: ad40 d63d e6df 60be d0e3 793e 3ab5 6cbe
00000030: 28b9 44be 4558 40be cbab 5fbe bbf1 82be
00000040: 549c 523e aa6c 3ebe ce23 51be 760c 26be
00000050: 8bbf 33be fdf6 82be c3e0 2ebe f42d 3d3e
00000060: ca3f 7bbe 332f 603e 8755 393e 0cbc 27be
00000070: 8e82 393e 2541 34be 8daa 57be 81c6 173e
00000080: 4287 4dbe 445a 55be 162e 4f3e 2dc9 63be
00000090: ac98 463e 9ff3 6b3e 9a5e 5fbe 1517 28be
000000a0: f7e4 84be 45d9 49be 061a 55be c2dc 2abe
000000b0: 0865 4cbe a9a9 4b3e 0b61 3e3e f104 4dbe
000000c0: 066b 45be a5ea 233e 0bf6 33be 49d3 1cbe
000000d0: 69ea 8fbe da75 2b3e 2f0d 2e3e 4565 6c3e
000000e0: 588a 11be d707 7c3e 3365 41be ac70 403e
000000f0: 5df2 473e 1341 3b3e 8470 5a3e 089e 523e
-0.17690742 0.16561204 0.13794585 -0.17666288 0.20780367 -0.4403098 -0.28405294 -0.21777256
0.10461555 -0.2196041 0.2440331 -0.23116007 -0.19211257 -0.18783672 -0.21842878 -0.2557505
0.20567447 -0.1859614 -0.20423815 -0.16215691 -0.17553537 -0.25579062 -0.17077927 0.18474561
-0.24536052 0.21893005 0.18099032 -0.16380328 0.18116209 -0.17602976 -0.21061154 0.14821817
-0.20071128 -0.20835215 0.20232424 -0.22244711 0.19394177 0.23042153 -0.21813431 -0.16415055
-0.25955936 -0.19711788 -0.20810708 -0.16685775 -0.19960415 0.19888939 0.18591706 -0.20021416
-0.19279107 0.16007479 -0.17574327 -0.15314974 -0.28108528 0.16744176 0.16997217 0.23085506
-0.1421293 0.24612366 -0.1888626 0.18792981 0.19526048 0.18286543 0.21331984 0.20568097
