runs/phoenix/DroneHoverBulletEnvWithAdversary-v0/ppo/2023-08-16__13-46-30/seed_13734/torch_save/model.pt (torch, 49538 bytes, 14 tensors)

obs_oms.mean f4 [34]
0	0x00000000	0.0
1	0x00000000	0.0
2	0x00000000	0.0
3	0x00000000	0.0
4	0x00000000	0.0
5	0x00000000	0.0
6	0x00000000	0.0
7	0x00000000	0.0
8	0x00000000	0.0
9	0x00000000	0.0
10	0x00000000	0.0
11	0x00000000	0.0
12	0x00000000	0.0
13	0x00000000	0.0
14	0x00000000	0.0
15	0x00000000	0.0
16	0x00000000	0.0
17	0x00000000	0.0
18	0x00000000	0.0
19	0x00000000	0.0
20	0x00000000	0.0
21	0x00000000	0.0
22	0x00000000	0.0
23	0x00000000	0.0
24	0x00000000	0.0
25	0x00000000	0.0
26	0x00000000	0.0
27	0x00000000	0.0
28	0x00000000	0.0
29	0x00000000	0.0
30	0x00000000	0.0
31	0x00000000	0.0
32	0x00000000	0.0
33	0x00000000	0.0

obs_oms.std f4 [34]
0	0x3f800000	1.0
1	0x3f800000	1.0
2	0x3f800000	1.0
3	0x3f800000	1.0
4	0x3f800000	1.0
5	0x3f800000	1.0
6	0x3f800000	1.0
7	0x3f800000	1.0
8	0x3f800000	1.0
9	0x3f800000	1.0
10	0x3f800000	1.0
11	0x3f800000	1.0
12	0x3f800000	1.0
13	0x3f800000	1.0
14	0x3f800000	1.0
15	0x3f800000	1.0
16	0x3f800000	1.0
17	0x3f800000	1.0
18	0x3f800000	1.0
19	0x3f800000	1.0
20	0x3f800000	1.0
21	0x3f800000	1.0
22	0x3f800000	1.0
23	0x3f800000	1.0
24	0x3f800000	1.0
25	0x3f800000	1.0
26	0x3f800000	1.0
27	0x3f800000	1.0
28	0x3f800000	1.0
29	0x3f800000	1.0
30	0x3f800000	1.0
31	0x3f800000	1.0
32	0x3f800000	1.0
33	0x3f800000	1.0

pi.log_std f4 [4]
0	0xbf317218	-0.6931472
1	0xbf317218	-0.6931472
2	0xbf317218	-0.6931472
3	0xbf317218	-0.6931472

pi.net.0.weight f4 [50, 34]
0	0x3e184df5	0.14873488
1	0x3e28745c	0.16450638
2	0xbe1ef3dd	-0.15522714
3	0x3de057b4	0.10954228
4	0xbe087b32	-0.13328245
5	0x3d73701f	0.0594331
6	0xbc6ae594	-0.014336962
7	0xbe232ef3	-0.15935878
8	0xbda03588	-0.0782271
9	0xbd681a05	-0.05666544
10	0x3dbb5ae7	0.091481976
11	0xba8fda3c	-0.0010975073
12	0xbe01fba4	-0.1269365
13	0x3e0eb5ea	0.13936582
14	0xbd0a29e9	-0.033731375
15	0xbdacffb0	-0.08447206
16	0xbd99d46d	-0.0751122
17	0xbccea7ed	-0.025226558
18	0x3d6c8411	0.057743136
19	0xbe246a3b	-0.16056149
20	0xbcb96417	-0.022630734
21	0x3e1af59f	0.1513276
22	0xbe260a31	-0.16214825
23	0x3e0a5043	0.1350718
24	0x3dee95ef	0.11649691
25	0xbe261de9	-0.16222347
26	0xbd8a1858	-0.067429245
27	0xbd752689	-0.059851203
28	0x3e0fe17f	0.14050864
29	0x3de1d170	0.11026275
30	0xbce339bf	-0.027737496
31	0x3d9258e5	0.071458615
32	0xbda0d841	-0.07853747
33	0x3e2e92b3	0.17048149
34	0x3bb3131d	0.005464925
35	0xbe19b9ea	-0.15012327
36	0xbdec3ab5	-0.11534635
37	0x3d16a0d0	0.036774457
38	0x3dd09c59	0.10186071
39	0x3e26875c	0.16262573
40	0xbc81ae5a	-0.015830208
41	0xbaa06fda	-0.0012240366
42	0xbd4cc1c0	-0.049989462
43	0xbe015ec8	-0.12633812
44	0xbca5c1fb	-0.020234099
45	0xbdbd6314	-0.09247413
46	0x3e26fd32	0.16307524
47	0x3d8ca292	0.06866945
48	0x3da23ad6	0.07921378
49	0x3e180c21	0.14848377
50	0x3e1a4da3	0.15068679
51	0xbd848569	-0.064707585
52	0xbb4c10de	-0.0031137983
53	0xbe23d208	-0.1599809
54	0x3daa12f7	0.083043985
55	0x3d375aed	0.044764448
56	0x3e2cf9ed	0.16892214
57	0x3e23d3ef	0.15998815
58	0x3e2df2f2	0.16987208
59	0x3e0d5783	0.13802914
60	0xbdbbe049	-0.091736384
61	0xbe280843	-0.16409402
62	0x3dae0abb	0.084981404
63	0xbd7b6b9c	-0.06138192
64	0x3d366a7c	0.044535145
65	0xbd0fd8dd	-0.035118926
66	0xbe17e13f	-0.14832018
67	0xba9402e6	-0.0011292368
68	0xbd359208	-0.04432872
69	0x3e0b060d	0.13576527
70	0x3deaf085	0.11471657
71	0x3d8d004e	0.06884824
72	0xbe162b23	-0.14664893
73	0xbde5408a	-0.111939505
74	0xbd8d4cac	-0.068993896
75	0xbe1093c2	-0.14118865
76	0x3dd34f69	0.10317881
77	0x3d39cebd	0.045363177
78	0x3da4e3c0	0.08051252
79	0x3c856550	0.016283661
80	0x3d9740b1	0.07385386
81	0x3dc3689b	0.09541436
82	0xbe1d2782	-0.15347102
83	0x3e233aae	0.15940353
84	0x3d74f099	0.059799764
85	0x3d2ac7a9	0.041694317
86	0xbdb56757	-0.08857601
87	0xbb377901	-0.0027995708
88	0x3dec48aa	0.11537297
89	0x3dceb117	0.10092371
90	0xbe14d3ea	-0.14533964
91	0x3dab955a	0.08378096
92	0xbdac7a71	-0.08421791
93	0xbddfc0df	-0.10925459
94	0xbd86bcc0	-0.0657897
95	0xbcf22a4b	-0.029561182
96	0x3dc5d23f	0.09659242
97	0x3e23f960	0.16013098
98	0xbd5c8715	-0.05383976
99	0x3e132484	0.14369398
100	0x3e09c9c6	0.13455877
101	0xbd0aa227	-0.033846047
102	0x3e170ccf	0.1475098
103	0x3dadc8f3	0.08485594
104	0xbe01ee1d	-0.1268849
105	0x3dcf7a84	0.1013079
106	0xbda504e4	-0.080575734
107	0x3e134448	0.14381516
108	0x3dc7a503	0.0974827
109	0xbda551d2	-0.080722466
110	0xbd29e0ce	-0.041474156
111	0x3dc4963a	0.09598966
112	0x3b00d53c	0.0019658348
113	0xbe1cf326	-0.15327129
114	0x3d1a3798	0.037650675
115	0xbb53e08b	-0.0032329883
116	0x3d519169	0.051164065
117	0x3daa32bf	0.0831046
118	0x3bdeca6d	0.0067990334
119	0x3d981197	0.0742523
120	0x3d8ea764	0.06965521
121	0xbdfbbd31	-0.12291945
122	0xbe1edc22	-0.15513662
123	0xbdf73370	-0.12070358
124	0xbceb145a	-0.028696228
125	0x3e051f34	0.13000184
126	0x3dd59dc9	0.10430486
127	0x3e276217	0.16346012
128	0xbe1167c0	-0.14199734
129	0x3d0793f8	0.0331001
130	0xbde8ad2d	-0.11361156
131	0xbd1b6e02	-0.03794671
132	0xbe2c3af1	-0.1681936
133	0x3e1d8eef	0.15386556
134	0xbe1806fa	-0.14846411
135	0xbd106408	-0.035251647
136	0xba45b8c7	-0.00075424876
137	0x3ced2170	0.028946608
138	0xbe1dd161	-0.15411903
139	0xbd7179b1	-0.058953945
140	0xbca8e9b2	-0.020619247
141	0xbc16f44a	-0.0092135165
142	0xbdc5ac8c	-0.09652051
143	0x3d9a6b37	0.07539981
144	0x3e072f44	0.13201624
145	0x3e224ca4	0.15849549
146	0x3d6507ea	0.05591575
147	0x3ccd4377	0.025056584
148	0x3c267b1d	0.010161188
149	0xbafa8fe6	-0.0019116371
150	0x3dfe83fa	0.12427516
151	0x3cac975a	0.021068264
152	0xbdbc597e	-0.09196757
153	0x3d9c9a1c	0.076465815
154	0xbdf0e4c5	-0.11762384
155	0x3e1c3413	0.1525424
156	0x3ddddaac	0.10832724
157	0xbdc0ed4f	-0.09420263
158	0xbe00c44d	-0.12574883
159	0xbcecaf43	-0.028892165
160	0xbe05fd95	-0.13085015
161	0x3d89fb12	0.06737341
162	0x3cd81f54	0.026382126
163	0x3d8ab361	0.06772495
164	0x3ccc139d	0.024911696
165	0x3da50c08	0.080589354
166	0xbb503881	-0.003177196
167	0x3db9352a	0.09043343
168	0x3d494e4b	0.04914693
169	0x3e1dbce0	0.15404081
170	0xbe2b2edb	-0.16717093
171	0x3c2d09ea	0.010561446
172	0x3e0a96d8	0.13534105
173	0x3cc40049	0.023925917
174	0x3dc85ae0	0.09782958
175	0xbdc58520	-0.09644532
176	0xbd80f849	-0.06297357
177	0xbd0117f3	-0.03151698
178	0x39f5d7dd	0.00046890872
179	0x3e0a54e4	0.13508946
180	0x3dbb35c8	0.09141117
181	0x3e2de70a	0.16982666
182	0xbd97f5dc	-0.07419941
183	0xbdaee541	-0.085398205
184	0xbd0ed6e2	-0.034872897
185	0x3e0452aa	0.12922159
186	0xbcbd541d	-0.023111397
187	0xbc46cda9	-0.012133994
188	0x3d84c93d	0.06483696
189	0xbe23ac5f	-0.15983723
190	0x3d80efd7	0.06295746
191	0x3cab90b3	0.020943021
192	0x3e1147c2	0.1418753
193	0xbc6f90d6	-0.014621934
194	0xbcf3dfc9	-0.029769795
195	0x3c2972ae	0.010342283
196	0x3c0ca9d1	0.008585409
197	0xbd8afbf4	-0.067863375
198	0x3e2941af	0.16528963
199	0xbdd2acd5	-0.10286871
200	0x3dcbe2b4	0.099553496
201	0x3e056412	0.13026455
202	0xbcc10784	-0.023563154
203	0x3e108292	0.14112309
204	0x3bfb896e	0.007676295
205	0xbe19a280	-0.15003395
206	0xbe2da058	-0.16955698
207	0x3e0e5dd9	0.13902988
208	0x3d7047fa	0.058662392
209	0xbddb0687	-0.10694604
210	0x3e17e79b	0.14834444
211	0x3d3b96a0	0.045797944
212	0xbe20376d	-0.15646143
213	0xbe17c244	-0.148202
214	0xbd1a740c	-0.037708327
215	0x3de1ed9e	0.1103165
216	0x3d45ea41	0.048319105
217	0x3ddad883	0.106858276
218	0xbd9ed93b	-0.07756277
219	0x3df78d24	0.12087467
220	0xbe2247c6	-0.15847692
221	0x3e0e9a96	0.13926157
222	0xbd91d772	-0.07121171
223	0xbd76fe90	-0.060301363
224	0x3e2ef329	0.17084946
225	0xbe1f1d78	-0.15538585
226	0xbe22ce22	-0.15898946
227	0x3df2be33	0.11852684
228	0xbbbd9596	-0.0057856543
229	0x3ca4ea47	0.020131243
230	0x3becd509	0.007227544
231	0xbd9c17ee	-0.07621752
232	0xbd5b3026	-0.053512715
233	0xbcc84019	-0.024444627
234	0xbe20efea	-0.1571652
235	0x3dcef6ad	0.101056434
236	0xbdf2878c	-0.1184226
237	0x3ca2af5c	0.019859008
238	0x3ca8d5c2	0.02060974
239	0xbdccdd90	-0.10003197
240	0xbe206df5	-0.15666945
241	0x3deaee32	0.114712134
242	0xbd90234d	-0.07037983
243	0xbe182763	-0.14858775
244	0x3e0e3391	0.13886859
245	0xbd501446	-0.050800584
246	0xbe087275	-0.13324912
247	0xbd605ba6	-0.054774903
248	0xbd983751	-0.07432426
249	0xbdd0d624	-0.10197094
250	0x3d240c0f	0.040050562
251	0xbcc34fd0	-0.023841769
252	0x3d2f5f9b	0.042815786
253	0x3cea2854	0.028583683
254	0xbd4e7fa5	-0.0504147
255	0xbcb54575	-0.022127846

pi.net.0.bias f4 [50]
0	0xbb530b8b	-0.0032202925
1	0xbdab0a7b	-0.08351608
2	0xbd979820	-0.074020624
3	0x3dfb9ae4	0.122854024
4	0xbdb4f6d9	-0.08836145
5	0x3dee6684	0.11640647
6	0xbcc6aecb	-0.02425327
7	0xbdd993ec	-0.10623917
8	0xbd57ab81	-0.052653793
9	0xbd715bb9	-0.058925364
10	0x3d982025	0.07428006
11	0xbe0670f6	-0.13129029
12	0xbdb10b6c	-0.08644757
13	0xbd55ec4d	-0.052227307
14	0x3c3219ab	0.0108703775
15	0xbcac3450	-0.021021038
16	0xbcb65cb3	-0.022261
17	0xbd3ac351	-0.045596424
18	0x399601f6	0.0002861169
19	0x3e2ed1c5	0.17072208
20	0x3e1dcae2	0.15409425
21	0x3df315b8	0.11869377
22	0x3dd36850	0.103226304
23	0x3c9b1ae5	0.018933723
24	0x3e2d7bc1	0.1694174
25	0xbe16c1f9	-0.14722432
26	0x3d274061	0.04083288
27	0x3c75385f	0.014967053
28	0xbc6f1b5c	-0.014593925
29	0xbcb2de14	-0.02183441
30	0xbe05a066	-0.13049468
31	0x3e11d113	0.14239912
32	0x3d013dfa	0.031553246
33	0x3daf7f9d	0.08569262
34	0x3d149587	0.036275413
35	0x3dfbae4d	0.122891046
36	0x3dbe674e	0.092970476
37	0x3d08b533	0.03337593
38	0xbd91c643	-0.071178935
39	0x3d8f2193	0.06988826
40	0x3e0787f3	0.13235454
41	0xbe2d800b	-0.16943376
42	0x3de5b555	0.11216227
43	0xbd81b414	-0.06333175
44	0xbdba9cfa	-0.09111972
45	0x3e15018a	0.14551368
46	0x3d8ed9a6	0.06975107
47	0xbd6cf521	-0.05785096
48	0x3c2951ec	0.010334473
49	0xbda8584f	-0.082199685

pi.net.2.weight f4 [50, 50]
0	0xbbbd1da0	-0.005771354
1	0xbd63fe81	-0.055662636
2	0xbcd4df8e	-0.025985505
3	0xbde5516c	-0.111971706
4	0xbe05d56e	-0.13069698
5	0x3de19f8d	0.1101676
6	0xbdc64754	-0.096815735
7	0x3c44968f	0.011998787
8	0x3d1f24e5	0.038853545
9	0x3cb35c95	0.021894732
10	0x3e060202	0.13086703
11	0xbe077fd9	-0.13232364
12	0xbddc650f	-0.10761463
13	0x3ddb97e5	0.10722331
14	0x3e02c5f4	0.12770826
15	0xbe03d7bd	-0.12875266
16	0xbd813edb	-0.06310817
17	0x3e09e0b8	0.1346463
18	0x3d8d249c	0.06891748
19	0xbd969dc9	-0.07354314
20	0xbdc9cc89	-0.09853465
21	0x3df4bdf1	0.11950291
22	0x3c4d67db	0.012536968
23	0xbd0b2fa0	-0.033980966
24	0x3df62c57	0.12020176
25	0xbda779fd	-0.08177564
26	0xbd849617	-0.0647394
27	0xbd18305e	-0.0371555
28	0x3e09410b	0.13403718
29	0x3c6d8d61	0.014499039
30	0x3d48ca95	0.049021322
31	0x3df3743c	0.11887404
32	0x3cfc263a	0.030779947
33	0x3e0d7bd6	0.13816771
34	0x3de18f5e	0.11013673
35	0x3d995d42	0.07488491
36	0xbd773568	-0.060353667
37	0xbe0593df	-0.1304469
38	0x3d8f9647	0.07011085
39	0x3dd63780	0.104598045
40	0x3d6feb9e	0.05857431
41	0xbe0e471e	-0.13894317
42	0xbd591855	-0.05300172
43	0x3c163849	0.009168693
44	0xbc8fb78c	-0.017543577
45	0xbbe77209	-0.0070631546
46	0xbda854f9	-0.08219332
47	0x3cfea3d3	0.031083977
48	0xbd432b9f	-0.047649022
49	0x3df701a5	0.120608605
50	0x3b90b13a	0.0044156583
51	0xbd6b03e2	-0.05737675
52	0x3dd88500	0.10572243
53	0x3c54880d	0.01297189
54	0x3dd75abb	0.10515352
55	0x3c0ca148	0.008583374
56	0xbd9034d6	-0.07041328
57	0xbdee6c17	-0.1164171
58	0xbde1f749	-0.11033494
59	0xbdac1700	-0.084028244
60	0xbe0d9a36	-0.13828358
61	0xbddd22ff	-0.107976906
62	0xbcdcd171	-0.026955338
63	0x3e029204	0.12751013
64	0x3c01d150	0.007923439
65	0x3dd89cf8	0.105768144
66	0x3c0fde39	0.008781009
67	0xbd47c0de	-0.048767917
68	0x3d9ec032	0.07751502
69	0x3e091321	0.13386203
70	0x3dc6287b	0.0967569
71	0xbdc7c2e2	-0.09753968
72	0xbd2f5a6e	-0.04281085
73	0x3d2f2940	0.04276395
74	0xbd49ca85	-0.049265403
75	0xbdebc85f	-0.11512827
76	0x3da87966	0.0822628
77	0x3d8eee62	0.06979062
78	0xbd981d4d	-0.07427464
79	0x3c8a24e3	0.016863292
80	0xbd9e5c28	-0.07732421
81	0x3bfd8146	0.007736358
82	0x3dddaac8	0.108235896
83	0x3def01db	0.11670276
84	0x3a836d46	0.0010027073
85	0x3d8b405b	0.06799384
86	0x3dca5b93	0.09880748
87	0xbe020112	-0.12695721
88	0xbdf0b2cd	-0.117528535
89	0x3e050052	0.12988403
90	0x3b8e1da3	0.004337029
91	0xbe07771c	-0.1322903
92	0xbce81be2	-0.028333608
93	0xbdb7df6c	-0.08978161
94	0x3dce86cd	0.10084305
95	0xbdcd3e55	-0.100216545
96	0xbac9e982	-0.0015404674
97	0x3caf0e7c	0.021369211
98	0x3e0ad0ca	0.13556209
99	0x3dda0dde	0.10647176
100	0xbdca9b17	-0.09892862
101	0xbde1a01e	-0.11016868
102	0xbd7ba9fd	-0.06144141
103	0x3c7789fe	0.0151085835
104	0x3df92808	0.121658385
105	0x3db8fd8f	0.090327375
106	0xba0fdfc8	-0.0005488363
107	0x3e0deaad	0.13859053
108	0x3d870ec6	0.06594615
109	0x3dfd18b1	0.12358225
110	0x3dc41c52	0.09575714
111	0xbdc55d68	-0.096369565
112	0xbdeae424	-0.114692956
113	0xbcd7e7ad	-0.026355589
114	0x3e061f93	0.13097982
115	0x3de8346e	0.11338125
116	0x3ddb0b50	0.10695517
117	0xbc44e2a5	-0.012016927
118	0xbd8ed699	-0.06974525
119	0x3e059452	0.13044861
120	0xbce66eb4	-0.02812896
121	0x3de42799	0.11140365
122	0x3cfdd40a	0.030984897
123	0xbddfc35e	-0.10925935
124	0x3d42bfbc	0.047546133
125	0x3d015431	0.03157443
126	0x3db93c4a	0.09044702
127	0x3cec2552	0.02882639
128	0xbdd0c264	-0.10193327
129	0x3dcfc346	0.10144667
130	0xbce27aa8	-0.027646378
131	0x3d85d35c	0.06534454
132	0xbd8d9254	-0.069126755
133	0xbe09fd4c	-0.13475531
134	0xbdf560ee	-0.119813785
135	0x3c950747	0.018191947
136	0xbd5332e8	-0.05156222
137	0x3ca16ce1	0.019705238
138	0xbdc30f83	-0.09524443
139	0xbd065b3b	-0.032801848
140	0x3c7a27c4	0.01526827
141	0xbc3ec9fd	-0.011644837
142	0x3c88bfb1	0.016692968
143	0xbdbccfbf	-0.09219312
144	0x3b9ceb72	0.0047888095
145	0xbc332fdc	-0.0109367035
146	0xbd4f8d63	-0.050671946
147	0x3d49bad2	0.04925043
148	0xbc762fdd	-0.01502606
149	0xbd8b78c4	-0.068101436
150	0x3dc2ce36	0.09511988
151	0x3daba3eb	0.08380874
152	0x3da0f78d	0.078597166
153	0x3d376d8d	0.04478221
154	0xbde9bf72	-0.114134684
155	0xbde899f1	-0.11357487
156	0xbd0fcb8a	-0.03510622
157	0x3d223ac5	0.03960683
158	0xbc7e5df6	-0.015525332
159	0x3dbd0432	0.09229316
160	0xbc829e05	-0.01594449
161	0x3db22336	0.08698122
162	0xbd9535ae	-0.07285629
163	0x3d9217f5	0.07133476
164	0x3c88e05c	0.016708545
165	0x3d35ef45	0.04441764
166	0xbe09c87d	-0.13455386
167	0xbc6de68b	-0.014520298
168	0xbd8070a7	-0.06271487
169	0x3ce3cf85	0.027808914
170	0xbbfd82b0	-0.0077365264
171	0xbcf2b750	-0.029628426
172	0xbccfccb5	-0.025366167
173	0xbe09d602	-0.13460544
174	0x3cde4b7f	0.027135609
175	0xbc7e14b5	-0.015507867
176	0xbe01446e	-0.1262376
177	0xbd2d1a1e	-0.042261235
178	0x3d762ea1	0.060103063
179	0x3cf7268a	0.030169744
180	0x3d6ef9c9	0.058343682
181	0x3cbbbd7c	0.022917502
182	0x3c789dd6	0.01517435
183	0xbe05b48c	-0.13057154
184	0xbdf20396	-0.1181709
185	0x3cbc1573	0.022959447
186	0xbdf79f52	-0.12090935
187	0xbdc35a85	-0.095387496
188	0xbdc368cb	-0.09541472
189	0xbd7bc2ee	-0.061465196
190	0xbdbbb69c	-0.09165689
191	0xbc640d37	-0.013919166
192	0x3d9eddd0	0.07757151
193	0x3debee6e	0.11520086
194	0x3df71faa	0.12066586
195	0xbc6914ff	-0.014226197
196	0x3b9718b9	0.0046111015
197	0x3dbd7973	0.0925168
198	0xbcb3441e	-0.021883067
199	0xbdd9e4b7	-0.10639327
200	0x3d44f7d2	0.048087902
201	0xbe0189fa	-0.1265029
202	0xbd7eb3a5	-0.06218304
203	0xbcce3ae5	-0.025174567
204	0xbe0e3767	-0.13888322
205	0x3e082c18	0.1329807
206	0x3d9c8175	0.076418795
207	0xbd845bc1	-0.06462813
208	0xbb916882	-0.004437507
209	0xbbbb344e	-0.0057130223
210	0xbdc287bf	-0.09498548
211	0xbc7df002	-0.015499117
212	0xbda5f5b3	-0.08103504
213	0x3def4904	0.116838485
214	0x3ca4c21c	0.02011209
215	0xbd8eba60	-0.06969142
216	0xbcc63a28	-0.024197653
217	0xbd2b9665	-0.041891474
218	0x3d5e5c97	0.05428752
219	0xbde1d8db	-0.1102769
220	0xb9ba7247	-0.00035561828
221	0x3dd23aed	0.102651455
222	0x3cedca55	0.029027143
223	0x3dca5404	0.09879306
224	0xbc7e38e9	-0.015516498
225	0x3e01e529	0.12685074
226	0x3cc5c5fb	0.024142256
227	0xbd02fe10	-0.031980574
228	0xbca7753c	-0.020441644
229	0xbd806dde	-0.062709555
230	0x3d95c445	0.07312826
231	0x3db4beba	0.08825441
232	0xbd3a9465	-0.045551676
233	0xbdc66a7d	-0.0968828
234	0x3dc760e1	0.09735275
235	0xbd5778b7	-0.052605357
236	0xbd803920	-0.06260896
237	0xbbd66dfa	-0.006543872
238	0x3ded277c	0.11579797
239	0xbd8e642b	-0.06952699
240	0x3dd7ecd0	0.10543215
241	0x3bec6b1c	0.007214917
242	0x3c9e8442	0.019350175
243	0x392bcf2d	0.0001638501
244	0xbd47a99b	-0.048745733
245	0xbd897550	-0.06711829
246	0xbd16173b	-0.036643248
247	0xbcf1c296	-0.029511731
248	0x3d4b80fa	0.04968355
249	0x3e06f866	0.13180694
250	0xbdc63712	-0.096784726
251	0x3dba3343	0.09091809
252	0xbe01772c	-0.12643117
253	0x3ce57fa2	0.028014962
254	0xbd817a39	-0.0632214
255	0x3d9f0b5a	0.07765837

pi.net.2.bias f4 [50]
0	0x3db4110b	0.08792313
1	0x3de47d65	0.111567296
2	0xbde33917	-0.110948734
3	0xbd4e62b4	-0.0503871
4	0x3d105a92	0.035242625
5	0xbc04bffa	-0.008102411
6	0xbd9bd97a	-0.0760984
7	0x3d556956	0.05210241
8	0xbd8e27cf	-0.06941187
9	0xbcd80736	-0.026370626
10	0x3e03b83a	0.12863246
11	0xbe0ab5f9	-0.1354598
12	0x3d80aed3	0.06283345
13	0x3d46d473	0.04854245
14	0x3da703ee	0.081550464
15	0x3ba32b34	0.0049795154
16	0xbd5fba9c	-0.054621324
17	0xbe004c3e	-0.12529084
18	0x3b188110	0.0023270287
19	0xbd339303	-0.043841373
20	0xbc04ae29	-0.008098164
21	0xbdc93d56	-0.09826152
22	0x3d4dcad1	0.05024225
23	0x3d80adfe	0.062831864
24	0xbd387e48	-0.045042306
25	0x3db570ae	0.088593826
26	0x3d0a367a	0.03374336
27	0xbd96dbd9	-0.07366151
28	0x3e0ed333	0.13947754
29	0xbe049c2d	-0.12950201
30	0xbd90e5e3	-0.070750974
31	0x3df2e632	0.118603125
32	0xbd5cd707	-0.053916004
33	0xbdc7dae4	-0.09758547
34	0xbe0b83c8	-0.1362449
35	0xbdcd3df6	-0.10021584
36	0x3e01c67d	0.12673374
37	0xbd8cfde5	-0.06884364
38	0xbdf12312	-0.11774267
39	0xbe0f70ce	-0.14007875
40	0x3d8fb42e	0.070167884
41	0x3cde0ba5	0.027105162
42	0x3d0ff652	0.03514702
43	0xbbf7389b	-0.0075445897
44	0xbd3cd1aa	-0.04609839
45	0x3d1ed926	0.038781308
46	0x3dd746f3	0.10511579
47	0xbe0ac22b	-0.13550632
48	0xbded70dd	-0.115937926
49	0x3d938a57	0.072041206

pi.net.4.weight f4 [4, 50]
0	0xbcab0363	-0.020875638
1	0x3da6a4c5	0.08136896
2	0xbd871314	-0.06595436
3	0x3d11bc09	0.035579715
4	0x3e0d70ae	0.13812515
5	0xbdf1bb02	-0.11803247
6	0x3c8a61d7	0.016892357
7	0xbd5e0e55	-0.054212887
8	0x3d3f19aa	0.046655335
9	0x3da151c9	0.078769274
10	0x3d2cea00	0.042215347
11	0xbdc9267d	-0.09821794
12	0x3d12febd	0.03588747
13	0x3e03508e	0.12823698
14	0xbde8e2a6	-0.11371355
15	0x3e01518b	0.12628762
16	0xbc718cfc	-0.014743086
17	0xbd983c46	-0.07433371
18	0xbd446feb	-0.047958296
19	0x3c3ec9b5	0.01164477
20	0x3e10867e	0.14113805
21	0x3deac99c	0.11464235
22	0xbd1488c6	-0.03626325
23	0xbdc12c76	-0.094323084
24	0x3e022282	0.12708476
25	0x3d120a0c	0.035654113
26	0x3cff2156	0.031143826
27	0xbce88a1f	-0.028386174
28	0xbd3dbd1d	-0.04632293
29	0xbcac66ac	-0.021045052
30	0xbd478379	-0.048709366
31	0x3e0cac26	0.13737544
32	0xbd602b2e	-0.05472868
33	0x3d1c50d2	0.038163014
34	0xbdd479ae	-0.10374771
35	0x3d8a80ef	0.067628734
36	0x3c69fb3b	0.014281089
37	0x3dc7a211	0.097477086
38	0x3cd6f33b	0.026239028
39	0x3dc945f0	0.09827793
40	0xbd2ae5ac	-0.04172294
41	0x3dd4ca83	0.103901885
42	0xbc8ebe4a	-0.017424721
43	0x3d8957cf	0.06706201
44	0xbd6153ef	-0.055011686
45	0xbd93edbe	-0.0722308
46	0xbdf9fc65	-0.122063436
47	0xbe0aa31e	-0.13538787
48	0x3d3d0799	0.046149824
49	0x3ce39df3	0.027785277
50	0x3e030be4	0.12797505
51	0x3c751049	0.014957496
52	0xbdd2edaa	-0.10299237
53	0xbdf32c13	-0.11873641
54	0x3e0c8e80	0.13726234
55	0xbdd60a56	-0.1045119
56	0x3dd66326	0.1046813
57	0x3d4220b9	0.047394488
58	0xbdace8a4	-0.0844281
59	0x3dbc9425	0.09207944
60	0xbe06b1d8	-0.1315378
61	0x3d8d6c47	0.06905418
62	0x3d3e446b	0.046451967
63	0xbcee3b38	-0.029080972
64	0xbd930f74	-0.07180682
65	0x3d7da853	0.061928105
66	0xbb59c1c1	-0.0033227059
67	0x3da81193	0.08206477
68	0x3d42ff0e	0.04760652
69	0xbd29061c	-0.041265592
70	0xbcc82d96	-0.0244358
71	0x3de4b190	0.1116668
72	0xbdf8727d	-0.12131212
73	0x3dcc873f	0.09986734
74	0xbe066b03	-0.13126759
75	0xbbc3cb20	-0.005975142
76	0xbde7fda3	-0.11327674
77	0x3d6decff	0.058087345
78	0xbe0decb8	-0.13859832
79	0xbd2bff54	-0.041991547
80	0x3c47e802	0.012201311
81	0x3cc6651d	0.024218136
82	0x3cba7ade	0.022763666
83	0x3caa5aa3	0.020795172
84	0xbdd85148	-0.10562378
85	0x3de597e9	0.11210615
86	0x3ddb2b58	0.107016265
87	0xbdfc9751	-0.12333549
88	0x3dca9bb3	0.098929785
89	0x3d60ba90	0.05486542
90	0xbdc39ef1	-0.095518
91	0x3dfd23e6	0.12360363
92	0x3d6f6d58	0.058453888
93	0x3ba78ab2	0.0051129693
94	0x3c4eea14	0.012629051
95	0x3d906ccb	0.070520006
96	0xbda18621	-0.07886911
97	0x3d25cb7c	0.04047726
98	0xbc04016a	-0.008056978
99	0x3da86772	0.08222856
100	0xbd87ec54	-0.06636873
101	0x3e04cb92	0.12968281
102	0x3d5c1b38	0.053736895
103	0x3defc0f8	0.11706728
104	0x3d0354ea	0.032063402
105	0x3dad677e	0.08467005
106	0xbdb537d6	-0.088485405
107	0x3e0894bb	0.13337986
108	0xbddffd67	-0.109370045
109	0x3de2ee31	0.11080588
110	0xbc97c292	-0.018525396
111	0xbdd1d809	-0.102462836
112	0xbd13003e	-0.035888903
113	0x3dee398f	0.11632072
114	0xbdd1e5da	-0.10248919
115	0xbdf188c3	-0.11793663
116	0x3dba8198	0.09106749
117	0xbd2efaef	-0.042719778
118	0x3de128d4	0.109941155
119	0x3afbce1f	0.0019211209
120	0x3bb7c4f3	0.005608195
121	0xbbc8bd45	-0.0061260783
122	0x3d44f605	0.048086185
123	0xbd5182f9	-0.051150296
124	0xbd84f6a3	-0.06492355
125	0xbd5c41eb	-0.0537738
126	0xbdc2950d	-0.095010854
127	0x3db0892b	0.08619913
128	0x3e022394	0.12708884
129	0x3d98bc0c	0.07457742
130	0xbde226c7	-0.110425524
131	0xbde2b263	-0.11069181
132	0xbe08a7ee	-0.1334531
133	0xbd400b16	-0.046885572
134	0x3dc963f6	0.09833519
135	0x3d339561	0.04384363
136	0xbc070a62	-0.008242222
137	0xbda177b9	-0.078841634
138	0x3dcc04c8	0.099618495
139	0x3e0e4cbb	0.13896458
140	0xbd046424	-0.032322064
141	0xbe0d2be9	-0.13786282
142	0x3dfd6e4a	0.123745516
143	0xbdde0f08	-0.10842711
144	0xbe0d3f26	-0.1379362
145	0xbdfca180	-0.12335491
146	0x3d393e47	0.045225408
147	0x3d292e78	0.04130408
148	0xbe0e2418	-0.13880956
149	0xbd2145cf	-0.039373215
150	0xbdfb973d	-0.12284706
151	0x3ca497af	0.02009186
152	0x3da0f4cd	0.07859192
153	0xbcff5d4c	-0.031172417
154	0xbd37255b	-0.04471336
155	0x3e06a243	0.13147835
156	0xbd594b79	-0.053050492
157	0x3daf94b4	0.08573285
158	0x3ced0e86	0.02893759
159	0xbdc8aa91	-0.09798158
160	0xbd876891	-0.06611741
161	0x3e08e881	0.13369943
162	0x3d4493cd	0.047992516
163	0xbd98f4ec	-0.0746859
164	0xbe02cac3	-0.1277266
165	0xbdbc0795	-0.09181134
166	0x3dbbe625	0.09174756
167	0xba3b6d71	-0.0007149792
168	0xbd84c99d	-0.06483767
169	0xbd7bce94	-0.061476305
170	0x3e08d992	0.13364246
171	0x3dcb2e88	0.099209845
172	0x3d62d4c3	0.055378687
173	0xbdbb852c	-0.0915626
174	0x3ded1729	0.11576683
175	0xbd2962eb	-0.0413541
176	0xbd7c9b96	-0.061671816
177	0x3cc9a0da	0.024612833
178	0xbce98878	-0.028507456
179	0x3dae6004	0.08514407
180	0xbdf87fd2	-0.12133755
181	0xbdf9f594	-0.122050434
182	0xbdae2969	-0.08503992
183	0xbda63e15	-0.0811731
184	0x3da74301	0.08167077
185	0x3a3cb7cd	0.00071990193
186	0x3dac61a0	0.08417058
187	0xbc6fbc59	-0.014632308
188	0x3d842f76	0.06454365
189	0xbc24c456	-0.010056576
190	0xbcb2b974	-0.021816947
191	0x3d47c338	0.04877016
192	0x3df0651d	0.11738036
193	0x3dc7aa6d	0.09749303
194	0xbd84a93a	-0.0647759
195	0x3ddfadc4	0.10921815
196	0xbd78c362	-0.060733207
197	0xbdcb05ed	-0.0991324
198	0x3dad89e1	0.08473564
199	0x3da603de	0.08106206

pi.net.4.bias f4 [4]
0	0xbdf29e56	-0.118466064
1	0xbcdef080	-0.027214289
2	0xbe0fabc0	-0.14030361
3	0xbd682db8	-0.056684226

v.net.0.weight f4 [64, 34]
0	0xbe2383ff	-0.15968321
1	0x3dc451c7	0.0958591
2	0x3d427dfc	0.04748343
3	0x3cbd0357	0.023072882
4	0xbd63dec0	-0.055632353
5	0x3dfa995d	0.12236283
6	0xbae0edae	-0.0017160678
7	0xbd1ae64a	-0.037817277
8	0xbd8112d0	-0.06302416
9	0x3d1afa19	0.037836168
10	0xbe0b3189	-0.13593115
11	0x3dc826e3	0.09773042
12	0xbd7f67d0	-0.062354863
13	0x3c388df9	0.011264318
14	0xbe2e41e8	-0.17017329
15	0xbd374bb5	-0.044749934
16	0x3c26237a	0.010140294
17	0xbba2680f	-0.0049562524
18	0xbdb7b478	-0.089699686
19	0xbd92f28f	-0.07175171
20	0xbcec911f	-0.028877793
21	0x3d5cf9bb	0.0539491
22	0x3e0275cb	0.12740247
23	0x3d9576c0	0.072980404
24	0x3e226aff	0.15861128
25	0x3e03347c	0.1281299
26	0x3d9662ef	0.07343089
27	0x3dd0a894	0.10188404
28	0x3e20a937	0.1568955
29	0xbd3447a4	-0.044013634
30	0xbd82ae38	-0.06380886
31	0xbd2bcda0	-0.041944146
32	0x3ad5b14e	0.0016303451
33	0x3d9600a8	0.07324344
34	0xbc5291c7	-0.012852139
35	0xbbb46a48	-0.005505834
36	0xbc2d7679	-0.010587328
37	0xbd0d6580	-0.034520626
38	0xbd001458	-0.0312694
39	0x3e06110d	0.13092442
40	0x3e0c13c6	0.13679418
41	0x3d1ebf87	0.038756873
42	0x3c32e62f	0.010919138
43	0x3d117ebf	0.035521265
44	0x3e02ebc5	0.12785251
45	0x3d41c5ec	0.047307894
46	0x3beaac4c	0.0071616527
47	0x3b1d2f0e	0.0023984346
48	0xbddb1b1f	-0.10698532
49	0xbd2eb784	-0.042655483
50	0x3e140304	0.14454275
51	0x3d7bc645	0.06146838
52	0x3d3ee55b	0.04660545
53	0xbd495a26	-0.049158238
54	0xbd316063	-0.043304812
55	0x3d896d61	0.067103155
56	0x3c0a67dd	0.0084476145
57	0xbddbfe27	-0.10741835
58	0xbe26eccb	-0.16301267
59	0x3e1651b8	0.1467961
60	0x3d56ee41	0.05247331
61	0xbe0ad4a9	-0.13557686
62	0xbe0f9d9d	-0.14024968
63	0xbcaa7f55	-0.02081267
64	0xbc0ce478	-0.008599393
65	0xbdd18acb	-0.10231551
66	0x3dc9a43d	0.09845779
67	0x3e0c3da3	0.13695388
68	0xbd8e1f49	-0.06939561
69	0x3ce186c8	0.027530089
70	0xbe1255c6	-0.14290532
71	0x3cf11f45	0.029433856
72	0x3d8e3c00	0.06945038
73	0xbdf40dee	-0.119167194
74	0xbdb7e133	-0.089785
75	0xbe15780a	-0.14596573
76	0xbd804c95	-0.06264607
77	0xbd9aea8b	-0.07564267
78	0xbd9aa440	-0.075508595
79	0x3e017853	0.12643556
80	0x3dacd3ce	0.08438836
81	0xbdfd2366	-0.12360267
82	0x3de42bb0	0.11141145
83	0xbe16e556	-0.14735922
84	0xbcef1cf2	-0.029188607
85	0x3d7c58f1	0.06160826
86	0xbda7e646	-0.08198218
87	0x3c05038f	0.008118524
88	0xbd5b6a4a	-0.053568162
89	0x3d343c79	0.044002984
90	0x3e1b3487	0.15156756
91	0xbe25afa5	-0.16180284
92	0xbe28117f	-0.16412924
93	0xbd90819b	-0.0705597
94	0xbd6f8f04	-0.058486
95	0xbc391f51	-0.01129897
96	0xbe167827	-0.14694272
97	0xbd838090	-0.06421006
98	0x3d89f114	0.06735435
99	0x3d927b3d	0.07152412
100	0xbd99c64a	-0.07508524
101	0xbe03c3b7	-0.12867628
102	0xbceae852	-0.028675232
103	0xbd817b0b	-0.06322297
104	0xbd0e34b6	-0.034718238
105	0x3c86113d	0.016365642
106	0xbcd9c3cd	-0.026582623
107	0x3e20e4f0	0.15712333
108	0xbdca9466	-0.09891586
109	0xbdc4dc43	-0.09612324
110	0xbdd9f0c7	-0.10641628
111	0xbd843b6e	-0.06456648
112	0x3e0d6d7f	0.138113
113	0x3d6ce7aa	0.05783812
114	0xbd8cb862	-0.06871106
115	0x3da91f55	0.08257929
116	0xbe234fe6	-0.15948448
117	0x3cc1fcee	0.023680177
118	0xbc2443f7	-0.01002597
119	0xbe03d8dc	-0.12875694
120	0x3dcbffaa	0.099608734
121	0xbd3092d3	-0.043108772
122	0xbdef5a7e	-0.11687182
123	0x3e2c5143	0.16827874
124	0xbdbceab0	-0.092244506
125	0x3ddca1c8	0.10773045
126	0x3e234c5f	0.15947102
127	0x3d614422	0.054996617
128	0x3db06a70	0.08614051
129	0x3de449d1	0.11146892
130	0x3db9fe18	0.09081668
131	0x3df44d47	0.11928802
132	0xbd752b2a	-0.059855618
133	0x3e06f5b8	0.13179672
134	0x3d376166	0.04477062
135	0xbd64b841	-0.05583978
136	0x3e19ab13	0.15006666
137	0x3e04beaa	0.12963358
138	0x3d48652f	0.04892462
139	0x3d191eca	0.03738288
140	0xbdb01534	-0.08597794
141	0xbde1e4c4	-0.11029962
142	0xbe2af6ae	-0.16695663
143	0x3de3c739	0.11121983
144	0x3cc935c5	0.024561772
145	0xbd74dbb8	-0.059779853
146	0xbd454a34	-0.04816647
147	0x3d711028	0.0588533
148	0x3d844707	0.0645886
149	0xbdba2efb	-0.09090992
150	0xbd39c88b	-0.04535727
151	0x3dc7c818	0.09754962
152	0xbd0e68d3	-0.034767937
153	0xbe1a733c	-0.15083021
154	0x3e0ee27e	0.13953587
155	0x3dbac0b7	0.09118789
156	0xbe2a1321	-0.1660886
157	0xbe22ac23	-0.15885977
158	0x3d2c74d1	0.042103592
159	0x3c920b81	0.017827751
160	0x3d94fe6c	0.072750896
161	0xbd89fff0	-0.06738269
162	0x3d08bdbc	0.03338407
163	0xbcd4c62e	-0.025973406
164	0xbdb9c891	-0.09071458
165	0x3da73844	0.08165029
166	0x3e22acdb	0.15886252
167	0x3c38a928	0.011270799
168	0xbe136675	-0.14394553
169	0x3d83e073	0.06439295
170	0xbe1efb09	-0.1552545
171	0xbdf62ddf	-0.12020468
172	0xbdb7006b	-0.089356266
173	0x3e093346	0.13398466
174	0xbe2aed4a	-0.16692081
175	0x3cb0b7bd	0.021571988
176	0xbe13deea	-0.14440504
177	0xbd97cc17	-0.07411974
178	0xbe26df16	-0.16296038
179	0xbd59c613	-0.053167414
180	0xbe2d7fee	-0.16943333
181	0xbe0c7508	-0.13716519
182	0x3c9a078e	0.01880243
183	0x3cb16db3	0.021658754
184	0x3d8b7b42	0.06810619
185	0xbe2f6a74	-0.17130452
186	0x3df2f6df	0.11863493
187	0x3e1389b1	0.14407994
188	0x3e0d9e23	0.13829856
189	0x3d6be02e	0.05758684
190	0x3de52baf	0.111899726
191	0x3e244b3d	0.16044326
192	0x3d10a5b2	0.03531427
193	0x3d8b8c69	0.068138905
194	0x3e1446b1	0.14480092
195	0xbd541654	-0.051779106
196	0x3b861937	0.0040923613
197	0xbe0a28ba	-0.13492098
198	0x3e091e4e	0.13390467
199	0x3db3a4db	0.08771678
200	0xbe1f7eb7	-0.15575682
201	0x3ce2c6cd	0.027682686
202	0x3c06b623	0.008222136
203	0x3e1affe4	0.15136677
204	0xbd55ecfc	-0.05222796
205	0xbd9b1531	-0.07572401
206	0xbe237333	-0.15961914
207	0x3d9281f0	0.0715369
208	0x3dde42e3	0.108526014
209	0xbcd3c13e	-0.025848981
210	0xbe2a2d87	-0.1661893
211	0xbe2b2890	-0.16714692
212	0x3dd37430	0.103248954
213	0x3d0f928c	0.035051867
214	0x3dc87e99	0.097897716
215	0x3dd44c70	0.10366142
216	0xbe1cef87	-0.15325747
217	0xbe1ace0e	-0.15117666
218	0x3e1987a3	0.14993148
219	0xbe176399	-0.14784087
220	0x3da4e5a6	0.080516145
221	0xbe22a530	-0.15883327
222	0xbd07f118	-0.03318891
223	0xbde8c945	-0.11366514
224	0xbda125ac	-0.078685135
225	0xbd53262b	-0.05155007
226	0x3c9ff358	0.019525215
227	0x3b1949f6	0.0023390031
228	0xbcf1dfb1	-0.02952561
229	0xbd7a0b4f	-0.06104594
230	0x3e132fba	0.14373675
231	0xbd94c279	-0.07263655
232	0xbd6ffa70	-0.058588445
233	0x3dfe11f9	0.12405772
234	0x3d3c98ab	0.046044033
235	0x3cdabb5c	0.026700668
236	0xbe237fdd	-0.15966745
237	0x3e088957	0.13333641
238	0x3de70278	0.11279768
239	0xbdd839ce	-0.105579
240	0x3daf33a9	0.08554775
241	0x3e13311f	0.14374207
242	0xbd402a11	-0.046915118
243	0x3c2396c1	0.009984673
244	0xbe069c11	-0.13145472
245	0x3e18431a	0.14869347
246	0xbdbc57e2	-0.0919645
247	0xbd4e1e15	-0.050321657
248	0xbdc4a5cd	-0.096019365
249	0x3e1d69ed	0.15372439
250	0xbe2a815c	-0.16650909
251	0xbdf93fe1	-0.12170387
252	0x3dd0c50c	0.10193834
253	0x3dbfd653	0.09367051
254	0x3c365157	0.011127791
255	0x3e2db041	0.16961767

v.net.0.bias f4 [64]
0	0x3d18669f	0.037207242
1	0xbbcfbde2	-0.0063397745
2	0xbc6f6dc4	-0.0146135725
3	0x3d694431	0.056949798
4	0x3c9015a8	0.017588452
5	0xbcf840a8	-0.030304268
6	0x3ce64bae	0.028112259
7	0xbd0af8de	-0.033928744
8	0x3e2f788c	0.17135829
9	0xbd4bcd4c	-0.049756333
10	0x3da6d2e9	0.08145697
11	0xbe2ce7ec	-0.16885346
12	0x3db4c293	0.088261746
13	0xbe1666fb	-0.14687721
14	0x3dfa3f12	0.12219061
15	0xbe277960	-0.16354895
16	0xbd2df637	-0.042471137
17	0x3e2553fb	0.16145317
18	0x3d61555f	0.055013057
19	0x3d53c165	0.051698107
20	0x3d97ea09	0.074176855
21	0xbe2a9960	-0.1666007
22	0xbe1ac311	-0.15113474
23	0x3d8932f7	0.06699174
24	0xbcc57c53	-0.024107134
25	0xbe1e3643	-0.15450387
26	0x3e24c011	0.16088893
27	0x3e0bfe12	0.13671139
28	0x3d45f06e	0.048324995
29	0xbe15c35b	-0.14625303
30	0xbd3cb097	-0.046066847
31	0x3cb80c7e	0.022466894
32	0x3e0cefa7	0.13763295
33	0xbcdfa6cd	-0.027301216
34	0xbcc56cb8	-0.024099693
35	0xbd26b5e5	-0.040700812
36	0x3c89dd35	0.016829113
37	0xbcea5bc7	-0.028608216
38	0x3c3fbab9	0.011702233
39	0xbc842a19	-0.016133355
40	0xbdb999f0	-0.090625644
41	0xbda4d542	-0.08048488
42	0xbdda4339	-0.10657353
43	0xbcec24dd	-0.028826172
44	0x3de72a49	0.11287362
45	0x3e117d42	0.14207938
46	0x3e20fe99	0.15722121
47	0xbd6d2038	-0.057892054
48	0x3e139f61	0.14416267
49	0xbdc9469c	-0.09827921
50	0x3dd5e4ef	0.10444056
51	0xbd181518	-0.03712949
52	0x3e259881	0.16171457
53	0xbe17bf12	-0.14818981
54	0x3dbd8a39	0.092548795
55	0x3c80d756	0.01572768
56	0xbe1cfb07	-0.15330134
57	0xbb969ac5	-0.0045960867
58	0xbcd469c9	-0.025929349
59	0x3db3b4d1	0.08774722
60	0x3dd82440	0.10553789
61	0x3bc86592	0.0061156237
62	0x3e2ccfe6	0.16876182
63	0x3d345c43	0.0440333

v.net.2.weight f4 [64, 64]
0	0xbbf62c00	-0.0075125694
1	0x3c8bfb88	0.017087713
2	0x3dac96c6	0.08427195
3	0x3d857246	0.065159366
4	0x3ca90a40	0.02063477
5	0xbd8baf18	-0.06820506
6	0xbda1281c	-0.078689784
7	0x3d6df37c	0.058093533
8	0xbd685e20	-0.05673039
9	0xbd071208	-0.03297618
10	0x3df275d8	0.11838883
11	0x3dbb907a	0.09158416
12	0xbcbe25a8	-0.023211315
13	0xbcd93808	-0.026515976
14	0x3d267628	0.040640026
15	0x3d11c3ec	0.035587236
16	0xbdffc202	-0.12488176
17	0xbd724dac	-0.059156105
18	0x3d47f70c	0.048819587
19	0xbdeae406	-0.11469273
20	0xbd281c0c	-0.041042373
21	0xbd3ae5a0	-0.045629144
22	0x3dce5650	0.100750566
23	0xbdaa6850	-0.08320677
24	0x3ceffc18	0.029295012
25	0xbd11b848	-0.035576135
26	0x3d97a45a	0.074043944
27	0x3ddfea34	0.109333426
28	0xbdff7294	-0.12473026
29	0x3d2956ac	0.041342422
30	0xbce374d0	-0.027765661
31	0xbd9bd0be	-0.07608174
32	0x3d6f6d20	0.05845368
33	0xbd43f5c4	-0.047841802
34	0x3dbc3f3c	0.091917485
35	0x3d74dc44	0.059780374
36	0x3d8c59f0	0.06853092
37	0x3d94eb54	0.07271448
38	0xbdb45746	-0.088057086
39	0x3df945b0	0.12171495
40	0x3d8cf6b6	0.06882994
41	0x3da42ec2	0.08016731
42	0xbd7e3088	-0.062058
43	0xbda182a8	-0.07886249
44	0x3d74a768	0.059729964
45	0xbdada1da	-0.08478136
46	0xbde8ec2a	-0.1137317
47	0xbc5fdf50	-0.013664082
48	0x3dde5654	0.108563095
49	0x3d1a1818	0.037620634
50	0xbd3da258	-0.0462974
51	0x3d9b7c22	0.07592036
52	0x3d896c5e	0.067101225
53	0x3cd0b818	0.025478408
54	0x3db8f26c	0.09030613
55	0xbd846aa4	-0.064656526
56	0xbd8c1930	-0.06840742
57	0x3d8c6184	0.06854537
58	0x3d746ef0	0.05967611
59	0xbd127c0c	-0.03576283
60	0xbd31b108	-0.04338172
61	0xbc63aa40	-0.013895571
62	0xbddaab5c	-0.106772155
63	0x3c920560	0.017824829
64	0x3d4ccb5c	0.049998626
65	0x3c923d18	0.017851397
66	0x3d181890	0.0371328
67	0x3d9a13c6	0.07523303
68	0x3cb88938	0.022526368
69	0xbd76e79c	-0.060279474
70	0x3c4e7b40	0.012602627
71	0x3b899180	0.004198253
72	0x3cb1db70	0.021711081
73	0xbdcba7f0	-0.09944141
74	0x3d072270	0.032991827
75	0xbd069494	-0.03285654
76	0x3d140da8	0.036145836
77	0x3d8413ba	0.06449075
78	0xbda5a028	-0.08087188
79	0xbbdc4400	-0.0067219734
80	0xbdb6a3b0	-0.0891794
81	0x3d9f1156	0.077669784
82	0x3d3e4bd8	0.04645905
83	0xbcfa5d28	-0.030561998
84	0x3d32fcd8	0.04369816
85	0x3d7c8904	0.061654106
86	0x3dc01812	0.09379591
87	0xbd0515f0	-0.032491624
88	0xbdab8556	-0.08375041
89	0xbd642b4c	-0.055705354
90	0x3dafe4f6	0.08588593
91	0x3dc9394a	0.0982538
92	0x3d1af7f4	0.037834123
93	0x3d343164	0.043992415
94	0xbcd2f970	-0.025753707
95	0xbc7dd820	-0.015493423
96	0xbcacb940	-0.021084428
97	0x3d091efc	0.033476815
98	0x3d811f46	0.06304793
99	0xbbdb0440	-0.0066838562
100	0xbdf2dc1c	-0.11858389
101	0xbdac1636	-0.08402674
102	0xbdbd492a	-0.092424706
103	0x3dc8426c	0.09778294
104	0x3de24aa8	0.11049396
105	0x3cb9fbb8	0.022703037
106	0xbca3cc48	-0.01999487
107	0x3dd5e488	0.104439795
108	0x3c816598	0.015795514
109	0xbcab18a0	-0.020885766
110	0xbdbb7844	-0.09153798
111	0xbc024ec0	-0.007953346
112	0x3cd87958	0.026425049
113	0x3d650804	0.055915847
114	0xbd5520b4	-0.05203314
115	0x3c1aaf80	0.0094412565
116	0xbd636ce0	-0.055523753
117	0x3d7821a0	0.060578942
118	0x3c9c1178	0.019051298
119	0xbbf5a5c0	-0.0074965656
120	0x3d15dc34	0.036586955
121	0xbd3619f4	-0.044458345
122	0xbdb0be94	-0.086301
123	0x3db7a00e	0.08966075
124	0xbd5711c0	-0.052507162
125	0x3d811328	0.06302482
126	0x3dbb3d7a	0.09142585
127	0xbc7ce4b0	-0.015435383
128	0x3d3a4330	0.04547423
129	0x3dd28342	0.10278942
130	0xba82c900	-0.0009978116
131	0xbdf9d72a	-0.121992424
132	0xbda2254e	-0.079172716
133	0x3dda6828	0.106643975
134	0x3dc7f476	0.09763424
135	0x3de04da8	0.10952312
136	0x3df42d56	0.1192271
137	0x3db23c26	0.08702879
138	0xbcf6d318	-0.030129954
139	0xbbbefda0	-0.0058285743
140	0xbd9f0650	-0.07764876
141	0x3d265614	0.040609434
142	0xbd39e988	-0.04538873
143	0x3de1f6ea	0.11033423
144	0xbd7f48c8	-0.06232527
145	0x3de66896	0.11250417
146	0xbdbbe226	-0.09173994
147	0x3d820baa	0.06349881
148	0x3dedc2dc	0.11609432
149	0x3db8a1f8	0.09015268
150	0xbcea0738	-0.028567895
151	0xbd85579e	-0.06510852
152	0xbd868c14	-0.065696865
153	0xbdfec2aa	-0.12439473
154	0x3dad1c08	0.08452612
155	0xbbd70340	-0.0065616667
156	0x3d8c2f66	0.06844978
157	0x3cf676e8	0.030085996
158	0x3df9100c	0.12161264
159	0xbd94beba	-0.07262941
160	0x3dba40ac	0.090943664
161	0xbcf2b530	-0.029627413
162	0xbcff6918	-0.031178042
163	0xbb738480	-0.0037157834
164	0x3cd1f448	0.025629178
165	0xbce9fd38	-0.028563127
166	0xbdf680e0	-0.120363
167	0x3dea1a72	0.11430825
168	0x3cdf7ce8	0.02728124
169	0x3d8eefb4	0.069793135
170	0x3d0cf148	0.03440979
171	0xbdcfb116	-0.10141198
172	0x3d906fc6	0.07052569
173	0x3deeed92	0.11666407
174	0x3c793de0	0.015212506
175	0x3d965158	0.07339734
176	0x3dbf9fcc	0.09356651
177	0x3dfb081e	0.122574076
178	0x3dbe93d8	0.09305543
179	0xbdea92e6	-0.114538
180	0xbca0bae8	-0.019620374
181	0xbda061fc	-0.07831189
182	0xbc4de960	-0.012567848
183	0x3d8bebd8	0.06832093
184	0xbcde0420	-0.027101576
185	0xbcbee5b8	-0.023302898
186	0xbdbbdbbe	-0.09172772
187	0xbdfa1c30	-0.122124076
188	0xbd3480a8	-0.04406801
189	0x3dfa3680	0.12217426
190	0xbc87f518	-0.016596362
191	0x3d10c104	0.035340324
192	0xbdc9230e	-0.09821139
193	0x3d0536c8	0.032522947
194	0xbd4f9ab0	-0.05068463
195	0xbcd9dea8	-0.026595429
196	0xbde071a4	-0.10959175
197	0xbdfe6d24	-0.12423161
198	0x3de4aaf6	0.11165421
199	0x3de5be82	0.11217977
200	0xbdfcd7e2	-0.12345864
201	0x3ddfb700	0.10923576
202	0x3dbcf9ae	0.0922731
203	0x3d8b3c3a	0.06798597
204	0x3a9d3280	0.00119932
205	0xbcb2f1a0	-0.021843731
206	0x3deb6f60	0.114958525
207	0xbdfaf544	-0.12253812
208	0x3cc84dc8	0.024451151
209	0x3da27cca	0.07933958
210	0xbcae69b0	-0.02129063
211	0xbb3c5500	-0.0028737187
212	0x3b329ac0	0.0027252883
213	0x3a1c9600	0.00059732795
214	0xbdee9c4c	-0.11650905
215	0x3d6d17c4	0.057883993
216	0x3da535e2	0.08066918
217	0x3d88de48	0.06683022
218	0xbd7a25fc	-0.06107138
219	0xbdfd5bf6	-0.12371056
220	0xbca38990	-0.019963056
221	0x3dfac87e	0.12245272
222	0x3c0dea10	0.008661762
223	0x3df22e6e	0.11825262
224	0x3cab3a70	0.020901889
225	0x3dccd8e2	0.100023046
226	0x3ddef726	0.108869836
227	0xbde2e68a	-0.11079128
228	0x3dc5b5fa	0.0965385
229	0xbd5fb888	-0.054619342
230	0xbdd4c314	-0.10388771
231	0xbddc3562	-0.107523695
232	0xbd8b084e	-0.06788693
233	0x3dc87992	0.09788813
234	0x3d94aabe	0.07259129
235	0xbda3200a	-0.07965095
236	0x3dce823c	0.10083434
237	0x3dd335f0	0.10313022
238	0xbda3af08	-0.07992369
239	0xbdcbcbd8	-0.099509895
240	0x3cf26890	0.029590875
241	0xbdb47864	-0.08812025
242	0x3bd786c0	0.0065773427
243	0x3d875d30	0.06609571
244	0x3c868538	0.016420946
245	0xbda0a476	-0.078438684
246	0xbc3bb630	-0.011457011
247	0x3b7b5640	0.003835097
248	0xbc84b638	-0.01620017
249	0x3cd02698	0.025409028
250	0xbd93ee52	-0.0722319
251	0xbd8d208e	-0.06890975
252	0xbd179c4c	-0.03701429
253	0x3ce26298	0.027634904
254	0x3d9a642e	0.07538639
255	0xbd95d898	-0.073167026

v.net.2.bias f4 [64]
0	0xbd4e58b4	-0.050377563
1	0x3d060f18	0.03272924
2	0x3d5cd6a4	0.053915635
3	0xbc99d890	-0.018780023
4	0x3d77d98c	0.060510203
5	0x3dfc79a8	0.123278916
6	0xbdfbc998	-0.1229431
7	0xbd4118b4	-0.0471427
8	0xbde2e864	-0.11079481
9	0xbdb421ce	-0.0879551
10	0xbdcc0560	-0.09961963
11	0xbda2fcd2	-0.07958378
12	0x3db95908	0.090501845
13	0xbd185420	-0.037189603
14	0x3ddc837e	0.10767268
15	0x3d232204	0.03982736
16	0xbda16f70	-0.07882583
17	0x3ce42e78	0.02785419
18	0x3dc18568	0.09449273
19	0xbb9556c0	-0.0045574605
20	0x3d8edc5a	0.069756225
21	0xbdb1a4c2	-0.08674003
22	0xbd1aa77c	-0.03775738
23	0x3bef6ae0	0.0073064417
24	0xbdc6e5ec	-0.09711823
25	0xbdb2a91a	-0.0872366
26	0xbdb39354	-0.08768335
27	0xbdca2770	-0.09870803
28	0xbdf46764	-0.11933783
29	0xbd3dfe60	-0.04638517
30	0x3d6db940	0.058037996
31	0xbd2cc3bc	-0.042178854
32	0x3d821896	0.06352346
33	0xbd804894	-0.06263843
34	0xbd095884	-0.03353168
35	0xbde9042e	-0.1137775
36	0xbd1dc104	-0.038514152
37	0xbdaa65d8	-0.083202064
38	0x3d2892a4	0.041155472
39	0x3d9e5f3a	0.07733007
40	0xbc26dfb0	-0.010185167
41	0x3c7037c0	0.014661729
42	0x3d89f8d2	0.06736912
43	0x3d987210	0.07443631
44	0x3cdd6d70	0.027029723
45	0x399fa400	0.00030449033
46	0x3d4db594	0.050221995
47	0x3d752690	0.05985123
48	0x3dfa11e4	0.122104436
49	0x3c6144c0	0.013749301
50	0x3c0c10e0	0.008548945
51	0x3d606d68	0.054791838
52	0xbddcf344	-0.10788587
53	0xbceb01a0	-0.028687298
54	0x3da544ae	0.0806974
55	0xbd9e4c0a	-0.07729347
56	0xbd91b664	-0.071148664
57	0xbd70b150	-0.05876285
58	0xbccae6a0	-0.024768174
59	0xbdfb9d7c	-0.12285897
60	0x3d825244	0.06363347
61	0xbda3db6a	-0.08000834
62	0x3a1b3600	0.00059208274
63	0xbdf260da	-0.11834879

v.net.4.weight f4 [1, 64]
0	0xbd6306f8	-0.055426568
1	0x3ca99260	0.02069968
2	0x3da387bc	0.07984874
3	0xbcbad668	-0.022807315
4	0x3d1e4514	0.038640097
5	0xbdc25b0e	-0.094900236
6	0x3db25a4a	0.087086275
7	0x3d89de56	0.0673186
8	0x3dac06fe	0.08399771
9	0x3cbe7898	0.023250863
10	0x3d82575e	0.0636432
11	0xbdc0f550	-0.0942179
12	0x3dd053c0	0.10172224
13	0x3d3cb164	0.04606761
14	0x3d042a44	0.03226687
15	0x3d27526c	0.040850088
16	0xb99e0c00	-0.0003014505
17	0xbd614e28	-0.055006176
18	0xbdab8c1c	-0.08376333
19	0xbd124488	-0.035709888
20	0x3cb60088	0.02221705
21	0x3df56640	0.11982393
22	0xbbfca520	-0.007710114
23	0x3d5cd95c	0.053918228
24	0x3de8967e	0.11356829
25	0xbde834f2	-0.113382235
26	0xbdefd5f8	-0.11710733
27	0xbd9dc688	-0.077038825
28	0xbd4f98f4	-0.050682977
29	0x3d1e1bc0	0.038600683
30	0xbdb48ff2	-0.08816518
31	0xbcadb440	-0.021204114
32	0x3db1c754	0.08680597
33	0x3d390850	0.045173943
34	0xbb693d00	-0.0035589337
35	0x3d5583b8	0.05212757
36	0xbdef953e	-0.116983876
37	0x3d973294	0.07382694
38	0x3dfcca40	0.123432636
39	0x3cf14278	0.02945064
40	0xbcd3d300	-0.025857449
41	0x3d80f908	0.06297499
42	0xbd759288	-0.059954196
43	0x3dffc9e6	0.12489681
44	0x3deca9ac	0.115558
45	0xbd823772	-0.063582316
46	0x3bff9a60	0.0078003854
47	0xbd9cdade	-0.07658933
48	0x3dd8b398	0.1058113
49	0xbdf7db8e	-0.121024236
50	0xbdcf8bc4	-0.1013408
51	0x3ce6b420	0.028162062
52	0x3c77c8c0	0.015123546
53	0xbdbf61f8	-0.09344858
54	0xbda856c2	-0.08219673
55	0x3d7292ac	0.05922191
56	0x3d99e6c4	0.07514718
57	0xbda623fa	-0.08112331
58	0x3dcbef0a	0.099577025
59	0x3c95ca38	0.018284902
60	0xbcb1c960	-0.021702468
61	0xbd3cb9cc	-0.046075627
62	0xbc0278d0	-0.007963374
63	0x3d80f856	0.06297366
