runs/phoenix/DroneHoverBulletEnvWithAdversary-v0/ppo/2023-08-16__13-52-57/seed_14121/torch_save/model.pt (torch, 49538 bytes, 14 tensors)

obs_oms.mean f4 [34]
0.0 0.0 0.0 0.0 0.0 0.0 0.0 0.0
0.0 0.0 0.0 0.0 0.0 0.0 0.0 0.0
0.0 0.0 0.0 0.0 0.0 0.0 0.0 0.0
0.0 0.0 0.0 0.0 0.0 0.0 0.0 0.0
0.0 0.0
00000000: 0000 0000 0000 0000 0000 0000 0000 0000
00000010: 0000 0000 0000 0000 0000 0000 0000 0000
00000020: 0000 0000 0000 0000 0000 0000 0000 0000
00000030: 0000 0000 0000 0000 0000 0000 0000 0000
00000040: 0000 0000 0000 0000 0000 0000 0000 0000
00000050: 0000 0000 0000 0000 0000 0000 0000 0000
00000060: 0000 0000 0000 0000 0000 0000 0000 0000
00000070: 0000 0000 0000 0000 0000 0000 0000 0000
00000080: 0000 0000 0000 0000

obs_oms.std f4 [34]
1.0 1.0 1.0 1.0 1.0 1.0 1.0 1.0
1.0 1.0 1.0 1.0 1.0 1.0 1.0 1.0
1.0 1.0 1.0 1.0 1.0 1.0 1.0 1.0
1.0 1.0 1.0 1.0 1.0 1.0 1.0 1.0
1.0 1.0
00000000: 0000 803f 0000 803f 0000 803f 0000 803f
00000010: 0000 803f 0000 803f 0000 803f 0000 803f
00000020: 0000 803f 0000 803f 0000 803f 0000 803f
00000030: 0000 803f 0000 803f 0000 803f 0000 803f
00000040: 0000 803f 0000 803f 0000 803f 0000 803f
00000050: 0000 803f 0000 803f 0000 803f 0000 803f
00000060: 0000 803f 0000 803f 0000 803f 0000 803f
00000070: 0000 803f 0000 803f 0000 803f 0000 803f
00000080: 0000 803f 0000 803f

pi.log_std f4 [4]
-0.6931472 -0.6931472 -0.6931472 -0.6931472
00000000: 1872 31bf 1872 31bf 1872 31bf 1872 31bf

pi.net.0.weight f4 [50, 34]
0.038461003 -0.061891127 -0.15765859 -0.14015035 -0.16018726 0.06223005 0.14214881 0.09276166
-0.03082067 0.006671584 -0.0323942 0.05266426 -0.031402778 0.015981618 -0.0545806 -0.13334145
-0.09652783 -0.10834834 0.024679858 0.1374765 -0.15342294 -0.08111696 0.0010887776 -0.14651427
0.038008206 0.0046848143 0.09842389 -0.100277 0.11077494 0.11400748 -0.055203658 0.07352469
-0.037517298 -0.14561069 -0.11665519 0.09836522 -0.14309287 0.054222334 -0.11783053 -0.029483985
0.033824008 -0.051985186 -0.03724085 0.14364235 0.10162754 -0.10062709 0.16141514 -0.039433066
0.0637087 0.16355242 -0.027341165 0.08095943 0.046305533 -0.0945438 -0.0014048249 0.10718175
0.13075487 0.101808414 0.028125834 0.104230314 -0.0730393 0.019441148 0.027757246 0.15325803
0.15130918 -0.07029313 0.0190072 0.019028563 -0.0067306473 0.10918876 0.11704709 0.054092187
-0.054921996 0.04832853 -0.15604861 0.119719416 -0.08003967 0.054862402 0.027668376 0.079736054
0.02544801 0.14497621 0.1517513 -0.16660845 0.03993591 0.16117476 0.008818984 -0.048799668
-0.051979765 0.11436601 0.13958594 0.113300376 0.12877 -0.12030579 0.0445533 0.042418823
-0.009242159 0.09357755 0.075160265 -0.033955403 0.096416965 0.023029907 0.04800457 -0.16141735
-0.055072386 -0.147143 -0.0368215 0.13032421 -0.1250011 0.13561185 -0.09108176 0.047432624
0.053102013 -0.032482866 0.15802993 0.0044537536 -0.009672469 -0.12438636 -0.082412586 0.009309543
0.019566594 -0.017895259 0.093449324 0.15794706 -0.0271136 0.024199747 0.16269203 -0.09367736
0.11573418 -0.059193656 -0.16628279 -0.07702599 0.12410102 0.003228 0.15738681 -0.14816539
-0.14678779 -0.12461407 -0.13044374 -0.11441588 -0.07077322 0.16137207 -0.10588749 -0.16316372
0.06798868 -0.10740113 -0.0106037855 0.02160337 0.12677576 0.16998032 -0.13787289 0.14009309
-0.15939228 -0.008424329 0.0993273 -0.03848421 -0.02127193 0.14572704 0.03798126 -0.10337217
-0.09424857 -0.16868795 -0.020846402 0.057456918 -0.15233782 0.15988657 -0.11913072 -0.14619346
0.04085944 0.017759407 -0.10741886 0.0057547423 -0.14650254 -0.001967409 0.16293503 -0.08261629
-0.16523527 -0.025453428 0.13934405 0.09703726 0.14502503 -0.13940983 -0.09551832 0.063780926
-0.006488976 0.042251527 0.12381517 0.03099279 -0.042281006 -0.058631744 -0.037488125 -0.082670435
-0.12577689 -0.008694622 -0.034213673 -0.0722414 -0.053711023 0.07014276 0.062164936 0.042449325
-0.13632008 0.13823414 0.001993966 -0.046880342 -0.120940834 0.12093926 0.10707294 -0.022902662
-0.05505417 0.1484877 -0.057446145 -0.15235071 -0.05587566 0.007570292 0.008332207 -0.042736135
-0.09204903 0.13820136 0.04140219 -0.14132532 0.05406093 -0.06371232 -0.06659123 -0.01800486
-0.09119578 0.026242757 0.11719206 -0.1656352 -0.13453001 0.029673748 0.04476144 0.048489653
0.03232461 0.117851995 0.1502272 0.1161491 -0.04458599 -0.008531498 -0.048555195 0.14325385
-0.079545595 0.11841127 0.16164884 0.08692438 0.13087033 -0.030560926 -0.14690487 0.028455723
0.08156225 -0.058891304 0.106579766 0.14075619 -0.095136136 0.14725763 0.09383541 0.14512533
00000000: 4989 1d3d 8d81 7dbd 4171 21be 9383 0fbe
00000010: 2108 24be f0e4 7e3d 758f 113e d3f9 bd3d
00000020: a17b fcbc 4e9d da3b c8af 04bd 7bb6 573d
00000030: 33a0 00bd e2eb 823c e88f 5fbd a98a 08be
00000040: 62b0 c5bd bce5 ddbd 6a2d ca3c a4c6 0c3e
00000050: e71a 1dbe a620 a6bd 50b5 8e3a d607 16be
00000060: 7eae 1b3d 1283 993b 7792 c93d 075e cdbd
00000070: f9dd e23d c17c e93d 3b1d 62bd 1d94 963d
00000080: bdab 19bd f81a 15be ebe8 eebd b473 c93d
00000090: f086 12be 3d18 5e3d 2251 f1bd 6688 f1bc
000000a0: 0b8b 0a3d 6bee 54bd dd89 18bd fb16 133e
000000b0: 1a22 d03d 9315 cebd 034a 253e 9184 21bd
000000c0: b579 823d 497a 273e 94fa dfbc 0fce a53d
000000d0: dfaa 3d3d 2ea0 c1bd 1a22 b8ba 1b82 db3d
000000e0: 9be4 053e ee80 d03d 2668 e63c b476 d53d
000000f0: a195 95bd 0b43 9f3c 2a63 e33c acef 1c3e
00000100: cbf0 1a3e d8f5 8fbd fdb4 9b3c cae1 9b3c
00000110: c38c dcbb 5b9e df3d 62b6 ef3d c58f 5d3d
00000120: e3f5 60bd 23f4 453d 35cb 1fbe 742f f53d
00000130: d7eb a3bd 66b7 603d caa8 e23c a84c a33d
00000140: 5878 d03c a574 143e b164 1b3e 689b 2abe
00000150: d693 233d ff0a 253e 807d 103c 29e2 47bd
00000160: bce8 54bd ba38 ea3d 9eef 0e3e 070a e83d
00000170: 48dc 033e e262 f6bd 857d 363d 5cbf 2d3d
00000180: 6d6c 17bc 96a5 bf3d a0ed 993d d214 0bbd
00000190: 4276 c53d 37a9 bc3c 71a0 443d 974a 25be
000001a0: 9593 61bd a8ac 16be 24d2 16bd b673 053e
000001b0: 4a00 00be d5dd 0a3e 1389 babd b648 423d
000001c0: 7f81 593d c10c 05bd 99d2 213e cbf0 913b
000001d0: 4779 1ebc 47be febd eec7 a8bd 0e87 183c
000001e0: 1f4a a03c 1499 92bc 5c62 bf3d e0bc 213e
000001f0: 571d debc 8c3e c63c bd98 263e ead9 bfbd
00000200: 0b06 ed3d 0c75 72bd 0946 2abe cdbf 9dbd
00000210: ad28 fe3d da8c 533b 022a 213e abb8 17be
00000220: 8a4f 16be a935 ffbd 0b93 05be df52 eabd
00000230: 8df1 90bd b83e 253e 8adb d8bd 6414 27be
00000240: a63d 8b3d 20f5 dbbd 80bb 2dbc 8df9 b03c
00000250: 81d1 013e 520f 2e3e 8d2e 0dbe 9074 0f3e
00000260: bb37 23be 3206 0abc 1d6c cb3d 9ea1 1dbd
00000270: 7842 aebc 7839 153e 3d92 1b3d cab4 d3bd
00000280: 6505 c1bd 89bc 2cbe 13c6 aabc f257 6b3d
00000290: 72fe 1bbe 4eb9 233e cffa f3bd bdb3 15be
000002a0: 3a5c 273d 2d7c 913c 6bfe dbbd 4792 bc3b
000002b0: c304 16be a5ef 00bb 71d8 263e bb32 a9bd
000002c0: 6f33 29be b583 d0bc 35b0 0e3e 79bb c63d
000002d0: 7181 143e 73c1 0ebe 1c9f c3bd 939f 823d
000002e0: 7aa1 d4bb f00f 2d3d cf92 fd3d 97e4 fd3c
000002f0: d92e 2dbd d727 70bd 268d 19bd 1e4f a9bd
00000300: a8cb 00be e373 0ebc a323 0cbd 4df3 93bd
00000310: 1700 5cbd 02a7 8f3d a9a0 7e3d 58df 2d3d
00000320: 7e97 0bbe 408d 0d3e 33ad 023b 9a05 40bd
00000330: d4af f7bd 01af f73d 0f49 db3d 5d9e bbbc
00000340: 7b80 61bd 290d 183e a64c 6bbd d301 1cbe
00000350: e0dd 64bd 3610 f83b cf83 083c 160c 2fbd
00000360: 3484 bcbd a884 0d3e 5895 293d 96b7 10be
00000370: fe6e 5d3d 9b7b 82bd fc60 88bd ee7e 93bc
00000380: dac4 babd 0dfb d63c 6402 f03d 469c 29be
00000390: 3cc2 09be 5c16 f33c c657 373d 169d 463d
000003a0: cf66 043d 635c f13d 29d5 193e 94df ed3d
000003b0: cd9f 36bd b2c7 0bbc d0e1 46bd 23b1 123e
000003c0: cde8 a2bd 9c81 f23d 4687 253e 6905 b23d
000003d0: df02 063e e85a fabc 3b6e 16be fa1b e93c
000003e0: 1c0a a73d 0238 71bd 7e46 da3d 6422 103e
000003f0: bcd6 c2bd b4ca 163e c82c c03d bc9b 143e

pi.net.0.bias f4 [50]
-0.0044731144 0.047828402 0.05558997 0.15772957 0.15883537 -0.028863156 0.037366625 0.042228486
0.018501654 -0.07173308 0.09572225 0.14496648 -0.050966244 0.026241573 -0.019920483 -0.12879068
-0.019624656 -0.049260583 -0.14162554 -0.011961159 0.123358116 0.002241975 0.06471893 0.022627667
0.1501381 0.10356165 -0.067692444 0.017498784 0.0069676572 0.0728536 -0.08452208 0.023015616
0.06112181 0.1467961 0.016040988 0.11037626 0.0070153945 -0.11089959 0.06391108 0.116463326
0.16686492 -0.0025356563 -0.10514607 -0.10669705 0.05592411 0.14028814 -0.003884975 0.041978717
0.15933114 0.12503178
00000000: 3493 92bb b7e7 433d 4fb2 633d dc83 213e
00000010: bda5 223e 6d72 ecbc bf0d 193d c7f7 2c3d
00000020: c890 973c cbe8 92bd 070a c43d 1872 143e
00000030: fbc1 50bd 91f8 d63c 4830 a3bc b4e1 03be
00000040: e3c3 a0bc 77c5 49bd 4906 11be bdf8 43bc
00000050: 2ea3 fc3d 19ee 123b 5c8b 843d a85d b93c
00000060: cdbd 193e 2118 d43d 56a2 8abd 9c59 8f3c
00000070: f250 e43b 4534 953d ea19 adbd 3f8b bc3c
00000080: dd5a 7a3d b851 163e 6468 833c f30c e23d
00000090: 65e1 e53b 531f e3bd d0e3 823d 5384 ee3d
000000a0: a3de 2a3e 412d 26bb d356 d7bd fc83 dabd
000000b0: ae10 653d b2a7 0f3e 119b 7ebb e0f1 2b3d
000000c0: b427 233e 5508 003e

pi.net.2.weight f4 [50, 50]
-0.0063784537 0.025884742 0.042602845 0.060423918 -0.08106854 -0.05888542 0.0055172755 -0.08955035
-0.11198184 -0.09868016 -0.11056017 -0.13958159 -0.08706983 0.08274858 0.06586863 0.06966898
-0.040174663 0.12824044 0.018844852 0.1405115 -0.07839478 0.030085754 -0.10033577 -0.04003841
-0.10464559 -0.13583866 -0.04088172 -0.07095448 0.051898975 -0.05508022 0.13415614 -0.10339206
-0.025208622 0.11976007 -0.040495217 -0.07395495 0.086171865 0.030563261 0.08072148 0.105741546
0.07987354 -0.047840267 0.12772283 -0.044102397 0.13982713 -0.079008535 0.12028239 0.104907826
0.10512606 0.039560467 0.023345662 -0.12793772 0.003238682 -0.0033829254 -0.088305034 -0.058132965
-0.1150502 0.016203761 -0.104710795 -0.02830992 0.018284045 0.12741746 -0.13472037 -0.019799072
-0.056426592 -0.043879237 0.038346436 -0.043824885 0.047487818 0.0011820506 -0.08971355 0.04837929
-0.10188864 0.065314636 0.14123775 0.002584192 -0.031849027 0.123732954 0.10945932 0.05662817
0.006377931 0.12024621 -0.028493581 -0.115574084 -0.06544856 0.1335363 0.035249636 0.117097266
0.12871741 0.09512743 -0.09888686 -0.00026503624 -0.0036531372 -0.055966515 0.13096923 0.0024214208
-0.05861401 0.11195382 0.13286367 0.022348115 0.07918609 0.048692055 -0.053637683 -0.07224574
-0.02302324 -0.059467115 -0.012109397 -0.044615205 -0.031898726 -0.07142023 -0.074911036 -0.014640349
-0.073082924 0.05468763 -0.094333366 0.05831804 -0.062279727 0.04135832 0.07979682 0.11088044
-0.038617507 0.016094264 0.052416556 0.13630967 0.018429756 -0.044686284 0.09129175 0.117815584
0.0041198377 0.0052468106 -0.101207875 0.0771267 0.13666072 0.099072695 0.13401379 -0.051046833
-0.007864703 0.053345386 -0.05228927 -0.03219352 -0.034278877 -0.044311427 -0.004682279 0.12488972
-0.011506158 -0.11419844 0.12323271 0.098583825 0.09446117 -0.053207364 0.008243755 -0.07641038
0.08188783 0.009104832 0.01914696 -0.023656 -0.0592534 -0.115987256 0.11024342 0.09811059
0.08888277 0.13979147 -0.11405877 0.0117675355 -0.100033574 0.029308297 0.11739437 -0.13456912
0.123157635 -0.028873526 0.0039274795 -0.054365255 0.01908379 -0.095362306 0.104869016 -0.12887432
-0.018710773 0.063903816 -0.051806048 0.008631894 -0.066720754 -0.07878472 -0.0062326426 -0.016578969
0.027064702 -0.0534562 0.010465669 0.09345577 -0.030031553 0.061501678 -0.10046248 -0.044161588
-0.10792741 0.09432784 0.03978039 0.14090648 0.11218871 -0.02659473 0.034729376 -0.026011232
-0.13131788 -0.06679831 0.1270889 0.14121804 -0.062428284 0.017224658 -0.1329365 0.004446577
-0.040114395 -0.032249875 -0.10160085 0.01541393 0.11747482 -0.10218526 -0.06814778 0.07722755
-0.122703455 -0.027806485 -0.027006388 -0.028543837 0.13575369 0.128505 -0.05457471 -0.09523118
-0.0771215 0.11421562 -0.11034273 -0.015071208 -0.06121737 -0.038304087 0.07717744 0.09124058
0.038876828 0.13948536 0.02645959 0.05418033 -0.084886946 0.024632035 0.0047271233 -0.05870527
-0.057860006 -0.0035350248 -0.04950893 -0.011142329 0.123687536 -0.063693464 -0.09947847 0.011761517
-0.13579677 0.13193889 0.03192201 0.024981568 0.07223702 0.1321892 -0.06225533 -0.07401698
00000000: 5902 d1bb 3d0c d43c 5280 2e3d 127f 773d
00000010: 4307 a6bd d731 71bd 43ca b43b 2d66 b7bd
00000020: bc56 e5bd d318 cabd 5f6d e2bd 7aee 0ebe
00000030: ab51 b2bd 1678 a93d 22e6 863d 9cae 8e3d
00000040: 308e 24bd 7651 033e 8560 9a3c 3fe2 0f3e
00000050: 718d a0bd 6676 f63c d77c cdbd 51ff 23bd
00000060: 6d50 d6bd 4a19 0bbe 9773 27bd 9550 91bd
00000070: 0594 543d cc9b 61bd 3a60 093e 37bf d3bd
00000080: 5082 cebc c544 f53d 50de 25bd b175 97bd
00000090: e07a b03d ce5f fa3c 4e51 a53d 068f d83d
000000a0: bd94 a33d 28f4 43bd c6c9 023e b7a4 34bd
000000b0: d82e 0f3e 3acf a1bd 9d56 f63d ead9 d63d
000000c0: 554c d73d 280a 223d 673f bf3c 1b02 03be
000000d0: 1140 543b 12b4 5dbb 45d9 b4bd d51c 6ebd
000000e0: 709f ebbd c0bd 843c 9d72 d6bd 35ea e7bc
000000f0: 6cc8 953c b979 023e 23f4 09be aa31 a2bc
00000100: 921f 67bd b7ba 33bd 2711 1d3d b981 33bd
00000110: 9682 423d 09ef 9a3a bdbb b7bd 5d29 463d
00000120: feaa d0bd aec3 853d a1a0 103e 8c5b 293b
00000130: 2074 02bd b467 fd3d 352c e03d f1f2 673d
00000140: f7fd d03b a543 f63d 5f6b e9bc 1bb2 ecbd
00000150: e509 86bd bdbd 083e ec61 103d b1d0 ef3d
00000160: 7fce 033e 2cd2 c23d 3285 cabd 90f4 8ab9
00000170: 7969 6fbb 253d 65bd cc1c 063e b3b0 1e3b
00000180: 3f15 70bd 0b48 e53d 6a0d 083e 6513 b73c
00000190: 512c a23d 5271 473d 30b3 5bbd 93f5 93bd
000001a0: 3c9b bcbc ca93 73bd 7e66 46bc 6fbe 36bd
000001b0: 3da8 02bd c544 92bd f56a 99bd 13de 6fbc
000001c0: 80ac 95bd 2300 603d da31 c1bd e6de 6e3d
000001d0: 0719 7fbd 5767 293d 846c a33d 4915 e33d
000001e0: 642d 1ebd 1ed8 833c beb2 563d c394 0b3e
000001f0: 00fa 963c f708 37bd 2bf7 ba3d 4c49 f13d
00000200: b4ff 863b 70ed ab3b 1346 cfbd 9af4 9d3d
00000210: caf0 0b3e a0e6 ca3d e93a 093e 7c16 51bd
00000220: f5da 00bc b180 5a3d 462d 56bd 5add 03bd
00000230: 0268 0cbd e67f 35bd ce6d 99bb 2ec6 ff3d
00000240: 5384 3cbc dfe0 e9bd 6e61 fc3d 51e6 c93d
00000250: dc74 c13d f7ef 59bd d110 073c 0c7d 9cbd
00000260: ceb4 a73d 6f2c 153c 16da 9c3c 3aca c1bc
00000270: b1b3 72bd ba8a edbd 4dc7 e13d 34ee c83d
00000280: 2b08 b63d 7f25 0f3e a597 e9bd 9fcc 403c
00000290: 67de ccbd f417 f03c 766c f03d 7dcc 09be
000002a0: 123a fc3d 2c88 ecbc 16b2 803b 1aae 5ebd
000002b0: 9c55 9c3c 504d c3bd 91c5 d63d a1f7 03be
000002c0: 5647 99bc 01e0 823d 9432 54bd ca6c 0d3c
000002d0: e4a4 88bd e259 a1bd 323b ccbb 9ed0 87bc
000002e0: cbb6 dd3c e3f4 5abd 3378 2b3c bd65 bf3d
000002f0: bb04 f6bc 2fe9 7b3d 46bf cdbd c8e2 34bd
00000300: 0c09 ddbd f42e c13d c3f0 223d ca49 103e
00000310: 32c3 e53d 31dd d9bc 6440 0e3d 8215 d5bc
00000320: 3278 06be 8dcd 88bd 9823 023e 769b 103e
00000330: cdb4 7fbd ba1a 8d3c 8120 08be 97b4 913b
00000340: fe4e 24bd 7218 04bd 1b14 d0bd b58a 7c3c
00000350: a396 f03d 8146 d1bd 1091 8bbd 7a29 9e3d
00000360: f34b fbbd 6dca e3bc 803c ddbc c4d4 e9bc
00000370: 0403 0b3e d196 033e bb89 5fbd 9108 c3bd
00000380: e1f1 9dbd e1e9 e93d 5ffb e1bd 3aed 76bc
00000390: 11bf 7abd bfe4 1cbd 350f 9e3d 57dc ba3d
000003a0: 4f3d 1f3d 40d5 0e3e c8c1 d83c 32ec 5d3d
000003b0: 35d9 adbd 1fc9 c93c fce5 9a3b f074 70bd
000003c0: 9dfe 6cbd e0ab 67bb e0c9 4abd 518e 36bc
000003d0: e44f fd3d b871 82bd 5ebb cbbd 61b3 403c
000003e0: 4f0e 0bbe fd1a 073e a7c0 023d 25a6 cc3c
000003f0: 01f1 933d 9b5c 073e 72ff 7ebd 3796 97bd

pi.net.2.bias f4 [50]
0.063848734 0.0114505915 0.053276114 0.09192704 0.12824704 -0.033836875 -0.043536145 -0.11051491
-0.08038679 0.048710532 -0.051461574 0.04180251 0.058950953 -0.12229242 0.0840079 0.011323106
-0.018015064 0.02575921 0.13833362 0.12201603 0.056166004 0.12873545 -0.044399112 -0.1270821
0.068400696 0.02186459 -0.048264585 0.002001318 0.1138907 -0.08475711 -0.021484846 0.049192842
-0.09488827 0.13479313 -0.058855243 0.08981772 0.087867044 -0.109526195 -0.10311028 0.004371994
0.003642078 -0.04850814 -0.03851644 -0.13219477 0.12748098 -0.014499039 0.060580432 0.055410314
0.018924914 0.011257997
00000000: 20c3 823d 439b 3b3c 0e38 5a3d 3e44 bc3d
00000010: 3153 033e 8998 0abd f552 32bd a455 e2bd
00000020: d4a1 a4bd b284 473d 5fc9 52bd 1c39 2b3d
00000030: 8e76 713d 7374 fabd 550c ac3d 8c84 393c
00000040: 5494 93bc fb04 d33c 54a7 0d3e 8ae3 f93d
00000050: 530e 663d 3ad3 033e d8db 35bd cf21 02be
00000060: aa15 8c3d 5e1d b33c 16b1 45bd 8b28 033b
00000070: 873f e93d 2395 adbd fd00 b0bc 6f7e 493d
00000080: c854 c2bd 3607 0a3e 3212 71bd 5af2 b73d
00000090: a3f3 b33d 454f e0bd 7c2b d3bd f242 8f3b
000000a0: eeaf 6e3b 79b0 46bd 6ac3 1dbd 115e 07be
000000b0: 608a 023e 618d 6dbc 3023 783d edf5 623d
000000c0: 6c08 9b3c 7673 383c

pi.net.4.weight f4 [4, 50]
0.08759835 -0.0029583548 0.0595081 -0.12719536 -0.009290244 -0.045163352 -0.09126327 0.028458783
0.09877323 -0.010270716 0.041614737 -0.12428966 0.037148166 -0.05351077 -0.08417134 -0.098819345
0.11969311 -0.0015405854 -0.076287165 -0.038522102 -0.11981724 -0.059857715 -0.016434709 0.11397383
0.036757853 -0.13237098 0.023455666 0.13379683 0.12030778 0.1209941 0.12756124 -0.034586884
0.0031902974 -0.028303869 0.11678803 0.02156189 -0.12008856 -0.082366325 -0.0043662116 -0.030668678
0.11226855 0.113105506 0.08813038 -0.113330185 0.07831043 -0.02707608 0.0757666 0.052159492
0.11014203 -0.121332996 0.037227537 -0.10494262 -0.095370114 0.1293836 -0.12126598 7.304892e-05
-0.13959444 -0.079852134 0.1269798 0.052714784 -0.06554654 -0.0957654 -0.05991276 0.11799004
0.048367135 -0.025754979 0.043602098 0.10873783 -0.13183713 0.025704185 -0.011801894 0.061441205
0.08355521 -0.12958953 -0.11619887 0.09451028 0.034916643 0.10660586 -0.07344667 -0.04022858
0.0787731 -0.07172524 -0.034168467 0.010784991 -0.05619035 0.055712372 0.12420741 -0.09660225
0.14029275 -0.12250164 -0.10905811 0.03226134 -0.025064968 -0.009953148 -0.1372389 0.043649454
-0.11933142 -0.11616397 0.06414424 -0.13581856 0.057307947 0.018918153 -0.06345627 -0.07692367
0.0127431005 -0.14051291 0.11312294 -0.07866464 0.121092 -0.005553404 0.13976549 0.07889572
-0.05409147 -0.13891277 0.061366487 -0.06350683 0.110776216 0.08663206 -0.01884293 -0.1371755
-0.12661883 -0.074386746 0.08966549 -0.090102315 -0.11150915 0.107858546 0.11161541 -0.1347825
-0.067491435 0.0014609784 -0.03653112 -0.12990539 -0.11233535 0.12865287 -0.022370672 -0.06571817
0.08418299 -0.07304147 -0.06571028 0.052080154 0.049000315 0.017010352 0.08768212 0.05746944
0.045427866 0.031751093 0.10333961 0.11265152 0.070525475 0.0025664398 0.0838357 -0.083419845
0.07211114 0.06365992 0.028508062 0.08154778 0.010390075 -0.103788406 0.0027015964 0.05741099
-0.03501857 0.01573664 0.052000128 0.049581233 -0.02676947 0.06308704 -0.09711978 -0.107616015
-0.009024534 0.019089134 -0.0102695525 -0.0779772 -0.024788046 -0.05515155 -0.044284876 0.08283497
-0.007478554 0.007182329 0.034219805 -0.0051491987 -0.0024233933 0.031936083 -0.03193664 -0.01944831
-0.104439184 0.06584203 -0.11348642 -0.11083593 -0.056351047 0.005277443 0.08180082 -0.057628267
-0.09757225 0.080648825 -0.12047308 0.13676262 0.078992315 0.09047577 0.022754394 0.058366694
00000000: c466 b33d f5e0 41bb c4be 733d 803f 02be
00000010: 1c36 18bc 35fd 38bd 3de8 babd 6522 e93c
00000020: 9f49 ca3d 8146 28bc 3774 2a3d 948b febd
00000030: ad28 183d 1c2e 5bbd 0662 acbd cc61 cabd
00000040: a921 f53d 78ed c9ba 723c 9cbd 5ac9 1dbd
00000050: be62 f5bd 5d2d 75bd 15a2 86bc 1d6b e93d
00000060: 678f 163d 428c 07be 1926 c03c 0902 093e
00000070: ed63 f63d c1cb f73d 6a9f 023e faaa 0dbd
00000080: 4f14 513b 84dd e7bc 902e ef3d 90a2 b03c
00000090: fef0 f5bd adaf a8bd 7012 8fbb e13c fbbc
000000a0: 0eed e53d dca3 e73d b37d b43d a819 e8bd
000000b0: 3861 a03d a8ce ddbc 852b 9b3d 31a5 553d
000000c0: 2592 e13d 6f7d f8bd e77b 183d 28ec d6bd
000000d0: 6851 c3bd 227d 043e 4c5a f8bd d731 9938
000000e0: d8f1 0ebe 8489 a3bd fe06 023e 75eb 573d
000000f0: 443d 86bd a620 c4bd 1567 75bd c3a4 f13d
00000100: 9e1c 463d 1bfc d2bc 1d98 323d f0b1 de3d
00000110: 5000 07be 9591 d23c bb5c 41bc c6a9 7b3d
00000120: fe1e ab3d 1eb3 04be acf9 edbd 9b8e c13d
00000130: c104 0f3d 2c54 da3d 356b 96bd b9c6 24bd
00000140: cb53 a13d afe4 92bd 3cf4 0bbd 88b3 303c
00000150: da27 66bd a832 643d 7460 fe3d 67d7 c5bd
00000160: e7a8 0f3e 24e2 fabd dc59 dfbd 7824 043d
00000170: 0c55 cdbc 8712 23bc 5b88 0cbe c5c9 323d
00000180: 0864 f4bd 60e7 edbd 0e5e 833d 0514 0bbe
00000190: bdbb 6a3d 3efa 9a3c 5cf5 81bd 288a 9dbd
000001a0: 70c8 503c 9ee2 0fbe 00ad e73d ed1a a1bd
000001b0: 15ff f73d 54f9 b5bb af1e 0f3e 1494 a13d
000001c0: 048f 5dbd 263f 0ebe 6d5b 7b3d de0f 82bd
000001d0: a4de e23d 266c b13d 7d5c 9abc bc77 0cbe
000001e0: 5ea8 01be 1458 98bd 8aa2 b73d 9087 b8bd
000001f0: e95e e4bd f1e4 dc3d 9f96 e43d 6c04 0abe
00000200: f338 8abd 4d7e bf3a a8a1 15bd eb05 05be
00000210: 1310 e6bd 94bd 033e b342 b7bc 3f97 86bd
00000220: 2268 ac3d c496 95bd 1c93 86bd 0052 553d
00000230: 8eb4 483d 4b59 8b3c af92 b33d 1365 6b3d
00000240: 9212 3a3d 6f0d 023d b8a3 d33d d7b5 e63d
00000250: a96f 903d b731 283b 0db2 ab3d 06d8 aabd
00000260: 01af 933d 2260 823d bd89 e93c 8602 a73d
00000270: 223b 2a3c 048f d4bd 440d 313b c927 6b3d
00000280: a26f 0fbd 20ea 803c 16fe 543d b115 4b3d
00000290: a64b dbbc c733 813d bce6 c6bd c965 dcbd
000002a0: a4db 13bc d160 9c3c a041 28bc 83b2 9fbd
000002b0: 4d10 cbbc 97e6 61bd 0f64 35bd 61a5 a93d
000002c0: a80e f5bb be59 eb3b 112a 0c3d 9cba a8bb
000002d0: cbd1 1ebb 69cf 023d ffcf 02bd 1052 9fbc
000002e0: 36e4 d5bd 30d8 863d 916b e8bd f3fd e2bd
000002f0: 5bd0 66bd 67ee ac3b 3087 a73d 9e0b 6cbd
00000300: f6d3 c7bd 362b a53d 97ba f6bd 800b 0c3e
00000310: b9c6 a13d 5c4b b93d 6c67 ba3c ea11 6f3d

pi.net.4.bias f4 [4]
-0.0803801 -0.07807568 0.03405194 0.034658317
00000000: 529e a4bd 24e6 9fbd 0c7a 0b3d e1f5 0d3d

v.net.0.weight f4 [64, 34]
-0.07898501 -0.020262843 -0.00034595717 -0.08678432 0.005541693 0.04673713 0.009322403 -0.059237383
-0.03208359 0.05190944 -0.06259181 -0.01838044 -0.14296913 -0.017285367 -0.0649602 -0.03161333
-0.087123446 0.06296005 -0.09876922 0.06223263 0.04650464 0.004784848 0.10612006 0.08572844
-0.043789342 -0.025402542 0.045267582 0.062465977 0.019980324 -0.15381648 0.15294479 0.057760984
-0.14895433 -0.03099557 -0.033745196 -0.043330695 -0.012970388 0.11580302 -0.15240654 0.14091392
0.08635724 -0.14757152 -0.05305137 0.086952105 0.036227737 0.13424385 -0.0014172959 -0.024833845
0.012624533 -0.13575472 -0.04120145 0.1117863 0.0022569401 0.16372041 0.05424756 -0.023963718
0.14694323 0.15018657 0.07304887 0.10939974 0.058971588 -0.06996866 -0.15816526 -0.035284646
-0.08190032 0.12277695 0.14296159 -0.1465486 0.14479384 0.12170107 -0.09672015 -0.0524277
0.14351317 -0.09274038 0.1215162 -0.16517174 -0.026798882 -0.0121344235 -0.07717238 -0.0845283
0.070041075 -0.03200208 0.13393234 -0.16841291 0.11599356 0.036048114 0.05242586 0.14163174
0.15329534 0.00700828 0.076514 0.11739233 -0.055275396 -0.049581412 -0.0027462114 -0.05886706
-0.03867994 -0.017118398 0.14916545 0.16000332 -0.10295777 0.05976366 -0.0004573782 0.048551027
-0.05595026 -0.16340224 0.16320184 0.055707853 0.12028435 -0.0013540619 0.10611928 0.0070666485
-0.067292266 0.028163431 0.13652095 -0.0034039633 0.06391051 -0.027781248 -0.11767591 -0.053513207
0.014886584 0.13452846 -0.09329522 0.03559286 0.028758666 -0.12324058 0.019302782 -0.03609763
0.045924984 -0.06563379 -0.16570924 0.107379645 -0.06512358 0.023320645 -0.14565419 -0.01331841
-0.092563085 0.05848976 -0.006338732 0.025566055 -0.13515154 -0.016108371 0.076177716 0.045121137
-0.11701296 0.11839444 0.01877019 -0.058287382 0.11862994 0.16720773 -0.06592403 -0.035288773
-0.16630118 0.0047227587 0.14346115 0.02845519 -0.029020965 0.15084407 -0.117575385 0.08690494
-0.12137499 0.017270483 0.0048537245 0.07453944 -0.14431429 -0.13146202 -0.113343455 0.11265009
-0.05583056 -0.10712334 0.01779265 -0.03388348 0.10642631 0.13329352 -0.021107312 0.02759177
-0.040039543 -0.008400552 -0.13107306 0.015108159 0.1348057 0.030366931 0.06058707 0.008944205
0.06149535 -0.11023362 -0.07673878 0.14064589 -0.026726836 -0.16575083 0.13878599 -0.11708652
0.11850677 0.026754824 0.027372956 -0.07416549 -0.108506165 0.0731064 0.09043985 0.12743592
-0.0059777685 -0.06933174 -0.042898096 0.045788396 0.073416725 -0.09536321 -0.10130534 -0.14538166
0.013970642 0.04323935 0.011801183 0.15783331 0.13642049 -0.11193403 -0.056092348 0.15457809
-0.14184229 0.13983917 -0.14206573 0.0019389098 -0.074846916 0.15015559 0.12881212 0.059571605
-0.07994017 0.068416946 0.105051234 -0.14290328 0.07869403 -0.13563438 -0.022847934 0.009751629
0.052640464 0.07417772 -0.13956979 0.1614547 0.15145811 -0.09218595 -0.05799423 -0.120527044
-0.12105616 -0.040494364 0.059668593 -0.03409334 0.07222716 -0.0675666 -0.10697277 0.14715031
0.13509542 0.111451566 -0.059157327 0.0160811 -0.06236535 0.12036805 -0.07446678 -0.13855508
00000000: e5c2 a1bd 43fe a5bc 9661 b5b9 fabb b1bd
00000010: 1797 b53b 6f6f 3f3d febc 183c e6a2 72bd
00000020: 156a 03bd fe9e 543d 2330 80bd 9492 96bc
00000030: 8066 12be 0b9a 8dbc da09 85bd fb7c 01bd
00000040: c76d b2bd 33f1 803d 8447 cabd a4e7 7e3d
00000050: a67b 3e3d 37ca 9c3b 7955 d93d 6492 af3d
00000060: 745c 33bd fe18 d0bc 806a 393d 53dc 7f3d
00000070: c7ad a33c 1182 1dbe 8f9d 1c3e c896 6c3d
00000080: 7c87 18be 6cea fdbc 6738 0abd 877b 31bd
00000090: c081 54bc 222a ed3d 7610 1cbe bd4b 103e
000000a0: 11dc b03d fd1c 17be 654c 59bd f213 b23d
000000b0: 8963 143d 3877 093e 8fc4 b9ba 5970 cbbc
000000c0: 21d7 4e3c 4903 0bbe dac2 28bd 37f0 e43d
000000d0: 2ce9 133b 53a6 273e b132 5e3d 8f4f c4bc
000000e0: 4978 163e 82ca 193e a59a 953d f90c e03d
000000f0: 318c 713d bb4b 8fbd 13f6 21be a286 10bd
00000100: 5bbb a7bd 7b72 fb3d 8664 123e d610 16be
00000110: d644 143e 693e f93d 3715 c6bd 6ebe 56bd
00000120: 1ef5 123e abee bdbd 7cdd f83d c822 29be
00000130: 5489 dbbc 76cf 46bc 8e0c 9ebd 2c1d adbd
00000140: b271 8f3d 9d14 03bd 8f25 093e 6f74 2cbe
00000150: 088e ed3d 30a7 133d 80bc 563d e907 113e
00000160: 74f9 1c3e b7a5 e53b 5fb3 9c3d 646b f03d
00000170: 7468 62bd e115 4bbd c8f9 33bb 961e 71bd
00000180: db6e 1ebd e23b 8cbc d4be 183e e9d7 233e
00000190: 86db d2bd bdca 743d 43cc efb9 71dd 463d
000001a0: 1a2c 65bd eb52 27be 621e 273e eb2d 643d
000001b0: a457 f63d c77a b1ba 1155 d93d 588f e73b
000001c0: 87d0 89bd ffb6 e63c 26cc 0b3e 0715 5fbb
000001d0: 83e3 823d 8095 e3bc 1100 f1bd aa30 5bbd
000001e0: dce6 733c d4c1 093e 9011 bfbd d2c9 113d
000001f0: 4b97 eb3c 8f65 fcbd de20 9e3c 1cdb 13bd
00000200: d61b 3c3d 026b 86bd afaf 29be dce9 db3d
00000210: 835f 85bd f00a bf3c 5f26 15be 7635 5abc
00000220: b791 bdbd f592 6f3d 23b5 cfbb e76f d13c
00000230: 2a65 0abe b4f5 83bc 1003 9c3d f1d0 383d
00000240: 7ea4 efbd c978 f23d f1c3 993c c0be 6ebd
00000250: 41f4 f23d 8138 2b3e 2e03 87bd f68a 10bd
00000260: db4a 2abe 5fc1 9a3b 7be7 123e dc1a e93c
00000270: 60bd edbc de76 1a3e 5dcb f0bd 38fb b13d
00000280: 7393 f8bd d47a 8d3c fe0b 9f3b 22a8 983d
00000290: 20c7 13be fb9d 06be 9d20 e8bd 17b5 e63d
000002a0: 96ae 64bd 7b63 dbbd e4c1 913c 67c9 0abd
000002b0: 0af6 d93d 197e 083e 3ee9 acbc 2308 e23c
000002c0: 8100 24bd 78a2 09bc 0438 06be 3688 773c
000002d0: 810a 0a3e 12c4 f83c 262a 783d b78a 123c
000002e0: 8ce2 7b3d 2ac2 e1bd 3929 9dbd 7a05 103e
000002f0: 3df2 dabc 96ba 29be ea1d 0e3e 0fcb efbd
00000300: adb3 f23d ef2c db3c 403d e03c 14e4 97bd
00000310: 7b38 debd cfb8 953d 8738 b93d 907e 023e
00000320: 28e1 c3bb cdfd 8dbd eab5 2fbd 9d8c 3b3d
00000330: 825b 963d c94d c3bd 2d79 cfbd eede 14be
00000340: 1fe5 643c bf1b 313d c059 413c 0e9f 213e
00000350: d0b1 0b3e ab3d e5bd 17c1 65bd b849 1e3e
00000360: 1b3f 11be 0032 0f3e ae79 11be 0423 fe3a
00000370: 5749 99bd 63c2 193e 53e7 033e 5b01 743d
00000380: acb7 a3bd 2f1e 8c3d 1a25 d73d 3d55 12be
00000390: 562a a13d bde3 0abe 972b bbbc 4cc5 1f3c
000003a0: 879d 573d 7dea 973d 62eb 0ebe 6254 253e
000003b0: d617 1b3e fdcb bcbd 5c8b 6dbd e2d6 f6bd
000003c0: 4bec f7bd 6bdd 25bd 0e67 743d 75a5 0bbd
000003d0: d5eb 933d 5c60 8abd 8a14 dbbd 92ae 163e
000003e0: 7456 0a3e b840 e43d f44e 72bd 83bc 833c
000003f0: cf72 7fbd 8683 f63d 0a82 98bd 62e1 0dbe

v.net.0.bias f4 [64]
-0.12105268 -0.0146433795 0.018683158 0.08592546 -0.051712643 0.122326136 -0.070689134 -0.16230626
0.14097433 -0.10380637 -0.098256044 0.038644 0.08631631 -0.038072664 0.12530226 -0.08563217
0.08257839 -0.09342342 0.007277735 0.051144864 -0.02221686 -0.014045529 -0.16382983 0.016655501
0.07195214 -0.020178061 0.046894714 -0.025498997 0.04835198 0.052061155 -0.007266838 0.14835492
0.011749581 -0.087225504 -0.03442161 -0.108481206 0.082494386 0.07763553 0.098823905 0.12870717
-0.14991887 -0.14160894 0.06530942 0.063653134 -0.0032575417 -0.053585947 0.0713163 0.034863476
0.07744701 0.03959529 -0.12026069 -0.021234639 0.09007637 0.1471259 0.07297085 -0.089682475
-0.11835531 -0.037985798 -0.15427019 -0.06361282 0.05483065 0.1598405 0.057211403 -0.07755316
00000000: 78ea f7bd c9ea 6fbc 6c0d 993c b0f9 af3d
00000010: a3d0 53bd 2086 fa3d 77c5 90bd 9d33 26be
00000020: 935b 103e 6f98 d4bd 773a c9bd 2c49 1e3d
00000030: 9bc6 b03d 15f2 1bbd 3c4f 003e eb5f afbd
00000040: dc1e a93d c754 bfbd 117a ee3b 477d 513d
00000050: 2200 b6bc 381f 66bc 02c3 27be 1e71 883c
00000060: a55b 933d 764c a5bc ac14 403d 46e3 d0bc
00000070: ba0c 463d 143e 553d a81e eebb 5aea 173e
00000080: 5181 403c 49a3 b2bd adfd 0cbd 652b debd
00000090: d1f2 a83d 60ff 9e3d 3064 ca3d d0cb 033e
000000a0: 5584 19be ef01 11be f2c0 853d 935c 823d
000000b0: 7b7c 55bb f07c 5bbd 480e 923d 01cd 0e3d
000000c0: 8a9c 9e3d ac2e 223d 3d4b f6bd 44f4 adbc
000000d0: f679 b83d 2ca8 163e be71 953d 72ab b7bd
000000e0: 4564 f2bd ff96 1bbd 01f9 1dbe 7047 82bd
000000f0: 1b96 603d 3aad 233e 8156 6a3d 31d4 9ebd

v.net.2.weight f4 [64, 64]
-0.042482123 0.03899531 -0.06845808 -0.11751272 -0.11039695 0.061067432 -0.014871597 -0.11733304
-0.029505447 -0.10794644 -0.023859829 0.02373591 0.123536885 -0.0032585561 0.10845901 -0.07004677
-0.012201637 -0.08159439 -0.1052036 0.028310224 -0.03639856 0.076627806 0.101116 -0.0374901
-0.09420575 0.093267545 0.025670901 -0.021002129 -0.08860205 0.072591186 0.10802463 -0.072259694
-0.021067098 0.02391404 -0.016267687 0.023136958 0.014639631 -0.09489162 0.115712225 0.12243122
0.10068753 0.044826508 0.1079846 -0.014193237 0.08967319 -0.025703818 0.046929076 0.07272743
-0.021908686 -0.04244022 0.015578285 0.08389479 -0.079130724 -0.062989354 -0.08342075 -0.051558957
-0.050666407 -0.05028595 -0.05661699 0.06504482 0.046543315 -0.092851445 -0.0065086633 0.088966325
0.11771299 0.02484496 -0.017087728 -0.029726952 -0.07818106 0.038608387 0.039132893 0.05075729
0.1089014 -0.114506334 -0.066686034 0.12402436 0.011650205 -0.10349567 0.05182363 0.12394248
-0.01449354 0.09713417 -0.021669582 0.016333476 0.034800395 0.05095361 -0.058795348 -0.00064076483
0.07332565 0.123888925 0.10738747 -0.06755705 0.09560792 0.1191756 0.11037871 -0.0049331784
-0.06932397 -0.06683163 -0.09290609 -0.040768057 -0.068524584 -0.0632917 -0.006158352 -0.057898328
0.02335675 -0.0025099665 0.061341792 -0.07900126 -0.071666315 -0.07482232 -0.030167297 0.107536495
0.11092073 -0.115052 0.06934495 0.0044736415 0.119362995 0.008743808 -0.049724683 -0.052846253
-0.06325583 -0.01683484 0.014807865 0.057088763 -0.010447472 -0.05853267 0.06245379 -0.09335248
-0.08527912 -0.03279382 0.07946634 0.01387915 -0.08944711 0.023988053 -0.0152614415 0.0071810335
0.03985533 0.085761055 0.06552413 -0.096118584 0.118436545 -0.11641443 -0.01230143 0.018116832
-0.09953216 0.07350062 -0.019765079 -0.101308495 0.0381535 0.053558648 -0.07312901 -0.05506468
0.017961502 -0.03617266 -0.102570996 -0.027272895 -0.043180525 -0.09571375 0.03688185 -0.015620559
-0.10245159 -0.11515808 -0.006120354 -0.033030853 -0.08825892 -0.11082238 0.06907283 0.07200681
0.033401802 -0.053200006 -0.039620414 -0.05220434 0.05199209 0.03131011 -0.067510545 0.005357787
-0.011056438 0.08615182 0.10006285 0.053605884 0.040127873 0.0018756241 -0.045919582 0.1216328
0.07391043 -0.035057515 0.10477978 -0.048890784 0.039438874 0.055277392 0.017926037 -0.018802539
-0.0026462376 -0.106918305 -0.032457292 0.11546315 -0.09364168 0.04460211 0.049868405 -0.114534274
0.029815003 0.099658206 -0.067626044 0.005047843 0.1182449 0.057997733 -0.049246103 0.11594303
-0.06805232 -0.080593675 -0.12400699 -0.014136657 -0.10894038 -0.010718301 -0.08865458 0.019107997
0.08004819 0.08281796 -0.09973523 -0.0070903003 -0.0134992 -0.07990615 -0.020811528 0.11306816
-0.0073438883 -0.11785202 -0.08920409 -0.10243656 -0.12491451 -0.002627924 0.028943464 -0.051144853
0.012282938 -0.0074458867 -0.111526296 0.072292194 -0.036215007 0.054478556 -0.11138655 -0.08152154
-0.06891197 -0.109809294 0.015026063 0.041311666 -0.049976453 -0.031937003 -0.02628079 0.0070852786
-0.00859049 -0.026933253 0.0658284 -0.085054204 -0.032802403 0.10466848 -0.0017845482 0.11228633
00000000: bc01 2ebd 8cb9 1f3d c033 8cbd 82aa f0bd
00000010: cc17 e2bd d821 7a3d 00a8 73bc 4e4c f0bd
00000020: 68b5 f1bc 0613 ddbd b075 c3bc d071 c23c
00000030: e800 fd3d 808d 55bb c21f de3d ae74 8fbd
00000040: 60e9 47bc f61a a7bd fc74 d7bd d8ea e73c
00000050: a816 15bd 0aef 9c3d e815 cf3d 388f 19bd
00000060: f2ee c0bd 0e03 bf3d c84b d23c a80c acbc
00000070: fe74 b5bd b0aa 943d 043c dd3d e4fc 93bd
00000080: e894 acbc 60e7 c33c d043 85bc b889 bd3c
00000090: 10db 6f3c 8a56 c2bd 88fa ec3d 38bd fa3d
000000a0: 4435 ce3d 009c 373d 0827 dd3d c08a 68bc
000000b0: 94a6 b73d d090 d2bc b438 403d 1ef2 943d
000000c0: d879 b3bc ccd5 2dbd 103c 7f3c 08d1 ab3d
000000d0: 4a0f a2bd 9000 81bd 80d8 aabd 7c2f 53bd
000000e0: 9487 4fbd a4f8 4dbd 38e7 67bd 3836 853d
000000f0: 34a4 3e3d e628 bebd a046 d5bb fa33 b63d
00000100: 8213 f13d a887 cb3c 90fb 8bbc f085 f3bc
00000110: 641d a0bd d423 1e3d d049 203d e0e6 4f3d
00000120: b207 df3d 4c82 eabd b092 88bd 7c00 fe3d
00000130: 80e0 3e3c 8af5 d3bd 0445 543d 8ed5 fd3d
00000140: 5076 6dbc 48ee c63d 6884 b1bc c8cd 853c
00000150: dc8a 0e3d bcb4 503d 64d3 70bd 00f9 27ba
00000160: c22b 963d 7ab9 fd3d f6ed db3d 5a5b 8abd
00000170: 16ce c33d 5612 f43d 3c0e e23d 80a6 a1bb
00000180: baf9 8dbd 06df 88bd 8c45 bebd 68fc 26bd
00000190: 9e56 8cbd 149f 81bd 00cc c9bb cc26 6dbd
000001a0: a856 bf3c 407e 24bb 8841 7b3d 6acb a1bd
000001b0: cac5 92bd 723c 99bd 6821 f7bc 183c dc3d
000001c0: 682a e33d 62a0 ebbd ba04 8e3d a097 923b
000001d0: 9674 f43d 3042 0f3c 1cac 4bbd 5075 58bd
000001e0: 468c 81bd 38e9 89bc b09c 723c e8d5 693d
000001f0: e02b 2bbc f4bf 6fbd 8ccf 7f3d 962f bfbd
00000200: d2a6 aebd d052 06bd 40bf a23d 6065 633c
00000210: 0c30 b7bd 9882 c43c 200b 7abc e04e eb3b
00000220: 583f 233d 7ea3 af3d 8431 863d d2d9 c4bd
00000230: dc8e f23d b06a eebd f08b 49bc c069 943c
00000240: 84d7 cbbd 7e87 963d 60ea a1bc d47a cfbd
00000250: d846 1c3d 5060 5b3d aac4 95bd 808b 61bd
00000260: 0024 933c c829 14bd be10 d2bd 686b dfbc
00000270: 10de 30bd 9205 c4bd 6c11 173d 60ed 7fbc
00000280: 24d2 d1bd 00d8 ebbd 408d c8bb 5c4b 07bd
00000290: 18c1 b4bd d8f6 e2bd 0e76 8d3d 4e78 933d
000002a0: 54d0 083d 40e8 59bd 0449 22bd 38d4 55bd
000002b0: a8f5 543d 083f 003d f842 8abd 6090 af3b
000002c0: 1026 35bc 5e70 b03d c0ed cc3d d891 5b3d
000002d0: 205d 243d 80d7 f53a 2c16 3cbd 9e1a f93d
000002e0: 5a5e 973d 7898 0fbd c896 d63d b441 48bd
000002f0: a88a 213d 8c6a 623d a0d9 923c c807 9abc
00000300: 806c 2dbb fcf7 dabd f0f1 04bd f277 ec3d
00000310: 36c7 bfbd b4b0 363d d042 4c3d f290 eabd
00000320: 983e f43c 9a19 cc3d 867f 8abd 6068 a53b
00000330: 622a f23d 088f 6d3d 48b6 49bd 8a73 ed3d
00000340: 045f 8bbd 4c0e a5bd 60f7 fdbd 709d 67bc
00000350: 221c dfbd d09b 2fbc 8890 b5bd 6088 9c3c
00000360: 4ef0 a33d 769c a93d fc41 ccbd c055 e8bb
00000370: c02b 5dbc d6a5 a3bd f07c aabc 4890 e73d
00000380: 00a5 f0bb 665c f1bd a2b0 b6bd 42ca d1bd
00000390: 2ed3 ffbd 4039 2cbb d81a ed3c 447d 51bd
000003a0: 603e 493c a0fc f3bb e667 e4bd ee0d 943d
000003b0: 3056 14bd e824 5f3d a21e e4bd c4f4 a6bd
000003c0: b821 8dbd b2e3 e0bd e02f 763c 6c36 293d
000003d0: 1cb4 4cbd 60d0 02bd d04a d7bc a02b e83b
000003e0: 20bf 0cbc 20a3 dcbc 0ad1 863d e630 aebd
000003f0: d05b 06bd 6e5c d63d 80e7 e9ba 60f6 e53d

v.net.2.bias f4 [64]
-0.10685043 -0.081017494 -0.11771244 0.111062214 -0.12206097 0.055729017 0.028865784 -0.11009447
0.06003146 -0.019511104 0.08280276 0.07707895 0.102380365 0.07404798 -0.10209194 0.0662189
0.0549832 0.10939409 -0.009955928 0.061078995 -0.03656824 -0.03828065 -0.10595712 0.08219397
0.027007207 -0.062413648 0.01745528 -0.12070343 -0.069954455 0.035775095 -0.12131651 0.11806218
0.08157407 -0.05934389 -0.07009238 0.011616349 -0.008848146 0.09039703 0.07546979 -0.083897546
-0.055742517 0.05909814 0.09617326 0.0076648444 0.020131677 -0.08647825 -0.036463067 -0.12071112
0.115917265 -0.029450357 -0.056935087 -0.03575842 0.051958457 -0.02770193 -0.05732006 0.12279414
-0.0344678 0.016089424 0.029794171 0.07083894 0.03902568 -0.0034313947 -0.03220834 0.0034468174
00000000: 66d4 dabd 80ec a5bd 3813 f1bd 9674 e33d
00000010: 1afb f9bd 1c44 643d f077 ec3c 3679 e1bd
00000020: 8ce3 753d c0d5 9fbc 7e94 a93d 92db 9d3d
00000030: ccac d13d 78a6 973d 9415 d1bd c69d 873d
00000040: 1036 613d 020a e03d 301e 23bc f82d 7a3d
00000050: 94c8 15bd 2ccc 1cbd 0c00 d9bd 5055 a83d
00000060: 383e dd3c 74a5 7fbd 60fe 8e3c 5c33 f7bd
00000070: 4844 8fbd e888 123d ca74 f8bd 96ca f13d
00000080: 4e10 a73d 9412 73bd 988c 8fbd 8052 3e3c
00000090: d0f7 10bc 1422 b93d e88f 9a3d 7ad2 abbd
000000a0: 4452 64bd e410 723d 7cf6 c43d 6029 fb3b
000000b0: 30eb a43c 821b b1bd 4c5a 15bd 6437 f7bd
000000c0: 0866 ed3d e041 f1bc c434 69bd 6c77 12bd
000000d0: 64d2 543d 28ef e2bc 70c8 6abd 7e7b fb3d
000000e0: 1c2e 0dbd f8cd 833c e812 f43c 0214 913d
000000f0: 64d9 1f3d 40e1 60bb e4ec 03bd 00e4 613b

v.net.4.weight f4 [1, 64]
-0.071429744 -0.011974961 -0.031775728 0.06802486 -0.091211036 0.054443568 0.07167819 -0.08364859
-0.024478436 -0.10103369 -0.07567415 -0.10948232 0.07333997 -0.03851801 0.006429091 0.05073139
-0.112655655 -0.05350676 -0.10309936 0.084966704 -0.006841749 0.12321387 -0.12049632 -0.056487918
-0.07551254 -0.078320995 0.040478066 -0.01394403 0.11958532 0.01678735 -0.05338046 0.012277499
0.0916245 0.034450486 0.12273212 0.014919311 -0.09169139 0.10949612 -0.11013363 0.10685763
0.081858784 0.12230742 -0.041237667 0.0063292235 0.056473136 -0.029646322 -0.08902165 -0.019916698
0.02117692 -0.04714313 0.06379987 -0.11759378 -0.060347155 -0.11757061 -0.06108418 0.056852847
0.11516313 -0.10373533 0.044664472 -0.051570803 -0.04700291 0.07567604 0.0505742 -0.08542901
00000000: c249 92bd a032 44bc 4427 02bd 9e50 8b3d
00000010: dacc babd 3800 5f3d 04cc 923d f44f abbd
00000020: 0087 c8bc c0ea cebd 0cfb 9abd 4438 e0bd
00000030: 4433 963d 10c5 1dbd 20ab d23b b8cb 4f3d
00000040: 02b8 e6bd e829 5bbd c225 d3bd 0603 ae3d
00000050: c030 e0bb 8e57 fc3d c6c6 f6bd e05f 67bd
00000060: 52a6 9abd c266 a0bd 54cc 253d 8075 64bc
00000070: 26e9 f43d a085 893c 78a5 5abd 9027 493c
00000080: a0a5 bb3d f41b 0d3d fa5a fb3d 2070 743c
00000090: b2c8 bbbd 803f e03d be8d e1bd 2cd8 da3d
000000a0: 94a5 a73d 507c fa3d d4e8 28bd 6065 cf3b
000000b0: 6050 673d d8dc f2bc fc50 b6bd 5828 a3bc
000000c0: 387b ad3c 2819 41bd 82a9 823d 02d5 f0bd
000000d0: 942e 77bd dcc8 f0bd 6833 7abd 88de 683d
000000e0: a6da eb3d 3073 d4bd 18f2 363d e83b 53bd
000000f0: 2086 40bd 0afc 9a3d e426 4f3d 68f5 aebd
