runs/phoenix/DroneHoverBulletEnvWithAdversary-v0/ppo/2023-07-14__12-57-38/seed_43186/torch_save/model.pt (torch, 49538 bytes, 14 tensors)

obs_oms.mean f4 [34]
000000 00 00 00 00 00 00 00 00 00 00 00 00 00 00 00 00
       0.0 0.0 0.0 0.0
000010 00 00 00 00 00 00 00 00 00 00 00 00 00 00 00 00
       0.0 0.0 0.0 0.0
000020 00 00 00 00 00 00 00 00 00 00 00 00 00 00 00 00
       0.0 0.0 0.0 0.0
000030 00 00 00 00 00 00 00 00 00 00 00 00 00 00 00 00
       0.0 0.0 0.0 0.0
000040 00 00 00 00 00 00 00 00 00 00 00 00 00 00 00 00
       0.0 0.0 0.0 0.0
000050 00 00 00 00 00 00 00 00 00 00 00 00 00 00 00 00
       0.0 0.0 0.0 0.0
000060 00 00 00 00 00 00 00 00 00 00 00 00 00 00 00 00
       0.0 0.0 0.0 0.0
000070 00 00 00 00 00 00 00 00 00 00 00 00 00 00 00 00
       0.0 0.0 0.0 0.0
000080 00 00 00 00 00 00 00 00
       0.0 0.0

obs_oms.std f4 [34]
000000 00 00 80 3f 00 00 80 3f 00 00 80 3f 00 00 80 3f
       1.0 1.0 1.0 1.0
000010 00 00 80 3f 00 00 80 3f 00 00 80 3f 00 00 80 3f
       1.0 1.0 1.0 1.0
000020 00 00 80 3f 00 00 80 3f 00 00 80 3f 00 00 80 3f
       1.0 1.0 1.0 1.0
000030 00 00 80 3f 00 00 80 3f 00 00 80 3f 00 00 80 3f
       1.0 1.0 1.0 1.0
000040 00 00 80 3f 00 00 80 3f 00 00 80 3f 00 00 80 3f
       1.0 1.0 1.0 1.0
000050 00 00 80 3f 00 00 80 3f 00 00 80 3f 00 00 80 3f
       1.0 1.0 1.0 1.0
000060 00 00 80 3f 00 00 80 3f 00 00 80 3f 00 00 80 3f
       1.0 1.0 1.0 1.0
000070 00 00 80 3f 00 00 80 3f 00 00 80 3f 00 00 80 3f
       1.0 1.0 1.0 1.0
000080 00 00 80 3f 00 00 80 3f
       1.0 1.0

pi.log_std f4 [4]
000000 18 72 31 bf 18 72 31 bf 18 72 31 bf 18 72 31 bf
       -0.6931472 -0.6931472 -0.6931472 -0.6931472

pi.net.0.weight f4 [50, 34]
000000 a8 15 65 bb be 65 0a bd 3f e9 61 bd d9 f7 eb 3c
       -0.0034955535 -0.033788435 -0.05515408 0.028804706
000010 76 99 e7 3c e2 7e 09 3c ad 51 2b 3d dd c3 54 3c
       0.028271418 0.008392068 0.04182594 0.012986151
000020 35 79 15 be 27 9a 82 bd d4 a6 bf 3b 3d 71 e6 bd
       -0.14597018 -0.063770585 0.005848745 -0.11252067
000030 1f 5e 88 bd 81 c4 1a 3e 0c e0 24 3e d8 9e d9 3c
       -0.06658577 0.15114023 0.16101092 0.026565
000040 6e af d3 3d 63 e5 93 3d 2a 8c d5 3d 63 30 2c 3e
       0.10336195 0.072214864 0.10427125 0.16815333
000050 85 a1 0c 3d dd cd 60 bc d5 0d c4 bc 4c 6e 83 3d
       0.034333725 -0.013720957 -0.023932377 0.06417522
000060 ca f0 57 3d a5 7a 23 3e 2e 71 10 be 26 cc fc 3c
       0.05271987 0.15964754 -0.14105675 0.030859064
000070 bb d6 f1 3c d5 89 1b be 58 ae 24 3e d0 ae 99 bd
       0.029521337 -0.15189297 0.16082132 -0.07504046
000080 0e 3b f1 bd e5 e7 4e 3d bb 34 10 3e 2f 29 06 bd
       -0.11778842 0.05051412 0.14082615 -0.03275412
000090 d2 01 d6 bc aa 0e 1d 3e de 6b 86 3d 4c ef 7a bd
       -0.026123915 0.15337625 0.06563543 -0.061263368
0000a0 b1 e9 65 bd 8d 53 1f be 63 3d 14 3e 46 35 28 3e
       -0.05613107 -0.15559216 0.14476542 0.16426572
0000b0 72 9a a4 bc ae cd 58 bd 30 57 83 3d 05 0f 1a 3e
       -0.020093177 -0.052930526 0.06413114 0.15044792
0000c0 b1 28 8b bd b9 23 e6 bc 80 c2 13 3d f0 93 5f bc
       -0.06794871 -0.028093206 0.03607416 -0.013646111
0000d0 38 2f cd bd c7 5c c7 bb 4b 3a 2b 3e f2 52 94 3c
       -0.10018772 -0.006084058 0.16721456 0.018105958
0000e0 3e 2c 02 be 01 9d 23 3e 26 fe 28 3e 6a 33 1b 3e
       -0.1271219 0.15977861 0.165032 0.15156332
0000f0 f5 ee af 3d cf 77 d3 3d 88 c6 18 bd e8 0c 85 bd
       0.08590499 0.10325586 -0.03729871 -0.06496602
000100 a5 e9 39 bd c1 5a 01 be 43 18 f1 bd bc 47 2c be
       -0.045388836 -0.12632276 -0.11772206 -0.1682424
000110 49 a1 20 be b8 73 19 3e d3 64 00 be e2 30 9e 3d
       -0.15686525 0.1498555 -0.12538461 0.077241674
000120 78 13 14 be 4b 32 01 3d 81 20 de 3d 51 f2 80 bd
       -0.14460552 0.031542104 0.108460434 -0.06296218
000130 cf 6a ad b9 ec f8 a0 bd 10 a4 c8 bd bc a4 07 bd
       -0.0003307671 -0.07859978 -0.097969174 -0.033116087
000140 f6 4d 1d be e2 91 0a 3e 60 91 1a 3d b6 2d df 3d
       -0.15361771 0.13532212 0.037736297 0.108973905
000150 50 0f 04 be 6b d0 e5 bd 9b 79 2d be d2 74 14 be
       -0.12896466 -0.11221393 -0.1694092 -0.14497688
000160 74 d2 78 3d 47 ad 18 3e c2 d3 eb bd 99 8c 04 3e
       0.06074758 0.1490985 -0.11514999 0.12944259
000170 86 33 0a be 27 9e 40 3d 19 fa 03 3d d7 3a ac bd
       -0.13496217 0.047025826 0.032220934 -0.0840966
000180 2b b2 e5 bd 6b 79 90 3d a5 cf 27 3e 84 67 dc bd
       -0.112156235 0.07054409 0.16387804 -0.107619315
000190 24 90 d3 bd b6 ea 01 be 32 92 aa bc 05 84 f4 3d
       -0.10330227 -0.12687191 -0.020821664 0.11939243
0001a0 41 c0 ac 3d 32 9a 1a be 77 ce d2 3d 47 34 2c be
       0.08435107 -0.15097883 0.10293286 -0.16816817
0001b0 35 22 88 3d f3 ed b1 3d 8f db 39 3d db c5 f5 bd
       0.066471495 0.08687963 0.045375403 -0.120006286
0001c0 29 a9 e4 bd df fa 83 3d a7 aa ba bd 22 a7 09 3e
       -0.11165077 0.06444334 -0.091145806 0.13442662
0001d0 3c 68 e1 bd 26 e8 05 3e 1e 52 67 bc 93 73 fd 3c
       -0.11006209 0.13076839 -0.014118699 0.0309389
0001e0 53 33 19 be 71 6d 86 3d a0 d6 bb bd 48 e9 f0 bd
       -0.14960985 0.06563843 -0.09171796 -0.11763245
0001f0 b4 b0 92 3a be 17 08 be 6b 0e 75 3d b1 e8 91 bd
       0.0011191578 -0.13290307 0.059828203 -0.071244605
000200 c6 b5 31 ba 2c 56 0d bc f5 a9 35 3d 40 1c 04 3d
       -0.00067791005 -0.008626502 0.044351537 0.032253504
000210 ac 5f 0f 3e ae 79 b5 3c 72 9b 7d 3c 9a 7a 78 3d
       0.1400134 0.022152748 0.015478956 0.060663797
000220 fa 35 01 3e 5b 21 98 bd e3 ba 95 bd 54 ec 8b 3d
       0.12618247 -0.07428237 -0.073110364 0.068321854
000230 79 65 87 bd cb a6 04 3e 11 75 d5 3c df 97 85 bd
       -0.06611151 0.12954251 0.026056798 -0.06523108
000240 b5 98 a4 bd 79 9d 1e 3e 27 8b 60 3c c3 7b 06 3e
       -0.08036939 0.15489759 0.0137050515 0.13133149
000250 0f c0 73 bd 4c d1 06 be ae 80 08 3d 00 b4 0d be
       -0.059509333 -0.13165778 0.033325844 -0.13838196
000260 62 6a a4 3d e7 20 5a bd f6 73 e8 3d 3e eb dd bd
       0.080281034 -0.053254034 0.11350243 -0.108358845
000270 b7 3e 4a 3d 2e 58 15 bb 17 00 78 3c 6e c2 6c 3d
       0.049376216 -0.0022788155 0.01513674 0.05780261
000280 71 57 00 3c 00 69 0f 3e 9f ae 92 3d bd 81 db 3d
       0.007833348 0.14004898 0.071622126 0.10718105
000290 c4 d8 0d 3b 11 83 23 3e d2 1b ef bd d5 3d 1a 3d
       0.0021644095 0.15967967 -0.11675228 0.037656624
0002a0 0f b6 ec bd 60 10 f4 3d 3e 20 f5 bd b5 68 6f 3c
       -0.115581624 0.11917186 -0.1196904 0.014612366
0002b0 65 2e c9 bb 79 82 bb 3d 02 6e a0 3c c5 66 cf 3d
       -0.006139564 0.09155745 0.019583706 0.101270236
0002c0 ba 4b 2c be ae 52 89 bd 73 0f 20 bd f4 9a f8 3c
       -0.16825762 -0.06705223 -0.039077234 0.030347325
0002d0 da 9f 17 3d 56 f8 95 bd f3 46 2e bd 0f 6c 4b 3c
       0.03701768 -0.07322757 -0.04254813 0.0124159
0002e0 81 61 ef bc 3f 7b 08 be 5e da 1d 3e e2 de 1d be
       -0.029221298 -0.13328265 0.15415332 -0.15417054
0002f0 67 33 d0 3d f9 62 f9 3d 2b 11 fb 3d f3 db ee bd
       0.10166054 0.12177081 0.12259134 -0.11663046
000300 fe 40 c9 3d 0a 32 01 3d 9f 93 19 3e fa b2 e6 bd
       0.098268494 0.03154186 0.14997719 -0.11264606
000310 6a 47 ce bd 0c 4d e2 bd bc 66 1d 3e 27 ef 18 be
       -0.10072215 -0.11049852 0.15371221 -0.1493498
000320 d7 4c 8c 3d 43 68 11 bd 8a 28 14 3c ae 04 ce 3d
       0.068505935 -0.035499822 0.009042868 0.10059486
000330 28 54 c6 bb 4e 41 07 3e 68 9c b5 3c 16 a5 5a 3d
       -0.0060525127 0.13208506 0.022169307 0.053380094
000340 91 7e f0 bd 0e 32 0c 3e 36 b6 25 3d 0a 72 15 3e
       -0.117428906 0.1369097 0.040456973 0.14594284
000350 dd 4f d1 bd 6a 14 2a 3e 15 f3 bd bd ce a7 0d bd
       -0.10220311 0.1660935 -0.0927488 -0.03458386
000360 99 a3 eb 3c f3 25 26 be 0a 89 ec 3d d0 a1 bf 3d
       0.028764533 -0.16225414 0.115495756 0.09357035
000370 18 65 25 bd 46 69 15 be 09 8a be 3d b3 65 91 bd
       -0.040379614 -0.1459094 0.09303672 -0.07099476
000380 5d 7c 04 3e ea 09 29 3e f9 e6 10 3c fb 0e 63 3d
       0.12938066 0.16507688 0.008844131 0.05543421
000390 81 59 1f 3e 00 43 05 3e 7d 62 3b bd 59 94 02 be
       0.15561487 0.1301384 -0.045748223 -0.12751903
0003a0 01 0f 1a be 85 f3 cd bd cb 53 76 bd 57 64 8d 3d
       -0.15044786 -0.10056213 -0.060138505 0.06903904
0003b0 e4 d5 32 3a 68 c2 04 3e 8d 2b 1c be ac f4 0a be
       0.00068220333 0.12964785 -0.15250988 -0.13569897
0003c0 c1 00 b3 3d 49 cd 11 3e a7 8c 1d be 5f 33 eb bd
       0.08740378 0.14238466 -0.15385686 -0.11484408
0003d0 51 54 01 bc 22 6a 0d 3e c8 b0 6b 3d f5 81 08 3e
       -0.007893638 0.13810018 0.05754164 0.13330825
0003e0 cc 7e b1 bd f0 92 1c be f7 c2 b1 3d c6 5b ee bd
       -0.08666763 -0.15290427 0.08679765 -0.11638598
0003f0 0e e2 bb bd 73 a7 8a 3c 72 1a 08 3e db 4b b9 3d
       -0.09173976 0.01692555 0.13291338 0.090476714

pi.net.0.bias f4 [50]
000000 d3 d8 2c be 1f 1c 9e 3d 96 8c f0 3d 79 05 0b be
       -0.16879587 0.077202074 0.11745565 -0.13576306
000010 b0 9f 28 be d5 e7 85 bd 12 0e 89 bd 13 14 19 3e
       -0.16467166 -0.06538359 -0.06692137 0.14949064
000020 42 c8 17 3e 41 c5 11 3e 00 6e 74 bc b4 93 0a bd
       0.14822486 0.14235403 -0.014918804 -0.033832267
000030 c9 5f f3 bd 99 37 f0 3d 40 f9 5f bd 45 3f 25 be
       -0.11883504 0.117293544 -0.054681063 -0.16137417
000040 b1 58 b1 bd 57 b9 3d bd 15 ba 1c be ee 57 10 be
       -0.08659495 -0.046319332 -0.1530536 -0.14096043
000050 03 7b 0b 3d fc 92 df 3d 92 88 04 bd 65 01 05 3d
       0.03405286 0.10916707 -0.032356806 0.032472033
000060 72 50 00 3e 44 e7 0a 3d 98 34 93 3d c1 9e 32 3d
       0.12530687 0.03391196 0.07187766 0.04360843
000070 01 03 07 be 2c 22 3e 3d 27 97 0f be 19 f0 00 bd
       -0.1318474 0.046419308 -0.14022504 -0.031478975
000080 39 95 b2 bd 34 30 94 3d ef 55 db 3d f4 13 9c bc
       -0.08719868 0.072357565 0.1070975 -0.019052483
000090 d7 e7 2e 3e 07 2b 22 3e 01 be f4 bc 31 65 fe 3d
       0.17080627 0.15836726 -0.029875757 0.124216445
0000a0 f1 2a 2c be a8 4f bd 3d 7b ea 06 3e 09 a6 07 3e
       -0.16813256 0.09243709 0.13175385 0.13246931
0000b0 e8 4c 06 be 63 10 d8 3d c7 be 1a 3d 2e 91 0a be
       -0.13115275 0.105500005 0.037779596 -0.13531944
0000c0 00 a2 17 be 23 5b 9a 3d
       -0.14807892 0.07536914

pi.net.2.weight f4 [50, 50]
000000 92 35 ef 3d e6 dd a3 3d c7 df 53 3d 1e ec 0b 3e
       0.116801396 0.08001308 0.051727083 0.1366429
000010 de 29 af bd 08 ae 00 3e f6 97 a8 bc 40 1b 98 bd
       -0.085529074 0.12566388 -0.020580273 -0.074270725
000020 4c 8b bd 3c d6 18 04 3e 70 9b 85 3d 07 4c 69 bd
       0.023137711 0.12900099 0.06523788 -0.05695727
000030 6f fe c5 3d fe e0 a1 3d d6 61 09 be 8f b1 54 3d
       0.0966767 0.07904242 -0.13416228 0.051927146
000040 f5 08 48 bb ce 75 39 3d e5 0e f6 3d 72 a7 35 bd
       -0.0030522917 0.045278363 0.1201456 -0.04434914
000050 fa 63 cb 3d ca c1 8f bd 07 06 b7 bd 8a d3 7a bd
       0.099311784 -0.07019384 -0.089366965 -0.061236896
000060 8e 20 ed bb 9e 61 77 b9 13 48 2a bc d0 28 32 3c
       -0.007236547 -0.00023592121 -0.01039316 0.010873988
000070 05 75 4a bd ba 84 2a bd 7e 6e 1b bd 30 5d 99 3d
       -0.049428005 -0.041630484 -0.03794717 0.07488477
000080 5e 7f 81 3d 37 61 73 bd d5 20 10 3d 92 40 ea 3d
       0.063231215 -0.059418883 0.03518756 0.11438097
000090 aa 8d ff 3c d8 0a 4e bd 17 a9 6c 3d 80 a6 f4 bd
       0.03119548 -0.05030331 0.057778444 -0.1194582
0000a0 35 56 a1 3d 23 54 80 bd f7 95 9a 3d 6a 2d 82 3c
       0.07877771 -0.06266048 0.07548135 0.015890796
0000b0 30 d5 ff bd 9b a1 1e 3d 05 04 45 3d a5 ca 9e bd
       -0.12491834 0.038728338 0.048099536 -0.07753495
0000c0 d9 f2 8c 3c e6 18 8b bd 52 d8 e5 bd c0 f6 ea 3d
       0.017205643 -0.067918584 -0.112229005 0.11472845
0000d0 94 a5 43 3d cb 7d 5c 3c 18 38 ab 3d ce be f8 3d
       0.04776533 0.013457726 0.083603084 0.12145768
0000e0 d4 8f ea 3d 9e 0a a9 bd 1d 0d 88 3b a1 e1 cc bd
       0.11453214 -0.08253978 0.004151954 -0.10003973
0000f0 9b 36 f0 bd 7c 3d 42 bd ea f3 c4 3d 96 64 4d 3d
       -0.11729165 -0.047421917 0.096168354 0.050144754
000100 7f 11 0a 3e e6 35 37 bd ed 32 e9 3d a0 e2 fd bd
       0.13483237 -0.044729136 0.113866664 -0.12396741
000110 14 79 14 3d 99 39 de 3d ff 0e 49 3d 22 3a 9a bd
       0.03624828 0.1085083 0.049086567 -0.07530619
000120 3d 6e 05 3e 4d 40 bc bc b2 d0 82 bd 88 71 6a bc
       0.13030334 -0.02297988 -0.06387462 -0.0143092945
000130 7a 77 81 bc a2 aa ad bd 7c 4a c2 3d 05 db f7 3d
       -0.015804041 -0.08479811 0.09486863 0.121023215
000140 54 cf 00 3e 4e 1d 91 3d b0 a5 93 bd a9 66 b0 bd
       0.1257909 0.070856676 -0.07209337 -0.08613331
000150 df e8 49 3c ad f3 dd bd d4 dd 81 3d 73 5e 10 be
       0.012323587 -0.10837493 0.063411385 -0.1409853
000160 6e 96 00 3e 9d 4d 4e bd 35 a8 07 be 62 4b 54 bc
       0.12557384 -0.050366987 -0.1324776 -0.012957426
000170 8f 86 87 3d 66 fe c3 bd e3 0c 09 be 2b da 10 3d
       0.06617462 -0.09570007 -0.13383822 0.03536431
000180 38 35 04 be d4 8b c6 3d 3b 75 0f 3e 38 c1 a9 bd
       -0.12910926 0.09694639 0.14009564 -0.08288807
000190 32 20 0b 3e 43 08 3a bd 56 8d 96 3d 91 ca e6 3d
       0.135865 -0.045418035 0.073511764 0.11269105
0001a0 b3 d1 6f 3c a1 aa 47 bc eb 3e f5 3d 59 24 16 3c
       0.0146373985 -0.012186677 0.11974891 0.009163939
0001b0 fa 3f a0 bd c3 24 97 bd 81 05 5b bd 15 38 82 bd
       -0.078247026 -0.073800586 -0.053472046 -0.06358353
0001c0 e8 f2 06 3d ef 5b 6b 3d 54 fb 87 bd 24 22 6a bd
       0.032946497 0.05746072 -0.06639734 -0.057161465
0001d0 6b 88 0c be 5e 64 6d bd f4 fe a7 bd 72 6c c3 3c
       -0.13723914 -0.057957046 -0.08202925 0.023855422
0001e0 57 87 4d bd 74 f9 b3 bd f3 76 1c bd a5 bf 02 be
       -0.0501779 -0.08787814 -0.038199376 -0.12768419
0001f0 c8 df ef bd ad b9 bc 3d 8e 39 9a bc 5c 36 21 3d
       -0.11712605 0.09215102 -0.018826272 0.03935848
000200 63 87 8a 3d f5 91 2b 3d 7b 02 73 3d 24 b5 67 3d
       0.06764104 0.041887242 0.059328537 0.056569234
000210 8c c3 f3 3d d8 0c 05 be df 47 03 3e 2f 19 c3 3c
       0.11902532 -0.12993181 0.12820385 0.02381572
000220 89 7d db ba 1d cc b1 3d 12 8e c9 bd 34 cc 99 bc
       -0.0016745786 0.0868151 -0.09841551 -0.01877413
000230 42 8d fc bd 18 31 49 3c 08 20 d8 3d 33 1e 85 bc
       -0.1233163 0.012279771 0.105529845 -0.016249752
000240 a7 6e a2 bd f4 5a ec bd e4 78 08 3d 0a ca 0b 3e
       -0.079312615 -0.115407854 0.033318415 0.1365129
000250 a2 50 75 bd 13 63 cc ba 2b fb d4 3b 93 e7 ff 3c
       -0.05989135 -0.0015593491 0.006499668 0.031238353
000260 ec 6e e0 bd 3e 4d af 3d 3c 37 a2 bd 1b f6 7b bd
       -0.10958657 0.08559655 -0.07920691 -0.061514
000270 bc 0b bc bd 4c e2 e6 3d 9f 6e fe bd d0 6e 4c bc
       -0.09181926 0.112736315 -0.12423443 -0.012477592
000280 e2 c3 85 3d c6 5c ca bd 7e 8c f1 bc df e0 76 bd
       0.06531502 -0.098809764 -0.029485937 -0.060273048
000290 29 03 85 3d 2a bd 9d 3d 5b af 8c 3d b0 f6 9b 3d
       0.064947434 0.07702096 0.06869384 0.07615411
0002a0 81 76 03 be f4 ad 86 3d 31 e6 04 be 04 f3 02 be
       -0.12838174 0.06576148 -0.12978436 -0.12788016
0002b0 bd 0d 35 bd 78 f8 cc 3d c6 fb 8d bd e7 15 82 ba
       -0.044202555 0.10008329 -0.069327876 -0.000992474
0002c0 86 e4 28 3d 9c cd 42 3d 8c bc 1c bd 84 96 c3 3b
       0.041233562 0.047559366 -0.03826575 0.0059688706
0002d0 82 b7 9c bd 62 58 ab 3a e9 5f 43 bd d9 d3 8e bd
       -0.07652189 0.0013072605 -0.04769889 -0.069740005
0002e0 b6 d7 e2 bb f0 ec 89 bd ae 20 05 3e 8f 90 ed bb
       -0.0069226874 -0.06734645 0.13000748 -0.0072498987
0002f0 8b 9f e1 bd bc 20 9b 3d fd 36 ff 3d a1 a4 a5 3b
       -0.110167585 0.07574603 0.1246166 0.0050550257
000300 da f7 b5 3d 2e 4a f2 3d 46 b1 63 3d ed 70 42 ba
       0.088851646 0.11830555 0.055588983 -0.000741734
000310 03 6c 8d 3d 00 c0 1f 3d c4 5d 88 3d 7a dc 35 3c
       0.06905367 0.039001465 0.066585094 0.011099929
000320 04 5e b3 3d d4 43 b7 3b 42 9b bf bc 2f e9 44 bd
       0.087581664 0.0055928025 -0.023389462 -0.048073944
000330 27 f7 f9 3c 7d 34 0b bd df bc 96 bd dc e8 01 3c
       0.03051336 -0.033985604 -0.07360243 0.007929053
000340 fc ac 4e 3d 47 3d 06 3e 8b 27 82 bc e3 21 98 3c
       0.05045794 0.13109313 -0.015887996 0.018570846
000350 0f 11 70 3d 24 59 d7 3d 70 9f 14 bc 84 00 9d bb
       0.05861002 0.10515049 -0.009071216 -0.0047913212
000360 89 1a 97 3d 0e ac 7d bd 52 fc 00 be ea 7e 0e be
       0.07378108 -0.061931662 -0.12596253 -0.13915601
000370 b1 a8 0e be 95 5c f5 bc aa 14 23 bd 8f 73 c2 bd
       -0.13931538 -0.029951373 -0.03981463 -0.09494697
000380 9f b1 29 bd c2 b2 96 bb 76 96 45 3c 73 58 83 3c
       -0.04142916 -0.0045989463 0.012059798 0.016033387
000390 80 c5 66 bc 24 81 a6 3c b5 23 30 bc f5 49 eb bd
       -0.014085174 0.02032525 -0.010750701 -0.114887156
0003a0 fb 75 99 3d 5a 17 d0 3d 10 2f 3e 3c 17 d1 8d 3d
       0.07493206 0.10160704 0.0116079 0.06924646
0003b0 79 ef 41 bd 72 da 37 3d 22 87 89 3b 5d 71 13 bd
       -0.04734752 0.04488606 0.0041970173 -0.035996784
0003c0 e0 31 03 ba 9e eb 62 bd 12 a2 02 bd fa e0 ee bd
       -0.00050046854 -0.055400483 -0.031892844 -0.116640046
0003d0 b0 35 44 3d 03 b5 ce 3d ad d6 4f 3b c5 95 c7 bd
       0.047902763 0.10093119 0.003171365 -0.09745363
0003e0 e8 6f 0c 3e 6c b7 91 bd 8c ca 0a 3e 6d d6 d5 bd
       0.13714564 -0.07115063 0.13553828 -0.10441289
0003f0 da 18 a7 bc 62 ad 95 bd 00 18 8a bd f8 d3 89 3d
       -0.020397592 -0.07308461 -0.06742859 0.06729883

pi.net.2.bias f4 [50]
000000 b9 ca 3d 3c fb cb f0 bc 40 5a b1 bd 45 ec f0 bd
       0.011583977 -0.02939414 -0.08659792 -0.11763815
000010 87 14 1f 3d 8f c1 47 3d 26 19 29 3d 2f d0 00 3e
       0.038837936 0.048768576 0.04128375 0.12579416
000020 56 54 34 3d 1d c3 0a be a4 7d a6 3d e4 8f b2 bd
       0.04402574 -0.13550992 0.08129433 -0.08718851
000030 1c 4f 61 bd f2 41 6f bd 5b 6c 00 be 5b c9 e4 3d
       -0.055007085 -0.0584125 -0.12541334 0.11171218
000040 ca 30 bb 3d 70 7b 60 3d 54 67 ec 3d af 0a 8e bc
       0.09140165 0.05480522 0.11543146 -0.017339079
000050 96 5c f1 3c b6 1a a3 3d 57 cb 05 3e 58 76 17 bd
       0.029463094 0.07964079 0.13065849 -0.036978096
000060 9a c6 cb 3d b5 1e 2a 3d bf df 0f 3e bf c7 05 be
       0.099499896 0.04153319 0.14050196 -0.13064478
000070 fe e3 e9 bd cb cd 90 bc 64 b6 8d bd 21 9a 01 3e
       -0.11420439 -0.017676255 -0.06919554 0.12656452
000080 c4 25 05 bd 85 66 84 bd fe 6e b5 bd 4b 81 44 bd
       -0.03250672 -0.064648665 -0.08859061 -0.047974866
000090 8f 9d 0b 3e 11 3a e7 bc 11 7c 05 3c e5 da 06 3e
       0.13634323 -0.02822593 0.0081472555 0.13169439
0000a0 6f fa 05 3e e3 e0 d9 bd 19 1e cc 3c 38 ee b4 bc
       0.13083814 -0.10638597 0.024916695 -0.022086248
0000b0 30 6e aa 39 f6 ce 4e bd a7 85 c2 bd 46 06 e7 bb
       0.00032507023 -0.050490342 -0.094981484 -0.0070503084
0000c0 d2 dd 4d bd 2c 32 16 3d
       -0.050260372 0.03666894

pi.net.4.weight f4 [4, 50]
000000 33 df d8 bc 1a 07 0b be cf 80 7a 3d 3a 08 07 3e
       -0.026473617 -0.13576928 0.061157998 0.13186732
000010 60 85 69 bd 7b 9d 3a bc 64 0f 55 3d 59 aa 28 3d
       -0.057011962 -0.011390085 0.05201663 0.04117808
000020 56 d8 0c be 89 a7 9f bd 42 b1 0c 3e 7f a8 b8 bb
       -0.137544 -0.07795627 0.13739493 -0.0056353207
000030 ee e3 95 3d f7 d1 e5 3d db a2 c3 bd d4 4b 6d 3c
       0.07318865 0.11221688 -0.095525466 0.014483411
000040 df 50 51 bd 80 05 df 39 bb 81 b4 bd a7 7a fc ba
       -0.051102515 0.00042537972 -0.088138066 -0.0019262627
000050 5a 2d 8b bd fb e9 01 3e f0 ae 46 bd f3 62 fa 3a
       -0.067957595 0.12686913 -0.048506677 0.0019102975
000060 39 d6 a6 3d 33 b4 a2 bd fb 18 94 3d 9c 07 6d bd
       0.081463285 -0.079445265 0.07231327 -0.057868585
000070 8a ab 29 bd f8 6a 37 3d 53 f3 f0 3d 9b f2 0c 3e
       -0.041423358 0.044779748 0.117651604 0.13764422
000080 7f e9 c4 bd d8 c0 c4 bd 26 ea e4 3d 69 96 cc bc
       -0.09614848 -0.096070945 0.11177473 -0.024974065
000090 8a 45 c9 bd 66 ed f5 ba ca de b2 bd 6a 30 a9 3d
       -0.09827717 -0.0018762767 -0.087339 0.082611874
0000a0 c0 86 2b bd b3 b6 a0 3d 86 f0 8d bc 3e 83 be bd
       -0.041876554 0.07847347 -0.017326605 -0.09302376
0000b0 88 e4 3f 3d da 87 b1 bd 98 42 d7 bd 55 d1 ff bd
       0.046848804 -0.0866849 -0.105107486 -0.12491099
0000c0 5d 18 cb 3d 14 2f b3 bc 59 30 8f 3d 3c c7 ef 3b
       0.09916756 -0.021873035 0.069916435 0.0073174518
0000d0 a7 dc 25 3d e3 c9 c6 3d 69 f8 9f 3d f7 00 89 bd
       0.040493634 0.097064756 0.07811052 -0.06689637
0000e0 35 89 60 bd ff 32 72 bd 73 9a f8 bd 6e 80 b7 3d
       -0.05481835 -0.059130665 -0.12138834 0.08960043
0000f0 e0 af c4 bd 9d 0a 71 3d f3 a1 ca bd f6 40 f4 bc
       -0.09603858 0.058848012 -0.098941706 -0.029816132
000100 a4 b4 17 bd f3 a2 ff 3c a9 84 ce bd cf dd a5 bd
       -0.037037507 0.03120563 -0.10083897 -0.08098947
000110 71 62 a8 bd 2d 6b 25 bd 58 3b ad bd e3 c6 00 be
       -0.08221901 -0.040385414 -0.084585845 -0.1257587
000120 ee 45 b3 3d 47 9d bb 3c 03 d4 df bd 53 1f 3b bd
       0.087535724 0.022902144 -0.1092911 -0.04568417
000130 bb 4c 57 3d 41 37 ff bb b7 d9 11 bd 85 a5 e1 3d
       0.05256341 -0.007788569 -0.03560802 0.110178985
000140 1a d0 a1 3d 33 34 fc bd d1 58 be 3d 64 a8 ea bd
       0.0790102 -0.12314644 0.09294284 -0.11457899
000150 57 12 d9 bd ae 83 65 bd 48 1e 25 3d e4 de 60 3d
       -0.10599201 -0.056033783 0.04031208 0.054900065
000160 2d 84 82 3c ef 1c 89 bd 5f 0e d1 39 f4 9a 6f bd
       0.015932167 -0.06694972 0.00039874294 -0.058497384
000170 32 6b 98 bd 48 96 91 bd 7d d9 65 3d af dc 04 be
       -0.07442321 -0.07108742 0.056115616 -0.12974809
000180 49 d0 66 3d 10 2e b3 3d a9 f5 ac 3d 77 05 8c 3d
       0.05635098 0.0874902 0.084452935 0.0683698
000190 73 94 94 bd e1 03 9b 3d 1c 3a c9 bd 27 9a ff 3d
       -0.07254877 0.07569099 -0.098255366 0.12480574
0001a0 99 94 fb 3c 4c 7f 0f be 67 29 ee 3d 40 93 9e bd
       0.030710505 -0.14013404 0.116289906 -0.077429295
0001b0 77 e6 0c 3e 1f bc d2 bd c9 e5 01 be 47 5f 02 3e
       0.1375979 -0.102897875 -0.12685312 0.12731658
0001c0 8c b8 b5 bd 58 40 bd 3c ae 68 9f 3d 91 12 86 3d
       -0.0887309 0.02310197 0.07783638 0.0654651
0001d0 92 7c f4 3b c3 b6 bf bc ae cc f0 bd 30 37 91 bc
       0.007461139 -0.023402577 -0.117577896 -0.01772651
0001e0 3a b4 10 be 6f d7 46 3d ac c4 07 be c5 88 0e 3e
       -0.14131251 0.048545297 -0.13258618 0.13919361
0001f0 64 18 74 bd 73 cf 37 3d 5d fe cf bd 3a 64 1e bd
       -0.059593573 0.044875573 -0.10155938 -0.038669802
000200 1d 46 1d bd c7 0b 73 bd 16 df 94 3d 17 d8 f0 3d
       -0.038396943 -0.059337404 0.07269113 0.11759966
000210 7f 26 e1 bd da 1a 58 3d fd b8 41 bd 0e 18 01 3e
       -0.10993671 0.052759983 -0.04729556 0.12606832
000220 93 72 93 3d 84 87 f0 3d 2f 7c 27 3d ef 67 09 be
       0.07199588 0.117445976 0.040889915 -0.13418554
000230 95 ca 53 bd 63 c6 b9 3d 0c ee d8 3c cc 8b e1 bc
       -0.05170687 0.090710424 0.026480697 -0.02753248
000240 1d 82 3e 3d 29 a0 61 3c 80 a6 76 3d 4d a5 4f 3d
       0.046510804 0.013771095 0.06021738 0.050694752
000250 2b 54 b4 bd fc 08 06 3e 61 84 2f 3d 76 ff 95 bd
       -0.08805116 0.13089365 0.042850856 -0.07324116
000260 d5 53 01 be c4 57 9b bd b3 38 26 3c 70 e0 f8 3d
       -0.12629636 -0.07585099 0.010145354 0.12152183
000270 46 27 f8 3d 74 c2 ce bd 12 82 46 3b 73 00 26 3d
       0.12116866 -0.10095683 0.003028993 0.040527772
000280 d0 15 e6 bd 82 5c d8 3d 4f 7c fa 3d 49 4c 7e bd
       -0.11234629 0.105645195 0.12230741 -0.06208447
000290 12 57 9a bd 7c 45 2b bd 10 bf aa 3d 6a b7 09 3e
       -0.075361386 -0.041814312 0.083372235 0.13448873
0002a0 3a 02 4d 3d 86 04 32 3d 3f ef ff bc 3f bd ce bd
       0.05005095 0.043461345 -0.031242011 -0.100946896
0002b0 41 d7 0f 3e e4 a2 cc bd a6 ab 8e 3d c9 51 5b 3d
       0.14046957 -0.099920064 0.06966333 0.053544793
0002c0 2f 96 d3 3c 4b b5 da 3d 6c 34 07 be 0b d2 88 bc
       0.025828449 0.1067911 -0.13203591 -0.016701719
0002d0 5c c8 16 3d 21 1e 8e 3c a5 2b 23 3d ac db e1 bd
       0.03681217 0.017348351 0.039836545 -0.11028227
0002e0 51 60 af 3d 07 5a 8a 3d 00 3e 33 bc 04 1d a4 bd
       0.08563293 0.067554526 -0.010940075 -0.08013347
0002f0 34 7a d1 3d f0 8c 08 3d 9c f3 f6 3d 30 0f 21 3c
       0.102283865 0.033337533 0.120581836 0.009830281
000300 19 17 07 3e 02 da 00 be 8b 64 08 3e 7a 7c c3 bd
       0.13192405 -0.12583163 0.13319604 -0.095452264
000310 83 43 a2 bd 4a e6 81 bd 33 79 ee 3c d8 b1 dd 3c
       -0.07923033 -0.06342752 0.029110527 0.027062342

pi.net.4.bias f4 [4]
000000 1e 89 8e bb 6f 0a c7 3d f0 1e 21 3d 1b cb 2f bb
       -0.0043498417 0.09718787 0.039336145 -0.002682394

v.net.0.weight f4 [64, 34]
000000 bb 66 13 3e 56 b3 8d bc f4 4c 84 bc ab 1d 1d 3e
       0.14394657 -0.017297428 -0.016149975 0.15343349
000010 c2 44 e6 bd 64 0d 00 3e 13 3e 41 3d 06 57 66 3d
       -0.11243583 0.12505108 0.04717834 0.056235336
000020 d6 11 85 bd 80 22 20 be c2 67 14 3e a9 41 27 3e
       -0.064975426 -0.1563816 0.14492705 0.16333641
000030 be c1 20 be 65 fd 02 bd e5 b9 03 be e0 7d f6 bb
       -0.15698907 -0.031979937 -0.12863882 -0.0075223297
000040 fa bd 10 be d1 cc ef bc 6a ce 68 bc c7 72 2e 3e
       -0.1413497 -0.029272469 -0.014209369 0.17035972
000050 a9 60 04 3e 40 63 0e be 5d e5 a3 3d 7d 54 27 bd
       0.12927498 -0.13905048 0.08002732 -0.04085206
000060 77 02 2c be bb 25 7c bd 36 4a 50 3d 99 6b 7d 3d
       -0.16797815 -0.06155942 0.050852023 0.06187019
000070 29 cc 62 3c ca e6 e8 bd b3 1e 6e bd 62 2a 27 bc
       0.013842621 -0.113721445 -0.058134746 -0.010202976
000080 d4 0d e2 bd 94 5a 02 3d 22 fa 78 3d 98 3b 21 bc
       -0.11037794 0.031824663 0.06078542 -0.009840868
000090 13 86 2c 3e 41 44 d3 bd 7e 03 1b be 64 f4 5c bd
       0.1684802 -0.10315753 -0.15138051 -0.053944007
0000a0 37 c4 8a bc 92 f3 0a bd 32 c9 a8 bd dd 8d 1d be
       -0.016939266 -0.033923693 -0.082415 -0.15386148
0000b0 81 26 1a 3e 24 e6 e2 bd bd 91 a8 bd 7b f8 7c 3d
       0.1505375 -0.11079052 -0.08230922 0.061760407
0000c0 38 e3 90 3d 87 e1 0d be a6 d1 b0 3d 32 eb 18 3e
       0.070745885 -0.13855563 0.08633737 0.1493347
0000d0 b9 f4 00 3e 54 6a 26 3e ad b0 f5 bd 5d 80 97 3d
       0.12593354 0.16251498 -0.11996589 0.0739753
0000e0 30 a8 08 3e e6 2c f0 3d fa 30 86 bd 21 82 81 3d
       0.13345408 0.11727314 -0.0655231 0.06323648
0000f0 ef 7c df 3d ab 66 92 bd 5b b7 b0 bc 6b aa a9 39
       0.10912501 -0.071484886 -0.021571806 0.00032361163
000100 68 0b 91 bd 2e 39 01 be ae 84 1e 3c 82 47 a7 bd
       -0.07082254 -0.12619469 0.009675188 -0.08167936
000110 38 a5 03 3e 03 d7 11 be 6c 59 a1 bd b5 56 02 3e
       0.12855995 -0.14242177 -0.07878384 0.12728389
000120 c3 d5 fe bc a8 84 3a 3d 20 3b 27 3d 55 99 96 3d
       -0.031107789 0.045536667 0.04082787 0.073534645
000130 01 08 0f 3e a3 6c fa 3d 46 27 51 3d 79 e9 05 be
       0.13967897 0.12227752 0.051062845 -0.13077344
000140 77 27 39 ba 6a 6d 85 3c b6 2c 63 bc c2 dd eb bd
       -0.00070630707 0.016287524 -0.01386564 -0.11516906
000150 01 d4 83 3d 92 62 20 be 7c eb 17 bd b9 6d 95 bd
       0.06436921 -0.15662602 -0.03708981 -0.072963186
000160 c5 ef 00 3e 6c 89 18 be c7 15 1b 3e f5 ad 9e bd
       0.12591465 -0.14896172 0.15145026 -0.077480234
000170 95 07 11 3e d9 b1 ef 3c 12 87 2a 3e 6c 0e 2a be
       0.14163049 0.029259609 0.16653088 -0.16607064
000180 de d1 aa bc 7a 01 8c bd 21 11 23 3e 54 b6 ff bd
       -0.020852026 -0.06836219 0.15924503 -0.12485948
000190 8c 9f 25 be b9 44 bb bd 03 67 d5 3d 5d 87 87 bc
       -0.16174144 -0.09143967 0.104200386 -0.016544038
0001a0 87 77 59 bc 05 62 c0 3d 38 0c f0 3d 99 60 b0 bd
       -0.013273126 0.09393696 0.117210805 -0.086121745
0001b0 04 22 de 3c 12 3a b6 3d be 26 1e bd fc f7 e4 3c
       0.02711583 0.08897795 -0.038611166 0.02795028
0001c0 65 77 d6 3d 5b db ca 3d 8c 45 2a be ba ee 98 bb
       0.104719914 0.0990512 -0.16628093 -0.0046671303
0001d0 25 94 00 be 01 77 1e 3d 62 73 8e bd 5e 9e f2 bd
       -0.12556513 0.03868771 -0.06955601 -0.118466124
0001e0 97 ea f3 3d ec 79 1c 3e 5c 62 de bd f2 bd 75 3d
       0.11909979 0.15280885 -0.10858604 0.0599956
0001f0 ff e3 f0 3d de 95 f0 3d b8 51 0f 3c f1 1d ea 3d
       0.11762237 0.11747335 0.008747511 0.11431492
000200 a1 bd 25 bd 65 1c ae 3c 11 e5 07 be 19 ab 6f 3d
       -0.040464047 0.021253774 -0.13270976 0.05851278
000210 1f 2f ec 3d d9 3a e7 3d 70 e1 fd bd 97 8d 04 be
       0.11532425 0.11290521 -0.123965144 -0.12944637
000220 d6 cc 22 3d df 14 8a bd 8a ab 9a 3d 4b d5 c6 3d
       0.039746128 -0.06742262 0.0755225 0.09708651
000230 ce cb 18 bd 93 97 22 be 54 61 3f bd 98 02 cf bd
       -0.03730374 -0.15878133 -0.04672368 -0.101079166
000240 49 76 2b be 2b 2b b8 3d 60 a7 13 3e aa 63 f3 3b
       -0.16744341 0.08992609 0.14419317 0.0074276524
000250 40 3e 24 3e e7 e7 f8 3d 3b d9 84 3d 8e b7 d8 bd
       0.16039371 0.12153607 0.06486746 -0.10581885
000260 58 93 a0 3d a9 4d 25 3e f9 75 06 be 6c ea 0c be
       0.078406036 0.16142906 -0.1313094 -0.137613
000270 b7 16 54 bd 8b b0 b6 3d 62 bb c3 3c 9f 26 83 bb
       -0.051779475 0.08920392 0.023893062 -0.0040024067
000280 e2 90 58 bd bb de 20 3e 81 3f 9c 3d 84 d6 8d bd
       -0.052872546 0.15709965 0.076293 -0.06925681
000290 ef f9 f2 3c a9 d3 32 3d 91 7e 16 3e be 46 d8 3d
       0.029660193 0.043658886 0.14696719 0.10560368
0002a0 b7 2a 2e 3c 8b aa 06 be 18 43 4b 3d 2a 60 b4 3c
       0.010630301 -0.13150994 0.049624532 0.02201851
0002b0 e4 f8 18 3e 5c 59 05 3e 47 75 b8 3d 0f 27 13 3d
       0.14938694 0.13022369 0.09006744 0.03592592
0002c0 cc c0 9f bd a4 d0 29 3d 29 8c 05 be 6b 4d 53 bd
       -0.07800445 0.04145874 -0.13041748 -0.051587503
0002d0 4c f0 12 be 37 b3 a1 bd 5a 17 57 bd d1 b8 17 3e
       -0.14349478 -0.07895511 -0.052512504 0.14816596
0002e0 77 ad 97 bc 66 44 6c bd 12 c7 b1 bd e5 61 1e be
       -0.018515332 -0.057682417 -0.08680548 -0.15467031
0002f0 72 d4 15 be aa ed fe 3d 54 65 e3 3d ff d4 f6 bd
       -0.14631823 0.124476746 0.11103311 -0.120523445
000300 a3 2a 93 3c 40 a5 1c 3e eb 4e c5 bc 33 b4 c0 bd
       0.017964667 0.15297413 -0.024085483 -0.0940937
000310 46 db c1 bd 2d bd ac 3d 87 0d e9 3d 65 3e 37 bd
       -0.09465651 0.0843452 0.11379533 -0.04473724
000320 1c 07 09 be fd 03 cf 3d de 3d 12 be 37 21 b2 3d
       -0.13381618 0.101081826 -0.14281413 0.086977415
000330 21 76 20 3e d1 bd 25 3e 2f 62 e9 bd 23 d7 25 bd
       0.15670063 0.1618569 -0.1139568 -0.040488373
000340 9d 2f 16 be c3 ec 2b 3e a1 2c ad 3d 35 41 ed 3c
       -0.146666 0.16789536 0.08455778 0.028961757
000350 fb 78 be bd 45 21 17 3e f0 c0 0a 3e c4 a8 ee 3d
       -0.09300419 0.14758785 0.13550162 0.11653283
000360 1e 5f fa bd d8 8d 86 bd c6 0e 73 3b 66 48 b1 bd
       -0.122251734 -0.06570023 0.0037087663 -0.08656387
000370 5d a9 8e bd ca 8b a3 3d 38 b9 18 bb 47 7b 09 3e
       -0.06965897 0.07985647 -0.0023303758 0.13425933
000380 6b 1c 46 bd f4 6d 27 3d 53 e2 dd bd db 70 2d 3d
       -0.048366945 0.040876344 -0.108341835 0.042343955
000390 b2 ce e8 3d 68 46 0b be 77 0e a3 bd af d6 85 3d
       0.11367549 -0.13601077 -0.07961743 0.06535088
0003a0 fd cd 14 be f4 a0 2c bd c8 39 29 3e cd 4c 11 be
       -0.14531703 -0.042145684 0.16525948 -0.14189453
0003b0 8f 29 ba bd 58 a0 a7 3d b5 05 00 be 46 5b f1 bd
       -0.09089958 0.0818488 -0.12502177 -0.11784987
0003c0 8b 60 e4 3d 0e 64 f4 bc e0 71 b0 3d 85 f5 93 3c
       0.111512266 -0.029832866 0.0861547 0.018061409
0003d0 ee bb 24 3c 9e 67 d8 3c 53 e0 dc 3c 20 75 e2 bd
       0.010054572 0.026416596 0.026962435 -0.11057496
0003e0 f4 ec 23 3e d8 9a a7 3c 4d 9a 2f be 78 e6 09 bc
       0.16008359 0.020459577 -0.17148705 -0.008416764
0003f0 ea 70 e5 3d 42 04 4f bd be 81 f6 bd b4 36 d0 bd
       0.11203177 -0.05054117 -0.12036465 -0.10166684

v.net.0.bias f4 [64]
000000 aa 60 c6 bd d0 a6 7e bc 8e fd d5 3d 2e 55 58 3d
       -0.09686406 -0.015542701 0.10448752 0.05281561
000010 5a e8 01 3e 8c e0 23 be 24 f6 1c bd 05 47 b2 bd
       0.12686291 -0.16003627 -0.038320675 -0.08704952
000020 cb d4 2a 3e 1d 3b 80 bd cb b8 19 be 2e 2c af 3d
       0.16682737 -0.06261275 -0.15011899 0.085533485
000030 6c f3 e9 bc 95 34 50 bd 13 ca 36 bc e5 a3 ea bc
       -0.028558455 -0.050831396 -0.011156577 -0.028642604
000040 d2 b8 2a be 41 14 05 3e e7 54 10 3e fc 5b fb 3c
       -0.16672066 0.12996008 0.14094888 0.03068351
000050 4f 57 2f be 99 e9 12 3e d4 b5 80 3d 14 a1 ca bd
       -0.1712315 0.14346923 0.06284681 -0.098940045
000060 2f fe 73 bd 16 70 cf bd 2f d5 10 be a4 a6 07 3e
       -0.05956858 -0.101288006 -0.14143823 0.13247162
000070 33 b0 bb bc 5b 63 14 be 33 54 a3 bd b2 9f c7 bd
       -0.022911167 -0.14491026 -0.07975044 -0.09747256
000080 71 e9 0c bc 84 18 d9 3d 06 7c 9f 3d be d8 c3 3d
       -0.008600579 0.10600379 0.077873275 0.09562825
000090 d7 9e 22 3e 1b 0f 92 3c f4 2a 1e 3e fd 75 72 bd
       0.15880905 0.017829468 0.15446073 -0.059194554
0000a0 a1 3e 1f bd da 1d 45 bd 63 58 28 3e ad 80 20 be
       -0.038878087 -0.04812417 0.16439967 -0.15674086
0000b0 15 9f bd bd 32 ce 54 3d c7 67 5f bc bc 13 7a 3b
       -0.09258858 0.051954456 -0.013635582 0.0038158735
0000c0 6a b1 64 bc bb 98 1f 3e bb b7 19 3e 2e f8 0a bd
       -0.013958314 0.15585606 0.15011494 -0.03392809
0000d0 00 a4 e8 bd 4e 08 6b 3c d1 9f 01 bd 1a dc ff 3d
       -0.113594055 0.014345242 -0.031646553 0.12493153
0000e0 b8 1c d9 3c 27 80 2e 3e b1 51 ef 3d 4f db a5 bd
       0.026502952 0.17041074 0.11685503 -0.080984704
0000f0 26 49 c9 3d 46 56 70 bd dd 56 0a bd f0 31 13 3e
       0.09828405 -0.058676027 -0.033774246 0.14374518

v.net.2.weight f4 [64, 64]
000000 58 3a 70 bd e8 e3 de 3d 7a cf ac bd 6e bb d9 3d
       -0.05864939 0.108833134 -0.084380105 0.106314525
000010 b2 03 f5 bd c6 68 b5 3d a6 a7 cc bd 28 1d c5 bd
       -0.119635954 0.088578746 -0.09992914 -0.09624702
000020 6e f7 96 3d 40 83 df 3d 90 cb 23 3c 38 51 44 bd
       0.07371412 0.10913706 0.009997264 -0.04792902
000030 e0 4b db bc aa 7a f8 3d c0 f2 ec 3c 48 35 2b 3d
       -0.026769578 0.12132771 0.028924346 0.04179886
000040 70 98 3c bd 80 8d 11 3d cc 22 18 bd 00 34 54 ba
       -0.046043813 0.035535336 -0.03714256 -0.0008094907
000050 ca 11 88 3d 46 85 f9 3d 98 ea 36 bd b8 cf c9 bc
       0.06644018 0.12183623 -0.04465732 -0.02463518
000060 e0 f8 73 bc 08 98 ae 3c a0 5b 4e bd 06 7e 87 3d
       -0.014890879 0.021312729 -0.05038035 0.06615834
000070 24 58 5b bd 14 b0 b1 3d 0e d6 d4 3d 5e 16 fd bd
       -0.053550854 0.08676162 0.1039239 -0.12357782
000080 64 bc de bd f8 9f 9e 3d 1a 1d 90 bd 10 0b c7 3d
       -0.108757764 0.07745355 -0.07036801 0.09718907
000090 88 b5 64 bd ba ac fc bd 82 91 f7 3d 1c cb 80 bd
       -0.055837184 -0.123376325 0.120883 -0.0628874
0000a0 00 1c 89 bd 84 0a d9 bd d2 a6 e2 bd 0c 1f 09 bd
       -0.06694794 -0.10597709 -0.11066975 -0.033476874
0000b0 00 77 96 3d 68 2f dc bd 52 7d a2 3d 3c 1e ad 3d
       0.07346916 -0.107512295 0.07934059 0.084530324
0000c0 1c 2b 8e bd 80 65 19 bd 66 38 92 3d 40 62 df bd
       -0.06941816 -0.037450314 0.071396634 -0.109074116
0000d0 7a fb 90 3d 7c ed 41 bd 80 c3 f0 3b dc 6b b8 bd
       0.07079215 -0.047345623 0.007347524 -0.090049475
0000e0 24 0d b0 bd 10 18 28 bc a2 32 81 3d c6 9d 83 bd
       -0.085962564 -0.010259643 0.063084856 -0.06426577
0000f0 30 51 f8 bd 94 ec 72 bd e8 90 4c 3d b2 c8 aa bd
       -0.1212486 -0.05930765 0.04994288 -0.08339061
000100 00 f8 a0 38 60 82 bb bc 30 81 7b 3d 18 bc b4 3c
       7.675588e-05 -0.022889316 0.0614025 0.022062346
000110 7e d1 eb bd 1e c6 b1 3d 48 7a f2 3d c4 a5 d2 bd
       -0.11514567 0.08680366 0.118397295 -0.102855235
000120 54 d5 fd bd 18 f7 c3 3d 4c fc 66 bd 14 90 2f 3d
       -0.12394205 0.09568614 -0.056392953 0.042862013
000130 d2 92 a6 3d f0 4c a9 3d de 87 f8 bd 60 26 e4 bd
       0.081334725 0.08266628 -0.121352896 -0.11140132
000140 4a b3 91 bd 32 27 ec 3d b0 27 ff bd 0a 68 dd bd
       -0.07114275 0.115309134 -0.12458742 -0.108108595
000150 82 c9 93 bd 2c 47 23 bd 04 1e 6a 3d a8 e2 f0 bc
       -0.07216169 -0.039862797 0.05715753 -0.029404953
000160 a2 35 81 bd 78 05 fd bc 82 0f b0 bd d2 11 b4 3d
       -0.06309058 -0.030886397 -0.08596708 0.087924615
000170 80 74 c5 bd c4 a6 21 bd 62 b4 8b 3d 78 fa c1 bd
       -0.09641361 -0.03946568 0.06821515 -0.09471601
000180 d8 cb 73 3d dc fe 9f 3d 02 47 ff bd e8 63 b3 bc
       0.059520572 0.078122824 -0.124647155 -0.021898225
000190 a8 8b b4 bd 74 52 37 bd 70 c7 9a bc b6 c0 dc bd
       -0.088157 -0.044756368 -0.018893927 -0.10778944
0001a0 f8 f6 10 3d 18 93 a4 3d 92 01 c3 3d 00 09 a1 ba
       0.035391778 0.080358684 0.09521784 -0.0012286007
0001b0 68 33 6a 3d 7e ed 9f bd c4 15 33 bd 40 c3 65 bb
       0.05717793 -0.0780897 -0.04372193 -0.0035059005
0001c0 e0 fb 41 bd a8 7a 76 3d d0 a1 25 bd 36 40 c7 bd
       -0.047359347 0.060175568 -0.04043752 -0.09729044
0001d0 04 31 02 3d f2 47 9c 3d 52 27 cb 3d 30 b6 fb 3c
       0.031785026 0.0763091 0.09919609 0.030726522
0001e0 4c 37 cb bd 7c 66 a6 3d 1e a3 8c 3d bc e0 36 3d
       -0.099226564 0.08125016 0.0686705 0.044647917
0001f0 70 c6 a5 bd 90 47 18 3c 42 96 f9 3d 50 e1 0b 3c
       -0.080944896 0.009294406 0.121868625 0.008537605
000200 00 d9 d5 bd e4 14 ba bd 6c a3 48 3d d4 e8 75 bd
       -0.1044178 -0.09086016 0.048983976 -0.060036495
000210 90 a1 67 bd e0 be c2 3b 58 b3 13 3d 20 3e 0b 3c
       -0.056550562 0.005943164 0.036059707 0.0084986985
000220 8c 4f 92 3d a0 06 ac bb 1c 4a 7d 3d bc e9 a1 3d
       0.071440786 -0.005249813 0.061838254 0.079059094
000230 78 63 e0 3c e0 ae 49 bd 3c 3c 62 3d 3c 61 12 bd
       0.02739118 -0.04923904 0.055233225 -0.03573726
000240 86 14 96 3d 80 1f 43 3c bc 73 bf bd 00 c1 74 bb
       0.07328133 0.011909366 -0.093482465 -0.0037346482
000250 84 19 62 3d 76 2e f2 3d 28 42 ba bd a0 b3 af bd
       0.055200115 0.11825268 -0.090946496 -0.085791826
000260 3c da aa 3d cc fc 0e bd 1a 73 e7 3d 00 61 95 3c
       0.08342406 -0.034909055 0.11301251 0.01823473
000270 dc ac 9c bd 98 01 4c 3d 10 42 3a bd 98 60 eb bd
       -0.07650158 0.049806207 -0.04547316 -0.11493033
000280 e0 ee d5 3d e8 88 ba bd e8 28 d2 bc 6c 4e fb bd
       0.104459524 -0.09108144 -0.025654271 -0.12270817
000290 5c ed 36 bd 4c b5 43 3d 80 cd ea ba f0 90 60 3d
       -0.044659957 0.04778032 -0.0017914027 0.054825723
0002a0 10 52 06 bc 0c 2d 2d 3d f0 c7 55 3d 82 b8 a3 3d
       -0.008198276 0.04227929 0.05219263 0.079941764
0002b0 a2 82 a3 bd f8 f6 03 3d 20 12 da bd f8 50 cb 3c
       -0.079839006 0.03221795 -0.10647988 0.024818882
0002c0 e2 2c f0 bd 4c 61 a7 3d ae e6 88 bd b8 8a ce bd
       -0.11727311 0.08172855 -0.06684624 -0.10085052
0002d0 90 91 f0 bc 1a 6a d8 bd c4 a7 13 3d 24 43 e3 bd
       -0.029366285 -0.10567112 0.036048666 -0.110967904
0002e0 dc 94 30 3d a0 9a a7 3c 70 b4 2e 3d 36 1d d3 3d
       0.043110713 0.020459473 0.042652547 0.10308306
0002f0 7a 3c d3 bd 20 30 3d bc 00 3c f1 3c 36 3f ad bd
       -0.10314269 -0.011547118 0.029447556 -0.08459322
000300 4e 4d f6 bd 90 3a f4 bc 10 a7 5e bc 08 b9 ca 3d
       -0.120264634 -0.029813081 -0.0135896355 0.09898573
000310 48 be ad 3c f8 80 16 bd 56 fc af bd c0 16 ce bc
       0.021208897 -0.036744088 -0.08593051 -0.025157332
000320 b2 66 d6 bd f2 0b c9 bd 4c 34 00 3d b4 af 5e bd
       -0.10468806 -0.098167315 0.031299874 -0.054366782
000330 88 fa b8 bc 88 fd b4 3c 02 51 d3 3d 30 81 6e 3c
       -0.0225804 0.02209355 0.103181854 0.014557168
000340 32 ad 96 bd 64 a4 2f 3d 94 2c 8f 3d 5c af 5c 3d
       -0.07357253 0.042881384 0.069909245 0.053878173
000350 34 99 91 bd 80 03 39 bd 80 62 f0 3a aa f1 94 3d
       -0.07109299 -0.045169353 0.0018339902 0.07272656
000360 26 6c f0 3d 84 8b df 3d 14 88 38 3d 90 08 6b 3c
       0.11739378 0.10915282 0.04505165 0.014345303
000370 b4 6b 7f bd 0a 87 95 3d 08 6e c9 bc f6 97 8c bd
       -0.062358573 0.07301147 -0.0245886 -0.06864922
000380 10 40 e8 3d 30 62 c2 3d e8 22 ff 3d d4 de 4d 3d
       0.11340344 0.09491384 0.1245783 0.050261334
000390 88 de 1d 3d d0 4c b7 bc 46 68 ae bd 74 7f f4 3d
       0.0385423 -0.022375494 -0.08515982 0.11938372
0003a0 c0 ee 8a 3c 5c 71 fe bd 58 59 d4 bd 20 9f bb 3c
       0.016959548 -0.12423965 -0.103686035 0.022903025
0003b0 a0 3e e7 bb a2 58 95 3d 9e 09 91 3d 70 f2 6f bc
       -0.007057026 0.07292296 0.070819125 -0.014645204
0003c0 6c a3 ba bd 84 56 28 bd e2 f4 8d 3d 60 fc a4 3b
       -0.091132015 -0.041098133 0.06931473 0.0050349683
0003d0 80 81 77 bb 18 5d a0 bd 1c d3 7a 3d 78 8c f5 3d
       -0.0037766397 -0.07830256 0.061236486 0.11989683
0003e0 ec f8 c2 bd de e2 82 bd 10 e4 5f 3d fa dc 8e 3d
       -0.09520134 -0.06390928 0.054660857 0.06975742
0003f0 2c cb 1b 3d 54 3d bc bd 74 fb ce 3d 50 38 4e 3d
       0.038035557 -0.09191385 0.101065546 0.050346673

v.net.2.bias f4 [64]
000000 2c 6d a4 bd e0 c2 4a bc 9c 87 d7 bd e6 7b b1 bd
       -0.080286354 -0.012375563 -0.10523912 -0.0866621
000010 80 19 29 bd c4 c9 30 bd 18 0f fe bc cc e6 13 3d
       -0.041284084 -0.04316117 -0.031013057 0.036108777
000020 00 04 c0 3c ec 0a 1e 3d 26 e6 fd bd 80 bd 68 bd
       0.023439407 0.038584635 -0.12397413 -0.056821346
000030 88 ac 36 3d 7c 01 cf 3d 24 57 8c bd f0 06 74 bd
       0.044598132 0.10107705 -0.06852558 -0.05957693
000040 8c 2b 74 bd f0 57 72 3c b8 b2 bc 3d bc 99 45 bd
       -0.059611842 0.014791474 0.092137754 -0.048242316
000050 80 57 98 3d 00 c0 29 bd ba 26 bd 3d 70 1a 98 bd
       0.07438564 -0.04144287 0.09235902 -0.074269176
000060 be 33 fa 3d 20 04 24 3c b0 43 9b bd 00 8f 13 bd
       0.122169 0.010010749 -0.0758127 -0.036025047
000070 40 88 67 bc e0 9f a5 3d c8 2e 60 bd 26 13 c6 3d
       -0.014131606 0.08087134 -0.054732114 0.09671621
000080 d8 7a 2f 3d 74 2a 37 3d dc 11 46 bd f4 60 40 3d
       0.042841762 0.04471822 -0.048356876 0.04696746
000090 78 e0 3b 3d 20 4d 15 3c 2c b3 ab 3d c4 17 40 3d
       0.045868367 0.009112626 0.08383784 0.046897665
0000a0 50 4f ac 3c 88 8f 64 3d e4 9e b0 3d 0c 44 38 bd
       0.021033913 0.055800945 0.08624056 -0.04498677
0000b0 d0 38 4d bd b6 31 b6 3d 00 1a 2d 3c 0c 1b 5d 3d
       -0.05010301 0.088962 0.010565281 0.053980872
0000c0 08 c3 c5 3c bc e0 2a 3d f0 20 bd 3c 88 9d ef 3c
       0.02414085 0.04171823 0.023086995 0.029249921
0000d0 e2 cd ac 3d 30 07 59 3c a0 b8 84 bc 30 e5 bb 3d
       0.084377065 0.013246343 -0.016201317 0.091745734
0000e0 b4 67 13 bd 90 40 51 bc 5a e6 8f bd 50 fa ef 3d
       -0.03598757 -0.012771741 -0.07026358 0.11717665
0000f0 1c 3a 13 3d c0 ba fb bd 40 14 98 bd 3e 21 98 bd
       0.03594409 -0.12291479 -0.074257374 -0.074282154

v.net.4.weight f4 [1, 64]
000000 88 b9 d3 3c ae c9 81 bd 7c dd 5e 3d 52 3b f1 bd
       0.025845304 -0.063372955 0.054410443 -0.117788926
000010 40 4f b2 3b d0 ce d4 bc 90 40 eb bd 8e 5b ca 3d
       0.0054415762 -0.025977522 -0.11486924 0.09880744
000020 40 8f 47 3d 10 a9 34 bd 38 ba 42 bd c0 43 7b bb
       0.0487206 -0.044106543 -0.047540873 -0.0038339943
000030 36 d9 dd bd d4 2c 72 bd 80 23 59 bb 80 a4 64 bd
       -0.10832445 -0.059124783 -0.0033132732 -0.055820942
000040 60 1e aa 3b 46 11 ca bd 20 ee eb bd 70 71 90 bd
       0.0051916093 -0.09866576 -0.11520028 -0.070528865
000050 d4 ae 94 bd f8 94 55 bd e8 11 30 3d a8 db ef bd
       -0.07259908 -0.05214402 0.042985827 -0.11711818
000060 d4 e4 25 3d a4 51 8c bd ba 85 c0 3d 62 2a ab 3d
       0.04050143 -0.06851509 0.09400506 0.08357693
000070 e0 81 24 3c c4 11 b7 bd 32 bf 83 bd 28 22 ca 3d
       0.01004073 -0.089389354 -0.06432952 0.09869796
000080 cc d8 0a 3d 40 8a 11 3b 64 5f 8b 3d a0 4a cd bb
       0.03389816 0.0022207648 0.06805304 -0.0062649995
000090 54 ed f1 bd 40 b8 7c 3d 5c 40 48 bd dc 72 17 3d
       -0.11812845 0.061699152 -0.048889503 0.036974773
0000a0 6a 6d e8 3d 68 f5 7a 3d 54 2b 58 bd 70 93 16 3d
       0.11348994 0.061269194 -0.052775696 0.0367617
0000b0 0c 8d a6 3d 9c 56 da 3d 1a 5d ca 3d d0 3c a4 3c
       0.08132371 0.10661051 0.09881039 0.020048529
0000c0 e0 33 d4 3c 14 1e 1f 3d a0 a8 d2 bd 2c cd 7a 3d
       0.025903642 0.038847044 -0.10286069 0.061230823
0000d0 6a 41 b3 3d 2a 6d e4 3d 72 62 89 bd 80 44 9a 3b
       0.08752711 0.11153634 -0.0670823 0.004707873
0000e0 c2 08 c2 bd 52 02 b5 3d 9e 19 e4 bd c0 49 d5 3b
       -0.09474327 0.08838333 -0.111376986 0.006509036
0000f0 b6 83 a0 3d cc 1d 18 bd 34 d8 0f 3d c0 dd 8f 3d
       0.07837622 -0.03713779 0.035118297 0.07024717
