runs/phoenix/DroneHoverBulletEnvWithAdversary-v0/ppo/2023-07-14__13-17-44/seed_44392/torch_save/model.pt (torch, 49538 bytes, 14 tensors)

obs_oms.mean f4 [34]
0.0 0.0 0.0 0.0 0.0 0.0 0.0 0.0
0.0 0.0 0.0 0.0 0.0 0.0 0.0 0.0
0.0 0.0 0.0 0.0 0.0 0.0 0.0 0.0
0.0 0.0 0.0 0.0 0.0 0.0 0.0 0.0
0.0 0.0
00000000: 0000 0000 0000 0000 0000 0000 0000 0000
00000010: 0000 0000 0000 0000 0000 0000 0000 0000
00000020: 0000 0000 0000 0000 0000 0000 0000 0000
00000030: 0000 0000 0000 0000 0000 0000 0000 0000
00000040: 0000 0000 0000 0000 0000 0000 0000 0000
00000050: 0000 0000 0000 0000 0000 0000 0000 0000
00000060: 0000 0000 0000 0000 0000 0000 0000 0000
00000070: 0000 0000 0000 0000 0000 0000 0000 0000
00000080: 0000 0000 0000 0000

obs_oms.std f4 [34]
1.0 1.0 1.0 1.0 1.0 1.0 1.0 1.0
1.0 1.0 1.0 1.0 1.0 1.0 1.0 1.0
1.0 1.0 1.0 1.0 1.0 1.0 1.0 1.0
1.0 1.0 1.0 1.0 1.0 1.0 1.0 1.0
1.0 1.0
00000000: 0000 803f 0000 803f 0000 803f 0000 803f
00000010: 0000 803f 0000 803f 0000 803f 0000 803f
00000020: 0000 803f 0000 803f 0000 803f 0000 803f
00000030: 0000 803f 0000 803f 0000 803f 0000 803f
00000040: 0000 803f 0000 803f 0000 803f 0000 803f
00000050: 0000 803f 0000 803f 0000 803f 0000 803f
00000060: 0000 803f 0000 803f 0000 803f 0000 803f
00000070: 0000 803f 0000 803f 0000 803f 0000 803f
00000080: 0000 803f 0000 803f

pi.log_std f4 [4]
-0.6931472 -0.6931472 -0.6931472 -0.6931472
00000000: 1872 31bf 1872 31bf 1872 31bf 1872 31bf

pi.net.0.weight f4 [50, 34]
0.026067367 -0.08068256 -0.0032974898 0.07972671 0.116915405 0.034729872 0.16436872 -0.03864089
-0.025042417 -0.09185183 0.11684563 -0.0101004895 -0.0014831672 -0.08949661 0.013061447 -0.14237206
-0.009055708 -0.029802384 -0.04418835 0.03524028 -0.13941017 0.10371334 -0.13528563 0.15506102
-0.0143363895 0.102229565 -0.065780535 -0.1446497 -0.0044144806 0.081157885 0.064213224 0.06600498
0.16708931 0.041391313 0.08178859 -0.13296314 0.14447445 -0.15707885 -0.1021936 0.0035886564
-0.109164834 0.10630293 0.0011454899 0.15102173 0.0108569255 -0.04612536 -0.025807338 0.08021782
-0.13798332 0.11980088 -0.09046843 -0.116899095 0.13955097 -0.106550284 -0.01171591 -0.09364941
-0.031810783 0.13305263 -0.05640555 0.0055728094 -0.037070714 -0.14259237 0.12662254 -0.0928179
-0.11736712 -0.056739286 -0.1710156 0.04150245 0.011483582 -0.00578547 0.06679645 0.15811566
0.017111305 0.16879782 -0.056514256 0.09681209 -0.06973118 -0.123573765 -0.0193533 0.09366053
-0.04908415 -0.033659473 0.015665693 -0.13405655 0.03503355 -0.13167295 0.10098269 -0.040823538
-0.026658716 0.06262949 0.0394679 -0.031032553 0.031634003 0.13370293 -0.051477045 0.03662131
0.167869 0.09572468 0.05073492 -0.10409013 0.04271191 0.1645538 -0.09163116 -0.08337999
-0.16230252 0.15539297 -0.1009095 0.062960036 0.16935144 -0.058224823 0.047011044 -0.051594496
-0.03814463 0.0038014194 -0.103689075 -0.10067549 0.118459724 0.079318725 0.11541286 0.047937986
0.07830107 0.11520259 -0.090679064 0.06884601 -0.13215834 -0.038821924 -0.15010624 0.10728334
0.03867125 -0.016644174 0.12461063 -0.15457475 -0.13901012 -0.074843094 0.08364754 0.06632705
0.12862484 0.047417372 -0.062319003 -0.06468859 -0.030605555 0.10313373 -0.063073784 0.1346034
-0.08289522 0.13603552 -0.039895266 -0.014980771 -0.092479855 0.0760419 0.044221185 0.034303505
0.10286094 0.01242461 -0.026319157 -0.022897612 -0.058575522 -0.14806087 -0.14039165 0.14898612
0.039691582 -0.0011859899 -0.00042642563 0.064696096 -0.1380058 -0.1053589 -0.12707189 0.11666353
0.09251318 -0.11692224 -0.09046281 0.11992034 -0.013009723 -0.15386292 -0.022794185 -0.029377451
0.13968024 0.027997589 0.13801186 0.15697312 0.047927905 0.027999714 -0.14695714 0.13993123
-0.055586495 0.10067423 -0.09703906 -0.048632618 -0.072890915 0.11478291 -0.14361465 0.14607823
-0.12653446 -0.0692018 -0.15365909 0.14695595 -0.14740054 -0.09203732 -0.013333008 0.14184795
0.0630552 -0.14932778 0.049244553 -0.061070904 -0.14650744 -0.14914253 0.15566532 0.13612933
0.009601855 -0.12803537 -0.13384531 -0.0051242015 0.031965446 -0.1712716 0.074922375 0.029645167
-0.015939912 0.1069878 0.13377102 0.09670647 0.11341711 -0.09938213 -0.012885892 0.070103325
0.08741431 -0.13452618 -0.1409489 0.12023434 0.13736638 0.018335545 -0.024608038 0.13503404
0.09224673 -0.07161857 -0.11184332 -0.07647508 -0.08737042 0.15053816 0.07008662 0.05763421
0.02844039 0.11985367 0.10171993 0.053442713 -0.07657838 -0.16117541 -0.06316439 0.12808682
-0.008339649 -0.09496786 -0.118241765 0.0024188175 -0.016901035 0.13134049 -0.094866596 0.12631585
00000000: 3b8b d53c e63c a5bd b31a 58bb c247 a33d
00000010: 5871 ef3d e940 0e3d 4650 283e e945 1ebd
00000020: c125 cdbc d01c bcbd c34c ef3d 867c 25bc
00000030: d566 c2ba 004a b7bd aeff 553c fbc9 11be
00000040: 645e 14bc 2124 f4bc d8fe 34bd 1d58 103d
00000050: 8ac1 0ebe a967 d43d 5188 0abe 51c8 1e3e
00000060: 2de3 6abc bc5d d13d f2b7 86bd 0d1f 14be
00000070: 59a7 90bb 1b36 a63d 3982 833d 9e2d 873d
00000080: 7619 2b3e f089 293d c780 a73d 7d27 08be
00000090: 1cf1 133e 47d9 20be e14a d1bd aa2f 6b3b
000000a0: d091 dfbd 5ab5 d93d 4324 963a 71a5 1a3e
000000b0: 3fe1 313c f2ed 3cbd e969 d3bc 3e49 a43d
000000c0: 804b 0dbe 2a5a f53d 8347 b9bd cb68 efbd
000000d0: 73e6 0e3e 0937 dabd 17f4 3fbc 43cb bfbd
000000e0: 064c 02bd f33e 083e 8209 67bd 1d9c b63b
000000f0: 76d7 17bd bc03 12be 57a9 013e 5017 bebd
00000100: 2c5e f0bd 7467 68bd b71e 2fbe 79fe 293d
00000110: a225 3c3c 0a94 bdbb 94cc 883d 12e9 213e
00000120: 022d 8c3c 56d9 2c3e 7e7b 67bd 6b45 c63d
00000130: 39cf 8ebd 3e14 fdbd d08a 9ebc 18d1 bf3d
00000140: 760c 49bd 84de 09bd 5755 803c 1f46 09be
00000150: 577f 0f3d 46d5 06be 03d0 ce3d 9536 27bd
00000160: 6163 dabc e443 803d 18a9 213d fb37 febc
00000170: a892 013d 6ce9 083e 98d9 52bd 3a00 163d
00000180: dae5 2b3e 4d0b c43d 6bcf 4f3d 352d d5bd
00000190: aff2 2e3d cb80 283e 1ea9 bbbd 21c3 aabd
000001a0: a232 26be 561f 1f3e a4a9 cebd 31f1 803d
000001b0: 776a 2d3e 277d 6ebd a78e 403d c054 53bd
000001c0: 8b3d 1cbd 3c21 793b f05a d4bd f42e cebd
000001d0: 039b f23d db71 a23d 945d ec3d 9f5a 443d
000001e0: 505c a03d 56ef eb3d f2b5 b9bd 23ff 8c3d
000001f0: 8454 07be bd03 1fbd 73b5 19be 5eb7 db3d
00000200: bf65 1e3d 5d59 88bc dc33 ff3d d848 1ebe
00000210: ab58 0ebe 5647 99bd 674f ab3d 7ad6 873d
00000220: 3bb6 033e b838 423d 3642 7fbd 747b 84bd
00000230: 80b8 fabc c737 d33d d42c 81bd 79d5 093e
00000240: f8c4 a9bd e54c 0b3e 3869 23bd e871 75bc
00000250: 1466 bdbd dbbb 9b3d 4621 353d d581 0c3d
00000260: c2a8 d23d 9790 4b3c 469b d7bc c693 bbbc
00000270: e3ec 6fbd 459d 17be d4c2 0fbe d18f 183e
00000280: a493 223d 3873 9bba e191 dfb9 637f 843d
00000290: 6451 0dbe 68c6 d7bd 221f 02be 4aed ee3d
000002a0: 8d77 bd3d ed74 efbd 9144 b9bd cc98 f53d
000002b0: bc26 55bc 3e8e 1dbe dfba babc fba8 f0bc
000002c0: 5608 0f3e 335b e53c fb52 0d3e 90bd 203e
000002d0: 0d50 443d a85f e53c ef7b 16be 224a 0f3e
000002e0: aaae 63bd 4a2e ce3d 6abc c6bd ff32 47bd
000002f0: d547 95bd 4d13 eb3d b80f 13be 8895 153e
00000300: 4092 01be acb9 8dbd cf58 1dbe 9f7b 163e
00000310: 2bf0 16be 107e bcbd b072 5abc 9740 113e
00000320: 1623 813d 62e9 18be a8b4 493d 7c25 7abd
00000330: 0c06 16be d2b8 18be bb66 1f3e 7d65 0b3e
00000340: 1951 1d3c b41b 03be bf0e 09be ebe8 a7bb
00000350: 33ee 023d d361 2fbe e770 993d 6cda f23c
00000360: 6b94 82bc 6b1c db3d 45fb 083e 0b0e c63d
00000370: 3b47 e83d dc88 cbbd 591f 53bc 5592 8f3d
00000380: 4606 b33d 3bc1 09be e954 10be 6c3d f63d
00000390: c6a9 0c3e 6d34 963c cc96 c9bc 5d46 0a3e
000003a0: dbeb bc3d c2ac 92bd 1c0e e5bd f79e 9cbd
000003b0: 43ef b2bd ad26 1a3e 9389 8f3d d911 6c3d
000003c0: d2fb e83c d775 f53d 8a52 d03d bfe6 5a3d
000003d0: 20d5 9cbd 2b0b 25be 555c 81bd 3129 033e
000003e0: 06a3 08bc 827e c2bd bd28 f2bd 0685 1e3b
000003f0: 0a74 8abc 1f7e 063e 6b49 c2bd f158 013e

pi.net.0.bias f4 [50]
-0.019062439 0.037411314 0.07783658 0.11875831 -0.041112393 -0.1704823 -0.11119869 -0.12497303
0.032892775 -0.02091068 -0.073086135 0.15986855 0.022578275 0.082939826 0.06440456 0.03880774
0.11759209 -0.10588845 0.07919207 0.0735593 0.008033108 -0.028829606 -0.09266682 -0.0070085255
0.081339225 -0.07699463 -0.040162843 0.15608999 -0.0908554 -0.16931066 0.0429463 -0.059416354
0.09581418 -0.156494 -0.027887354 -0.17003451 0.054326456 -0.09641741 -0.08878463 -0.05798859
-0.14714515 0.09910238 -0.005423096 -0.15311112 0.046596743 -0.17119764 0.12733838 -0.092776276
-0.06374006 -0.01493471
00000000: d528 9cbc 9b3c 193d c968 9f3d 8f37 f33d
00000010: 7865 28bd e992 2ebe 24bc e3bd dcf1 ffbd
00000020: 93ba 063d e04c abbc 2fae 95bd 95b4 233e
00000030: 13f6 b83c 5bdc a93d 8ae6 833d ddf4 1e3d
00000040: 1fd4 f03d 0bdc d8bd 742f a23d 42a6 963d
00000050: 4c9d 033c 112c ecbc 1ac8 bdbd c6a7 e5bb
00000060: 2e95 a63d 5caf 9dbd cb81 24bd 0ed6 1f3e
00000070: 6512 babd c65f 2dbe 76e8 2f3d 905e 73bd
00000080: 3a3a c43d f73f 20be 0574 e4bc 871d 2ebe
00000090: 6b85 5e3d 7e76 c5bd b7d4 b5bd 7285 6dbd
000000a0: 38ad 16be 30f6 ca3d 3ab4 b1bb 29c9 1cbe
000000b0: 3adc 3e3d 6f4e 2fbe fe64 023e 7d01 bebd
000000c0: 268a 82bd b7b0 74bc

pi.net.2.weight f4 [50, 50]
0.0017638794 0.13731346 0.05657173 -0.02004806 0.07674284 -0.12459067 -0.025981342 -0.06818477
0.13401745 -0.103979886 -0.044850353 0.084077 0.04459162 -0.052214097 -0.033276692 -0.021972805
0.021138381 -0.11204521 -0.13844018 -0.011627001 -0.05450584 -0.008562014 0.0045883926 -0.06953694
-0.035334434 -0.03170839 0.058292616 0.11133082 -0.06013076 0.06343126 0.07163997 -0.03149683
0.0032866958 0.063464135 -0.12696254 0.041517448 0.019219756 0.053553626 -0.11583962 0.022057487
0.089870654 0.027897691 -0.0737975 -0.0031051608 -0.000707005 0.10973013 -0.12355027 0.08170526
-0.12024099 -0.0044067902 -0.13609418 0.02288301 -0.13165587 0.061652984 0.06449586 0.009434016
0.124665275 0.119933195 -0.12206149 0.027371986 -0.124917276 0.08081399 -0.040196143 -0.08818306
-0.0776097 0.08616387 0.044174332 -0.07180279 -0.07934639 0.1282661 0.07275305 -0.017688628
0.01125159 0.06990421 -0.03784895 0.094556406 -0.021938413 -0.1269534 0.03166739 -0.059651162
-0.09936385 -0.025232157 0.066737264 -0.105427094 0.067853965 0.11352268 0.09563461 -0.035180245
-0.053269453 0.06844439 0.13796543 -0.076409444 -0.041954305 0.072341 -0.10109325 -0.039750144
-0.058659464 0.10877222 -0.045739938 0.024937987 -0.07311897 -0.025575737 -0.13053079 -0.12587431
0.07774492 -0.059797768 -0.057300918 -0.1004127 0.09098325 -0.006617258 -0.050660767 0.09565668
-0.006265551 0.06577616 -0.09935442 0.0658203 0.031175721 -0.030436432 -0.025217254 0.082802966
0.09450932 0.06209811 -0.121660404 -0.073227875 -0.028648041 -0.07300492 -0.10734909 0.022062527
0.00025665745 -0.04496044 0.11562028 -0.1296874 0.019203926 -0.12953858 0.07374347 0.10501968
0.117378004 0.022246843 0.046273112 -0.11811766 0.0948874 -0.13605325 0.07136305 0.056726474
-0.01455614 -0.08463841 -0.024099333 0.0688635 0.055232637 -0.07504835 0.01964775 -0.119412296
-0.011860528 -0.05766844 -0.084051475 0.07256739 0.03795354 -0.13564174 -0.14120662 0.020594586
-0.12629047 -0.1209843 0.09390423 0.09838712 0.058339655 0.06250735 -0.057573676 0.0046102586
0.0988169 0.1162953 0.021019714 -0.033461563 0.10302161 -0.09663283 0.004750439 0.1048921
-0.05462613 0.01266287 0.03706967 -0.023376295 -0.09574166 0.06566822 0.074009046 0.07120118
-0.10297205 -0.057568096 -0.13385528 -0.08978191 0.053217143 -0.087660745 0.12289253 -0.088867344
-0.12076919 0.01781195 0.11343916 -0.12479211 0.11850917 -0.11002577 -0.011932987 0.1104293
-0.121729076 -0.0087870285 0.0007762101 -0.020815369 0.10067316 -0.11092294 -0.10246068 -0.11364308
-0.04658471 0.059220757 0.021702155 0.12872832 0.1357158 -0.100132674 -0.042277437 0.06853511
-0.053277496 -0.10198949 -0.10158517 -0.07209716 0.13475816 -0.065075345 0.1127157 -0.0059125964
-0.13930571 -0.004087098 0.1203563 0.112729 -0.012901656 -0.13654374 -0.1129892 0.01963047
-0.023097048 0.0049180486 0.054211184 0.12912177 -0.013653203 -0.11469529 0.058578745 0.13802414
0.09973393 -0.122404955 -0.02599955 0.015600808 -0.12029004 0.053911705 -0.055766452 0.048688766
0.025611663 0.118197165 -0.044323582 -0.018885937 -0.052655544 0.038443036 0.0765621 0.029742021
00000000: f931 e73a e69b 0c3e c2b7 673d d43b a4bc
00000010: 5a2b 9d3d 6529 ffbd d3d6 d4bc 75a4 8bbd
00000020: df3b 093e 68f3 d4bd 01b5 37bd 9030 ac3d
00000030: b4a5 363d 73de 55bd 244d 08bd 5000 b4bc
00000040: 662a ad3c f677 e5bd 43c3 0dbe 2d7f 3ebc
00000050: 8441 5fbd b147 0cbc 3a5a 963b 6269 8ebd
00000060: d7ba 10bd a8e0 01bd 3dc4 6e3d 6a01 e43d
00000070: ac4b 76bd 40e8 813d fab7 923d d202 01bd
00000080: 9b65 573b 7cf9 813d 7802 02be 330e 2a3d
00000090: c072 9d3c 0c5b 5b3d 533d edbd e7b1 b43c
000000a0: 1b0e b83d b389 e43c 2523 97bd f47f 4bbb
000000b0: 4d56 39ba 31ba e03d ed07 fdbd 1655 a73d
000000c0: e840 f6bd d666 90bb 465c 0bbe 2675 bb3c
000000d0: ccd0 06be d787 7c3d 6816 843d 2291 1a3c
000000e0: 8250 ff3d 899f f53d 60fb f9bd 373b e03c
000000f0: a1d4 ffbd ce81 a53d b6a4 24bd 5299 b4bd
00000100: d6f1 9ebd af76 b03d 25f0 343d 570d 93bd
00000110: 5c80 a2bd 3058 033e 8dff 943d bee7 90bc
00000120: 9758 383c f029 8f3d 8007 1bbd caa6 c13d
00000130: 30b8 b3bc 1200 02be aab5 013d c754 74bd
00000140: 467f cbbd abb3 cebc 8cad 883d 29ea d7bd
00000150: 05f7 8a3d 947e e83d 14dc c33d 2919 10bd
00000160: 1231 5abd 932c 8c3d cf46 0d3e 8e7c 9cbd
00000170: 47d8 2bbd 8527 943d fa09 cfbd 0cd1 22bd
00000180: e844 70bd f8c3 de3d cd59 3bbd c04a cc3c
00000190: 66bf 95bd 3584 d1bc dda9 05be 32e5 00be
000001a0: bb38 9f3d 81ee 74bd 5eb4 6abd 2ca5 cdbd
000001b0: 6d55 ba3d 95d5 d8bb aa81 4fbd a6e7 c33d
000001c0: 404f cdbb a7b5 863d 557a cbbd cbcc 863d
000001d0: 3a64 ff3c d355 f9bc 6a94 cebc 9a94 a93d
000001e0: 1a8e c13d 965a 7e3d 1729 f9bd 7ff8 95bd
000001f0: 4caf eabc 9a83 95bd d7d9 dbbd 79bc b43c
00000200: fb8f 8639 7028 38bd 53ca ec3d c6cc 04be
00000210: 8d51 9d3c c3a5 04be d106 973d 8f14 d73d
00000220: e163 f03d 033f b63c e088 3d3d ace7 f1bd
00000230: 5354 c23d 8b51 0bbe ca26 923d 055a 683d
00000240: e07c 6ebc e756 adbd f76b c5bc 4f08 8d3d
00000250: 9e3b 623d f3b2 99bd 51f4 a03c 6f8e f4bd
00000260: a952 42bc be35 6cbd 2e23 acbd 369e 943d
00000270: 2c75 1b3d abe5 0abe 7898 10be fab5 a83c
00000280: 4a52 01be 9ec6 f7bd dc50 c03d 307f c93d
00000290: 90f5 6e3d db03 803d 60d2 6bbd a711 973b
000002a0: 8460 ca3d 3b2c ee3d 8931 ac3c fe0e 09bd
000002b0: fefc d23d 6fe7 c5bd 92a9 9b3b abd1 d63d
000002c0: a6bf 5fbd ed77 4f3c 5ed6 173d a57f bfbc
000002d0: 3414 c4bd 0f7d 863d 0e92 973d edd1 913d
000002e0: 03e3 d2bd 86cc 6bbd 5c11 09be 94df b7bd
000002f0: 38fa 593d 7a87 b3bd 14af fb3d 1500 b6bd
00000300: d655 f7bd 5eea 913c ca52 e83d 0193 ffbd
00000310: f0b4 f23d 3155 e1bd 9382 43bc c228 e23d
00000320: 184d f9bd 78f7 0fbc 947a 4b3a fe84 aabc
00000330: bb2d ce3d 912b e3bd e8d6 d1bd b4bd e8bd
00000340: 9ccf 3ebd 7791 723d b8c8 b13c 5bd1 033e
00000350: 15f9 0a3e 5c12 cdbd 1b2b 2dbd 235c 8c3d
00000360: 8139 5abd dedf d0bd e30b d0bd ada7 93bd
00000370: 0bfe 093e 3946 85bd 7dd7 e63d 74be c1bb
00000380: 28a6 0ebe 10ed 85bb 5d7d f63d 76de e63d
00000390: 7861 53bc 1fd2 0bbe e266 e7bd 14d0 a03c
000003a0: 0536 bdbc 9527 a13b 8c0c 5e3d 7f38 043e
000003b0: afb1 5fbc 5de5 eabd 44f0 6f3d 3356 0d3e
000003c0: 4d41 cc3d 73af fabd 02fd d4bc 889a 7f3c
000003d0: a05a f6bd 85d2 5c3d 5d6b 64bd df6d 473d
000003e0: 8dcf d13c 5b11 f23d a58c 35bd aeb6 9abc
000003f0: 57ad 57bd 7276 1d3d 97cc 9c3d 8aa5 f33c

pi.net.2.bias f4 [50]
-0.11463397 -0.015839225 0.10892142 0.108351424 -0.033851102 -0.09294301 0.06576794 0.0025429386
0.09814781 -0.0913359 -0.025585178 0.08683121 0.058077533 0.0535835 -0.12500219 0.0021739851
-0.05009322 0.040958866 0.04130081 0.12694448 -0.109887086 -0.13843678 -0.016096203 -0.106343955
0.022463495 0.1386591 0.093797326 -0.07868097 0.027565708 0.023629816 0.017944628 0.12227321
-0.055530008 0.053653784 0.08014069 0.047732927 0.13807487 -0.07005785 0.109100275 -0.04516362
-0.04796229 0.064166695 0.07482192 -0.05070074 0.12694532 0.011099727 -0.040755987 0.10318577
-0.099823 -0.035961684
00000000: 37c5 eabd 43c1 81bc 3212 df3d 5ae7 dd3d
00000010: 74a7 0abd e858 bebd 57b1 863d 6ea7 263b
00000020: b801 c93d 510e bbbd 0298 d1bc 90d4 b13d
00000030: b5e2 6d3d 5f7a 5b3d 9300 00be 6b79 0e3b
00000040: 8c2e 4dbd 7cc4 273d 0a2b 293d bcfd 013e
00000050: 7b0c e1bd 5fc2 0dbe 2fdc 83bc dcca d9bd
00000060: 5d05 b83c a7fc 0d3e d018 c03d 7d23 a1bd
00000070: 7bd1 e13c 5193 c13c 9d00 933c 606a fa3d
00000080: 6f73 63bd 12c4 5b3d cd20 a43d 9a83 433d
00000090: 8063 0d3e 7d7a 8fbd f76f df3d 7dfd 38bd
000000a0: 1b74 44bd d469 833d 3c3c 993d 94ab 4fbd
000000b0: f4fd 013e a1db 353c c0ef 26bd 1053 d33d
000000c0: 0070 ccbd 8f4c 13bd

pi.net.4.weight f4 [4, 50]
0.077356495 -0.12779175 0.14026278 0.10258476 -0.06971074 0.1192917 -0.046586026 -0.05584537
-0.13929999 -0.08023396 0.13177422 0.021332933 0.08046026 -0.09694455 -0.122912385 0.11524158
-0.025789844 0.13316295 0.019311484 -0.12873419 0.04210536 -0.08154758 -0.12489491 -0.027799591
0.10877455 -0.13801989 0.044319183 0.08216239 0.019939337 0.13885084 0.0027988711 -0.019598471
-0.041121133 0.10628888 -0.046154562 -0.0816371 0.034436658 0.06104297 0.13877538 0.047904853
0.036123205 0.04485514 -0.044070955 -0.006803277 0.04386344 -0.084878966 -0.0019356532 -0.10158711
0.051828537 -0.1385251 -0.027960828 0.031005263 -0.05038543 -0.091160454 -0.096246764 -0.077011384
0.070485294 -0.045831226 -0.022308834 0.07913299 0.14113995 -0.13028288 0.027060907 0.010477673
0.088906676 0.07498388 0.13497396 -0.018155599 -0.08292064 0.019992696 0.014840108 0.13121006
0.08851277 0.051442843 0.054880172 -0.12606992 -0.08210552 -0.09508626 -0.07889019 0.0017719716
-0.030960875 0.12790948 0.08290614 -0.043060627 -0.08729643 0.06622113 0.021965943 -0.017377112
-0.09372681 -0.13396607 -0.082209334 -0.035134103 -0.07725971 0.13413054 -0.06976826 -0.101599604
0.1043496 -0.07474046 -0.05937903 -0.10703162 0.051379625 0.08495262 0.024487574 0.100232154
-0.031541355 0.061895803 -0.020669186 0.026258668 -0.09779727 -0.06868881 0.063429475 -0.045046587
-0.03698981 0.02152298 0.045725152 -0.08725405 -0.012398693 0.1071111 -0.119560465 -0.020692537
0.07731783 0.09753496 0.08423999 0.023624305 0.13751395 -0.101665534 0.039131716 0.11880654
0.07273955 -0.076979116 -0.031732313 0.13893057 -0.07120082 0.115883 0.122399464 -0.009242012
-0.0050127776 -0.019712538 -0.028191168 -0.11229118 -0.12260403 0.09409303 0.011262835 0.08680518
-0.04371195 0.0512032 0.033763874 0.12465171 -0.05621508 0.12789068 -0.09159332 -0.003828249
0.1163202 0.016687118 0.03819501 0.01806252 -0.06173644 -0.055881836 -0.13211304 0.092646584
-0.13245754 -0.057324253 -0.09853836 0.08219804 0.08022557 0.030408345 0.10070233 -0.12778345
-0.100033574 0.10545732 -0.109170675 0.10842188 -0.11823736 -0.110895835 0.019622479 0.04267451
0.04372992 -0.08662302 -0.016019613 -0.12931244 0.09812097 0.01988357 0.07409418 0.0017387262
0.029955031 -0.06944129 0.0718011 0.042453982 0.11994107 0.035600483 0.10791135 0.13845508
0.0348514 0.080619305 0.034564547 -0.10738877 0.03589521 -0.13924684 -0.09575638 0.022681177
00000000: 156d 9e3d d7db 02be 0ca1 0f3e f517 d23d
00000010: 81c4 8ebd 354f f43d fdd0 3ebd 1dbe 64bd
00000020: a8a4 0ebe b451 a4bd d2ef 063e 67c2 ae3c
00000030: 59c8 a43d dd8a c6bd 7db9 fbbd c703 ec3d
00000040: 3945 d3bc de5b 083e 1e33 9e3c e5d2 03be
00000050: ac76 2c3d 6b02 a7bd e7c8 ffbd f8bb e3bc
00000060: 31c5 de3d 1655 0dbe 0888 353d c144 a83d
00000070: d257 a33c ea2e 0e3e 446d 373b f98c a0bc
00000080: a26e 28bd fcad d93d 910c 3dbd 5a31 a7bd
00000090: 740d 0d3d 3108 7a3d 221b 0e3e e137 443d
000000a0: edf5 133d 06ba 373d bf83 34bd 06ee debb
000000b0: 27aa 333d 06d5 adbd beb5 fdba e70c d0bd
000000c0: 294a 543d 86d9 0dbe 1b0e e5bc c0fe fd3c
000000d0: f460 4ebd 55b2 babd 061d c5bd 25b8 9dbd
000000e0: 985a 903d 86b9 3bbd 04c1 b6bc 7a10 a23d
000000f0: fe86 103e e068 05be d6ae dd3c 8caa 2b3c
00000100: b414 b63d 2691 993d 9d36 0a3e 0dbb 94bc
00000110: 4cd2 a9bd b9c7 a33c ed23 733c ee5b 063e
00000120: 2f46 b53d bbb5 523d 08ca 603d 7918 01be
00000130: f026 a8bd 96bc c2bd 2e91 a1bd 8041 e83a
00000140: a9a1 fdbc b4fa 023e b2ca a93d 5760 30bd
00000150: 78c8 b2bd f29e 873d ecf1 b33c 725a 8ebc
00000160: d7f3 bfbd 672e 09be 5e5d a8bd c7e8 0fbd
00000170: 573a 9ebd 8459 093e a9e2 8ebd 7413 d0bd
00000180: 3eb5 d53d 8711 99bd 6d37 73bd 6533 dbbd
00000190: 7173 523d a4fb ad3d 2a9a c83c 8446 cd3d
000001a0: 8231 01bd 7486 7d3d 6d52 a9bc 6b1c d73c
000001b0: ef49 c8bd b8ac 8cbd 50e7 813d c582 38bd
000001c0: a182 17bd f650 b03c 4c4a 3b3d 40b2 b2bd
000001d0: e323 4bbc 105d db3d 1edc f4bd 6583 a9bc
000001e0: cf58 9e3d 69c0 c73d 0486 ac3d c287 c13c
000001f0: 75d0 0c3e 0536 d0bd 9448 203d d850 f33d
00000200: 79f8 943d 3aa7 9dbd bef9 01bd d143 0e3e
00000210: bcd1 91bd 1154 ed3d 92ac fa3d cf6b 17bc
00000220: 3a42 a4bb 307c a1bc 2af1 e6bc ebf8 e5bd
00000230: d217 fbbd d9b3 c03d c187 383c eac6 b13d
00000240: 4d0b 33bd 72ba 513d fd4b 0a3d 6549 ff3d
00000250: c941 66bd c6f5 023e 4795 bbbd 5ce3 7abb
00000260: 4939 ee3d 6cb3 883c 5f72 1c3d daf7 933c
00000270: 59df 7cbd 5ae4 64bd a448 07be 7ebd bd3d
00000280: f3a2 07be d6cc 6abd 7bce c9bd 7257 a83d
00000290: 4e4d a43d ec1a f93c 063d ce3d aad9 02be
000002a0: 67de ccbd 02fa d73d e094 dfbd 4a0c de3d
000002b0: 6e26 f2bd 5b1d e3bd 52bf a03c 78cb 2e3d
000002c0: 251e 333d 6967 b1bd 903b 83bc 7b6a 04be
000002d0: a6f3 c83d dee2 a23c b0be 973d f8e5 e33a
000002e0: 4164 f53c 3c37 8ebd 750c 933d 3ae4 2d3d
000002f0: aaa3 f53d d0d1 113d a000 dd3d 2bc7 0d3e
00000300: 57c0 0e3d bc1b a53d 8e93 0d3d a5ee dbbd
00000310: db06 133d b996 0ebe ec1b c4bd e0cd b93c

pi.net.4.bias f4 [4]
-0.007866659 0.11721292 -0.13537982 -0.012918229
00000000: 29e3 00bc 540d f03d 02a1 0abe fba6 53bc

v.net.0.weight f4 [64, 34]
0.090295576 -0.15464517 -0.035537664 -0.052101452 -0.03623708 -0.12136125 0.045192774 -0.11199583
0.013926994 0.08405518 0.08530958 0.1451864 0.123972714 -0.034777302 0.13014477 0.060639042
-0.017725592 0.15871073 -0.026333245 -0.0054735322 0.16409612 0.036935803 0.097866215 -0.17008312
0.14168547 0.09834557 -0.013716459 -0.16815238 0.07074662 0.077909544 -0.104289934 -0.019828403
0.06565423 0.028532982 -0.0832258 -0.03725788 0.09360028 -0.00060220505 0.10661064 0.14168428
-0.103578046 -0.029603994 0.13999355 0.12211697 0.08113785 0.042173 -0.09821226 -0.082433276
-0.13358146 -0.110110015 -0.14548953 0.15483092 0.0062399246 -0.020218356 -0.06297772 -0.1103248
0.03377703 -0.063852526 0.15620276 -0.1191714 -0.05404484 0.04285696 -0.117075585 0.15823174
0.01982687 0.0077103553 0.060452834 -0.08609985 -0.05631709 -0.12927803 -0.020061856 -0.14914218
-0.11926796 -0.10610104 0.06285438 -0.019955628 -0.015752746 0.09822287 -0.013162339 0.048308905
-0.08118618 -0.16901833 0.09150485 -0.1290636 -0.10587551 -0.12185792 0.04071931 -0.030450445
-0.08781976 -0.012710011 -0.025154369 -0.08379117 -0.12092902 0.16537808 -0.012840363 0.049318828
0.082329646 0.06159068 0.10059437 -0.0056485347 0.0075002704 -5.5710512e-05 0.055100966 0.1043344
0.05796884 -0.08537985 0.120986156 0.16968882 -0.008179386 -0.068845846 -0.1477206 0.05227543
0.1655858 0.10690955 -0.047884114 -0.0031060297 -0.10867475 0.09812482 0.0068737776 0.072351165
-0.1516195 -0.12134563 -0.0786053 -0.005824498 0.14713062 0.03949953 0.020684035 0.032951817
0.07782053 0.029090066 0.14198849 -0.15471122 -0.020666923 0.09383159 -0.08936432 0.08775698
0.033062503 -0.15469779 0.15079772 -0.14715478 -0.048844174 0.110297695 -0.035968445 0.0003205041
-0.14790243 0.05121904 -0.07161039 0.02410603 -0.016039312 0.061780524 -0.11296544 -0.07354809
0.051643603 -0.013327079 0.06583557 -0.15942875 -0.03512477 0.054623164 -0.03493795 -0.014498696
0.0016510959 -0.056363314 -0.05594691 -0.13371201 -0.16368993 -0.16982436 0.04275615 0.053217623
0.040531166 -0.0823707 0.029509397 0.05903697 0.052565493 -0.13983066 0.056212354 0.07094757
0.014468092 0.016506748 -0.10923997 0.07478313 -0.13942018 0.1603115 -0.14905779 0.06762379
-0.080920406 -0.107452534 -0.0780641 0.07821696 -0.13009599 -0.04918167 0.0034816922 0.15153986
-0.08393761 -0.021681467 -0.06156817 -0.08585736 0.15104434 0.15578458 -0.15935445 -0.024826812
0.16719769 -0.15074617 0.13025165 -0.11128032 -0.019766068 0.15179822 -0.103342116 -0.017801072
-0.11267125 -0.13542666 0.014660982 0.013272391 0.026502093 0.16429627 -0.03957595 -0.076239556
-0.16747858 0.13142394 -0.12554604 0.13933498 0.045390654 0.01880697 -0.01791736 -0.077271685
0.13965954 -0.06721202 0.060799997 -0.07673987 0.046330333 0.011054294 0.16392727 0.08351737
-0.020679824 -0.042088952 0.06957544 -0.13869846 -0.052809026 0.07264035 0.13681526 -0.016633809
-0.14780101 0.12936592 -0.12926918 -0.06574539 -0.14573732 -0.070645526 0.1252553 0.018664923
0.049118944 0.047006935 0.014474081 -0.071328424 0.016656483 -0.15401758 -0.10128798 0.050260205
00000000: e3ec b83d 4e5b 1ebe f18f 11bd 5568 55bd
00000010: 556d 14bd 3f8c f8bd 0f1c 393d 125e e5bd
00000020: 0c2e 643c 1f25 ac3d cab6 ae3d beab 143e
00000030: 68e5 fd3d a572 0ebd ac44 053e a560 783d
00000040: 4335 91bc 1185 223e d1b8 d7bc 515b b3bb
00000050: d008 283e ff49 173d 156e c83d 452a 2ebe
00000060: ff15 113e 6769 c93d 00bb 60bc 2330 2cbe
00000070: 9be3 903d 0a8f 9f3d f695 d5bd 2d6f a2bc
00000080: ba75 863d 00be e93c 4a72 aabd b89b 18bd
00000090: 81b1 bf3d 4cdd 1dba ae56 da3d af15 113e
000000a0: ba20 d4bd 1384 f2bc 785a 0f3e 7618 fa3d
000000b0: 9a2b a63d 98bd 2c3d 8223 c9bd c7d2 a8bd
000000c0: 94c9 08be 5c81 e1bd 35fb 14be ff8b 1e3e
000000d0: 4878 cc3b f7a0 a5bc 76fa 80bd f8f1 e1bd
000000e0: c859 0a3d 1dc5 82bd 9ef3 1f3e 2310 f4bd
000000f0: 1f5e 5dbd c88a 2f3d 53c5 efbd 8007 223e
00000100: f66b a23c 26a7 fc3b 649d 773d 1e55 b0bd
00000110: c0ac 66bd 7661 04be c358 a4bc bab8 18be
00000120: c342 f4bd 814b d9bd ccb9 803d fc79 a3bc
00000130: e70b 81bc 1229 c93d daa6 57bc 8fdf 453d
00000140: f144 a6bd 2413 2dbe e566 bb3d 4029 04be
00000150: 42d5 d8bd a590 f9bd 4bc9 263d 3673 f9bc
00000160: d9da b3bd a63d 50bc 8910 cebc b49a abbd
00000170: a2a9 f7bd df58 293e 6360 52bc 8a02 4a3d
00000180: 729c a83d 8246 7c3d 6c04 ce3d 5817 b9bb
00000190: d4c4 f53b b5aa 69b8 8db1 613d 46ad d53d
000001a0: bc70 6d3d a1db aebd 97c7 f73d e8c2 2d3e
000001b0: d502 06bc 0dff 8cbd 1244 17be c31e 563d
000001c0: 538f 293e 65f3 da3d 2222 44bd 888e 4bbb
000001d0: de90 debd aaf5 c83d 6d3d e13b d92c 943d
000001e0: 2442 1bbe 0f84 f8bd d1fb a0bd 6edb bebb
000001f0: 69a9 163e 42ca 213d 9171 a93c 7cf8 063d
00000200: 5f60 9f3d 4a4e ee3c 6e65 113e 9e6c 1ebe
00000210: ae4d a9bc c72a c03d a404 b7bd eeb9 b33d
00000220: 8c6c 073d 1969 1ebe b86a 1a3e beaf 16be
00000230: d410 48bd c2e3 e13d a653 13bd 5509 a839
00000240: bc73 17be 0ecb 513d 78a8 92bd 027a c53c
00000250: e064 83bc 930d 7d3d 6d5a e7bd 62a0 96bd
00000260: 3e88 533d d259 5abc cdd4 863d 4a41 23be
00000270: fede 0fbd 8abc 5f3d 191b 0fbd f08b 6dbc
00000280: 9669 d83a 38dd 66bd 9628 65bd cdeb 08be
00000290: 559e 27be 70e6 2dbe 1321 2f3d b9fa 593d
000002a0: 0204 263d f8b1 a8bd b1bd f13c c0d0 713d
000002b0: ea4e 573d c52f 0fbe ed3e 663d f64c 913d
000002c0: 930b 6d3c 2939 873c 35b9 dfbd e627 993d
000002d0: 2ac4 0ebe b328 243e 9ba2 18be 577e 8a3d
000002e0: 99b9 a5bd 1310 dcbd 12e0 9fbd 3730 a03d
000002f0: e237 05be b872 49bd 1a2d 643b 442d 1b3e
00000300: 7be7 abbd 559d b1bc e82e 7cbd fcd5 afbd
00000310: 5eab 1a3e fe85 1f3e d02d 23be 9961 cbbc
00000320: df35 2b3e 345d 1abe b060 053e f0e6 e3bd
00000330: 73ec a1bc fe70 1b3e 08a5 d3bd 8ed3 91bc
00000340: 2fc0 e6bd 49ad 0abe 9e34 703c 7174 593c
00000350: eb1a d93c 483d 283e 641a 22bd 7c23 9cbd
00000360: 817f 2bbe ff93 063e 248f 00be d4ad 0e3e
00000370: 8deb 393d 1311 9a3c 6dc7 92bc 9e40 9ebd
00000380: e902 0f3e 75a6 89bd 6b09 793d cb29 9dbd
00000390: e0c4 3d3d 121d 353c 8ddc 273e 280b ab3d
000003a0: bc68 a9bc 7765 2cbd 917d 8e3d f806 0ebe
000003b0: 474e 58bd 77c4 943d 4d19 0c3e a043 88bc
000003c0: 2659 17be 8078 043e 245f 04be 85a5 86bd
000003d0: 2a3c 15be 9aae 90bd ed42 003e 2ee7 983c
000003e0: f230 493d 588a 403d b224 6d3c a314 92bd
000003f0: 2d73 883c c9b6 1dbe 1370 cfbd a5dd 4d3d

v.net.0.bias f4 [64]
-0.04087285 0.1034251 0.032592203 -0.10734698 -0.06905043 -0.16870746 -0.067196324 0.106392704
0.10814692 0.08702726 0.14263354 -0.030973224 0.16789569 -0.015392436 0.04626581 -0.0666725
-0.031347007 0.056049354 -0.0053758495 -0.12880822 0.13102612 -0.065093264 -0.08918752 0.059999708
0.06427564 -0.16028322 0.12731358 -0.13083494 0.020659788 -0.014138019 0.1234445 0.043854944
0.11792838 -0.08893004 0.004807153 -0.11822247 0.089924715 0.022675814 0.12962726 -0.12877418
0.14841908 0.07788698 -0.16108172 -0.07341484 -0.032697305 -0.0735538 0.0018823202 0.1013348
0.09963538 -0.03732126 0.05090027 0.005729637 -0.15906416 -0.12261963 -0.0834634 0.14843947
-0.053899255 0.14121118 -0.15479514 -0.027076963 -0.09284231 -0.08982405 -0.14167798 -0.110522434
00000000: 4a6a 27bd 8ad0 d33d 677f 053d bcd8 dbbd
00000010: 506a 8dbd a6c1 2cbe 3a9e 89bd 6be4 d93d
00000020: 227c dd3d 593b b23d 870e 123e 8fbb fdbc
00000030: d9ec 2b3e 8e30 7cbc 3881 3d3d 978b 88bd
00000040: b865 00bd 0294 653d e527 b0bb 4de6 03be
00000050: b62b 063e 9e4f 85bd f2a7 b6bd 41c2 753d
00000060: f2a2 833d 4921 24be 7e5e 023e 98f9 05be
00000070: b73e a93c 26a3 67bc 78d0 fc3d 3ea1 333d
00000080: 6f84 f13d f420 b6bd 5285 9d3b 9f1e f2bd
00000090: 732a b83d a1c2 b93c 02bd 043e 61dd 03be
000000a0: 2cfb 173e 3583 9f3d 9bf2 24be 855a 96bd
000000b0: 9ced 05bd 60a3 96bd 2fb8 f63a 9f88 cf3d
000000c0: a20d cc3d 2dde 18bd cd7c 503d aebf bb3b
000000d0: b7e1 22be 0020 fbbd dcee aabd 8400 183e
000000e0: 77c5 5cbd aa99 103e 9e82 1ebe 82d0 ddbc
000000f0: 1c24 bebd acf5 b7bd 0814 11be 9659 e2bd

v.net.2.weight f4 [64, 64]
0.11988522 0.11374773 -0.11257312 -0.044369012 -0.0961377 0.100084215 -0.09299338 -0.11621903
0.014051691 -0.016996562 0.120450124 0.120758906 0.08339231 0.088064045 0.06791575 0.03640698
0.105515644 -0.085440665 0.11242595 0.05143425 0.028605044 -0.017368317 -0.114641085 -0.052766576
-0.015173599 0.03528957 -0.014032751 -0.10520899 -0.11705594 0.053388223 -0.024400383 -0.07324901
0.0790623 0.1156566 -0.057403013 0.08837508 0.0029509217 0.05921659 -0.11139989 -0.039970577
-0.111935675 -0.03593339 0.028422713 -0.024972677 0.09122765 0.020572647 0.08238588 0.048944503
-0.12135874 -0.07001871 0.013292447 0.09462342 -0.083094776 0.02478996 -0.05155237 0.12035282
0.06833333 0.07097864 0.045999885 0.012215197 -0.041709572 -0.022796541 -0.03974749 0.06727974
0.086478606 -0.0595797 0.05678375 -0.073492736 -0.056820363 0.001009047 0.08508429 0.06386301
-0.087741286 -0.060336486 -0.0075976253 -0.059588835 -0.09251782 0.053908765 -0.004435271 0.119658634
-0.008199677 -0.008825794 -0.08338705 0.09213498 0.061296076 0.109465346 -0.09502952 0.124598324
0.01728277 -0.049693853 -0.10675156 0.06663081 -0.09851073 -0.11159566 -0.072615415 0.08527288
0.084953204 0.10897118 -0.09468347 -0.055677146 -0.11548334 -0.0756786 -0.060318977 0.12499425
-0.09593317 0.040477023 -0.021180093 -0.09364526 0.05494362 0.037975207 -0.101532936 0.12385139
0.06635548 0.049272537 0.0034493208 0.07818191 -0.031811386 -0.11493911 -0.056501716 -0.0030817688
0.094334856 -0.11748177 0.09876631 0.100997284 0.122437194 -0.116877794 -0.039973915 -0.04325387
-0.02410756 0.032893956 -0.11425161 0.10663374 0.03904891 0.01590018 0.05291134 -0.081742704
0.06260061 0.0790354 0.036645904 0.09071614 0.113877445 -0.040695965 0.06269765 -0.11470449
0.07101081 -0.010104239 0.022439063 0.12314431 -0.08830269 0.056843415 0.097208515 -0.12319939
0.09248583 0.05466968 0.002311781 0.05274178 -0.051749155 -0.10855201 -0.034618124 -0.07688847
-0.0073922276 0.045972124 0.06920111 0.0988809 -0.013276428 0.12164025 -0.015876591 0.109555125
0.11228734 -0.05820112 -0.013315469 -0.0407919 0.08873847 -0.06906234 0.045881018 0.017223775
0.11997634 0.05569254 -0.057272196 -0.0066227913 0.018081918 0.055496067 -0.06306802 -0.07433045
0.063697815 -0.03909436 0.113570645 0.0031397045 0.005733803 -0.033999696 0.114639595 0.10589142
0.10016051 -0.0044944882 0.061121523 -0.07967891 0.023489013 -0.08305803 -0.027986586 0.0845391
0.07449749 0.020379752 -0.011845514 -0.01792346 0.05015862 -0.11497933 0.072707355 -0.050787657
-0.114482984 0.017282128 -0.11605841 0.096508056 0.048306912 -0.039998084 0.03150238 -0.045595944
0.071913585 0.08979547 0.022762567 -0.018052265 -0.079828694 -0.0073094666 0.0052345097 -0.00449124
-0.05331859 0.07497275 0.059597224 -0.054120272 -0.044855043 0.11856748 0.03603983 0.018458992
0.078143865 -0.0913675 0.08097869 0.055320457 -0.08989477 0.03592992 -0.05246778 -0.07809989
-0.039216474 0.11641225 0.048888996 -0.0607581 0.09610793 -0.02340515 0.069665685 0.1205115
-0.024932891 0.11943407 0.03262426 -0.082637176 -0.08245666 0.069064274 0.029241323 0.03174661
00000000: 6286 f53d 92f4 e83d bc8c e6bd 48bc 35bd
00000010: d8e3 c4bd f4f8 cc3d 5073 bebd 3e04 eebd
00000020: 1039 663c 603c 8bbc 8eae f63d 7250 f73d
00000030: 96c9 aa3d ec5a b43d 6a17 8b3d 7c1f 153d
00000040: 9618 d83d 84fb aebd 943f e63d b8ac 523d
00000050: 2055 ea3c 0048 8ebc f2c8 eabd c421 58bd
00000060: b09a 78bc cc8b 103d a0e9 65bc d077 d7bd
00000070: 06bb efbd 9cad 5a3d 50e3 c7bc 9403 96bd
00000080: 6aeb a13d 5edd ec3d 6c1f 6bbd fefd b43d
00000090: 4064 413b 188d 723d a025 e4bd 30b8 23bd
000000a0: 883e e5bd e42e 13bd c0d6 e83c 8093 ccbc
000000b0: 90d5 ba3d f887 a83c eeb9 a83d 087a 483d
000000c0: ee8a f8bd f865 8fbd 90c8 593c ecc9 c13d
000000d0: 982d aabd 5014 cb3c 9428 53bd 8a7b f63d
000000e0: 58f2 8b3d 405d 913d 606a 3c3d 4022 483c
000000f0: a8d7 2abd d0bf babc 44ce 22bd f6c9 893d
00000100: b21b b13d d809 74bd 1496 683d 5c83 96bd
00000110: 78bc 68bd 0042 843a ac40 ae3d 9cca 823d
00000120: b4b1 b3bd 6423 77bd 80f5 f8bb 6c13 74bd
00000130: fc79 bdbd 70cf 5c3d c055 91bb 960f f53d
00000140: f057 06bc 109a 10bc d4c6 aabd 44b1 bc3d
00000150: 9811 7b3d 5e2f e03d d69e c2bd 682d ff3d
00000160: 9894 8d3c c88b 4bbd 90a0 dabd bc75 883d
00000170: febf c9bd 448c e4bd 64b7 94bd 8ca3 ae3d
00000180: f2fb ad3d 482c df3d 68e9 c1bd b80d 64bd
00000190: 8882 ecbd 62fd 9abd 0811 77bd fcfc ff3d
000001a0: 9c78 c4bd 3ccb 253d e081 adbc 16c9 bfbd
000001b0: 900c 613d e48b 1b3d 80f0 cfbd cca5 fd3d
000001c0: 62e5 873d 00d2 493d 000e 623b d61d a03d
000001d0: a84c 02bd 3265 ebbd 586e 67bd 80f7 49bb
000001e0: a232 c13d 489a f0bd fe45 ca3d aad7 ce3d
000001f0: 5ac0 fa3d a05d efbd b0bb 23bd f82a 31bd
00000200: 387d c5bc d0bb 063d c0fc e9bd ca62 da3d
00000210: c0f1 1f3d 1841 823c 90b9 583d b868 a7bd
00000220: c034 803d 50dd a13d 041a 163d 62c9 b93d
00000230: 9438 e93d d0b0 26bd a067 803d 30ea eabd
00000240: 1e6e 913d 408c 25bc 20d2 b73c 1633 fc3d
00000250: 0ad8 b4bd a4d4 683d 4215 c73d f64f fcbd
00000260: 3669 bd3d 50ed 5f3d 4081 173b c407 583d
00000270: ecf6 53bd 8450 debd bccb 0dbd b477 9dbd
00000280: 803a f2bb 444d 3c3d 50b9 8d3d 1282 ca3d
00000290: 6085 59bc 861e f93d a00f 82bc 705e e03d
000002a0: e8f6 e53d 4c64 6ebd 2029 5abc 6815 27bd
000002b0: 84bc b53d 8e70 8dbd bced 3b3d e018 8d3c
000002c0: 28b6 f53d dc1d 643d 4096 6abd 0004 d9bb
000002d0: 8820 943c d84f 633d ce29 81bd 903a 98bd
000002e0: 0074 823d 6821 20bd ba97 e83d 80c3 4d3b
000002f0: a0e2 bb3b 4443 0bbd 2ac8 ea3d 9add d83d
00000300: f420 cd3d 8046 93bb 905a 7a3d b22e a3bd
00000310: 086c c03c 541a aabd 2044 e5bc d622 ad3d
00000320: 2492 983d 70f3 a63c b013 42bc 38d4 92bc
00000330: 2073 4d3d 487a ebbd 98e7 943d b806 50bd
00000340: 0e76 eabd 4093 8d3c 08b0 edbd 04a6 c53d
00000350: 78dd 453d 08d5 23bd a408 013d d0c2 3abd
00000360: 6e47 933d b0e6 b73d 9078 ba3c 58e2 93bc
00000370: 3a7d a3bd 4084 efbb 4086 ab3b 402b 93bb
00000380: 9864 5abd 508b 993d 381c 743d 38ad 5dbd
00000390: ecb9 37bd 82d3 f23d 809e 133d 5037 973c
000003a0: e409 a03d e21e bbbd 28d8 a53d b497 623d
000003b0: c01a b8bd 402b 133d 74e8 56bd d6f2 9fbd
000003c0: 74a1 20bd 8c69 ee3d d43f 483d 7cdd 78bd
000003d0: 3cd4 c43d 28bc bfbc e2ac 8e3d bcce f63d
000003e0: 1040 ccbc da99 f43d 04a1 053d ae3d a9bd
000003f0: 0adf a8bd 9271 8d3d 808b ef3c bc08 023d

v.net.2.bias f4 [64]
0.11753835 0.031055227 0.004628986 -0.019789219 0.051802486 0.029503942 -0.11201194 0.11934696
-0.07123838 -0.014236808 -0.06423259 -0.10900991 -0.05092381 0.11131035 -0.055115253 -0.11122252
-0.019044414 -0.04994364 0.03932208 -0.053894132 0.04337734 -0.08344445 0.009960562 0.057313576
0.055989176 0.00016900897 -0.013048351 -0.072151214 -0.11639516 0.005489737 -0.07948564 -0.12136778
0.008045524 -0.028400302 0.100041464 -0.077020526 0.118728414 0.036951095 -0.09722862 -0.04668878
-0.029056981 -0.10200697 -0.04954025 -0.03458108 0.1015396 0.02303861 -0.1100152 -0.09315826
-0.06355435 0.0681258 -0.049391866 0.04074122 0.10479419 0.054317906 -0.09332676 -0.05895506
0.07814737 0.025493324 0.006207794 -0.101318255 -0.11998825 -0.043583006 0.023227856 -0.0637863
00000000: f2b7 f03d 8867 fe3c c0ae 973b 001d a2bc
00000010: d82e 543d 40b2 f13c 8466 e5bd 2e6c f43d
00000020: 6ee5 91bd 8041 69bc 608c 83bd 9640 dfbd
00000030: 7c95 50bd aef6 e33d 88c0 61bd a2c8 e3bd
00000040: 0803 9cbc b491 4cbd 3010 213d 18c0 5cbd
00000050: 70ac 313d ece4 aabd a031 233c a4c1 6a3d
00000060: e854 653d 0038 3139 c0c8 55bc 04c4 93bd
00000070: 9660 eebd 40e3 b33b 5ec9 a2bd ac8f f8bd
00000080: 60d1 033c c0a7 e8bc 8ae2 cc3d f0bc 9dbd
00000090: e227 f33d 085a 173d cc1f c7bd bc3c 3fbd
000000a0: e808 eebc 08e9 d0bd b8ea 4abd e4a4 0dbd
000000b0: fef3 cf3d 78bb bc3c a64f e1bd c2c9 bebd
000000c0: c828 82bd 8a85 8b3d 204f 4abd 44e0 263d
000000d0: 569e d63d 747c 5e3d 1a22 bfbd dc7a 71bd
000000e0: ba0b a03d 60d7 d03c c06a cb3b f27f cfbd
000000f0: 66bc f5bd 1884 32bd 5848 be3c 64a2 82bd

v.net.4.weight f4 [1, 64]
0.10050309 0.05833976 0.0764164 -0.018135622 -0.12366587 0.100617036 0.07232681 -0.033765003
-0.02980791 -0.040179327 -0.085896835 -0.065485105 -0.11915921 -0.10491426 0.08060467 0.044000477
-0.10451275 0.076173544 0.11911777 0.0984683 -0.011691466 -0.1129498 -0.056752414 -0.0984579
0.010831475 -0.101709485 0.105437234 0.03216663 -0.041311294 -0.048950568 0.062042296 0.09608266
0.022440657 0.10093665 -0.07873732 0.0017938763 -0.10992719 0.121075585 -0.023133367 -0.04905434
-0.072035536 0.08369811 -0.11379184 -0.11523172 0.035834074 0.039506435 -0.043412626 -0.10273068
0.012470663 0.08583063 0.09183261 0.026025936 0.07027128 -0.0081344545 -0.06599522 0.026433602
0.0167671 0.10528709 -0.03166376 -0.025841609 -0.041198388 0.07575463 0.03990464 -0.024965167
00000000: 90d4 cd3d acf5 6e3d 3480 9c3d 2891 94bc
00000010: 8844 fdbd 4e10 ce3d 1420 943d 2c4d 0abd
00000020: b82f f4bc 1493 24bd aeea afbd 0e1d 86bd
00000030: be09 f4bd 4add d6bd 1014 a53d d839 343d
00000040: c80a d6bd e000 9c3d 04f4 f33d c0a9 c93d
00000050: 908d 3fbc 3a52 e7bd 3875 68bd 4ca4 c9bd
00000060: 8076 313c 104d d0bd 7aef d73d 28c1 033d
00000070: 0836 29bd 6480 48bd 1020 7e3d fcc6 c43d
00000080: 78d5 b73c e0b7 ce3d 0841 a1bd 8020 eb3a
00000090: 8221 e1bd 7af6 f73d 3082 bdbc 34ed 48bd
000000a0: 5e87 93bd ea69 ab3d b20b e9bd 9cfe ebbd
000000b0: c0c6 123d 80d1 213d 70d1 31bd 7664 d2bd
000000c0: c051 4c3c f8c7 af3d bc12 bc3d 5834 d53c
000000d0: 64ea 8f3d 6046 05bc 8028 87bd 488b d83c
000000e0: 285b 893c c2a0 d73d dcb1 01bd c8b1 d3bc
000000f0: a4bf 28bd 3e25 9b3d 0c73 233d c083 ccbc
