runs/phoenix/DroneHoverBulletEnvWithAdversary-v0/ppo/2023-08-16__14-01-56/seed_14660/torch_save/model.pt (torch, 49538 bytes, 14 tensors)

obs_oms.mean f4 [34]
0.0 0.0 0.0 0.0 0.0 0.0 0.0 0.0
0.0 0.0 0.0 0.0 0.0 0.0 0.0 0.0
0.0 0.0 0.0 0.0 0.0 0.0 0.0 0.0
0.0 0.0 0.0 0.0 0.0 0.0 0.0 0.0
0.0 0.0
00000000: 0000 0000 0000 0000 0000 0000 0000 0000
00000010: 0000 0000 0000 0000 0000 0000 0000 0000
00000020: 0000 0000 0000 0000 0000 0000 0000 0000
00000030: 0000 0000 0000 0000 0000 0000 0000 0000
00000040: 0000 0000 0000 0000 0000 0000 0000 0000
00000050: 0000 0000 0000 0000 0000 0000 0000 0000
00000060: 0000 0000 0000 0000 0000 0000 0000 0000
00000070: 0000 0000 0000 0000 0000 0000 0000 0000
00000080: 0000 0000 0000 0000

obs_oms.std f4 [34]
1.0 1.0 1.0 1.0 1.0 1.0 1.0 1.0
1.0 1.0 1.0 1.0 1.0 1.0 1.0 1.0
1.0 1.0 1.0 1.0 1.0 1.0 1.0 1.0
1.0 1.0 1.0 1.0 1.0 1.0 1.0 1.0
1.0 1.0
00000000: 0000 803f 0000 803f 0000 803f 0000 803f
00000010: 0000 803f 0000 803f 0000 803f 0000 803f
00000020: 0000 803f 0000 803f 0000 803f 0000 803f
00000030: 0000 803f 0000 803f 0000 803f 0000 803f
00000040: 0000 803f 0000 803f 0000 803f 0000 803f
00000050: 0000 803f 0000 803f 0000 803f 0000 803f
00000060: 0000 803f 0000 803f 0000 803f 0000 803f
00000070: 0000 803f 0000 803f 0000 803f 0000 803f
00000080: 0000 803f 0000 803f

pi.log_std f4 [4]
-0.6931472 -0.6931472 -0.6931472 -0.6931472
00000000: 1872 31bf 1872 31bf 1872 31bf 1872 31bf

pi.net.0.weight f4 [50, 34]
0.16412735 -0.0590236 0.017464682 -0.026457565 0.1648167 0.017870357 0.1298878 0.016814353
0.0618862 -0.15822823 -0.16119109 0.02263889 -0.16387792 -0.100233495 -0.094594136 0.15925953
-0.03515875 -0.14621738 0.08512503 0.05354804 0.0872703 -0.12156729 0.15847325 0.08163027
-0.17075802 0.043700308 -0.13250998 0.060641393 -0.12640633 0.08907403 -0.04508152 -0.001917014
0.026323799 -0.028872417 0.055697877 -0.007807322 0.06859364 0.092876375 -0.13855347 -0.05902397
-0.13053177 -0.13083835 0.055863824 -0.08194225 -0.08540409 0.14638902 -0.14727879 0.0878436
0.0344165 0.050667983 0.13367759 0.097492985 -0.070242554 -0.026810065 0.11326025 -0.073568866
0.040944774 -0.059531312 -0.00064117176 0.11858965 -0.11447005 0.042234067 -0.15960766 0.053200573
0.028980281 -0.1532554 -0.13672233 -0.15671876 -0.08004218 0.12382189 0.031766336 -0.1488907
-0.12256611 -0.058509182 0.050023805 0.14477359 0.114531934 0.063822046 0.06473134 0.14254484
0.12966998 -0.0007952394 -0.1202325 -0.12270041 0.014252773 -0.08314427 -0.049777657 -0.13412946
-0.06892316 -0.021204341 -0.09367092 -0.032547083 -0.021731822 0.1561472 -0.08731272 0.1291295
0.13653284 -0.021927513 -0.081619 0.011480679 0.16615611 -0.15748896 0.024590537 0.09914662
-0.15677483 -0.029518597 -0.12995142 -0.14794381 -0.1480347 0.03966012 0.11445094 -0.10990483
-0.02838423 -0.16410622 -0.12630562 -0.098112136 0.13278188 -0.090453245 0.13756965 0.13439268
0.12862751 0.07126221 0.14649042 0.1521038 -0.071840495 -0.03575662 -0.16888207 -0.08663972
0.0011684078 0.16953275 -0.019755274 -0.06485607 0.15904789 0.047774777 -0.17120022 -0.096177235
-0.07487151 -0.15811303 -0.034884267 -0.04063574 0.018856179 -0.078378946 -0.007827643 -0.1430243
0.07244116 0.03881442 -0.12385645 -0.14680429 0.008091313 -0.1516652 0.16830045 -0.07191947
-0.032875333 0.041176263 0.050320555 -0.14575139 -0.10818762 -0.0050186277 -0.11869193 -0.12169461
0.060842667 0.10404902 0.14062577 -0.13598484 -0.057146534 -0.009994588 -0.10039212 0.12628354
-0.05638969 -0.06584214 0.16982138 0.05817222 -0.08242604 -0.051314022 -0.12559459 -0.041225452
-0.11528247 -0.07928779 0.075593315 -0.1444364 0.12992518 0.042708393 0.0066917627 0.009961878
0.02322791 0.14024511 -0.06915183 -0.040104147 -0.15396488 -0.089843616 -0.12543723 0.16377
0.0768279 0.12867126 0.09124865 0.16523898 -0.061550833 -0.09657297 -0.10255019 -0.035734214
0.050774377 0.07796836 -0.16902994 0.049801886 0.10588914 0.1397491 -0.013784334 0.11171194
-0.13258018 -0.04835102 0.14269052 0.041067764 0.017391553 -0.1292354 0.04137913 0.16217546
0.086340725 0.02136262 -0.15718636 -0.1430794 0.1665841 -0.096649885 0.14619967 -0.011039247
-0.009333483 0.15671937 0.0027526512 -0.09803942 0.14923866 -0.08990352 -0.03313933 -0.0017981513
-0.08230779 -0.1530377 0.03849596 -0.104979396 0.100517526 -0.1692243 0.05819242 -0.020951793
-0.16849755 -0.16038352 -0.11484615 -0.100286916 -0.043739703 0.020191615 0.10391288 -0.0867006
-0.048284557 0.16277382 -0.008984194 -0.163787 0.030196447 0.06984534 -0.15590964 0.10051393
00000000: 0011 283e bbc2 71bd 1812 8f3c 89bd d8bc
00000010: b6c5 283e db64 923c 4f01 053e 41be 893c
00000020: 627c 7d3d 9506 22be 470f 25be 3275 b93c
00000030: 9dcf 27be 3847 cdbd 92ba c1bd ee14 233e
00000040: 9f02 10bd 02ba 15be 0856 ae3d 3155 5b3d
00000050: c5ba b23d 45f8 f8bd d046 223e c52d a73d
00000060: 31db 2ebe 18ff 323d b2b0 07be 1c63 783d
00000070: a970 01be 726c b63d 66a7 38bd 5144 fbba
00000080: 02a5 d73c d985 ecbc 7523 643d 90d4 ffbb
00000090: d37a 8c3d f835 be3d f6e0 0dbe 1ec3 71bd
000000a0: 1faa 05be 7dfa 05be 77d1 643d 57d1 a7bd
000000b0: 57e8 aebd 01e7 153e 40d0 16be 58e7 b33d
000000c0: 51f8 0c3d 3b89 4f3d c7e2 083e 67aa c73d
000000d0: 54db 8fbd c8a0 dbbc fdf4 e73d 46ab 96bd
000000e0: b5b5 273d 1bd7 73bd 4f14 28ba 21df f23d
000000f0: 466f eabd a1fd 2c3d 3170 23be d8e8 593d
00000100: 0e68 ed3c fcee 1cbe f000 0cbe e27a 20be
00000110: 28ed a3bd 5596 fd3d 6b1d 023d ce76 18be
00000120: f103 fbbd 53a7 6fbd c3e5 4c3d 873f 143e
00000130: b88f ea3d 22b5 823d dd91 843d 46f7 113e
00000140: 35c8 043e 9d77 50ba 753c f6bd 5a4a fbbd
00000150: 7684 693c 8b47 aabd a8e3 4bbd 3c59 09be
00000160: 9627 8dbd bab4 adbc 8ad6 bfbd 1750 05bd
00000170: ef06 b2bc 0de5 1f3e 03d1 b2bd 863a 043e
00000180: 44cf 0b3e 54a1 b3bc dd27 a7bd 7519 3c3c
00000190: d424 2a3e c944 21be 1872 c93c 620d cb3d
000001a0: 9589 20be fcd0 f1bc fc11 05be 957e 17be
000001b0: 6996 17be a672 223d 4165 ea3d c915 e1bd
000001c0: 0b86 e8bc 760b 28be 4356 01be 04ef c8bd
000001d0: f9f7 073e 8d3f b9bd 0fdf 0c3e 3c9e 093e
000001e0: eeb6 033e ecf1 913d 9601 163e 19c1 1b3e
000001f0: 1c21 93bd 8975 12bd 6cef 2cbe 2a70 b1bd
00000200: 4325 993a fe99 2d3e d0d5 a1bc 42d3 84bd
00000210: 73dd 223e 7caf 433d 1c4f 2fbe 92f8 c4bd
00000220: 3c56 99bd 62e8 21be cee2 0ebd a971 26bd
00000230: 4678 9a3c 2485 a0bd 843f 00bc f674 12be
00000240: 085c 943d dffb 1e3d 73a8 fdbd dd53 16be
00000250: 6d91 043c 1f4e 1bbe f456 2c3e 844a 93bd
00000260: 49a8 06bd 71a8 283d ed1c 4e3d da3f 15be
00000270: 7991 ddbd 4d73 a4bb c114 f3bd 063b f9bd
00000280: 2936 793d a717 d53d 3400 103e 9c3f 0bbe
00000290: 7c12 6abd 57c0 23bc 629a cdbd 7950 013e
000002a0: e0f8 66bd 3ed8 86bd a8e5 2d3e fe45 6e3d
000002b0: fcce a8bd a72e 52bd de9b 00be 05dc 28bd
000002c0: 3719 ecbd a361 a2bd abd0 9a3d 23e7 13be
000002d0: 1b0b 053e ffee 2e3d 9346 db3b 2537 233c
000002e0: 7548 be3c 6a9c 0f3e 7a9f 8dbd 3f44 24bd
000002f0: f8a8 1dbe eeff b7bd 9e72 00be 53b3 273e
00000300: f257 9d3d 66c2 033e 92e0 ba3d 6834 293e
00000310: ba1c 7cbd 0dc8 c5bd d605 d2bd 0a5e 12bd
00000320: cbf8 4f3d e0ad 9f3d 2f16 2dbe 10fd 4b3d
00000330: 68dc d83d 631a 0f3e b0d7 61bc 3bc9 e43d
00000340: 19c3 07be b80b 46bd 771d 123e ac36 283d
00000350: bb78 8e3c 4956 04be 2a7d 293d 5311 263e
00000360: 68d3 b03d a900 af3c 76f5 20be 6883 12be
00000370: 0695 2a3e 60f0 c5bd 5eb5 153e f5dd 34bc
00000380: 77eb 18bc 0b7b 203e d365 343b e4c8 c8bd
00000390: 05d2 183e 561f b8bd 1bbd 07bd f2af ebba
000003a0: fd90 a8bd eab5 1cbe f1ad 1d3d 70ff d6bd
000003b0: 22dc cd3d 2349 2dbe 2d5b 6e3d 18a3 abbc
000003c0: 9f8a 2cbe 943b 24be 7534 ebbd 3a63 cdbd
000003d0: 6728 33bd e368 a53c 47d0 d43d 1690 b1bd
000003e0: 07c6 45bd 2eae 263e 7132 13bc c8b7 27be
000003f0: 8a5e f73c 130b 8f3d c7a6 1fbe 3fda cd3d

pi.net.0.bias f4 [50]
0.04316293 -0.14017558 0.049372986 0.12743802 -0.16559465 0.021833165 0.022314727 0.055315405
-0.0707326 -0.118239455 -0.007885828 -0.14458795 0.07811417 -0.10244869 0.15486152 0.16185492
-0.16908138 0.13594091 0.07591549 0.14231457 -0.12578169 0.035149265 -0.1085353 0.16370383
0.124632694 0.08179566 -0.03351532 0.16696933 0.028881371 -0.04560528 0.11171331 0.027622681
-0.05780952 0.08435193 -0.0223134 -0.083127156 0.07383299 0.036493942 -0.17052284 -0.01944166
-0.124172226 -0.05796238 -0.077916145 -0.11606092 0.0489568 0.021409988 -0.056338046 -0.10101986
0.10676 -0.07276917
00000000: 9dcb 303d 308a 0fbe 543b 4a3d 1d7f 023e
00000010: a591 29be 77db b23c 60cd b63c 6892 623d
00000020: 41dc 90bd 8727 f2bd 8f33 01bc dd0e 14be
00000030: 52fa 9f3d 9ed0 d1bd 0594 1e3e 4cbd 253e
00000040: ab23 2dbe 1834 0b3e 9579 9b3d e9ba 113e
00000050: eacc 00be adf8 0f3d c147 debd faa1 273e
00000060: 6d3f ff3d 7c84 a73d 5c47 09bd 02fa 2a3e
00000070: a098 ec3c 9acc 3abd f3c9 e43d f648 e23c
00000080: adc9 6cbd b4c0 ac3d 97ca b6bc 923e aabd
00000090: c035 973d ac7a 153d 8a9d 2ebe 1e44 9fbc
000000a0: 024e febd f669 6dbd 8092 9fbd 59b1 edbd
000000b0: ed86 483d 0064 af3c b9c2 66bd 80e3 cebd
000000c0: fda4 da3d 0108 95bd

pi.net.2.weight f4 [50, 50]
0.06471323 0.111086756 0.13164867 0.12606469 0.03861636 0.018544108 0.11037655 -0.03510939
0.05373228 0.042149834 0.044915445 0.121146485 0.08511182 0.008559553 0.1283387 -0.041134972
0.12138475 0.12535663 0.05722037 0.04290052 0.09885912 -0.011695464 -0.039280847 -0.11585368
0.056188766 0.13458003 -0.041367237 -0.038669955 0.10069053 0.046210803 0.085111655 -0.12317757
0.09629163 -0.0025790164 0.06936478 0.047661226 -0.09304512 -0.014085916 -0.13806263 0.025300821
-0.13485155 -0.10890761 -0.023304611 0.07479532 -0.062449276 -0.14001471 0.13200828 0.04308664
-0.017078612 0.004157888 0.012771912 -0.0064046187 -0.078019924 0.051421165 0.06716778 0.11949128
0.06058114 0.0032481903 -0.052482676 0.12614661 -0.052001577 -0.114461556 -0.03821804 0.083325095
-0.1348487 0.06789755 0.10849434 -0.12254195 -0.12782447 0.14082325 0.100543976 0.11392573
0.11491968 -0.096401915 0.005614129 -0.09840443 0.06942587 0.00989903 0.0774516 -0.122096084
-0.03034103 0.13849622 0.13198215 0.020687832 0.050553057 0.11256705 0.09612703 -0.12502602
-0.03372203 -0.033525947 0.038327064 -0.033236634 0.117999636 0.106781624 0.10968234 -0.07044955
0.11694822 0.0017296561 -0.02966211 0.06306502 -0.0796229 -0.087267935 0.104811564 -0.13817717
-0.09508134 0.11227457 -0.023640472 0.0052655074 -0.042384524 0.105331354 0.004149762 0.0026527902
-0.045385163 0.034009557 0.07189703 -0.12495958 -0.08790309 -0.06602684 0.041349012 -0.08591546
-0.035727195 -0.13527358 -0.13141516 0.016576929 0.019292299 -0.10598849 0.0078037083 0.13885292
0.02366876 0.08091799 0.0660019 -0.08879404 -0.0035896979 0.042201355 -0.08521724 0.041272808
-0.04697624 0.039722815 -0.0068491665 0.095953405 -0.06336425 -0.06750238 -0.087040566 0.030700188
-0.09665701 0.076654516 0.11956455 0.08734682 0.11661789 0.059533708 -0.101807855 -0.08315001
0.02778462 -0.007743725 -0.03240154 0.051193435 -0.029519705 -0.07096746 0.02520122 0.095863655
-0.08062996 0.007286297 -0.0545269 0.009213335 -0.021257607 -0.11758524 0.016915942 -0.14112924
-0.081273355 -0.0609505 0.020364683 -0.01780637 -0.06924207 -0.05437333 -0.10256242 0.067651324
-0.0064302436 0.021119736 -0.09659753 0.106426105 -0.087555446 -0.003948789 -0.072501704 -0.06426715
0.05571003 0.108081095 0.040579863 0.08790024 -0.100877084 0.10039122 -0.122114666 -0.112552896
-0.056254648 -0.11580634 0.122463726 -0.098417856 0.14138699 -0.008792541 0.0193422 0.0062931823
-0.08578022 0.1341767 -0.13821779 -0.030810915 0.007948222 0.060437977 -0.054377664 -0.10340723
-0.076507375 0.047972962 0.023503933 0.0753175 0.08253284 0.14037997 -0.10019298 0.047109053
0.012132898 -0.07318787 -0.062266238 0.10028479 0.0108281495 0.052730095 0.07414847 0.030439248
0.06261898 -0.020347876 0.09160417 0.009309329 -0.079319865 -0.016961377 -0.13354217 0.1058545
-0.13504294 0.0724928 -0.13459964 0.07817361 -0.082743086 -0.0048158676 0.13981175 -0.07928448
-0.1295193 -0.13144799 0.13108964 -0.04245766 -0.054588567 -0.0076268096 -0.12058824 0.06078016
0.018382365 0.13533191 -0.086269446 0.018506227 -0.08854023 -0.13875957 0.01715601 0.0030859418
00000000: 5f88 843d 7481 e33d e9ce 063e 1a17 013e
00000010: 302c 1e3d d0e9 973c 1a0d e23d ddce 0fbd
00000020: 6116 5c3d 4ea5 2c3d 42f9 373d a61b f83d
00000030: 1b4f ae3d 5e3d 0c3c 386b 033e 257d 28bd
00000040: 9198 f83d 7d5d 003e e85f 6a3d 75b8 2f3d
00000050: a676 ca3d 559e 3fbc f4e4 20bd b244 edbd
00000060: 3126 663d 59cf 093e b170 29bd 6364 1ebd
00000070: d636 ce3d 8a47 3d3d 054f ae3d 8644 fcbd
00000080: 8c34 c53d b704 29bb 1f0f 8e3d 6b38 433d
00000090: 718e bebd 9dc8 66bc 4a60 0dbe ab43 cf3c
000000a0: 8616 0abe f40a dfbd 50e9 bebc 4a2e 993d
000000b0: d0ca 7fbd 0460 0fbe 2e2d 073e 9e7b 303d
000000c0: 72e8 8bbc e43e 883b 4841 513c d6dd d1bb
000000d0: e9c8 9fbd 009f 523d 438f 893d d8b7 f43d
000000e0: ee23 783d 97df 543b 13f8 56bd 942c 013e
000000f0: 9bff 54bd d26a eabd 858a 1cbd 59a6 aa3d
00000100: c715 0abe df0d 8b3d 4832 de3d 46f7 fabd
00000110: 6be4 02be f833 103e 00ea cd3d e551 e93d
00000120: 025b eb3d 5e6e c5bd baf6 b73b 4388 c9bd
00000130: 272f 8e3d 8b2f 223c f29e 9e3d 830d fabd
00000140: c08d f8bc f4d1 0d3e 5426 073e 8779 a93c
00000150: b910 4f3d 8e89 e63d 40de c43d d206 00be
00000160: 1d20 0abd 8152 09bd d7fc 1c3d 2323 08bd
00000170: cba9 f13d 53b0 da3d 22a1 e03d db47 90bd
00000180: 8c82 ef3d a1b5 e23a f4fd f2bc 3c28 813d
00000190: 5511 a3bd 88b9 b2bd 72a7 d63d 517e 0dbe
000001a0: 01ba c2bd 36f0 e53d aaa9 c1bc 478a ac3b
000001b0: 659b 2dbd f7b7 d73d bafa 873b 6fda 2d3b
000001c0: cbe5 39bd 9b4d 0b3d c03e 933d cfea ffbd
000001d0: 8906 b4bd 1439 87bd 955d 293d 72f4 afbd
000001e0: ae56 12bd 2885 0abe b291 06be 57cc 873c
000001f0: e20a 9e3c 7e10 d9bd 40b6 ff3b 762f 0e3e
00000200: fde4 c13c 55b8 a53d 012c 873d a6d9 b5bd
00000210: 2341 6bbb 54db 2c3d 6086 aebd ad0d 293d
00000220: 286a 40bd 64b4 223d f96e e0bb 3883 c43d
00000230: 1ec5 81bd b03e 8abd 5342 b2bd f67e fb3c
00000240: 1cf4 c5bd 0bfd 9c3d 42de f43d e4e2 b23d
00000250: 5cd5 ee3d 9ed9 733d a380 d0bd 8d4a aabd
00000260: 929c e33c 13bf fdbb 7ab7 04bd 35b0 513d
00000270: 4fd3 f1bc 6357 91bd ca72 ce3c 2a54 c43d
00000280: 5221 a5bd e4c1 ee3b 9957 5fbd 87f3 163c
00000290: 6f24 aebc 88d0 f0bd 4d93 8a3c 2f84 10be
000002a0: a572 a6bd 3ba7 79bd d6d3 a63c aade 91bc
000002b0: c9ce 8dbd 92b6 5ebd 3f0c d2bd c78c 8a3d
000002c0: cbb4 d2bb 4c03 ad3c edd4 c5bd eef5 d93d
000002d0: 4550 b3bd d864 81bb c67b 94bd 7f9e 83bd
000002e0: 3330 643d 9f59 dd3d 1237 263d 0b05 b43d
000002f0: a598 cebd e999 cd3d 4117 fabd 2282 e6bd
00000300: 466b 66bd e02b edbd 43ce fa3d 4d8f c9bd
00000310: c0c7 103e 970e 10bc 8973 9e3c 0a37 ce3b
00000320: 8aad afbd 9e65 093e f788 0dbe 2c67 fcbc
00000330: 4239 023c d08d 773d 1dbb 5ebd 2bc7 d3bd
00000340: e6af 9cbd 4c7f 443d 528b c03c 1040 9a3d
00000350: fa06 a93d c4bf 0f3e fa31 cdbd 6cf5 403d
00000360: 10c9 463c 86e3 95bd e20a 7fbd 1d62 cd3d
00000370: 8d68 313c 83fb 573d 27db 973d bb5b f93c
00000380: 613e 803d 97b0 a6bc f89a bb3d 2886 183c
00000390: 7472 a2bd 96f2 8abc 47bf 08be 3eca d83d
000003a0: b248 0abe 1b77 943d 7dd4 09be 7c19 a03d
000003b0: 3575 a9bd 6dce 9dbb d02a 0f3e e75f a2bd
000003c0: b5a0 04be 4d9a 06be 5d3c 063e 15e8 2dbd
000003d0: 4398 5fbd 51ea f9bb f8f6 f6bd 9ef4 783d
000003e0: 9d96 963c 7394 0a3e 09ae b0bd 5f9a 973c
000003f0: 9554 b5bd fd16 0ebe c38a 8c3c 833d 4a3b

pi.net.2.bias f4 [50]
-0.031079525 0.10467691 -0.1358023 0.13584985 -0.03950468 -0.040324707 -0.036766753 0.08496369
0.06549471 0.100730166 0.038981117 -0.13601896 0.0765297 0.11544418 0.033395868 0.050120074
-0.09011739 0.119141445 -0.03290403 0.048033334 -0.015458791 -0.0018969623 -0.030888887 0.14001328
0.010886144 0.09225519 0.13179703 0.023386292 -0.057554998 0.056995068 -0.08936699 -0.009297005
-0.050408814 -0.06259222 -0.09513343 -0.04077335 -0.016779268 0.0997822 -0.1125749 0.039935354
-0.022292783 0.011827974 -0.07808876 0.039676473 -0.09033446 0.11407234 0.11151207 0.058423426
-0.12855965 -0.044113945
00000000: 7d9a febc d960 d63d c20f 0bbe 391c 0b3e
00000010: a9cf 21bd 852b 25bd bc98 16bd 7101 ae3d
00000020: 1722 863d 9e4b ce3d aaaa 1f3d 8e48 0bbe
00000030: 9abb 9c3d 006e ec3d 1bca 083d b54a 4d3d
00000040: 778f b8bd 6e00 f43d 60c6 06bd 9abe 443d
00000050: de46 7dbc 7ea3 f8ba b10a fdbc a45f 0f3e
00000060: cc5b 323c 4af0 bc3d cdf5 063e 9c94 bf3c
00000070: cabe 6bbd a973 693d 0a06 b7bd 7752 18bc
00000080: 7979 4ebd 5a30 80bd 51d5 c2bd f501 27bd
00000090: ad74 89bc 9c5a cc3d ab8d e6bd 4193 233d
000000a0: 5b9f b6bc 1eca 413c 00ed 9fbd cc83 223d
000000b0: 4601 b9bd c29e e93d 7160 e43d 674d 6f3d
000000c0: 24a5 03be d3b0 34bd

pi.net.4.weight f4 [4, 50]
0.12234888 -0.10181598 0.04191843 0.058399267 0.051689 -0.08757833 -0.10267709 -0.058320317
-0.06562268 -0.063373014 0.02305812 -0.10500569 -0.002987335 0.12513821 0.124458484 -0.07372701
-0.036718186 -0.023696005 -0.13867103 -0.097985476 -0.09247186 0.009336742 -0.116692774 0.039393783
-0.103113025 0.039462566 0.045420058 0.023699023 -0.08015269 0.06372221 -0.0241915 0.065043345
0.000121433506 0.048759893 -0.0013120652 0.035853516 -0.044152196 0.10328829 -0.115356 -0.043312144
0.121506944 0.05185983 0.07013794 -0.026176717 -0.07681545 -0.14071886 0.06668728 -0.045808367
0.108875126 0.10995233 -0.026185956 -0.07520721 -0.051927213 0.04882571 -0.03416444 0.07501836
0.009473078 -0.11316365 0.054141894 0.06149202 -0.016835677 -0.12066704 -0.044807937 0.043087482
-0.09304635 0.109063335 0.13432646 0.012260586 -0.1306353 0.047684357 -0.100832835 0.016849434
0.054171972 -0.016343132 0.030938385 -0.1390953 0.035092596 0.09853509 -0.08569927 -0.021077791
-0.11528823 -0.006285916 -0.016945327 -0.049674734 -0.014533144 0.072375685 0.10163081 -0.043435566
-0.14074653 -0.08767212 -0.13877468 0.096148044 0.01254506 -0.016834244 -0.042059757 0.040983412
-0.053212438 -0.066359326 -0.03871431 -0.051355366 0.08424552 0.105984226 0.02552157 0.11683218
-0.051114958 0.069535084 0.104791656 -0.025522346 0.13022012 -0.052098345 0.07810525 0.10624324
-0.038613982 -0.08846229 0.023629142 -0.014476313 0.114241615 -0.0884336 -0.0047084778 0.10664561
-0.12682998 0.099834 0.12806736 -0.100166775 -0.13698451 -0.058437753 0.0756456 0.04701001
-0.014879979 -0.06773724 -0.02110512 -0.07886456 0.010352936 0.11825317 0.096214175 0.07270755
-0.053545214 -0.030597247 0.10708537 0.12722254 -0.094756976 0.024981955 0.09689431 -0.11319198
0.13918005 -0.11840733 0.04684216 0.008747495 0.11650618 0.11875232 -0.048020925 -0.10578629
-0.10018274 0.028054545 0.13684669 0.06868817 0.03085822 0.02765609 -0.07769524 -0.015801681
-0.0037091756 0.12422977 0.117069505 -0.07670032 -0.11493792 0.09754691 -0.0895351 -0.0022836006
-0.050707888 0.05519978 0.07661916 -0.11005815 0.120639086 0.118854284 0.044176154 -0.099916175
-0.029418603 0.0842468 0.097231805 -0.026755175 -0.075090095 -0.07105409 -0.13015155 0.02895315
-0.12707192 0.0013067547 0.09468929 -0.022538383 -0.12827492 -0.1172185 0.020182997 0.045787413
-0.0511845 -0.090875134 0.053034477 0.003324729 0.11463094 0.0854224 -0.07637977 -0.12343199
00000000: 0d92 fa3d e684 d0bd a9b2 2b3d 1234 6f3d
00000010: d8b7 533d 445c b3bd 5e48 d2bd 49e1 6ebd
00000020: 2f65 86bd b6c9 81bd 62e4 bc3c 390d d7bd
00000030: 2ac7 43bb 3b24 003e 17e4 fe3d 30fe 96bd
00000040: cf65 16bd 201e c2bc c7ff 0dbe 9cac c8bd
00000050: e361 bdbd 22f9 183c 9ffc eebd 605b 213d
00000060: ec2c d3bd 80a3 213d 620a 3a3d 7424 c23c
00000070: 1827 a4bd ca80 823d 412d c6bc 7235 853d
00000080: 1eaa fe38 74b8 473d 9af9 abba 23db 123d
00000090: efd8 34bd d088 d33d c43f ecbd 1368 31bd
000000a0: a2d8 f83d f96a 543d 7ba4 8f3d 8e70 d6bc
000000b0: 6b51 9dbd 9b18 10be 5793 883d 8ea1 3bbd
000000c0: ecf9 de3d b02e e13d ee83 d6bc 3d06 9abd
000000d0: a1b1 54bd 78fd 473d 03f0 0bbd 3aa3 993d
000000e0: f834 1b3c 58c2 e7bd e4c3 5d3d 0edf 7b3d
000000f0: f9ea 89bc 4820 f7bd 8788 37bd 807c 303d
00000100: 168f bebd 995c df3d e08c 093e a0e0 483c
00000110: 43c5 05be ac50 433d 7281 cebd d307 8a3c
00000120: 6ee3 5d3d 08e2 85bc 7f72 fd3c 006f 0ebe
00000130: 41bd 0f3d c4cc c93d 1983 afbd 55ab acbc
00000140: 3c1c ecbd 16fa cdbb edd0 8abc bc77 4bbd
00000150: 6d1c 6ebc b439 943d d023 d03d 7ee9 31bd
00000160: dc1f 10be 718d b3bd f31a 0ebe 44e9 c43d
00000170: cc89 4d3c f8e7 89bc da46 2cbd 39de 273d
00000180: 49f5 59bd 66e7 87bd e592 1ebd 015a 52bd
00000190: ea88 ac3d 420e d93d 9d12 d13c b645 ef3d
000001a0: eb5d 51bd 6968 8e3d 029d d63d 3d14 d1bc
000001b0: 6c58 053e 1365 55bd a5f5 9f3d 0e96 d93d
000001c0: b229 1ebd b82b b5bd e791 c13c 0f2e 6dbc
000001d0: 82f7 e93d ad1c b5bd 9349 9abb 0369 da3d
000001e0: b8df 01be c575 cc3d 1724 033e 3d24 cdbd
000001f0: ab45 0cbe 6d5c 6fbd 15ec 9a3d 918d 403d
00000200: 28cb 73bc d2b9 8abd a5e4 acbc be83 a1bd
00000210: 5c9f 293c b82e f23d f00b c53d b2e7 943d
00000220: 3a52 5bbd 14a7 fabc 934f db3d a046 023e
00000230: f20f c2bd f5a6 cc3c 8670 c63d 32d1 e7bd
00000240: 3785 0e3e 8b7f f2bd 91dd 3f3d a751 0f3c
00000250: cb9a ee3d 6b34 f33d 97b1 44bd 7ba6 d8bd
00000260: 9c2c cdbd a5d2 e53c 8a21 0c3e 62ac 8c3d
00000270: 61ca fc3c 068f e23c af1e 9fbd 8772 81bc
00000280: a415 73bb 2d6c fe3d 23c2 ef3d 0f15 9dbd
00000290: 9264 ebbd adc6 c73d 2e5e b7bd 76a8 15bb
000002a0: 13b3 4fbd 2a19 623d 82ea 9c3d 2b66 e1bd
000002b0: a011 f73d e069 f33d 0ef2 343d daa0 ccbd
000002c0: 48ff f0bc 9689 ac3d 7821 c73d ab2d dbbc
000002d0: d6c8 99bd cf84 91bd 7346 05be 282f ed3c
000002e0: 241f 02be 6947 ab3a 75ec c13d 6aa2 b8bc
000002f0: 805a 03be 4110 f0bd d056 a53c 958b 3b3d
00000300: d7a6 51bd be1c babd ae3a 593d b2e3 593b
00000310: a0c3 ea3d f0f1 ae3d ff6c 9cbd e9c9 fcbd

pi.net.4.bias f4 [4]
0.118645206 0.044639383 -0.030031756 0.07636276
00000000: 42fc f23d c9d7 363d 2805 f6bc 1464 9c3d

v.net.0.weight f4 [64, 34]
0.035995 0.15343694 -0.06046359 -0.019645508 0.10928413 0.09424286 -0.16038063 0.11543416
-0.1489804 0.12603627 0.086745866 0.08024728 0.1372055 -0.12028055 -0.033731885 0.025537249
-0.15443292 -0.164409 -0.11287831 0.13086037 -0.094199724 -0.08823457 0.07588138 -0.11478757
-0.15409547 0.14604865 0.09230665 -0.055745326 0.03616896 0.15742834 -0.0262078 -0.012346001
0.040168177 0.1370695 0.054317623 0.09177733 -0.032141693 -0.1292151 -0.12526321 -0.16214593
-0.151676 0.047200397 -0.16251455 -0.14826065 0.012925554 0.15078926 0.16716911 0.074700125
-0.15152429 -0.0057650465 0.10820433 0.07467737 0.06397897 0.15750057 -0.09670533 -0.13437976
0.14444558 -0.03147292 -0.1270877 0.018936545 -0.03950836 -0.09977754 -0.115977034 -0.16939668
0.1641298 -0.14936568 0.09732473 -0.0032128303 0.15471897 0.08769971 -0.072748214 -0.10181866
0.06365644 -0.16023907 0.07524474 0.11258931 -0.032089416 0.09598279 -0.106416054 0.09388147
-0.08006136 -0.030001428 -0.09597572 0.06415692 0.07938735 0.15840346 0.035475675 -0.16204071
0.10319702 0.07851369 -0.11529539 0.067156434 0.06287239 0.10290952 -0.017657574 -0.013605651
-0.08598888 -0.008680863 0.06814921 -0.081841476 0.12223579 -0.13506708 -0.030491946 0.15856448
-0.11622811 0.14041847 0.014418453 -0.09368799 -0.16186011 0.019239364 -0.16418383 0.14929943
0.1422161 0.102141716 0.14983645 -0.10952478 -0.08190269 -0.05738334 0.089923084 -0.05798409
0.080433734 0.12777399 0.09911227 -0.13580276 -0.054321326 0.032908067 0.03731032 0.064348035
0.06068502 -0.10909361 -0.042490866 -0.14969617 -0.016693199 -0.14251451 0.10897356 0.020245465
-0.13931653 0.16996397 -0.014078588 0.013642001 -0.011693196 -0.037268225 -0.16479525 -0.013457553
-0.06804212 -0.08557829 0.105331935 0.1406135 0.14781621 0.07768562 -0.12679389 0.07829297
0.054127615 0.12726703 0.02864434 0.16918194 0.071577765 -0.0026144278 -0.06491489 0.02943962
-0.09989356 -0.0070944116 0.04991856 0.07501462 -0.0006751296 -0.089259766 0.12059608 -0.09625476
-0.012046003 0.054685928 0.097092584 0.11729432 0.14180061 0.09068101 -0.06674017 0.039215907
-0.16852826 0.06674677 0.006103807 -0.050952464 0.03817237 -0.058522675 0.017450249 0.13645469
0.087542474 -0.15973674 0.12886447 0.088612914 -0.038379412 0.016558923 0.09548912 -0.12026761
0.12738483 -0.13798936 -0.12714162 0.10877245 0.039958235 -0.025072224 -0.049839217 0.10863854
0.15876079 -0.057144266 -0.04705739 -0.022674097 -0.028550645 -0.07449323 0.062445614 -0.03991183
0.042293295 0.0897132 0.14514044 -0.041873798 0.007976171 0.03455947 0.14036639 0.09035814
0.03049344 -0.043512464 0.05064249 0.0072417734 0.019522578 0.1550928 0.05008009 0.04407239
0.1455023 -0.14301585 0.12561387 0.104764685 -0.08786537 0.020645518 -0.038046293 0.09558956
0.0070407046 0.04622756 0.15933011 0.04145884 0.00027656945 0.13464405 -0.050899595 -0.12083937
0.15683165 -0.10551828 -0.016806748 0.104615055 -0.11812572 -0.110179015 0.15446955 0.08970641
0.085887045 -0.070052214 -0.14594655 0.112763576 0.07850615 0.10967355 -0.031905502 0.15750656
00000000: 7e6f 133d 931e 1d3e aba8 77bd 9eef a0bc
00000010: 5cd0 df3d 6702 c13d d23a 24be bf68 ec3d
00000020: 518e 18be a70f 013e d1a7 b13d b058 a43d
00000030: 997f 0c3e a655 f6bd 722a 0abd 7e33 d13c
00000040: aa23 1ebe d55a 28be be2c e7bd 4300 063e
00000050: c9eb c0bd 54b4 b4bd b267 9b3d bf15 ebbd
00000060: 34cb 1dbe c78d 153e 450b bd3d 3655 64bd
00000070: e725 143d e534 213e bdb1 d6bc e246 4abc
00000080: 6387 243d f25b 0c3e 287c 5e3d c1f5 bb3d
00000090: 02a7 03bd f750 04be 0045 00be 9509 26be
000000a0: f450 1bbe 3455 413d 376a 26be a4d1 17be
000000b0: b4c5 533c 8068 1a3e 612e 2b3e 61fc 983d
000000c0: 2f29 1bbe b7e8 bcbb 3b9a dd3d 73f0 983d
000000d0: 6807 833d d447 213e 720d c6bd d99a 09be
000000e0: 8be9 133e c0e9 00bd 4723 02be d020 9b3c
000000f0: 85d3 21bd 2b58 ccbd 5e85 edbd 5376 2dbe
00000100: a411 283e 51f3 18be 3052 c73d 598e 52bb
00000110: a66e 1e3e e89b b33d 04fd 94bd 4d86 d0bd
00000120: 4f5e 823d b615 24be ea19 9a3d 3995 e63d
00000130: 3170 03bd a092 c43d a9f0 d9bd ee44 c03d
00000140: 36f7 a3bd 8ec5 f5bc eb8e c4bd b464 833d
00000150: d695 a23d 8434 223e f14e 113d 00ee 25be
00000160: f658 d33d c9cb a03d fd1f ecbd 5089 893d
00000170: 3dc3 803d 3ac2 d23d 9ea6 90bc 3dea 5ebc
00000180: f01a b0bd 2e3a 0ebc d091 8b3d 819c a7bd
00000190: c256 fa3d 064f 0abe 3fca f9bc ba5e 223e
000001a0: 0109 eebd dcc9 0f3e 603b 6c3c 7ddf bfbd
000001b0: a8be 25be df9b 9d3c ce1f 28be f3e1 183e
000001c0: 19a1 113e ad2f d13d ba6e 193e 874e e0bd
000001d0: 99bc a7bd cb0a 6bbd 9829 b83d ba80 6dbd
000001e0: 71ba a43d 2fd7 023e 60fb ca3d e10f 0bbe
000001f0: 0a80 5ebd 9cca 063d b5d2 183d e7c8 833d
00000200: db90 783d 786c dfbd e70a 2ebd f449 19be
00000210: 2dc0 88bc 53ef 11be 882d df3d d1d9 a53c
00000220: fea8 0ebe 090b 2e3e e1a9 66bc b382 5f3c
00000230: d294 3fbc 91a6 18bd 16c0 28be 127d 5cbc
00000240: ab59 8bbd ac43 afbd 45b8 d73d fcfc 0f3e
00000250: 225d 173e a319 9f3d 42d6 01be 1158 a03d
00000260: ebb4 5d3d 4a52 023e 89a7 ea3c 083e 2d3e
00000270: 5d97 923d d256 2bbb 19f2 84bd 5c2b f13c
00000280: ff94 ccbd 3d78 e8bb 6777 4c3d 44a1 993d
00000290: 2efb 30ba d3cd b6bd 14fb f63d 3721 c5bd
000002a0: 995c 45bc 5afe 5f3d 7ad8 c63d 0138 f03d
000002b0: 2e34 113e f7b6 b93d 12af 88bd dca0 203d
000002c0: ac92 2cbe 88b2 883d 7202 c83b 88b3 50bd
000002d0: a25a 1c3d 79b5 6fbd d3f3 8e3c c7ba 0b3e
000002e0: 7849 b33d 0792 23be 0cf5 033e b07a b53d
000002f0: bb33 1dbd 94a6 873c cd8f c33d dd4e f6bd
00000300: 2b71 023e 154d 0dbe 6a31 02be 17c4 de3d
00000310: 3fab 233d 4464 cdbc 3524 4cbd e27d de3d
00000320: 3092 223e 1b10 6abd 40bf 40bd 07bf b9bc
00000330: 0be3 e9bc e88f 98bd f9c6 7f3d 967a 23bd
00000340: bc3b 2d3d 8ebb b73d b29f 143e dc83 2bbd
00000350: 7cae 023c 3b8e 0d3d 35bc 0f3e b00d b93d
00000360: 61cd f93c 203a 32bd 806e 4f3d 664c ed3b
00000370: d0ed 9f3c a6d0 1e3e c820 4d3d 4085 343d
00000380: 8efe 143e bf72 12be eca0 003e de8e d63d
00000390: c2f2 b3bd ca20 a93c 6ed6 1bbd 76c4 c33d
000003a0: b6b5 e63b 1c59 3d3d 6f27 233e bfd0 293d
000003b0: 8600 9139 21e0 093e 187c 50bd a27a f7bd
000003c0: 7a98 203e f819 d8bd 4eae 89bc 6b40 d63d
000003d0: e6eb f1bd 89a5 e1bd 442d 1e3e ffb7 b73d
000003e0: 8ce5 af3d 8977 8fbd 0373 15be 97f0 e63d
000003f0: d5c7 a03d 879c e03d 58af 02bd 6649 213e

v.net.0.bias f4 [64]
-0.15338467 0.05257085 0.05782802 -0.011151956 -0.13090178 0.023551725 0.10619541 0.08272555
0.08062791 0.10549676 0.12533154 0.07778342 0.14354707 -0.09157297 -0.13296783 0.07836267
-0.070092306 -0.05988982 -0.17094086 -0.10317705 -0.033759568 -0.115349784 0.08805054 -0.09638209
-0.048823528 -0.15189406 -0.089202896 -0.13037667 0.110944934 -0.07540051 0.089985624 0.06814131
-0.09599839 -0.14434882 -0.15291971 0.123685226 -0.055967536 0.116092935 0.046950713 0.11965023
0.015585654 0.15225618 0.054603394 0.12178892 -0.114153005 -0.044762895 -0.13608027 -0.004464998
-0.10341443 0.14673084 0.09373685 -0.12402043 -0.011427156 0.0012852262 0.029907508 -0.09935574
-0.14672527 0.051934503 0.050327055 -0.13199538 -0.15876228 0.05420142 0.013158128 0.09941644
00000000: df10 1dbe 8854 573d 13dd 6c3d b2b6 36bc
00000010: 1e0b 06be 8cef c03c fb7c d93d 036c a93d
00000020: 3f20 a53d af0e d83d e956 003e ea4c 9f3d
00000030: 01fe 123e 9c8a bbbd b828 08be 9c7c a03d
00000040: 8e8c 8fbd 074f 75bd 1f0b 2fbe 7d4e d3bd
00000050: 7947 0abd 823c ecbd d753 b43d f963 c5bd
00000060: 2efb 47bd 1e8a 1bbe 02b0 b6bd 7681 05be
00000070: 1937 e33d 956b 9abd 624a b83d ac8d 8b3d
00000080: ce9a c4bd 2dd0 13be fc96 1cbe ae4e fd3d
00000090: 373e 65bd 22c2 ed3d 644f 403d 2e0b f53d
000000a0: f95a 7f3c 0be9 1b3e cfa7 5f3d 786c f93d
000000b0: 0dc9 e9bd 4c59 37bd a058 0bbe 1e4f 92bb
000000c0: f2ca d3bd 9c40 163e 1bf9 bf3d 6cfe fdbd
000000d0: f738 3bbc 0975 a83a 9700 f53c 067b cbbd
000000e0: 263f 16be 46b9 543d be23 4e3d cc29 07be
000000f0: 9492 22be 4f02 5e3d 3095 573c d99a cb3d

v.net.2.weight f4 [64, 64]
0.07798271 -0.10692388 0.10222885 0.04196231 0.07796553 0.08802743 -0.035850093 -0.013977528
0.012762666 -0.0056330264 0.024376377 0.050970808 -0.06237352 0.05640796 0.06648636 -0.05803448
-0.020048693 -0.033203825 -0.010605678 -0.08591269 -0.04417406 -0.056113407 -0.09679259 0.038789287
-0.04188451 -0.047979414 -0.09298146 -0.05634606 0.09789352 0.05528882 -0.085208565 -0.09846218
-0.0032365173 0.06515214 0.08494383 -0.033326432 -0.10868314 0.065570846 -0.09078421 -0.037153125
-0.09102675 0.11465213 0.06719865 -0.116037354 0.007351503 -0.04759346 -0.039266974 -0.046086386
-0.03302996 -0.08555548 0.02636972 0.010516435 0.08204198 -0.07677187 -0.10949409 0.015427202
-0.06931572 0.077566534 -0.124800995 0.09024884 0.012560517 0.035444155 -0.09532587 0.07402414
-0.042637616 -0.0153039545 0.10071735 -0.02187562 0.095642656 -0.061727986 0.0027338117 0.074654385
0.07176712 -0.10105255 0.11563678 0.08627102 -0.02027756 -0.012140945 -0.08304891 -0.10213417
0.053725287 -0.042949766 -0.08817987 -0.11602667 -0.06517775 -0.10834865 -0.0859174 0.026842505
0.074449345 -0.0794297 0.060271174 0.050186828 0.041902587 -0.080434695 -0.06183158 0.029673755
0.03375338 0.093813315 -0.05861956 -0.10959594 0.04350619 0.115148604 0.04289201 -0.11511281
-0.014889345 0.022626892 -0.04911886 0.08738157 -0.044325322 0.07312815 -0.062454775 -0.11055677
0.058601543 0.017738625 0.01422742 0.06684527 0.01615581 0.06933384 -0.037909344 0.046905532
0.12325247 -0.07513693 -0.017308652 0.10619061 -0.084820464 0.092050955 0.03718382 -0.0399075
-0.09353034 0.08876108 0.08964065 -0.036044553 0.12294087 -0.04030317 0.08683507 -0.058962494
-0.11803123 0.052766815 0.10327159 -0.057166964 0.008468285 -0.028489456 -0.08584653 -0.060857624
-0.05860834 -0.05596462 0.0009393692 0.0037020296 0.09568365 -0.010666594 0.0061194003 -0.021296889
-0.008337259 -0.013815552 -0.021877006 0.07238951 -0.083774626 -0.09010184 -0.024370387 0.022901803
0.08170329 -0.11107728 0.1173974 0.043801025 -0.10988389 -0.122002184 0.09186903 -0.07271218
-0.097137615 0.071470305 -0.0057228357 0.029973015 -0.03177905 -0.0829331 0.06995048 -0.059297875
0.10943963 0.0024671704 -0.026398033 0.06085165 -0.023260698 0.110896304 -0.05455582 -0.1200721
-0.054957196 0.059531078 0.03049311 -0.033167496 0.055224016 0.109258935 0.07535809 0.060583368
0.010478735 -0.06466442 -0.037650168 0.10538997 -0.010642186 -0.115219295 0.003359601 0.059536636
0.046493396 -0.08420032 -0.07285175 0.078505725 0.036092073 -0.009356275 -0.061845273 -0.08068159
-0.12242304 -0.03069447 -0.05230716 0.07539408 -0.044972107 -0.08349271 0.050120354 0.068580106
0.10165611 0.119370505 0.120999545 0.06681275 0.002724722 -0.08929737 0.027732417 -0.060414195
-0.05326876 0.024434552 -0.02327907 0.12425302 -0.09330018 -0.097368285 -0.041079804 0.008515477
0.007897228 0.032938316 0.004383385 0.0612123 0.021877423 -0.061175406 0.102292284 -0.03233868
0.018427402 0.0033655018 0.064763576 -0.031097502 -0.0031696707 0.008977845 0.017726853 0.05692613
-0.11201036 0.116014704 -0.081902534 0.10038833 -0.009238273 -0.123261675 -0.0046927035 0.12479432
00000000: 66b5 9f3d e8fa dabd 5c5d d13d ace0 2b3d
00000010: 64ac 9f3d ba47 b43d 8cd7 12bd 0002 65bc
00000020: 801a 513c 4095 b8bb f8b0 c73c c4c6 503d
00000030: 607b 7fbd 080c 673d 002a 883d 90b5 6dbd
00000040: 283d a4bc bc00 08bd 70c3 2dbc fef2 afbd
00000050: dcef 34bd 2cd7 65bd 323b c6bd 84e1 1e3d
00000060: 188f 2bbd 1086 44bd 106d bebd 20cb 66bd
00000070: 667c c83d 8876 623d d481 aebd 8aa6 c9bd
00000080: c01b 54bb 7c6e 853d 08f7 ad3d 4c81 08bd
00000090: 4495 debd 024a 863d 12ed b9bd e02d 18bd
000000a0: 3c6c babd bcce ea3d 729f 893d fea4 edbd
000000b0: e0e4 f03b 5cf1 42bd 68d6 20bd 14c5 3cbd
000000c0: 6c4a 07bd b637 afbd 5005 d83c 204d 2c3c
000000d0: a005 a83d 923a 9dbd 703e e0bd 60c2 7c3c
000000e0: 66f5 8dbd 34db 9e3d aa97 ffbd 62d4 b83d
000000f0: a0ca 4d3c e42d 113d 363a c3bd f899 973d
00000100: c8a4 2ebd 70bd 7abc e644 ce3d 8034 b3bc
00000110: 4ce0 c33d 7cd6 7cbd c029 333b 66e4 983d
00000120: a4fa 923d a4f4 cebd fad2 ec3d dcae b03d
00000130: 201d a6bc d0ea 46bc 8c15 aabd b82b d1bd
00000140: 0c0f 5c3d 18ec 2fbd a697 b4bd 649f edbd
00000150: ea7b 85bd e6e5 ddbd 76f5 afbd d0e4 db3c
00000160: e678 983d 0aac a2bd e8de 763d b490 4d3d
00000170: 0ca2 2b3d f2ba a4bd 1c43 7dbd 6016 f33c
00000180: fc40 0a3d 3221 c03d 101b 70bd d673 e0bd
00000190: 8c33 323d 08d3 eb3d 88af 2f3d 44c0 ebbd
000001a0: 70f2 73bc 085c b93c dc30 49bd 1cf5 b23d
000001b0: 788e 35bd 36c4 953d 94d0 7fbd 966b e2bd
000001c0: 2c08 703d 9850 913c 201a 693c 2ce6 883d
000001d0: 3059 843c e6fe 8d3d d446 1bbd 0420 403d
000001e0: ca6b fc3d 64e1 99bd e0ca 8dbc 767a d93d
000001f0: 5ab6 adbd 3685 bc3d 104e 183d 0c76 23bd
00000200: d68c bfbd 5ec8 b53d 8495 b73d 74a3 13bd
00000210: 6cc8 fb3d f014 25bd 96d6 b13d a882 71bd
00000220: 5cba f1bd 0422 583d 0e80 d33d e827 6abd
00000230: 90be 0a3c b862 e9bc 4ed0 afbd d845 79bd
00000240: 4c0f 70bd 283b 65bd 0040 763a c09d 723b
00000250: caf5 c33d f0c2 2ebc 4085 c83b d076 aebc
00000260: 0099 08bc a05a 62bc 6837 b3bc f440 943d
00000270: 0892 abbd 5087 b8bd 68a4 c7bc 909c bb3c
00000280: 0e54 a73d 7c7c e3bd 0c6e f03d b468 333d
00000290: ce0a e1bd 48dc f9bd d425 bc3d 20ea 94bd
000002a0: 16f0 c6bd 065f 923d a086 bbbb f889 f53c
000002b0: c02a 02bd d4d8 a9bd 3242 8f3d 54e2 72bd
000002c0: e221 e03d 40b0 213b b040 d8bc 943f 793d
000002d0: 388d bebc 9a1d e33d ec75 5fbd 5ce8 f5bd
000002e0: cc1a 61bd dcd6 733d b0cc f93c a4da 07bd
000002f0: 9432 623d 26c3 df3d 5855 9a3d 4426 783d
00000300: 00af 2b3c c86e 84bd 1037 1abd b2d6 d73d
00000310: 905c 2ebc 18f8 ebbd c02c 5c3b b0dc 733d
00000320: dc6f 3e3d 3871 acbd 4c33 95bd 9cc7 a03d
00000330: 48d5 133d 104b 19bc 7851 7dbd 643c a5bd
00000340: eeb8 fabd f872 fbbc 0840 56bd 3668 9a3d
00000350: ac34 38bd 3afe aabd 004b 4d3d ba73 8c3d
00000360: 1431 d03d 8678 f43d 9cce f73d 20d5 883d
00000370: 4091 323b 8ae1 b6bd 182f e33c e074 77bd
00000380: 5830 5abd f82a c83c c0b3 bebc 5e78 fe3d
00000390: 2a14 bfbd 0669 c7bd 4c43 28bd 8084 0b3c
000003a0: 6063 013c 54ea 063d 80a2 8f3b c0b9 7a3d
000003b0: 4838 b33c 1093 7abd 9e7e d13d 9075 04bd
000003c0: 10f5 963c c08f 5c3b c4a2 843d 30c0 febc
000003d0: 40ba 4fbb d017 133c e837 913c 602b 693d
000003e0: b065 e5bd 1e99 ed3d 84bc a7bd 6698 cd3d
000003f0: 205c 17bc 9e70 fcbd 40c5 99bb 2a94 ff3d

v.net.2.bias f4 [64]
0.12084359 -0.100557804 0.0075672567 0.015132785 0.013354301 0.07995808 0.054568797 -0.011547998
0.08607969 0.082306445 -0.07674475 -0.11718546 -0.10051711 -0.09381503 -0.086425334 0.031327277
0.07251181 -0.07435754 0.052801445 -0.0649721 0.107679725 -0.05910082 0.07553342 0.08193381
-0.113662764 -0.041669548 -0.09578669 0.0661879 -0.047782943 0.034753427 -0.028929353 -0.0046293736
0.026657805 -0.06558575 -0.021037921 -0.07562065 -0.028020069 0.026102662 -0.070184365 0.077111244
-0.11180942 0.0144433975 0.004197985 -0.09857011 -0.0369173 -0.0031532198 0.06650123 0.06271626
-0.0016941428 -0.0382151 -0.10038681 -0.10595569 0.09323865 -0.10653016 0.055149138 -0.071765915
0.015344277 0.08192758 0.073518306 -0.0061463416 -0.055531636 -0.0532303 -0.09230149 -0.0070581287
00000000: d87c f73d 40f1 cdbd c0f6 f73b 80ef 773c
00000010: 00cc 5a3c 10c1 a33d 8883 5f3d d033 3dbc
00000020: 8c4a b03d 4890 a83d 5a2c 9dbd eefe efbd
00000030: eadb cdbd 1822 c0bd c4ff b0bd 0851 003d
00000040: 1281 943d c448 98bd 5446 583d 1810 85bd
00000050: 3087 dc3d b413 72bd 44b1 9a3d eacc a73d
00000060: 06c8 e8bd b0ad 2abd d02b c4bd 868d 873d
00000070: 0cb8 43bd 9c59 0e3d 40fd ecbc 00b2 97bb
00000080: 7861 da3c d251 86bd b857 acbc 00df 9abd
00000090: 588a e5bc 40d5 d53c d2bc 8fbd 80ec 9d3d
000000a0: 56fc e4bd 00a4 6c3c 408f 893b 20df c9bd
000000b0: 9836 17bd 40a6 4ebb cc31 883d 6271 803d
000000c0: 000e deba 7087 1cbd 9a97 cdbd 4cff d8bd
000000d0: e8f3 be3d 7c2c dabd 10e4 613d 02fa 92bd
000000e0: 9066 7b3c a6c9 a73d c490 963d 4067 c9bb
000000f0: 2475 63bd 0408 5abd 9008 bdbd e047 e7bb

v.net.4.weight f4 [1, 64]
0.055887893 0.07029621 0.06942651 0.04038155 0.046084896 -0.08156283 0.12486726 0.026837975
-0.05658503 -0.12272234 0.10728422 0.11637065 0.061013326 0.000477463 -0.079971194 0.12168506
0.103605896 0.039612174 -0.003804639 0.07704139 0.08102515 -0.059477136 0.044236705 0.120844856
0.061366573 -0.07678439 -0.06003204 -0.0579675 -0.077776104 0.08088595 0.023933366 0.035607114
-0.041826516 -0.08721168 0.082320765 0.019255936 0.023427173 -0.08426054 0.1137854 0.086902484
0.01996237 -0.041064277 0.09067382 0.10040073 0.0036985278 -0.117823064 -0.12092158 0.022280157
-0.05060798 -0.06991045 -0.050337642 0.12010652 0.08790435 -0.039742798 0.08797248 -0.0731615
0.03666988 0.09034771 -0.042742908 -0.08284445 -0.029569417 0.014896736 -0.07165556 -0.030895472
00000000: b4ea 643d 76f7 8f3d 7c2f 8e3d 2067 253d
00000010: 84c3 3c3d 6a0a a7bd 68ba ff3d 50db db3c
00000020: b4c5 67bd da55 fbbd d4b7 db3d bc53 ee3d
00000030: 1ce9 793d 0054 fa39 f0c7 a3bd 0436 f93d
00000040: 542f d43d 6040 223d 4057 79bb e0c7 9d3d
00000050: 84f0 a53d 4c9e 73bd 8c31 353d 827d f73d
00000060: 845b 7b3d 2241 9dbd 28e4 75bd 546f 6dbd
00000070: 1449 9fbd 88a7 a53d e80f c43c c4d8 113d
00000080: 4852 2bbd 0a9c b2bd ca97 a83d a0be 9d3c
00000090: 58ea bf3c ca90 acbd 5208 e93d eef9 b13d
000000a0: 2088 a33c 0433 28bd 32b3 b93d e69e cd3d
000000b0: 0063 723b 384d f1bd bca5 f7bd e084 b63c
000000c0: 504a 4fbd 362d 8fbd d82e 4ebd 68fa f53d
000000d0: 3207 b43d 58c9 22bd ea2a b43d b2d5 95bd
000000e0: 2833 163d 3808 b93d 3013 2fbd 5aaa a9bd
000000f0: 903b f2bc 7011 743c 26c0 92bd 8018 fdbc
