runs/phoenix/DroneHoverBulletEnvWithAdversary-v0/ppo/2023-08-16__13-50-47/seed_13991/torch_save/model.pt (torch, 49538 bytes, 14 tensors)

obs_oms.mean f4 [34]
000000 00 00 00 00 00 00 00 00 00 00 00 00 00 00 00 00
       0.0 0.0 0.0 0.0
000010 00 00 00 00 00 00 00 00 00 00 00 00 00 00 00 00
       0.0 0.0 0.0 0.0
000020 00 00 00 00 00 00 00 00 00 00 00 00 00 00 00 00
       0.0 0.0 0.0 0.0
000030 00 00 00 00 00 00 00 00 00 00 00 00 00 00 00 00
       0.0 0.0 0.0 0.0
000040 00 00 00 00 00 00 00 00 00 00 00 00 00 00 00 00
       0.0 0.0 0.0 0.0
000050 00 00 00 00 00 00 00 00 00 00 00 00 00 00 00 00
       0.0 0.0 0.0 0.0
000060 00 00 00 00 00 00 00 00 00 00 00 00 00 00 00 00
       0.0 0.0 0.0 0.0
000070 00 00 00 00 00 00 00 00 00 00 00 00 00 00 00 00
       0.0 0.0 0.0 0.0
000080 00 00 00 00 00 00 00 00
       0.0 0.0

obs_oms.std f4 [34]
000000 00 00 80 3f 00 00 80 3f 00 00 80 3f 00 00 80 3f
       1.0 1.0 1.0 1.0
000010 00 00 80 3f 00 00 80 3f 00 00 80 3f 00 00 80 3f
       1.0 1.0 1.0 1.0
000020 00 00 80 3f 00 00 80 3f 00 00 80 3f 00 00 80 3f
       1.0 1.0 1.0 1.0
000030 00 00 80 3f 00 00 80 3f 00 00 80 3f 00 00 80 3f
       1.0 1.0 1.0 1.0
000040 00 00 80 3f 00 00 80 3f 00 00 80 3f 00 00 80 3f
       1.0 1.0 1.0 1.0
000050 00 00 80 3f 00 00 80 3f 00 00 80 3f 00 00 80 3f
       1.0 1.0 1.0 1.0
000060 00 00 80 3f 00 00 80 3f 00 00 80 3f 00 00 80 3f
       1.0 1.0 1.0 1.0
000070 00 00 80 3f 00 00 80 3f 00 00 80 3f 00 00 80 3f
       1.0 1.0 1.0 1.0
000080 00 00 80 3f 00 00 80 3f
       1.0 1.0

pi.log_std f4 [4]
000000 18 72 31 bf 18 72 31 bf 18 72 31 bf 18 72 31 bf
       -0.6931472 -0.6931472 -0.6931472 -0.6931472

pi.net.0.weight f4 [50, 34]
000000 56 29 03 3e 16 3b e3 bd eb 59 70 bd e0 e0 07 3e
       0.12808737 -0.11095254 -0.058679502 0.13269377
000010 69 2f fa bd 37 06 28 3e 8d d1 69 3d 6d 4b 11 be
       -0.12216074 0.16408621 0.05708461 -0.14188929
000020 6d cd 2d 3e c3 9b 05 be 5e c1 06 be 9e 0d 6f 3d
       0.16972895 -0.130477 -0.13159701 0.058362596
000030 ab 51 e0 3d db e6 21 be 4c 59 fe 3d 2c d0 20 3e
       0.10953077 -0.1581072 0.12419376 0.15704411
000040 df f1 cb bc f5 7c c3 3c 52 58 64 3b 68 42 b1 3d
       -0.024895607 0.023863295 0.0034842682 0.08655244
000050 a1 b0 4e bd 4e 41 ad 3d 07 b3 19 bd c2 e7 2d 3e
       -0.050461415 0.084597215 -0.03752425 0.1698294
000060 88 14 af bd eb 52 07 3e ff ed 91 bd 5d 69 2b 3e
       -0.08548838 0.13215224 -0.07125472 0.16739412
000070 79 93 f1 3d a0 24 11 bc 0e 04 86 bd 4b fa e2 bd
       0.11795706 -0.00885883 -0.06543742 -0.11082896
000080 e6 95 9a 3d ed b5 2d be 32 6f e2 bd 62 72 d0 bc
       0.07548122 -0.1696393 -0.11056365 -0.025445167
000090 90 fe e8 3c e6 47 2b bc 1f b4 b6 bb a3 30 af 3d
       0.028441697 -0.010454154 -0.0055756713 0.085541986
0000a0 63 b3 72 bd ce 54 e4 3d 14 1d 19 3e 07 be c0 bc
       -0.059253108 0.11148988 0.14952499 -0.023528112
0000b0 fb 34 2d 3e 1a ae 05 3e e8 20 26 bb 01 2d 95 3d
       0.16914742 0.13054696 -0.0025349203 0.072839744
0000c0 65 51 68 bd be 0c f7 3d 30 4b 95 3d 86 c4 2e be
       -0.05671825 0.12062977 0.072897315 -0.17067155
0000d0 44 02 63 bc 1a d7 1f be 43 ea e3 bc 9c 78 2c be
       -0.013855521 -0.15609398 -0.027821666 -0.16842884
0000e0 bb ae 2e be 60 50 f4 bd fb 2e 29 be 3b cc e8 bd
       -0.17058842 -0.11929393 -0.16521828 -0.11367079
0000f0 2d ec 24 be 03 ba 15 be e6 45 2c be 6e f3 21 3e
       -0.16105719 -0.14621739 -0.16823539 0.15815517
000100 68 80 f4 bd 1d 74 be 3d 06 fc 16 be 6a e8 f8 bd
       -0.11938554 0.092994906 -0.14744577 -0.121537045
000110 89 c6 ba 3c b2 c6 67 3d d6 c3 74 3d 4f b2 97 3b
       0.022799747 0.056585975 0.059757076 0.0046294103
000120 11 94 77 bd a1 ff 9d 3d f0 cb ff bd dd 9f 90 bd
       -0.06044394 0.07714773 -0.1249007 -0.070617415
000130 d2 8f f7 3d 1f 3e 2a be a7 ab fd 3a 26 cf 9d 3d
       0.120879784 -0.1662526 0.0019353525 0.07705526
000140 54 c1 14 3e 07 f0 8d bd 90 3b 87 bb c5 9c 85 bd
       0.14526874 -0.06930547 -0.0041269735 -0.06524042
000150 96 ff 06 3e 1b 10 e1 3d d4 d8 ee 3d 76 ca f4 bd
       0.13183436 0.109894 0.116624504 -0.11952679
000160 16 ba 1f be 6d c7 71 3d 48 e4 15 be da 3d 24 3e
       -0.1559833 0.059028078 -0.14637864 0.1603922
000170 90 b5 a9 3d 6b b7 ab bd ba 97 1b be 39 09 f1 bd
       0.082865834 -0.083845936 -0.15194598 -0.11769337
000180 d3 fd 53 bd 85 f5 c7 3d 05 9d 33 bd 3f ee cf 3c
       -0.051755738 0.09763626 -0.043850917 0.02538216
000190 d4 a0 bd bd e6 0b e7 3d f1 e4 a9 bc 1a 8e f1 bc
       -0.09259191 0.11281566 -0.02073905 -0.029486705
0001a0 ac 1f d1 3d 60 c4 11 3b 0f e5 96 bd 60 1e cc 3c
       0.10211119 0.0022242293 -0.07367908 0.024916828
0001b0 f5 ee af ba 61 24 e9 bc fa bd 27 3e 75 2a 75 3d
       -0.0013422655 -0.02845973 0.16381064 0.059854943
0001c0 bc 4f 12 3e ec a8 09 3d 29 d7 16 be 95 5c 20 3d
       0.14288229 0.033608362 -0.14730515 0.039150793
0001d0 fe b5 83 39 9f 17 29 be 62 4b 8e bd 29 74 5e bb
       0.00025121862 -0.16512917 -0.06947972 -0.0033943749
0001e0 78 c2 a2 3d c7 33 c9 3d 75 f9 1d be 45 58 14 be
       0.07947248 0.09824329 -0.15427192 -0.14486797
0001f0 58 5e 7c 3c ba 2e 84 ba 5f 31 98 bd 5d f8 96 bc
       0.015403353 -0.0010084726 -0.07431292 -0.018428976
000200 1a 51 97 bd 84 5f 88 3d 48 f6 b0 bd 9d ea 9e 3d
       -0.07388516 0.06658843 -0.086407244 0.07759593
000210 bc 61 1a 3e 20 3e 7c 3d 79 5e a1 3d 1e 4b 2a be
       0.15076345 0.061582685 0.07879347 -0.16630217
000220 d8 69 13 be 74 cf b8 bd 44 2e 19 bc 4c c5 a6 bd
       -0.14395845 -0.090239435 -0.0093494095 -0.081431
000230 04 29 a5 3d e8 c8 bd 3d 84 a2 13 3c 07 58 03 be
       0.08064464 0.092668355 0.009010915 -0.12826549
000240 96 ad b2 bb 39 45 7c 3b 2a 3a 92 3d 2a eb 17 bd
       -0.005452822 0.0038493408 0.0714 -0.037089504
000250 d6 54 3b bc b3 12 0e 3e 03 ac 2b 3e c8 1a 24 3e
       -0.011433801 0.1387432 0.16764836 0.16025841
000260 dd e5 7a bd e1 66 e0 bb d2 4b 1c be 23 13 1f be
       -0.06125437 -0.0068482016 -0.15263298 -0.15534644
000270 a5 45 e8 bb cd 71 1d be 14 cb 5b 3d aa 19 1e b9
       -0.0070883804 -0.15375443 0.053660467 -0.00015077615
000280 54 4a 0a 3e d0 b2 aa bd 51 13 1c be ed e6 6e bd
       0.13504916 -0.08334887 -0.15241744 -0.058325697
000290 5d 19 78 bd bd 25 a4 3d cb a2 f7 3c d8 6a bc 3d
       -0.060571063 0.080150105 0.030228993 0.09200066
0002a0 2c 6a 92 3d 0a 2a 9d bc 8d 20 95 3d f9 ff c5 3d
       0.07149157 -0.019185085 0.07281599 0.096679635
0002b0 7d a6 23 3d 5f c5 a1 bd ae 73 0a 3e ed a9 b8 ba
       0.039953697 -0.07898974 0.13520691 -0.0014088728
0002c0 36 62 9e bb ea d8 b7 bc 0f 09 ae bc 70 24 09 bd
       -0.004833485 -0.0224423 -0.021244554 -0.033482015
0002d0 65 b0 15 3e b4 5b 3d 3c ff 7c 18 be 2b 0e 7c bd
       0.1461807 0.011557508 -0.14891432 -0.06153695
0002e0 a7 ea 29 3e 63 2e 04 be cc a5 25 be 48 e9 ee bd
       0.16593419 -0.1290832 -0.16176528 -0.116655886
0002f0 10 49 f1 bd 73 4a 06 be ea 70 cd bc 95 a6 ba 3d
       -0.11781514 -0.13114338 -0.025078256 0.09113804
000300 8c 8b ee 3d 6b 1b fa bd 77 ab 1a be 7c 05 90 3d
       0.1164771 -0.12212261 -0.15104471 0.07032296
000310 39 22 0d be aa ab 1a be 91 0f a2 3a 37 76 0a 3e
       -0.13782586 -0.15104547 0.0012364258 0.13521658
000320 c9 71 1d 3e fd e8 10 3d 8c 49 68 3d b1 bf 05 bd
       0.15375437 0.035378445 0.056710765 -0.032653514
000330 f6 d9 36 bd 0e 3f 6b bd 5f 58 79 bd 92 2c 07 be
       -0.044641457 -0.05743318 -0.060875293 -0.13200596
000340 56 10 03 be 34 f5 00 3e ee cb 2d 3e 56 a0 e3 3d
       -0.127992 0.12593538 0.16972324 0.11114566
000350 cc 0d bc 3d 66 7c 14 be 01 cf fb 3d 98 84 6f bd
       0.09182319 -0.14500579 0.12295342 -0.05847606
000360 02 bc 21 3e 57 99 0a bc 90 a0 34 bd 5c ea 6f 3c
       0.15794376 -0.008459411 -0.044098437 0.014643278
000370 79 3e 04 be ed d7 8e bd 2e 7a 19 be ff 71 21 3e
       -0.12914456 -0.06974778 -0.14988014 0.15766142
000380 e1 59 2f 3e bd 1c 08 bd b0 12 b1 3d 9d 5c 86 bb
       0.1712413 -0.033230532 0.086461425 -0.004100396
000390 45 70 81 3d c7 2d 02 3c fc 61 1f 3e c0 b8 bf bc
       0.06320242 0.0079454845 0.15564722 -0.023403525
0003a0 7d 2f 04 3e 1b 1d ff 3d 35 a7 aa 3c da 91 99 3d
       0.1290874 0.12456723 0.020831684 0.07498522
0003b0 92 82 29 3e 95 ce 54 bb 23 da 20 bd 78 28 7b 3d
       0.16553715 -0.0032471765 -0.03927053 0.06131789
0003c0 4c de 15 be 28 ba 2a be 67 e6 97 3d fc b8 73 bd
       -0.14635581 -0.16672575 0.07416993 -0.059502587
0003d0 66 62 c6 3d 30 18 6f bd 4e 8b e5 bc d1 d3 23 3e
       0.09686737 -0.058372676 -0.028020527 0.1599877
0003e0 f8 ed 0c be 5a a7 1b 3d 4d 9f 22 3d d2 48 b7 bd
       -0.13762653 0.038001396 0.039702702 -0.08949436
0003f0 9c a0 ff bd 6e bf af bd d0 66 91 bd fb 95 05 be
       -0.12481806 -0.08581434 -0.07099688 -0.13045494

pi.net.0.bias f4 [50]
000000 11 31 15 be d5 59 1e be e9 67 2e be 9c 90 d0 3c
       -0.14569499 -0.15463956 -0.17031826 0.02545958
000010 b4 28 2c 3e a5 4c ce bc 5c 7a 09 bd e2 16 1f 3d
       0.16812402 -0.025183031 -0.033563957 0.038840182
000020 3d 35 85 3d 71 a2 83 3d e6 2a 28 3e 21 23 d2 3d
       0.06504295 0.064274676 0.16422614 0.102606066
000030 53 f6 be bd bc ce de 3d fe 50 bf 3c bb f2 2f bb
       -0.09324326 0.10879275 0.02335405 -0.002684756
000040 ad 9e 93 bd 4b 75 6b 3b 5a 55 1e be 79 0c 68 bd
       -0.072079994 0.0035928066 -0.15462247 -0.05665252
000050 79 3d 46 bd 4a 5c 5b 3d 96 e3 bb 3d 31 14 1a 3e
       -0.04839847 0.05355481 0.09174268 0.15046765
000060 68 5c f3 bd 2a 74 a3 bd 0f b8 f7 3b db 98 d8 bd
       -0.118828595 -0.07981141 0.0075597833 -0.1057603
000070 d5 3c 94 bd fd 47 d2 bd 3f 5e d3 bc ab 47 8f 3d
       -0.07238165 -0.10267637 -0.025801776 0.069960915
000080 29 50 36 bd 98 cd 18 3e 1a ce 27 3d ba 62 95 3d
       -0.04451004 0.14922178 0.04096804 0.07294221
000090 44 f9 a0 3c 8b 7e 0d 3e 74 e5 11 be 6b 41 ac bd
       0.01965011 0.13817804 -0.14247686 -0.08410915
0000a0 bb e1 ce 3d f8 fc 02 bd 81 e1 e5 bd 65 ab 21 be
       0.101016484 -0.03197953 -0.11224652 -0.15788038
0000b0 af e2 10 3b da d1 1a 3e fa 05 17 3d 6f 96 c5 bd
       0.002210777 0.15119115 0.036870934 -0.096478336
0000c0 de 5d c9 bd c3 10 77 3c
       -0.09832357 0.01507968

pi.net.2.weight f4 [50, 50]
000000 29 8e 7f bc a9 77 da 3c 18 11 0e 3e 52 1f 74 3d
       -0.0155978585 0.026668387 0.13873708 0.059600182
000010 c4 2d 8e bd dd e1 67 3d 02 05 50 bd e9 02 e1 3d
       -0.06942323 0.056611884 -0.050786026 0.10986883
000020 02 7b c7 bd f9 87 bd 3c d8 d8 96 3d 29 64 c3 3d
       -0.09740259 0.023136126 0.073655784 0.095405884
000030 46 fe a7 3c 18 74 93 3d dc 11 a8 bc 0c ac 8e ba
       0.02050699 0.071998775 -0.020516329 -0.0010885014
000040 2b 65 67 bd ee f4 12 3d ab 20 00 be fd fc de bd
       -0.056492966 0.035878114 -0.12512462 -0.108880974
000050 f5 bb c6 3d 25 ab da 3d cb 5b 36 3d 1e a4 f2 3d
       0.09703819 0.106771745 0.044521134 0.11847709
000060 5d 20 53 bd b4 e3 85 3d 7a 66 e3 3c f4 14 db bd
       -0.051544536 0.065375715 0.027758826 -0.10697356
000070 69 00 3e 3d 99 9d 98 3d 45 bd 53 3d 18 f8 68 bd
       0.04638711 0.07451934 0.051694173 -0.056877226
000080 71 55 8f bd 50 d6 26 3d a3 ed 93 3c bd 02 7b bd
       -0.069987185 0.040731728 0.01805765 -0.06128191
000090 05 51 c9 bc 51 5b b4 bd aa f7 06 3e c1 ef 24 bd
       -0.024574766 -0.0880648 0.13180414 -0.04026771
0000a0 a9 93 6e 3d 4f 44 ac 3c 81 71 9f bd d9 23 06 be
       0.05824629 0.021028666 -0.07785321 -0.13099612
0000b0 99 37 a0 bd b0 8d e3 3c e9 e0 d3 3d 05 4f d6 bd
       -0.078231044 0.027777523 0.103456326 -0.104642905
0000c0 6d 74 63 3d d6 db e6 3d 54 a9 5e bd 77 2a 49 3d
       0.055530954 0.11272399 -0.054360703 0.049112763
0000d0 26 d9 df bd c1 fa 3f 3c 18 71 15 3d 95 cd cf 3d
       -0.1093009 0.011717499 0.036484808 0.101466335
0000e0 03 7c 33 bc 1d 15 03 3d 7d 68 b4 3d e6 27 61 bd
       -0.01095486 0.032002557 0.08808992 -0.05496969
0000f0 6b aa 06 3e 52 da 96 bd bc 64 dd 3d 56 ce 96 ba
       0.13150947 -0.0736586 0.10810229 -0.0011505585
000100 0b 45 9e bc f3 4d 8f 3d ac 75 09 3e c1 4b e6 3d
       -0.019320032 0.069972895 0.13423795 0.11244918
000110 21 a3 23 bd fe 18 b1 bd 3b c2 9b bd c3 47 6d bd
       -0.039950494 -0.08647345 -0.07605406 -0.057929765
000120 e2 ef de bd 67 57 a8 3c d9 e7 90 bd c0 4a 2d bb
       -0.10885598 0.02054949 -0.070754714 -0.002644226
000130 6f d9 30 bd bf df 8b bb 26 64 d2 bc 5a d0 2c 3d
       -0.04317611 -0.004268616 -0.02568252 0.042190887
000140 70 b6 aa 3d 1d de b3 3d bd 9b 06 3d d9 b1 62 bd
       0.083355784 0.08782599 0.032863367 -0.05534539
000150 07 a1 9f 3d 02 60 00 bd c6 43 10 be a5 01 35 3d
       0.077943854 -0.03134156 -0.14088354 0.04419102
000160 10 73 63 3d 96 d1 ee 3c b4 27 b9 3d f3 f4 2d 3c
       0.055529654 0.029152673 0.09040776 0.0106174825
000170 82 b2 d8 3b 8b b1 0e be 85 a2 c1 3d 79 77 4e bd
       0.0066130767 -0.13934915 0.09454826 -0.050406907
000180 53 4c 60 3d 88 3d d1 3d 0b 95 ec 3c 83 89 67 3d
       0.05476029 0.10216814 0.028879663 0.056527626
000190 be 44 01 bc 50 82 22 bd c2 7b 93 bc ba 14 ee 3d
       -0.007889925 -0.039675057 -0.018003348 0.11625047
0001a0 30 1f f3 3c 58 c9 01 be c0 8d 04 be 24 8f 1f bd
       0.029677957 -0.12674463 -0.12944698 -0.03895487
0001b0 8e 7a fe bd 7b 04 66 3d 8a 5d fe 3d 05 4e fa bd
       -0.12425719 0.056156617 0.12420185 -0.12221912
0001c0 93 ef 0b be 41 43 10 3e d9 46 a6 3d f4 eb ab 3d
       -0.13665609 0.14088155 0.08118982 0.08394614
0001d0 db 4a e2 bb db 17 99 bc e8 86 db 3d 04 2f 55 bd
       -0.006905896 -0.018688133 0.10719091 -0.05204679
0001e0 47 dc d1 39 0c b3 8f bd 25 f6 44 bd 3a c9 8a bd
       0.00040027706 -0.07016572 -0.048086304 -0.06776662
0001f0 a9 fe 01 3e 36 a7 9c bc d8 cc 29 3d 77 03 10 be
       0.12694801 -0.019122701 0.04145512 -0.14063822
000200 d8 87 d0 bd 52 e6 32 bc cb 55 a7 3d 2b 3f d3 3d
       -0.1018216 -0.01091917 0.081706606 0.10314783
000210 a8 ee b7 bd d7 3c ab 3d 73 95 9f 3d f1 04 d9 3d
       -0.08981067 0.08361214 0.07792177 0.105966456
000220 a8 ed f3 3d 78 4f db 3c ab 1e f3 bd 21 44 c2 3d
       0.11910564 0.026771292 -0.11871084 0.09485651
000230 1c 6c 03 be 0e b3 67 bd 86 0d 44 bc 9e 06 90 3d
       -0.12834209 -0.056567244 -0.011966115 0.07032512
000240 d9 ec e0 3d 38 d1 92 3d 47 9b b2 bd 0b d6 f7 3c
       0.10982675 0.071688116 -0.08721023 0.03025343
000250 dd 72 8b 3d 21 83 05 be a7 78 0b 3c 8b 10 27 3d
       0.06809018 -0.13038303 0.0085126525 0.04078726
000260 c8 1b a2 3c 52 8c bf bd a0 eb cd 3d cc 88 7c 3d
       0.019788638 -0.09352936 0.100547075 0.061653897
000270 c7 a4 94 bc 58 a3 bf 3d 98 fe 2e bd 72 03 a5 3d
       -0.018144978 0.09357327 -0.04272327 0.08057298
000280 e1 91 75 bd 8e 01 ee bd 00 68 8a bd 7a 00 8c 3d
       -0.059953574 -0.1162139 -0.06758118 0.068360284
000290 b0 81 1b bd 17 00 e1 3d 36 4f dc bd be 12 93 bd
       -0.037965477 0.10986345 -0.10757296 -0.07181309
0002a0 56 7e b3 bd 75 95 a3 bd dc 04 f1 bd f7 0a 6a 3d
       -0.08764331 -0.07987491 -0.11768505 0.057139363
0002b0 b8 f7 75 3c ed cd 51 bd b0 bb d5 3d a5 1c 52 3d
       0.015012674 -0.051221777 0.10436189 0.05129685
0002c0 c0 6b c8 bd 7d a6 c4 bd c3 e8 0d be 2a 6d d2 bc
       -0.09786177 -0.096020676 -0.13858323 -0.02568682
0002d0 eb ac 1c bd b5 a3 de bd 1d 3a 68 bd 12 ae 04 3e
       -0.038250845 -0.108710684 -0.056696046 0.12957028
0002e0 90 01 bb bd 1d 08 83 3d b0 b8 ab 3d 22 82 7c bd
       -0.091311574 0.06398032 0.08384836 -0.06164754
0002f0 1e 5b 31 3c 93 d3 59 bd dd e4 62 bb 86 53 b0 bd
       0.010824947 -0.05318029 -0.0034621276 -0.08609681
000300 8a 08 ec bb f8 fa 63 3d 09 d6 0e be cd b5 5f bd
       -0.0072031664 0.055659264 -0.13948835 -0.054616738
000310 ea 70 5d bd 00 78 be 3d 50 12 30 bc 13 0d ed bd
       -0.05406276 0.09300232 -0.010746554 -0.11574759
000320 0a 73 bf 3d ac d3 25 3d dc 62 f3 ba cb 56 03 be
       0.09348114 0.04048507 -0.0018568891 -0.12826078
000330 ea 78 c6 bd ff 13 b3 3c 7e ba e3 3d 3f 74 70 3d
       -0.09691031 0.02186012 0.11119555 0.05870461
000340 fc 7a 8a 3d b4 7c de 3d 32 f3 9d 3b 53 df 35 bd
       0.06761739 0.10863629 0.004820251 -0.04440243
000350 3e 19 da 3d e3 f2 be 3d 46 ab 03 be e7 52 c1 3d
       0.10649346 0.09323671 -0.12858304 0.094396405
000360 71 45 b4 3d 98 52 a0 3d 9f 68 df 3d b0 22 9f bd
       0.088023074 0.078282535 0.10908627 -0.07770288
000370 21 84 73 3d 22 e1 ce 3d 43 7a d6 3d 48 8b d1 3d
       0.05945218 0.101015344 0.10472538 0.10231644
000380 6e 6f a6 3c fe 6c 0d be 69 20 0e be 05 ba 06 3d
       0.020316806 -0.13811108 -0.13879551 0.032892246
000390 89 c0 43 bd 98 8e af bd 9a 6e b8 3d a0 1c 03 3e
       -0.047791038 -0.085721195 0.090054706 0.12803888
0003a0 3d 49 db 3d b2 d9 bc bd 7a af 24 bc 28 37 ee bb
       0.107073285 -0.092212096 -0.0100516025 -0.0072697587
0003b0 f7 58 20 bc 0c d5 b4 bc 64 8b ab 3d 13 f3 ef bb
       -0.009786836 -0.022074245 0.08376196 -0.007322678
0003c0 5a d0 d6 bd ff ab d8 bd 00 23 b0 bd 08 15 0c 3e
       -0.10488959 -0.10579681 -0.08600426 0.13679898
0003d0 24 9f fd bd e9 c9 d2 3d 3b 68 09 3c 4a ed 6c 3c
       -0.12383869 0.102924176 0.008386667 0.014460871
0003e0 34 2c af bd 58 c5 ba 3d 94 2e 85 bd a3 70 88 bd
       -0.08553353 0.091196716 -0.06503025 -0.06662109
0003f0 77 f9 0f bd 0b 6f ee 3d 44 07 ef bd 04 3f 4a 3d
       -0.035150018 0.116422735 -0.11671308 0.049376503

pi.net.2.bias f4 [50]
000000 5e 06 0b 3d 9a f5 2f bc 27 f5 dc 3a e9 51 57 3d
       0.03394162 -0.010739708 0.0016857729 0.05256835
000010 15 0b dc 3d 21 54 ac 3d 57 27 b0 bd 11 d9 df 3d
       0.10744301 0.08414484 -0.086012535 0.10930074
000020 1b 59 81 3b ce 4b 61 3c 4e ad cc 3d e4 f6 02 3e
       0.00394739 0.013750983 0.09993993 0.12789494
000030 32 4e ba bd b0 3f f4 bd cf 9f 42 bd 91 b0 4d 3d
       -0.09096946 -0.1192621 -0.047515687 0.050217215
000040 b9 91 26 3d 4d e0 fd 3d 33 e9 dd 3d 6d af 3f 3d
       0.040666316 0.123962976 0.10835495 0.04679816
000050 a4 3d a5 bd 92 c1 b9 3d 60 ae f6 bd e3 1e fe 3d
       -0.08068398 0.09070124 -0.12044978 0.12408235
000060 d6 3b f0 3d 8a 12 bf bc b6 75 72 bd b4 ef b4 3d
       0.11730163 -0.02332427 -0.05919429 0.08834782
000070 41 98 bd bd 6a 6c 70 3c 25 eb f5 3d fd 80 8a bc
       -0.09257556 0.014674285 0.12007741 -0.01690721
000080 ef d1 0c be 40 2b 9e 3d 02 8a ae bd 96 77 3b bd
       -0.13751958 0.07723093 -0.08522417 -0.045768343
000090 ee 7c 09 bd 98 97 00 be 01 ce ba bd cc f4 86 3d
       -0.033566408 -0.12557828 -0.091213234 0.0658966
0000a0 d8 fd b8 bd 50 98 f7 3d 35 9f b5 3d dd ed 0f 3e
       -0.09032792 0.12089598 0.08868257 0.14055581
0000b0 ed 13 14 bc 9d 55 2c 3d 86 23 0c 3d cc 13 91 3b
       -0.009037954 0.042073835 0.034213565 0.004427409
0000c0 51 7f b7 3d 1f c0 ec 3d
       0.089598306 0.11560082

pi.net.4.weight f4 [4, 50]
000000 7e 6f e3 bc 2d d3 72 3d 41 cf cb 3c cb c6 99 3c
       -0.027763125 0.059283424 0.0248791 0.01877155
000010 13 45 0a 3e c9 18 f7 3b 7d 23 17 3d af 27 e9 bd
       0.13502912 0.0075407964 0.03689908 -0.11384522
000020 82 ea b0 bd a3 cc fb 3c 84 88 c3 3c 3b 77 05 3e
       -0.08638479 0.030737227 0.023868807 0.13033764
000030 5e f0 fe bc 4a bc 9c bd 12 fc 1b 3d e1 1e 48 3c
       -0.031120475 -0.07653101 0.03808219 0.012214393
000040 77 cb 34 3d f1 d8 b5 bd dc 42 09 be dd 5f c6 bd
       0.04413935 -0.08879269 -0.13404411 -0.09686253
000050 28 0e 11 3d ed 12 55 bc c0 34 d7 3d 94 63 0b 3c
       0.03541389 -0.013005001 0.10508108 0.008507628
000060 24 c6 81 bb e9 37 b2 3c 80 2c 28 bd 45 f5 c1 bd
       -0.003960388 0.021755176 -0.041058064 -0.094706096
000070 3e db 1d 3d e5 56 24 3d e3 cc 08 3e 59 1b e3 bd
       0.038539164 0.04012193 0.13359408 -0.110892005
000080 d4 f0 d3 3d af 99 ca 3c a3 fd 0a 3e 57 ca ec bd
       0.10348669 0.024731485 0.13573317 -0.11562031
000090 20 33 14 3d 63 7c 73 3d 87 10 c5 bd 54 f9 c2 3c
       0.03618157 0.059444796 -0.09622293 0.02380053
0000a0 fa 2f 8f 3d da 03 06 3e 5c af 67 3d f2 57 79 3c
       0.06991573 0.13087407 0.05656372 0.015218722
0000b0 74 fc 9a bd 3d 7b 8e bd 30 82 cc bc ed aa 61 3d
       -0.07567683 -0.069570996 -0.024964422 0.05509465
0000c0 18 75 25 3d 5e 3d ce bc a5 d1 5b 3d 5f df 5c bc
       0.040394872 -0.025175747 0.05366673 -0.01348099
0000d0 f4 eb b7 bd fa cc c9 3c 06 fb 96 3b 81 51 9f bd
       -0.08980551 0.024633873 0.004607561 -0.077792175
0000e0 93 82 fc 3c 3c 6d fe bc 5b 1e 08 be 06 58 bb 3d
       0.030823981 -0.031057946 -0.1329283 0.091476485
0000f0 01 6e f3 3d 4b 4c 3b 3d 39 85 9c 3d 5d 31 86 bd
       0.11886216 0.045727056 0.07642598 -0.06552384
000100 dd e7 05 be 73 e2 67 3d d0 d3 46 3c c4 d2 91 3d
       -0.1307673 0.056612443 0.012135461 0.071202785
000110 b2 e4 c2 bd e8 94 03 be 7c b3 94 bc 0a 06 55 3d
       -0.095162764 -0.12849772 -0.018151991 0.052007712
000120 5d 98 83 3d e5 53 01 3e 15 3c 51 3d de 30 c5 3d
       0.06425545 0.1262966 0.05108269 0.09628461
000130 3a c6 06 3e 65 c3 bf bd c9 fc 0a bd 48 61 ad 3d
       0.13161555 -0.093634404 -0.03393248 0.084658206
000140 0d 70 eb 3d 50 d6 c5 3c 9c 1f b8 3d f0 64 8e bd
       0.11495981 0.024150044 0.08990404 -0.06952846
000150 37 a4 03 be cb 33 cf bd 6f d7 a9 3d 7e f9 4e bc
       -0.12855612 -0.101173006 0.08293044 -0.012632726
000160 93 db 65 3d b4 49 db bc ab 7a 6c 3d 80 6f 7a bd
       0.056117605 -0.026768543 0.057734173 -0.06114149
000170 63 04 08 3e f0 80 c6 3b 86 9f d8 bd 61 81 d1 bc
       0.13282923 0.006057851 -0.10577302 -0.025574388
000180 5c e6 eb 3d 6d 56 16 bd c8 f6 16 3d 0f f2 25 3c
       0.11518547 -0.036703516 0.036856443 0.010128512
000190 fc 1a cc bc 9b 39 e0 3d 9f f3 c5 bc 1a 3b bc 3c
       -0.02491521 0.10948487 -0.02416402 0.0229774
0001a0 43 40 d4 bd c1 04 d8 3d 25 eb d1 3d ea cf 82 3d
       -0.103638195 0.10547782 0.102499284 0.06387313
0001b0 86 a6 84 3c ae 19 bf bd b4 a8 88 3d 8e c0 c1 3d
       0.016192686 -0.0933107 0.066728026 0.09460555
0001c0 3b ff cb bb b0 ff 84 bc b2 d9 5e 3d 74 f9 0f 3e
       -0.006225494 -0.016235203 0.05440683 0.14060003
0001d0 01 12 98 bd 5a 8b e7 bd 6a d9 ff 3d 3c cb f5 3d
       -0.07425309 -0.11305876 0.1249264 0.120016545
0001e0 ff d5 d1 3d 3a a2 f2 bd 88 fc af 3c 06 e0 0f be
       0.10245895 -0.118473485 0.021482721 -0.14050302
0001f0 ec 8a 0c 3d 0a c0 0a 3e 78 ca e8 bd 6b 6e 93 bd
       0.034312174 0.1354982 -0.11366743 -0.07198795
000200 3e db 86 bd 87 82 be 3d dd 33 ba bd a0 cc d2 bc
       -0.06584786 0.0930224 -0.090919234 -0.025732338
000210 67 dc a7 bd 17 fe 6f bd eb 4b f6 bd 73 07 71 3d
       -0.08196335 -0.05859193 -0.12026199 0.058844995
000220 75 ed 6d bd e3 b5 2a 3d 54 09 bf 3d 78 2c e1 3d
       -0.058087785 0.041677367 0.09327951 0.1099481
000230 c4 4c 17 bc 10 40 a3 bd 2c bd 92 3d 2c 85 a6 3c
       -0.009234611 -0.07971203 0.07164988 0.020327173
000240 f2 c4 e3 bc 24 0f 4e bd f4 2f 5e 3b dd 7c a7 3d
       -0.027803872 -0.050307408 0.0033903094 0.08178113
000250 06 a2 98 bd e3 26 5c bd b4 1f 85 bd 03 20 1c bc
       -0.074527785 -0.053748023 -0.065001875 -0.009529117
000260 b7 a4 3d bd a2 5d d6 3d 9c 9d bd bb 83 70 b5 bd
       -0.046299662 0.10467078 -0.005786611 -0.088593505
000270 53 c1 75 bd 5e 3f a2 3d 0e e3 00 3e 86 53 c7 3d
       -0.05999882 0.079222426 0.12586614 0.09732728
000280 0c e5 b2 bc 12 14 dc bd d5 f5 26 bd 46 a4 72 bd
       -0.021837734 -0.107460156 -0.040761787 -0.059238695
000290 ab cf 17 3d 31 06 92 bd dc ea 95 3c a2 de 97 bd
       0.037063282 -0.07130087 0.018300466 -0.07415511
0002a0 29 32 d0 bd b6 e1 aa bd fe f5 fd 3d df 83 d5 3d
       -0.10165817 -0.08343832 0.12400435 0.10425543
0002b0 a0 59 8d 3d 98 36 c6 3d cd 62 ae bc 13 7b 95 3d
       0.0690186 0.09678382 -0.021287346 0.07298865
0002c0 6e e2 25 bc c5 37 bb 3c 66 4d 71 bd 08 66 48 3d
       -0.010124786 0.022853741 -0.058911704 0.04892543
0002d0 fb 18 cd 3c 56 fa e1 3d 64 37 e4 3c bc c8 52 3d
       0.025036326 0.11034076 0.027858444 0.051460966
0002e0 05 50 57 3d 80 f0 69 3d 98 79 b1 3a 6a bc 5b 3d
       0.052566547 0.057114124 0.0013540266 0.053646483
0002f0 07 ce 8b 3d 42 7e 0c 3e f4 82 70 3d f8 e2 7e 3c
       0.06826406 0.13720039 0.058718637 0.015557043
000300 52 b8 55 bc 27 57 07 3e 85 ea af 3d a6 d7 b9 bd
       -0.013044434 0.1321684 0.08589653 -0.09074335
000310 43 c8 a2 3d 4c f8 9b bd c0 ae 9d bd 44 f8 4b bd
       0.07948353 -0.07615718 -0.076993465 -0.04979731

pi.net.4.bias f4 [4]
000000 6b 89 ed bc 39 b2 f3 bd 4d ac e6 3d 9e 50 5d 3d
       -0.02899619 -0.11899228 0.112633325 0.05403196

v.net.0.weight f4 [64, 34]
000000 df 7f a1 3d 67 7b 40 bd 0b 8c 1b 3e 22 98 a7 3d
       0.078857176 -0.046992686 0.15190141 0.08183314
000010 f0 bd 1f 3e 66 9b 06 3e 50 1b d9 3d 5d fb e4 bd
       0.15599799 0.13145217 0.106009126 -0.11180756
000020 c4 60 95 3d 14 86 f2 3d 26 6c 9c bd 86 14 25 be
       0.07293847 0.118419796 -0.07637815 -0.1612111
000030 dc e0 fd 3d 4f f3 b8 3d 41 51 8b bd 6f 16 85 bd
       0.12396404 0.090307824 -0.06802607 -0.064984195
000040 54 c9 8c 3d 77 4a 83 3d bc 63 1a bd a4 39 2b 3e
       0.06874338 0.064106874 -0.03769277 0.16721207
000050 9c 0f 18 be 4d c2 76 3c 3c 5c fc bd 36 d4 2c 3e
       -0.14849705 0.015060973 -0.1232228 0.16877827
000060 8a 64 39 bd de e6 08 3e f6 14 b8 3d f3 75 a2 3c
       -0.045261897 0.13369319 0.08988373 0.019831633
000070 e2 43 e9 bd 39 2c 22 3e ac 76 29 3e 8b 35 8b bd
       -0.11389901 0.15837182 0.16549176 -0.06797322
000080 d2 e4 b4 3c a9 a7 1d be 2b 36 1b 3e ad dd c4 3d
       0.022081766 -0.15395989 0.15157382 0.09612594
000090 4f e1 db bc 29 0c fd 3d 05 93 27 3d 25 76 94 bb
       -0.026840834 0.12355835 0.040911693 -0.0045306855
0000a0 34 36 c3 bd 87 8d 01 be 34 49 12 3e ae 2f 1a 3e
       -0.09531823 -0.12651645 0.14285737 0.15057251
0000b0 0e 5a a8 3d 90 d3 2e 3e 40 52 68 3c de 12 b5 bb
       0.082203016 0.17072892 0.014179766 -0.005525931
0000c0 4a d0 cb bd 6e 47 a4 3d 4a 4e 24 be 84 8c ef bd
       -0.09951837 0.08021437 -0.1604549 -0.11696723
0000d0 36 56 7f 3d c4 18 8b 3c 3c fb 00 3e e2 69 81 3c
       0.062338077 0.016979583 0.12595838 0.01579756
0000e0 bd d3 f5 3d 07 95 1b 3e 4a ba e6 3d a9 a4 dd 3d
       0.120032765 0.15193568 0.112660006 0.10822422
0000f0 7a 8f a8 3d 5b 86 a1 3d 7d 15 f7 bd e1 ac 28 be
       0.08230491 0.078869544 -0.120646454 -0.16472198
000100 57 0f 3c bd 33 09 9b 3d 16 95 54 bd a5 4b 05 be
       -0.045913067 0.07570114 -0.051899992 -0.13017137
000110 ce 5c 27 3e 22 db 56 3d 5d 93 15 be 3d b0 28 be
       0.16343996 0.052455075 -0.14606996 -0.1647348
000120 08 1c e2 3c 4d 16 2f 3e 1f 47 d9 bd 39 70 b9 3c
       0.027601257 0.17098351 -0.106092684 0.02263652
000130 31 b2 aa bd 29 b4 9b 3d 4c 38 99 3d 2d 8e cb bd
       -0.083347686 0.07602722 0.07481441 -0.09939227
000140 c7 ad a3 bc 31 65 2c be 6e cb 15 be ba 9a 83 bb
       -0.019980324 -0.16835476 -0.14628384 -0.0040162476
000150 3e 56 77 3d 14 ad a0 3d f2 8e b5 bc 77 fc 01 3e
       0.06038498 0.07845512 -0.022162888 0.12693964
000160 b5 4b 0b 3e b4 94 9e bd bd 12 52 bd 80 da 9b bc
       0.13603099 -0.077432066 -0.0512874 -0.019025087
000170 a4 44 8e bd d5 7c cd bc 8f 2d fd 3c fb ae dd 3c
       -0.06946686 -0.025083939 0.030905513 0.027060976
000180 a2 b8 cd 3d 96 5b 61 3d 2c 73 8f 3d 2a cb 01 bd
       0.100449815 0.055018984 0.07004389 -0.031687893
000190 0b 39 95 3d ff a3 48 bc 28 ef 5b bd ef 12 81 bd
       0.07286271 -0.012246131 -0.053694874 -0.063024394
0001a0 44 75 06 3d a0 b4 23 3e 82 5d a1 3d ce ce 2c 3e
       0.032826677 0.15986872 0.07879163 0.16875765
0001b0 18 bb 10 be e4 86 a6 bd f2 ca c5 bd b4 77 b4 3d
       -0.1413387 -0.08131197 -0.09657849 0.08811894
0001c0 2d 6f 0a 3d ba b8 81 3c c1 2a d8 bd 80 a7 98 bd
       0.03379743 0.015835155 -0.1055503 -0.07453823
0001d0 51 6e d1 bc 9c 29 26 3e b3 6a d7 bd 68 cb ed bd
       -0.025565298 0.1622681 -0.10518398 -0.11611062
0001e0 31 a5 09 3e e1 92 d9 bc 94 bb c8 3d 0b 9a cb 3d
       0.13441922 -0.026559295 0.09801403 0.09941491
0001f0 1a ab fe bd e3 e9 8b bd 2a 8b 76 bd 2b 99 72 bd
       -0.12434979 -0.0683172 -0.06019131 -0.059228104
000200 22 be 09 3e 43 bf e1 bd a2 d2 e4 3d af 05 73 bc
       0.13451436 -0.110228084 0.111729875 -0.014832898
000210 c7 b2 4f 3d cf 58 86 bd d0 a1 fd bd f2 9f 10 be
       0.050707605 -0.06559908 -0.12384379 -0.14123514
000220 26 1e 29 3e 38 b3 de bd 80 ef e0 bd c4 57 21 be
       0.16515407 -0.10874027 -0.10983181 -0.15756136
000230 32 3b e6 3d 8b ba 34 bb 10 9b b4 3d c5 1f f7 bc
       0.11241759 -0.0027577009 0.08818638 -0.030166516
000240 75 51 aa bb b8 e3 ca 3d cd 77 e6 3c fe 0b 45 bd
       -0.0051976987 0.09906715 0.028133297 -0.04810714
000250 aa a5 b4 bc c0 4b 16 be c5 76 0f be 85 0a d5 bc
       -0.022051651 -0.14677334 -0.1401015 -0.026005993
000260 4c d0 2a be bf 03 97 3d 11 05 9a 3c f1 7d d3 bd
       -0.16681021 0.073737614 0.018801244 -0.10326756
000270 d2 b0 2c 3c c8 5e aa 3d 86 4d 66 3d 13 ab 12 3e
       0.010540204 0.08318859 0.056226276 0.14323072
000280 5e 3e 90 3d 16 9b 70 3b f6 bc ec 3d a7 bc fd bd
       0.070431456 0.0036713532 0.11559479 -0.12389498
000290 e1 7a 5b 3d 5b 04 c6 bd 15 64 2e 3d 93 b8 00 3d
       0.053583983 -0.096687995 0.042575914 0.031426024
0002a0 a5 a4 aa bd 03 2b bb bd 0a 86 03 be fc bb 5b bd
       -0.08332185 -0.09139063 -0.128441 -0.053646073
0002b0 84 b0 fa bd 84 88 27 3e d3 b6 1a 3e 57 38 29 be
       -0.12240699 0.1636067 0.15108804 -0.16525398
0002c0 2f c2 18 3e b5 19 99 bd ba b4 ca bd 61 9c 0c 3e
       0.14917825 -0.07475606 -0.09897752 0.13731529
0002d0 c9 cf 1b be d3 07 22 3d 87 c4 03 3d 9a 46 0d 3e
       -0.15215982 0.039558243 0.032169845 0.13796464
0002e0 1d 41 e4 bd 78 cb 20 3e cd b8 37 3d 38 c6 a6 bd
       -0.11145232 0.15702617 0.044853974 -0.08143276
0002f0 cf fd 91 3d 6f 41 15 3e 34 09 b1 3d 14 ad cd bd
       0.07128488 0.14575742 0.086443335 -0.10042778
000300 09 08 23 be d4 bb 38 3d af 09 84 3a 2c 4e 24 3e
       -0.15921034 0.045101 0.0010073687 0.16045445
000310 46 93 cf bd a0 49 8a bd c0 2d 2b 3e 64 8e 36 bd
       -0.10135512 -0.06752324 0.16716671 -0.044569388
000320 5d ba fe 3d 65 0d 34 bd bd 21 5a 3d d7 30 19 bd
       0.1243789 -0.043958087 0.05325483 -0.037400093
000330 66 be c6 bc e7 0b 10 3d 17 f0 01 3e f3 0e 0e 3e
       -0.02426071 0.0351676 0.12689243 0.1387289
000340 e3 c0 59 3d 3a 0f 5c 3a 48 6d ec bb a0 f1 d5 bd
       0.053162467 0.0008394603 -0.007215176 -0.10446477
000350 30 c2 53 3c cb 27 49 3d e2 9d ad 3d 58 9b b9 3d
       0.012924716 0.049110215 0.084773794 0.090628326
000360 9c 5d b8 bc ba e8 09 3e 4a bc f4 bc 4a 8c 14 3e
       -0.022505574 0.13467684 -0.02987494 0.14506641
000370 e1 98 17 be 0f 3b 20 be ca e8 ae bd 6a 5a 28 be
       -0.14804412 -0.15647529 -0.08540495 -0.1644074
000380 40 bf b9 bd f7 87 f9 3d 9d df 8f bd 9f 5f 37 bc
       -0.09069681 0.12184136 -0.07025073 -0.011192231
000390 36 ba 04 be bb 0e d9 bd 67 c9 df 3d 74 6e 1a 3d
       -0.12961659 -0.10598513 0.10927086 0.037702993
0003a0 96 a3 cc bc ab d2 7d 3d 53 ac c8 bd a3 45 08 3e
       -0.024980348 0.061968487 -0.09798493 0.13307814
0003b0 08 b3 02 3c 1e 05 68 bd 0a 6f 7f bb e7 9c 29 be
       0.007977255 -0.056645505 -0.0038976097 -0.1656376
0003c0 b4 60 43 bd c6 5c f8 3d 65 0c bf bd af cd d9 bd
       -0.047699645 0.1212707 -0.09328536 -0.10634934
0003d0 72 de 24 bd b4 b4 0e be c1 9a ab 3d a0 a0 10 3e
       -0.040251203 -0.1393612 0.08379126 0.14123774
0003e0 a6 94 b3 bd d4 48 ed 3d 06 66 01 bd d7 a2 cf 3d
       -0.08768587 0.115861565 -0.031591438 0.10138481
0003f0 66 7b 99 bc e5 e2 d2 bc 1e 1a 02 be 64 4f 0e 3e
       -0.018735599 -0.025742957 -0.12705275 0.13897473

v.net.0.bias f4 [64]
000000 7c 69 0d bd 9e e1 1b be ce 88 3c 3d d5 62 90 bc
       -0.034524426 -0.15222785 0.046028905 -0.017625252
000010 3e df 07 3e 83 ec 71 bd 53 75 21 bd 3a 77 e7 bd
       0.13268754 -0.059063446 -0.03941853 -0.113020375
000020 48 8b 18 3e c1 98 f1 bd 6b ce ed bd ea 4d ca 3c
       0.14896882 -0.117967136 -0.11611637 0.024695355
000030 86 9a 12 3e 40 82 0c 3e 8b c0 2b 3e 59 80 cf 3d
       0.14316759 0.13721561 0.16772668 0.10131902
000040 c2 2b 4d bc 49 71 93 bd 34 cd ef bd 31 9e 09 be
       -0.01252264 -0.07199342 -0.11709061 -0.13439251
000050 99 69 13 bd 0a 69 1d 3e 4b 12 dc 3d fb 97 cf 3b
       -0.035989378 0.153721 0.107456766 0.006335256
000060 87 90 a1 bd 2f 11 6c bd c4 1f 21 bd e6 cd b8 3d
       -0.078888945 -0.057633575 -0.039336935 0.09023647
000070 bb 79 23 be 71 1d ed bd bb 84 ff 3d 5f 5a b5 bd
       -0.15964405 -0.11577881 0.12476488 -0.088551275
000080 39 9e 71 3c 1f 94 93 bd 26 a9 58 bd 46 a6 c4 bd
       0.014747196 -0.07205986 -0.052895688 -0.09602027
000090 fa e0 de bd 68 57 8e 3d ce eb 26 be c2 34 0e be
       -0.108827546 0.06950265 -0.1630089 -0.13887313
0000a0 10 bf 71 3d bd f7 d1 3d 36 22 21 3e c7 23 07 3e
       0.059020102 0.102523305 0.15735707 0.13197242
0000b0 96 10 12 be 57 f4 2b be 64 09 28 3e 34 26 69 bd
       -0.1426414 -0.16792427 0.16409832 -0.0569212
0000c0 db 06 17 bd 15 f6 f3 bc e8 76 20 bd b0 99 92 3d
       -0.036871772 -0.029780427 -0.039175898 0.0715822
0000d0 98 9c 4b 3b d0 49 01 be e6 bc 2d be 62 4d 4b bd
       0.003106868 -0.12625813 -0.1696659 -0.049634345
0000e0 e1 13 0e 3e aa 6d 16 3d b2 bd 13 be 44 f1 2d 3d
       0.1387477 0.036725678 -0.14427832 0.042466417
0000f0 24 d9 06 bd 2f 31 28 bd 60 a4 17 3d 6e 39 eb 3d
       -0.032921925 -0.04106253 0.037021995 0.11485563

v.net.2.weight f4 [64, 64]
000000 d4 94 99 bd 30 58 a8 bc 2a d9 c8 3d 6a 1b 92 bd
       -0.0749909 -0.020549864 0.09807046 -0.07134135
000010 00 f5 14 3b b8 b1 45 bd 40 de 6f bc de 59 ca 3d
       0.002272904 -0.04826519 -0.014640391 0.09880422
000020 e8 f6 9b bc b4 4e c6 3d ec 96 57 3d 00 de ad 3d
       -0.019038633 0.0968298 0.052634165 0.08489609
000030 a4 ae 00 bd c0 af 21 bc 68 45 dd 3d 8e a9 8a 3d
       -0.03141655 -0.009868562 0.10804254 0.06770621
000040 40 ab 58 bc 34 7c 60 bd 5c 53 b8 3d 86 86 ce bd
       -0.013224423 -0.05480595 0.090002745 -0.10084252
000050 14 6c d3 bd ea a5 a5 bd 40 41 f5 3c c0 a0 41 bb
       -0.10323349 -0.08088286 0.02993834 -0.0029545277
000060 7e 42 92 bd 28 98 d4 3c e0 d0 c4 3c e8 cc 35 3d
       -0.07141589 0.02595146 0.02402538 0.044384867
000070 08 9f ec 3d 14 52 39 bd 80 a2 cb 3a f0 55 be bc
       0.1155377 -0.04524429 0.00155361 -0.023234338
000080 9c 53 c6 3d 34 d0 98 3d 84 4b 4b 3d a0 9a 20 3c
       0.09683916 0.074615866 0.049632564 0.0098024905
000090 66 9d a8 3d 2c 20 14 3d 80 0f fc bb 20 28 be 3d
       0.08233146 0.036163494 -0.0076922774 0.09284997
0000a0 50 37 60 3d 38 e4 4c bd c0 b4 18 bb 9a a2 dc 3d
       0.05474025 -0.050022334 -0.0023301095 0.10773201
0000b0 80 4b a4 3b 18 ba b7 bc 18 1d b6 bc a8 ae ca 3c
       0.005013883 -0.022427604 -0.02223067 0.024741486
0000c0 4c cc ac 3d 88 53 b2 3c b0 54 e8 3d a4 d0 e6 3d
       0.08437404 0.021768346 0.11344278 0.11270264
0000d0 48 88 83 bd 04 70 db 3d a0 d3 9b bd d2 d9 e0 bd
       -0.06422478 0.10714725 -0.07608724 -0.10979046
0000e0 f8 d8 fc 3d 78 12 8f bd 22 f6 c3 bd 80 91 a3 3d
       0.12346071 -0.069859445 -0.095684305 0.07986736
0000f0 c0 47 17 bb e0 94 37 bd 00 2c 5b 3c b0 16 bb bd
       -0.0023083538 -0.044819713 0.01337719 -0.09135187
000100 f0 91 a9 3d ca 0d 9a bd 08 13 b4 bc b0 de 0e bc
       0.082797885 -0.07522161 -0.021981731 -0.008720085
000110 be ee 92 bd 40 d2 61 3d 9c 29 c5 bd 60 1b 69 bc
       -0.07174443 0.05513215 -0.09627077 -0.014227718
000120 e4 25 fa 3d cc b9 17 3d ac be 9c bd 80 87 db 3d
       0.12214258 0.037042424 -0.07653555 0.10719204
000130 90 d6 49 bd 10 3e 8e 3c 6a ba df 3d 04 b5 2f bd
       -0.04927689 0.017363578 0.109242275 -0.04289724
000140 36 21 b1 3d 50 5b 85 3c a0 79 75 bc fc b2 b7 3d
       0.086489126 0.016278893 -0.014982611 0.089696854
000150 12 59 c7 3d c8 7e 3f bd 40 72 e9 3b b8 15 a6 3d
       0.09733786 -0.046751767 0.0071242154 0.08109611
000160 a4 04 09 3d 40 0c c8 3d 54 8b 00 bd e0 8f 92 3d
       0.03345169 0.097679615 -0.031382874 0.07156348
000170 ba 76 ae bd d4 15 a7 bd 30 d1 29 3c 64 48 b8 3d
       -0.08518739 -0.0815846 0.010364816 0.089981824
000180 c6 e7 93 3d 40 5c 78 3d 18 df f4 bc 80 ef ab 3b
       0.07221942 0.06063485 -0.029891536 0.0052470565
000190 60 2d 27 3d 54 28 ac 3d 64 1e 0d 3d 90 61 59 bd
       0.040814757 0.084061295 0.03445281 -0.05307156
0001a0 b4 ca 74 bd 2e 99 8b bd d8 c3 9b 3c 90 51 c4 3d
       -0.059763625 -0.06816326 0.019014284 0.09585869
0001b0 24 1f 06 3d c0 a3 dd 3c b4 22 a8 bd 68 cf d9 3d
       0.03274454 0.027055621 -0.08209744 0.10635263
0001c0 34 b2 2f bd 00 7f af bd c2 cf b6 3d f4 cc 21 3d
       -0.042894557 -0.08569145 0.089263454 0.0395021
0001d0 4c 10 9b bd 50 97 4f bc 72 5b fc 3d 9c 92 25 bd
       -0.07571468 -0.012670353 0.12322129 -0.04042302
0001e0 4e c0 b6 3d a0 13 ff bc 98 24 62 bd 28 26 62 3d
       0.08923398 -0.031137288 -0.05521068 0.05521217
0001f0 94 7e 93 3d 48 07 9b 3c d0 c8 4b 3c 34 66 a7 3d
       0.07201877 0.01892437 0.012438014 0.081737906
000200 f4 cd 13 3d f0 ee 5c bd 44 3a 9a 3d 10 cd a8 bd
       0.036085084 -0.053938806 0.075306445 -0.082422376
000210 c0 99 4c bd 00 46 8a 3d 44 3e ee 3d 00 7b 74 3c
       -0.049951315 0.06751633 0.1163297 0.014921904
000220 00 9e cb bb 28 cc 50 bd 62 ab 82 3d 80 76 af ba
       -0.0062139034 -0.05097595 0.06380345 -0.0013386756
000230 4c 48 d2 bd 48 c6 f8 bd 00 fd 97 ba 40 10 b6 3c
       -0.10267696 -0.12147194 -0.0011595786 0.022224545
000240 b0 c2 11 bd dc 45 01 bd 00 7a a0 39 0a 36 f3 bd
       -0.03558606 -0.031560764 0.00030608475 -0.118755415
000250 de b7 ca bd fa cf bd 3d 0a e3 d0 bd b6 61 e7 bd
       -0.09898351 0.09268184 -0.10199554 -0.11297934
000260 00 30 02 3d 46 d2 e1 bd 00 d1 0d bd e2 b2 b1 bd
       0.031784058 -0.110264346 -0.034623146 -0.08676697
000270 30 d4 57 bc d6 74 ee bd 4e fd fd 3d 6c e2 18 bd
       -0.013173148 -0.116433784 0.1240183 -0.037325308
000280 80 7f 78 bd e4 16 6b 3d 94 0c b8 3d e4 3a 86 3d
       -0.06066847 0.057394877 0.08986774 0.06554201
000290 a8 13 d2 3d dc 93 27 3d 44 37 b5 bd 04 65 63 bd
       0.102576554 0.040912494 -0.08848432 -0.055516258
0002a0 50 9b 73 bd 98 ce 24 bd 0a 58 e4 bd 16 ce b3 3d
       -0.05947429 -0.040236086 -0.111496046 0.08779542
0002b0 30 fe d2 3c 0c 6a da 3d 00 56 7f bd 38 01 cb bc
       0.025755972 0.10664758 -0.062337875 -0.024780855
0002c0 40 15 63 3c 76 4f d9 3d f8 3d a8 bd 18 f1 71 bd
       0.013860047 0.10610859 -0.082149446 -0.059067816
0002d0 d8 cb a4 bc 0c 98 50 bd ac 11 a9 3d 7a e0 92 3d
       -0.020116732 -0.050926253 0.08255324 0.07171722
0002e0 60 cc 2c 3c f6 47 ca 3d d2 fb d7 3d 00 15 20 bd
       0.010546774 0.09877007 0.10546078 -0.039082527
0002f0 e0 93 6a 3d 40 62 f3 3c 00 f6 1c 3a ec a9 95 bd
       0.05726993 0.029709935 0.00059875846 -0.07307801
000300 3c ef 38 bd 9a 63 aa 3d 50 46 1c bd d8 89 32 bd
       -0.045150027 0.08319779 -0.038152993 -0.04358849
000310 40 1d a7 3c d4 60 ad bd b8 85 d9 bc 14 54 b1 bd
       0.02039969 -0.08465734 -0.02655302 -0.08658615
000320 cc 8b 56 bd 3c 30 be 3d 62 3e a0 3d 40 29 58 bd
       -0.052379414 0.09286544 0.078243986 -0.052773714
000330 50 82 55 bd 70 36 d9 3d f8 81 fc bc 3e 63 fc 3d
       -0.05212623 0.10606086 -0.030823693 0.123236164
000340 b8 5b ca bc 64 4b 11 3d e0 9e ef 3c 4a ef a2 3d
       -0.024701938 0.03547229 0.029250562 0.07955797
000350 04 0a 4b 3d c8 76 b1 bc 68 fd 03 bd d2 e7 f0 3d
       0.0495701 -0.021663085 -0.03222409 0.11762966
000360 2a e3 f3 3d 7e 95 e1 bd 2e 73 b5 3d 00 b6 77 bd
       0.119085625 -0.110148415 0.088598594 -0.060476303
000370 fc 1a 99 3d 54 09 1c 3d c4 f1 03 3d 28 6a 96 bc
       0.0747585 0.038094833 0.032212988 -0.018361166
000380 40 c8 10 3c 50 3a 24 3c 44 b6 f8 bd ca 95 d3 bd
       0.008836806 0.010023668 -0.121441394 -0.10331304
000390 f0 6e 98 bc 80 88 63 3d 48 93 e6 bd 08 32 d3 3c
       -0.018607587 0.0555501 -0.112585604 0.025780693
0003a0 98 1f af bc f6 5a 8d 3d 48 10 37 3d 7c c0 1e 3d
       -0.02137737 0.06902115 0.04469326 0.038757786
0003b0 3a ee f7 bd 10 42 d1 3c 24 ca 67 bd 40 7d 2a bc
       -0.12105985 0.025544196 -0.05658926 -0.0104058385
0003c0 7c e8 b4 bd 50 84 01 bc 3a 0f a6 bd a4 ed c1 bd
       -0.088334054 -0.007905081 -0.08108373 -0.094691545
0003d0 80 a3 91 3d 04 5c b5 3d 6c 3b ed 3d c6 4b cc 3d
       0.07111263 0.08855441 0.115835994 0.0997539
0003e0 00 1e 5d bb a0 40 29 3c 20 56 9d bc c0 38 58 3d
       -0.0033739805 0.010330349 -0.019206107 0.052788496
0003f0 08 f1 b5 3c 30 2d 4c bc e4 35 42 bd 7a c9 eb bd
       0.02220966 -0.012461945 -0.047414675 -0.11513038

v.net.2.bias f4 [64]
000000 02 5f f3 bd 40 75 9a 3d 70 5a ba bd e4 8b 46 bd
       -0.11883356 0.07541895 -0.09099281 -0.048473254
000010 b0 ba ad 3c ae c5 c2 bd f0 2e a4 3c 94 61 e6 bd
       0.021207184 -0.09510361 0.020041913 -0.1124908
000020 60 61 fb 3c 54 40 39 3d f0 e4 d4 3d 42 c3 a9 3d
       0.03068608 0.045227364 0.10395229 0.082891956
000030 ea 6a bc 3d d0 b7 6d bd 4e 6b e3 bd f6 a2 98 bd
       0.0920008 -0.058036625 -0.11104451 -0.07452957
000040 78 87 88 3d fc 1e 81 3d 56 91 ab 3d 1c 6f af 3d
       0.066664636 0.06304738 0.0837733 0.08566114
000050 20 54 c1 bd 78 e9 95 3c 22 f8 da bd 48 e6 59 3d
       -0.09439874 0.018299803 -0.10691859 0.05319813
000060 f4 fd e4 3d b8 b6 e6 bc 30 23 ba bd 00 bb 50 bc
       0.1118125 -0.028163299 -0.09088743 -0.012739897
000070 98 cb 86 bc 40 9d 28 3d e8 25 1f bd c4 9a ad bd
       -0.016454503 0.04116559 -0.03885451 -0.08476785
000080 f0 fe ba bc f2 bc eb 3d 48 e6 ce 3d b4 94 73 3d
       -0.022826642 0.11510648 0.101025164 0.059467986
000090 54 2b 83 3d 42 24 b0 3d 5a 2f b8 bd f8 cf d5 3c
       0.064047486 0.08600666 -0.089934066 0.026100144
0000a0 20 61 b1 bb b4 05 4e 3d 36 66 a1 bd 42 5f b3 3d
       -0.0054131895 0.050298408 -0.07880823 0.08758403
0000b0 a0 84 f9 3d e4 b9 5f bd 20 d9 ee bc 50 b9 c9 3d
       0.12183499 -0.05462064 -0.029156268 0.09849799
0000c0 28 7e 80 3c 50 95 51 bd a2 c7 e6 bd 58 f4 cd bc
       0.015685156 -0.051167786 -0.11268546 -0.025140926
0000d0 10 ac cc 3d 10 3f 3a bd 8c 17 6a bd 98 04 57 3d
       0.09993756 -0.045470297 -0.057151362 0.052494615
0000e0 74 fe 6b bd f8 fb a8 bd 42 35 e4 bd 5a 4c fa bd
       -0.057615712 -0.08251184 -0.111429706 -0.12221594
0000f0 2a 57 b4 bd 7c 69 ed bd 88 00 a6 3c da 39 fc 3d
       -0.08805688 -0.11592385 0.020263925 0.12315722

v.net.4.weight f4 [1, 64]
000000 00 be bc 3d 0c 9f d4 3d de 1e d4 bd 80 6d 36 bb
       0.09215927 0.10381898 -0.1035745 -0.0027836263
000010 d6 8f b9 bd 92 c1 90 bd 50 08 24 3c cc b0 e6 3d
       -0.09060638 -0.070681706 0.0100117475 0.1126419
000020 74 88 86 bd 80 f4 9f ba 00 10 14 bb 10 0a 56 bd
       -0.06568995 -0.0012203604 -0.0022592545 -0.05225569
000030 d0 ab a4 3d 6e 12 a0 3d 16 fe cd bd 8e 7b e5 bd
       0.08040583 0.07816015 -0.10058229 -0.11205207
000040 54 9a c2 3d 34 e0 74 bd 30 97 62 3c 30 36 42 bd
       0.09502092 -0.05978413 0.013829991 -0.04741496
000050 1c ee c2 bd 3a bf d4 3d b8 b1 b2 bc 74 18 27 bd
       -0.09518072 0.10388036 -0.021813259 -0.040794805
000060 10 2b 2e 3c 9e 92 ba 3d 68 e8 8b 3c 2a cb ee 3d
       0.010630384 0.09109996 0.017078593 0.11659844
000070 70 09 7c bc 40 73 92 bd ba cf ce 3d e8 98 f4 bc
       -0.015383109 -0.071508884 0.100982144 -0.029858068
000080 a2 ef bb bd 9c c1 43 3d b0 34 42 3c 50 63 b8 3c
       -0.09176566 0.047792062 0.011853382 0.022508293
000090 dc 9c de bd 88 b2 65 bd 84 a8 6d 3d 64 40 86 3d
       -0.10869762 -0.056078464 0.058022037 0.0655525
0000a0 4c 4e 6e bd 4e 8b e9 3d b8 f6 4f 3d 88 c5 93 3c
       -0.05818014 0.114035234 0.0507724 0.018038526
0000b0 e0 72 9b bc 24 4b 3e 3d e6 b7 a4 bd a4 d9 ed 3d
       -0.018975675 0.04645838 -0.08042888 0.11613777
0000c0 98 6d d3 3d 80 dd 4a 3c f0 48 45 bd c4 6f 0c 3d
       0.10323638 0.012381911 -0.04816526 0.034286276
0000d0 00 88 c9 3c 22 8f c1 3d 80 af 14 bd 8c 36 75 bd
       0.024600983 0.094511285 -0.036300182 -0.059866473
0000e0 48 84 b7 3d 18 5e 43 bd 4c 49 4e 3d 10 0f 45 3d
       0.089607775 -0.047697157 0.05036287 0.048110068
0000f0 20 14 68 3c 04 88 a6 bd 9c 13 cb 3d d0 4b ea 3d
       0.014164954 -0.08131412 0.099158496 0.11440241
